archived_data/b4_r4_m20_s150--2019-01-28--150738.476053_stationary/episode_17000.model (torch_old, 375724 bytes, 8 tensors)

weight f4 [6, 6, 3, 3]
0	0x3db597d6	0.08866851
1	0xbd828e82	-0.063748375
2	0x3de2dbe8	0.110771
3	0xbdab10d2	-0.083528176
4	0x3db30e98	0.08743018
5	0x3cb19f70	0.021682471
6	0xbde8f903	-0.1137562
7	0xbd9251a4	-0.07144478
8	0xbcb90f74	-0.022590376
9	0x3cda8311	0.026673825
10	0x3c9ab194	0.018883504
11	0x3c16e5ae	0.009210033
12	0x3caab047	0.020836009
13	0xbe47cb58	-0.19511163
14	0x3a69b1d8	0.00089147454
15	0xbcc35bfe	-0.023847576
16	0x3c0ea542	0.008706393
17	0x3bef12fc	0.0072959643
18	0x3df77f59	0.120848365
19	0x3d859bde	0.0652387
20	0x3d8d1273	0.068882845
21	0x3e250c02	0.16117862
22	0x3e34cbf5	0.17655928
23	0x3dfc7bc8	0.12328297
24	0x3de0eccd	0.10982666
25	0x3e0d49bd	0.1379766
26	0x3d73054e	0.05933123
27	0xbcbe8e58	-0.023261234
28	0x3d803a8c	0.06261167
29	0xbc1b2bd0	-0.009470895
30	0xbd7c1b8c	-0.06154971
31	0x3da599ac	0.08085951
32	0xbdb54332	-0.08850707
33	0xb93ab800	-0.00017806888
34	0xbe0280ba	-0.12744418
35	0xbd8ac38e	-0.0677558
36	0xbdb9083e	-0.09034775
37	0x3cbbc185	0.022919426
38	0x3da76c15	0.08174912
39	0xbd8fe096	-0.07025258
40	0x3e29b29a	0.16572037
41	0xbdf17c74	-0.11791316
42	0xbd9bffd6	-0.07617156
43	0xbd80fea1	-0.062985666
44	0xbe29766e	-0.16549084
45	0xbc0ebd6a	-0.008712152
46	0x3d2cbd4e	0.042172723
47	0xbda454a1	-0.08023954
48	0xbc752fa0	-0.014964968
49	0xbf0f761b	-0.5603959
50	0x3c84406a	0.016143996
51	0xbda44e32	-0.08022727
52	0xbc38df94	-0.011283774
53	0x3d59a037	0.05313131
54	0x3d8972e2	0.06711365
55	0x3ddcb180	0.10776043
56	0x3d684588	0.056706935
57	0x3b8eba80	0.0043557286
58	0xbbc5a0e0	-0.0060311407
59	0x3ddce03c	0.10784957
60	0x3c963250	0.018334538
61	0x3d0cfc50	0.03442031
62	0xbd8ca8e5	-0.068681516
63	0xbcc0a43c	-0.023515813
64	0x3d5e1cd7	0.054226723
65	0xbd7e12dd	-0.06202971
66	0x3de38d7e	0.11110972
67	0xbe2cffa3	-0.16894393
68	0x3e26d772	0.16293123
69	0xbdf58ae5	-0.11989383
70	0x3e09ec26	0.1346899
71	0xbdc5350e	-0.0962926
72	0xbdb1310f	-0.08651935
73	0xbe74a9bf	-0.23892878
74	0xbdd0dab8	-0.10197967
75	0xbdc7a8fa	-0.097490266
76	0xbe2c874e	-0.1684849
77	0xbe97639b	-0.2956818
78	0xbcc08819	-0.023502396
79	0xbe7e1dbe	-0.24816033
80	0xbe038336	-0.12843022
81	0x3ddf01da	0.10889025
82	0xbd6dfba8	-0.058101326
83	0xbdf54541	-0.119761
84	0xbdfc973e	-0.12333535
85	0x3dc4562e	0.0958675
86	0xbd22f1e0	-0.03978145
87	0x3c688920	0.014192849
88	0xbd67c5e8	-0.056585222
89	0xbdc42606	-0.09577565
90	0xbd8f3bdd	-0.0699384
91	0xbe04184a	-0.1289989
92	0xbd81d8bf	-0.06340169
93	0xbf17eef9	-0.5934902
94	0xbef95f52	-0.48705536
95	0xbf9acaf8	-1.2093191
96	0xbf21e2f7	-0.63236946
97	0xbf602c5d	-0.87567693
98	0xbf312f6a	-0.69212973
99	0xbd5a73d4	-0.05333312
100	0x3db28477	0.08716672
101	0xbd9e29ef	-0.07722842
102	0x3d5ad910	0.053429663
103	0xbe4e44b7	-0.201434
104	0x3d19fce1	0.03759468
105	0xbcb8073e	-0.02246439
106	0x3ddf6a31	0.10908926
107	0xbd043598	-0.032277673
108	0x3d6a5cc0	0.05721736
109	0xbdbf06b8	-0.093274534
110	0x3da435b6	0.08018057
111	0xbe0a3b41	-0.13499166
112	0x3bb47b00	0.005507827
113	0xbd97bcc6	-0.074090526
114	0x3e0b11b0	0.13580966
115	0x3ba8ace0	0.0051475614
116	0x3c49cf40	0.012317479
117	0xbd161ac9	-0.036646638
118	0xbd1afe3f	-0.037840124
119	0xbd3426cf	-0.043982323
120	0xbcf7bcba	-0.030241359
121	0x3e2473ee	0.16059849
122	0xbaac7a98	-0.0013159094
123	0xbe86324e	-0.26210254
124	0xbeb038b0	-0.3441825
125	0xbea46eaa	-0.3211568
126	0xbdd0840f	-0.10181438
127	0xbce84150	-0.028351456
128	0xbcadd8b5	-0.021221498
129	0xbcedecd9	-0.029043602
130	0xbf1fd3f1	-0.6243277
131	0xbea0548e	-0.3131451
132	0xbd0c2902	-0.034218796
133	0xbd9d98c7	-0.076951556
134	0xbec3a18c	-0.38209188
135	0x3dbb1638	0.09135097
136	0x3be50100	0.0069886446
137	0x3d9e8a1a	0.077411845
138	0xbddff190	-0.10934746
139	0xbd575fb4	-0.052581504
140	0xbdd5df17	-0.10442942
141	0x3d58c754	0.05292447
142	0xbd105b02	-0.03524304
143	0xbc944a30	-0.018101782
144	0xbdb6cc6c	-0.08925709
145	0x3e7cff25	0.24706705
146	0x3d49be1b	0.049253564
147	0x3eac4c47	0.33651945
148	0xbe11ebd3	-0.14250116
149	0x3b6a02f3	0.0035707324
150	0x3d8d664d	0.06904278
151	0xbe044783	-0.12917905
152	0x3ea90a25	0.33015552
153	0x3d01771d	0.031607736
154	0x3dcc1f62	0.09966923
155	0xbe206973	-0.15665226
156	0xbdf761ba	-0.12079187
157	0x3e005289	0.12531485
158	0x3da0b1ff	0.0784645
159	0xbaa0e073	-0.0012273922
160	0x3bc85934	0.0061141495
161	0x3c328ec9	0.0108983
162	0x3d9b30b0	0.07577646
163	0xbdf0a66c	-0.117504925
164	0xbdd287a8	-0.102797806
165	0xbd6490e2	-0.055802234
166	0x3d36b598	0.044606775
167	0xbc3f0140	-0.011658013
168	0x3cb71338	0.022348031
169	0xbde2368d	-0.11045561
170	0x3d76a8f8	0.060219735
171	0x3d05a5dd	0.032628883
172	0x3d7946ef	0.060858663
173	0x3d127b10	0.035761893
174	0x3d221470	0.039570272
175	0xbd31568b	-0.043295424
176	0x3c350429	0.011048355
177	0xbcb19051	-0.02167526
178	0x3d5d30d5	0.054001648
179	0xbc608202	-0.013702871
180	0x3dcf224c	0.101139635
181	0x3e0caa27	0.13736783
182	0x3d7ce5f9	0.061742757
183	0x3df3579f	0.11881947
184	0x3dffa11a	0.124818996
185	0x3e1181cd	0.14209671
186	0x3db8ba25	0.09019879
187	0x3de12a8a	0.10994442
188	0x3d44e56c	0.048070356
189	0xbdb08a62	-0.086201444
190	0x3d4571d0	0.048204243
191	0xbd46311a	-0.04838667
192	0xbd155f30	-0.03646773
193	0x3d76b76c	0.06023352
194	0xba72bf00	-0.00092600286
195	0xbdd6244c	-0.10456142
196	0xbc9ec180	-0.019379377
197	0xbcacefb4	-0.021110393
198	0xbf2c0471	-0.6719428
199	0xbedf21de	-0.43580526
200	0xbf94ab1d	-1.161472
201	0xbf9756ba	-1.1823342
202	0xbf314b2f	-0.69255346
203	0xbda37fc0	-0.07983351
204	0xbe83d4b7	-0.25748226
205	0xbe7d056b	-0.24709098
206	0x3ebafe0a	0.3652194
207	0x3ded8be1	0.115989454
208	0x3ca3a559	0.019976305
209	0x3ce426ab	0.02785047
210	0x3cb414e3	0.021982616
211	0xbd26212f	-0.04055899
212	0xbd9637aa	-0.07334836
213	0x3db05340	0.08609629
214	0xbdb356ab	-0.08756765
215	0xbc1bf3a8	-0.009518541
216	0xbdd783d7	-0.10523193
217	0xbdf6da50	-0.120533586
218	0x3d918236	0.07104914
219	0x3c694740	0.014238179
220	0x3dc270fe	0.09494208
221	0xbc96b284	-0.01839567
222	0xbcef083c	-0.029178731
223	0xbd30cba6	-0.043162964
224	0x3daca632	0.08430137
225	0xbe439a6d	-0.19101878
226	0x3d970974	0.0737485
227	0xbd152638	-0.0364134
228	0x3d3a35bb	0.045461398
229	0xbe81a42f	-0.25320575
230	0x3d94ee8e	0.07272063
231	0xbd01cced	-0.031689573
232	0x3d731c96	0.059353434
233	0xbd2dd5f8	-0.042440385
234	0xbe7d80a6	-0.24756107
235	0xbef110be	-0.47083086
236	0xbe1394cd	-0.14412232
237	0xbf705ba6	-0.93889844
238	0xbeca9166	-0.39564055
239	0xbf582908	-0.8443761
240	0xbd9a0326	-0.07520132
241	0xbf37a36a	-0.71733725
242	0xbc96fbea	-0.018430669
243	0xbd01c4c4	-0.03168179
244	0x3d886d28	0.06661445
245	0x3c8de978	0.01732324
246	0x3c992238	0.018693075
247	0xbd9afda3	-0.075679086
248	0x3d5c3530	0.05376166
249	0xbd1eead4	-0.03879817
250	0xbc337820	-0.010953933
251	0xbdb1a564	-0.08674124
252	0x3cdb56f8	0.026774868
253	0xbe5e1d2b	-0.21690814
254	0xbdd419c6	-0.103564784
255	0xbeaef0d2	-0.34168106

bias f4 [6]
0	0x3e00f150	0.12592053
1	0xbd47191b	-0.048607927
2	0xbe3b48f7	-0.18289553
3	0xbd87cb7e	-0.0663061
4	0xbc1c429e	-0.009537367
5	0xbe35c9b5	-0.17752726

weight f4 [16, 6, 3, 3]
0	0x3e4b83a2	0.19874433
1	0x3c2f204f	0.010688855
2	0x3d9bbae7	0.07604008
3	0x3e06b113	0.13153486
4	0xbda5828f	-0.08081543
5	0xbe322366	-0.17396316
6	0x3dcea90b	0.10090836
7	0x3d79675c	0.060889587
8	0x3d8f506d	0.06997762
9	0xbe1136d6	-0.14181075
10	0xbc0d5941	-0.008627237
11	0x3e8f646a	0.28006297
12	0x3c463c2e	0.012099309
13	0x3deb544c	0.11490688
14	0x3db4d298	0.0882923
15	0xbece8cce	-0.403418
16	0xbee02e90	-0.43785524
17	0x3d738ab8	0.059458464
18	0xbdc112cd	-0.09427414
19	0xbebd2ba8	-0.3694737
20	0xbf23a4e8	-0.639235
21	0xbe50b0da	-0.20379964
22	0xbd325224	-0.043535367
23	0x3d97d830	0.07414281
24	0x3cd955e5	0.026530216
25	0x3de69862	0.112595335
26	0xbd9f269d	-0.07771037
27	0xbe89f2f2	-0.26943165
28	0xbddd1317	-0.10794657
29	0x3e1d29bb	0.1534795
30	0xbd12bbf9	-0.035823796
31	0x3c5909d1	0.013246969
32	0x3e8aa047	0.27075407
33	0xbe474c70	-0.19462752
34	0xbe2b225b	-0.16712324
35	0xbc9660b4	-0.018356659
36	0xbb2732b3	-0.0025512397
37	0x3e57c3ca	0.21070781
38	0xb9b224fd	-0.00033978364
39	0x3e083aa1	0.13303615
40	0x3e0fb4c8	0.14033806
41	0xbee8374d	-0.4535469
42	0x3e0497ed	0.1294858
43	0xbd707bc5	-0.058711786
44	0xbe788f03	-0.24273305
45	0xbe4547e0	-0.192657
46	0x3da324b1	0.07965983
47	0xbe4e86cd	-0.2016861
48	0x3da095b0	0.078410506
49	0xbd4a0758	-0.04932341
50	0xbce776b5	-0.028254846
51	0xbef70f81	-0.48254016
52	0xbe8d2f07	-0.27574942
53	0x3d9ae11b	0.07562467
54	0xbf05202c	-0.52002215
55	0xbe862a48	-0.26204133
56	0xbf0bd193	-0.5461666
57	0xbec1047e	-0.3769874
58	0xbe952dfa	-0.2913664
59	0xbe4d1cf7	-0.2003058
60	0xbf3a7e77	-0.7284922
61	0xbe34c1fd	-0.17652126
62	0xbf12d367	-0.57353824
63	0xbd9c6ece	-0.07638322
64	0x3e76d138	0.24103248
65	0x3e4a52ad	0.19758101
66	0x3e521ed6	0.20519575
67	0xbbb16a00	-0.0054142475
68	0x3e67ac43	0.22624306
69	0x3e4900fc	0.19629282
70	0x3e4bcd1b	0.1990246
71	0x3d703d19	0.058652017
72	0x3dcc64a0	0.0998013
73	0xbd957bdd	-0.07299016
74	0x3d2549e2	0.040353663
75	0x3d998fc5	0.07498125
76	0x3e609a49	0.21933855
77	0xbdd5c99c	-0.104388446
78	0x3d24edf9	0.04026601
79	0x3db60293	0.0888721
80	0xbdc8c15c	-0.098025054
81	0x3db0c9b1	0.086322196
82	0x3dc2e060	0.095154524
83	0xbc897ffd	-0.016784662
84	0x3b415ca5	0.0029504683
85	0xbd1cb9ba	-0.03826306
86	0xbc5094a9	-0.012730756
87	0xbd0b0628	-0.033941418
88	0x3d742bd4	0.05961211
89	0xbcf1d7f1	-0.029521914
90	0x3df557ca	0.11979635
91	0x3e2f87ef	0.17141698
92	0x3d853a37	0.06505244
93	0x3da4bb54	0.080435425
94	0xbe27ec85	-0.16398819
95	0x3d01c2fd	0.031680096
96	0x3d42b140	0.04753232
97	0x3d5c831a	0.053835966
98	0xbd46eccc	-0.04856567
99	0x3ccf57dd	0.025310451
100	0x3c89b3fe	0.01680946
101	0xbd66933d	-0.05629276
102	0x3c0ccd9e	0.008593945
103	0xbc83cf0a	-0.016089935
104	0xbd85baf7	-0.06529801
105	0x3dc95630	0.09830892
106	0xbd5c8157	-0.053834286
107	0x3de552cf	0.11197435
108	0x3d6d13b6	0.057880126
109	0x3bb76a7d	0.005597411
110	0x3e1cd5b4	0.15315896
111	0xbd12ec42	-0.035869844
112	0xbd7192d6	-0.058977924
113	0xbd05fc46	-0.03271129
114	0xbd1d5e41	-0.038419966
115	0xbd3e6664	-0.046484366
116	0x3aced2c1	0.0015779362
117	0xbd851de2	-0.0649984
118	0xbf3f9ff1	-0.74853426
119	0xbe416cf5	-0.1888922
120	0x3d01e83b	0.031715613
121	0xbcb51b23	-0.022107666
122	0x3e37b8a5	0.1794153
123	0x3d464fa1	0.048415784
124	0x3dd3b9c0	0.103381634
125	0xbd58ae41	-0.052900556
126	0xbe4671de	-0.19379374
127	0x3df95507	0.12174421
128	0xbd255bf3	-0.040370893
129	0xbc90c4d0	-0.017671973
130	0x3ea208f8	0.31647468
131	0x3d193697	0.037405577
132	0xbed2491b	-0.410714
133	0xbebd7c07	-0.37008688
134	0xbe693a6e	-0.22776195
135	0xbe47baa7	-0.19504796
136	0x3c8639ab	0.01638492
137	0xbe51c59b	-0.20485537
138	0xbd595737	-0.05306169
139	0x3dc3caf1	0.095601924
140	0xbd2d5542	-0.042317636
141	0x3e0c98f7	0.13730226
142	0x3e07b7d9	0.13253726
143	0x3dd4acc6	0.103845164
144	0x3d42389e	0.047417276
145	0x3ded6902	0.11592294
146	0x3da1ec47	0.079063945
147	0xbe84e2a9	-0.25954178
148	0xbf7241ff	-0.9463195
149	0xbeb11738	-0.34588027
150	0xbea5e983	-0.32404718
151	0xbf097db1	-0.53707415
152	0xbc927ff7	-0.017883284
153	0x3e182575	0.14858039
154	0x3e67971b	0.22616236
155	0xbd49db07	-0.049281146
156	0xbe0e0a92	-0.1387122
157	0xbe441acb	-0.19150846
158	0xbe93b1d4	-0.2884661
159	0xbf0a2666	-0.5396484
160	0xbe990adf	-0.29891106
161	0xbeb48c8c	-0.3526348
162	0xbe04e935	-0.12979586
163	0x3ded12e5	0.115758695
164	0xbe771882	-0.24130443
165	0x3dede98d	0.11616812
166	0xbe01ebe6	-0.12687644
167	0x3df1b1df	0.11801504
168	0xbdaa528f	-0.08316528
169	0x3df1ad09	0.11800582
170	0x3c348e85	0.011020307
171	0xbe755cdd	-0.23961206
172	0x3eadb851	0.33929685
173	0xbded9ec7	-0.1160255
174	0xbca45342	-0.020059232
175	0xbe9d646d	-0.3074068
176	0x3de67b52	0.1125399
177	0xbe4dd5b0	-0.20101047
178	0x3d62b0cc	0.055344388
179	0xbe635999	-0.22202148
180	0x3e5a0e10	0.21294427
181	0x3e825690	0.25456667
182	0xbe0bca35	-0.13651355
183	0xbda42a37	-0.08015864
184	0x3e8101e4	0.25196755
185	0xba29e17b	-0.00064804376
186	0xbf047be8	-0.51751566
187	0xbe2ed16e	-0.17072079
188	0xbea64fdd	-0.32482806
189	0x3e44f6e1	0.19234802
190	0xbe082e3d	-0.13298889
191	0xbe2d1e7f	-0.16906165
192	0xbe820725	-0.25396076
193	0xbea4fcfd	-0.32224265
194	0xbeff430d	-0.49855843
195	0x3d918ec8	0.071073115
196	0x3cda3f06	0.02664138
197	0x3c22345b	0.009900178
198	0x3e12a7b4	0.14321786
199	0x3dc9790a	0.098375395
200	0x3be8694a	0.0070926296
201	0xbd156bba	-0.03647969
202	0xbd213246	-0.039354585
203	0x3e8f4482	0.27981955
204	0x3dbb21c8	0.09137303
205	0x3dcb1d99	0.09917755
206	0x3e20874b	0.1567661
207	0xbecf0e8c	-0.40440786
208	0x3e31d413	0.17366056
209	0xbe28433a	-0.16431895
210	0xbe1f4fe6	-0.15557823
211	0xbd168a60	-0.03675306
212	0x3d13a540	0.036046267
213	0xbe806c90	-0.25082827
214	0x3dcb8bdb	0.09938785
215	0x3e7a0600	0.24416351
216	0x3df1e830	0.118118644
217	0xbda6748a	-0.08127697
218	0x3d5fb23d	0.05461334
219	0xbda05f9e	-0.078307375
220	0x3ce4e35d	0.027940447
221	0x3ca5e407	0.020250333
222	0xbd8c0734	-0.068373114
223	0x3cd9213a	0.026505101
224	0x3d5d55f1	0.05403704
225	0x3e06be8a	0.13158622
226	0xbe42b9cd	-0.1901619
227	0xbd8e62b0	-0.06952417
228	0x3e24f226	0.16107997
229	0xb8155be6	-3.5609955e-05
230	0xbe6e6d9d	-0.23284002
231	0x3d6c5785	0.057700653
232	0x3e2c39fd	0.16818996
233	0x3c98366d	0.01858064
234	0x3e913068	0.28357244
235	0xbe4fc764	-0.20290905
236	0xbe41d7ca	-0.18929973
237	0x3d80d773	0.06291094
238	0x3d7cd44b	0.061725896
239	0x3da17aee	0.07884775
240	0xbe538171	-0.20654847
241	0xbe551b1c	-0.20811123
242	0xbc8b65c3	-0.017016297
243	0xbd03d761	-0.032187823
244	0x3dd49ce8	0.1038149
245	0x3b13eacb	0.0022570367
246	0xbcb105af	-0.021609155
247	0xbc2032b0	-0.00977771
248	0x3e04bd81	0.12962915
249	0x3d280b0d	0.041026164
250	0x3e34d119	0.1765789
251	0xbd97fe0b	-0.07421502
252	0x3e5b99c3	0.21445374
253	0xbde0e005	-0.10980228
254	0xbf31fd32	-0.6952697
255	0x3d6ef788	0.058341533

bias f4 [16]
0	0xbd9e2f27	-0.07723837
1	0x3d95ee3a	0.07320829
2	0xbc012870	-0.007883176
3	0xbccbe551	-0.02488962
4	0x3b14dd45	0.0022714895
5	0xbdf3cb0f	-0.11903965
6	0xbe0512ad	-0.12995405
7	0xbddbb637	-0.10728114
8	0xbe3b528f	-0.18293212
9	0xbbdd17f1	-0.006747239
10	0x3db6524e	0.08902417
11	0x3c9f9ab7	0.019482953
12	0xbd61cb76	-0.055125676
13	0xbc7df393	-0.015499967
14	0xbca85cfa	-0.020552147
15	0x3cbc6f55	0.023002306

weight f4 [32, 16, 3, 3]
0	0xbde9dd25	-0.11419133
1	0xbea6635b	-0.32497677
2	0xbe789f0c	-0.24279422
3	0x3dd07a47	0.101795726
4	0xbe7abfaa	-0.24487177
5	0xbea11d33	-0.3146759
6	0xbde04875	-0.1095132
7	0x3d5722f4	0.05252357
8	0xbe2e7e02	-0.17040256
9	0x3d222fe8	0.03959647
10	0x3d872919	0.06599636
11	0x3e342bdd	0.17594858
12	0xbd4f47ae	-0.05060547
13	0xbbfa8c64	-0.0076461304
14	0x3e16d788	0.14730656
15	0xbb3e5c92	-0.0029046875
16	0x3db15687	0.08659082
17	0xbcd3abb8	-0.025838718
18	0x3dc075a6	0.0939744
19	0xbd66cbc3	-0.056346666
20	0x3ec4d31a	0.38442308
21	0xbddfbbaa	-0.10924466
22	0x3e024711	0.12722422
23	0x3e75b685	0.23995407
24	0xbe56045e	-0.20900103
25	0x3d8983f1	0.06714619
26	0x3e5d2a39	0.21598138
27	0xbddfe87f	-0.10933017
28	0x3d2e8eab	0.042616528
29	0xbc9ba244	-0.018998273
30	0xbd0f8784	-0.035041347
31	0xb9ed37a9	-0.00045245633
32	0x3e59c08a	0.21264854
33	0xbd412076	-0.047150098
34	0x3e1cc507	0.15309535
35	0x3de2028f	0.11035644
36	0x3d0dc430	0.034610927
37	0xbc8f24a4	-0.017473526
38	0xbd8803da	-0.066413596
39	0x3df02ce8	0.11727315
40	0x3c34d1b2	0.011036323
41	0xbe94a6b4	-0.29033434
42	0xbe4bdad7	-0.199077
43	0xbdc93787	-0.09825044
44	0xbf186260	-0.5952511
45	0xbda491d7	-0.08035629
46	0xbd27d2eb	-0.04097263
47	0x3d473920	0.048638463
48	0xbe02797f	-0.1274166
49	0xbe0a24ad	-0.13490553
50	0xbccbe449	-0.024889128
51	0x3c7849da	0.015154326
52	0x3e57cf0a	0.21075073
53	0x3dd0107e	0.10159396
54	0x3c6b107a	0.01434719
55	0x3d89b0b4	0.067231566
56	0xbd84ac03	-0.06478121
57	0xbe2e968a	-0.17049614
58	0xbd63f8d4	-0.055657223
59	0x3d2bce5c	0.041944847
60	0x3cedb193	0.029015338
61	0xbc342f76	-0.010997644
62	0x3e0ab6e3	0.13546328
63	0xbed991d3	-0.42494068
64	0xbf0e1ffe	-0.55517566
65	0xbeb40ddf	-0.35166833
66	0xbe2c4ab1	-0.16825368
67	0xbe92f1ae	-0.28700012
68	0xbe47bcbb	-0.19505589
69	0xbe4a4931	-0.19754483
70	0xbdcf7c45	-0.101311244
71	0xbeb6a7e2	-0.3567496
72	0xbe67ea3f	-0.22647952
73	0xbdb9a92c	-0.0906547
74	0xbdab626c	-0.08368382
75	0xbe900b34	-0.28133547
76	0xbe2f5b9d	-0.17124791
77	0xbe73e665	-0.23818357
78	0xbed528cc	-0.41632688
79	0xbdfc3d9b	-0.12316438
80	0xbe394a20	-0.18094683
81	0xbe396f21	-0.18108799
82	0xbd8ed11d	-0.06973479
83	0x3d4ecc98	0.050488085
84	0xbea9c41c	-0.33157432
85	0x3c42bd28	0.011885919
86	0xbcf6212c	-0.030045114
87	0xbd91b09a	-0.07113762
88	0xbe0c035e	-0.1367316
89	0x3d185ae5	0.03719606
90	0x3d1c0a30	0.038095653
91	0xbd830484	-0.06397346
92	0xbedcf477	-0.43155262
93	0xbdac0f47	-0.084013514
94	0x3d3fb5f7	0.046804395
95	0xbedb1132	-0.42786556
96	0xbac5b722	-0.0015084485
97	0xbc65a355	-0.014015992
98	0xbe7edf68	-0.2488991
99	0xbc5a2a0e	-0.013315691
100	0xbd867b03	-0.065664314
101	0x3d984576	0.074351236
102	0xbe61692f	-0.2201278
103	0xbe47461f	-0.19460343
104	0x3e13d2d1	0.14435889
105	0xbdb461bf	-0.08807706
106	0x3d57bfbb	0.052673083
107	0x3c272e46	0.010203904
108	0x3e4af456	0.1981977
109	0x3db1b3ab	0.08676847
110	0x3e929f6c	0.28637254
111	0x3e9423cd	0.28933564
112	0x3eae2427	0.34011957
113	0x3e9a219e	0.30103773
114	0x3e8820de	0.26587576
115	0x3e4fdbba	0.20298663
116	0x3e7b24e2	0.24525788
117	0x3bc2e1df	0.005947336
118	0xbdffa23d	-0.12482116
119	0x3cee5ce0	0.02909702
120	0x3d54737e	0.051867954
121	0x3e06c0d2	0.13159493
122	0xbd73289e	-0.059364907
123	0xbd53a12e	-0.051667385
124	0xb985dac0	-0.00025530718
125	0xbc21f3cb	-0.009884785
126	0xbdd3e51b	-0.10346433
127	0xbe1aa6d5	-0.15102704
128	0xbe7d161e	-0.24715468
129	0xbb7c4330	-0.0038492195
130	0xbdc93edc	-0.098264426
131	0x3c055457	0.008137784
132	0xbd859a1f	-0.06523537
133	0x3d6b14a2	0.057392724
134	0x3e3badd4	0.18328029
135	0xbba02ae1	-0.004887924
136	0xbafe60e6	-0.001940754
137	0xbe66f4d1	-0.22554328
138	0xbdb27304	-0.08713344
139	0xbdabca14	-0.08388153
140	0xbf1f88f7	-0.62318367
141	0xbd822023	-0.06353786
142	0x3e38b1b5	0.1803654
143	0xbdcfdcdd	-0.10149548
144	0xbebcf503	-0.3690568
145	0xbd541d21	-0.051785592
146	0x3dfe8a3c	0.1242871
147	0xbe780449	-0.24220385
148	0xbe47fdfb	-0.1953048
149	0xbd651218	-0.05592546
150	0x3e2fcef4	0.1716879
151	0x3ea1b38c	0.31582296
152	0x3ca0f846	0.019649636
153	0xbe108bce	-0.14115831
154	0xbda06d20	-0.07833314
155	0x3dafb74f	0.08579885
156	0xbdbe6fce	-0.09298669
157	0xbd9209b4	-0.07130757
158	0xbe1c6e8b	-0.15276544
159	0x3d216c78	0.039410084
160	0xbd2ff4e9	-0.042958174
161	0xbd7af713	-0.061270785
162	0x3d255ac4	0.040369764
163	0xbd372c9a	-0.04472027
164	0xbe6630d5	-0.22479565
165	0xbd0506fc	-0.032477364
166	0x38e99958	0.00011138868
167	0xbeaf0575	-0.3418385
168	0xbea42582	-0.32059866
169	0xbe901f59	-0.28148916
170	0x3defbeb8	0.117062986
171	0xbe0cb8ee	-0.1374242
172	0xbe95ab61	-0.29232314
173	0x3d77582b	0.060386818
174	0x3ec2e586	0.38065737
175	0xbd643339	-0.055712912
176	0x3e2d1a01	0.16904451
177	0x3e4457a1	0.19174053
178	0xbf2d9d72	-0.6781837
179	0xbe18eb78	-0.14933574
180	0xbdec4540	-0.11536646
181	0x3dc452e1	0.095861204
182	0x3e0ee765	0.13955458
183	0xbdbe862f	-0.09302937
184	0xbdb324a9	-0.08747227
185	0x3c561722	0.013067039
186	0xbcf684a8	-0.030092552
187	0xbda2c8c5	-0.0794845
188	0xbe0e4cbd	-0.13896461
189	0x3d13a154	0.036042526
190	0x3e6f46c5	0.2336684
191	0xbeb96620	-0.36210728
192	0xbd18a87d	-0.037270058
193	0x3e94446d	0.28958455
194	0xbdda72a6	-0.10666399
195	0x3ec9be40	0.39402962
196	0x3e946d76	0.28989762
197	0x3e3a91d9	0.18219699
198	0xbea94a21	-0.33064368
199	0xbde76f99	-0.113005824
200	0xbe859e27	-0.26097223
201	0xbe96941c	-0.29409873
202	0xbe521d74	-0.20519048
203	0xbe050072	-0.12988451
204	0xbc8cd68c	-0.017192148
205	0xbe519faa	-0.20471063
206	0xbe51a577	-0.20473276
207	0xbe213502	-0.15742877
208	0xbeaf85bb	-0.34281716
209	0xbe216caa	-0.15764108
210	0xbed5ae9a	-0.41734773
211	0xbf06a72f	-0.5259885
212	0xbf04acdd	-0.5182627
213	0xbf242a45	-0.64127
214	0xbeaa4459	-0.3325527
215	0xbeb9d12d	-0.362924
216	0x3dea482d	0.11439548
217	0xbb78b705	-0.0037950885
218	0x3d2d8d4b	0.042371076
219	0x3e9c48ec	0.30524385
220	0x3ea73697	0.32658836
221	0x3e94b1cc	0.29041898
222	0x3db1abcd	0.086753465
223	0x3ca8d574	0.020609595
224	0xbd10bbf3	-0.035335492
225	0x3ebcf4d7	0.36905548
226	0x3e1e461a	0.15456429
227	0x3e39ce62	0.18145135
228	0xbd932e0d	-0.07186518
229	0xbe2c6d78	-0.16838634
230	0xbe5af0c9	-0.21380915
231	0x3b32150d	0.0027173192
232	0xbe91e55d	-0.28495303
233	0xbd462cce	-0.048382573
234	0xbda1631e	-0.07880233
235	0xbdbfd8ee	-0.09367548
236	0xbd3f1399	-0.04664955
237	0xbdeaec6b	-0.114708744
238	0xbcf0b1b2	-0.029381607
239	0xba7a9786	-0.0009559322
240	0xbe1edfe4	-0.15515095
241	0xbe110c7b	-0.14164917
242	0xbd6fe854	-0.058571175
243	0xbe572d48	-0.21013367
244	0xbe5c719c	-0.21527714
245	0xbe1489d9	-0.1450571
246	0xbebd0d4f	-0.36924216
247	0xbf1e8e2e	-0.619357
248	0xbf1a5ccc	-0.60297847
249	0xbdf320f3	-0.11871519
250	0xbedefc76	-0.43551987
251	0xbea06d7f	-0.3133354
252	0xbd22c316	-0.03973683
253	0x3e81f2b4	0.2538048
254	0x3d30f867	0.043205645
255	0xbe18360c	-0.14864367

bias f4 [32]
0	0x3d15448d	0.03644233
1	0x3dd790cf	0.10525667
2	0x3c96c648	0.018405095
3	0xbd00954b	-0.031392377
4	0xbe2a2fe4	-0.16619831
5	0x3d0d25cc	0.034459874
6	0x3d80dfd0	0.06292689
7	0x3cbc94ca	0.023020167
8	0x3c34fa47	0.011045999
9	0x3d4fa040	0.050689936
10	0x3d520782	0.05127669
11	0x3c2213a2	0.009892376
12	0xbe8f656d	-0.2800707
13	0xbc815cb7	-0.01579128
14	0x3d24b927	0.040215638
15	0x3c7ca396	0.015419861
16	0x3d376f17	0.044783678
17	0x3d248727	0.040167954
18	0x3d105ba7	0.035243656
19	0xbc13f956	-0.009031614
20	0xbc506179	-0.012718552
21	0x3be65cc5	0.007030102
22	0x3d5568eb	0.05210201
23	0x3db0d8fb	0.08635136
24	0x3c92f5ed	0.017939532
25	0x3ddbeff7	0.10739129
26	0x3ca2d42b	0.01987656
27	0x3c3b1d90	0.0114206225
28	0x3c96a901	0.018391134
29	0x3c147015	0.009059926
30	0xbc56c43f	-0.013108312
31	0x3cbcc7a6	0.023044419

weight f4 [5, 16928]
0	0x3d8b0ac4	0.06789163
1	0xbd66eb87	-0.05637696
2	0x3d2a376f	0.04155677
3	0x3d9e7c7f	0.077385895
4	0xbdbb504c	-0.09146175
5	0x3d3f3948	0.046685487
6	0x3d751020	0.05982983
7	0x3db8ba27	0.09019881
8	0x3cd059aa	0.02543338
9	0xbd0a5b71	-0.03377861
10	0xbd83f6a4	-0.06443527
11	0xbb3710da	-0.0027933628
12	0xbdb9f134	-0.09079209
13	0xbd47b8aa	-0.048760094
14	0xbb6040b4	-0.0034218254
15	0xbd2570ce	-0.040390782
16	0xbda674ae	-0.08127724
17	0x3bbb89b1	0.005723201
18	0xbdf432d0	-0.11923754
19	0xbdaff5fd	-0.085918404
20	0x3d006673	0.031347703
21	0x3cbee900	0.023304462
22	0xbddffa44	-0.10936406
23	0x3d4ef569	0.05052701
24	0xbd068124	-0.032838
25	0xbce9cf3e	-0.028541204
26	0xbd25c6ca	-0.040472783
27	0x3d340bca	0.043956555
28	0x3df13501	0.11777688
29	0x3c5d9f7f	0.013526796
30	0x3d548de1	0.05189312
31	0x3a8752c2	0.0010324346
32	0xbd93724a	-0.07199533
33	0x3c8dc5d0	0.017306238
34	0x3d8dc4f9	0.06922335
35	0xbd27275a	-0.040809013
36	0xbd122894	-0.03568323
37	0x3c348eda	0.011020387
38	0x3dbaef14	0.09127632
39	0xbcf22d63	-0.029562658
40	0x3cfab8d9	0.03060572
41	0x3cb29ea6	0.021804165
42	0xbd7b9735	-0.0614235
43	0x3d078c7b	0.033092957
44	0x3c4ada50	0.012381151
45	0xbd993ff1	-0.07482899
46	0x3d9d2032	0.076721564
47	0x3cba9a83	0.022778755
48	0x3d856deb	0.06515106
49	0x3d1774f0	0.036976755
50	0x3dc301f2	0.095218554
51	0x3d707b73	0.05871148
52	0x3d537e64	0.051634207
53	0x3dfe00c0	0.12402487
54	0x3c5de51b	0.0135433925
55	0x3d895234	0.06705132
56	0x3db0f7e1	0.08641029
57	0x3e025eaf	0.12731431
58	0xbd02abde	-0.031902187
59	0x3d97032a	0.0737365
60	0xbdc1bd81	-0.09459973
61	0xbc875a25	-0.016522476
62	0x3de8f0c7	0.1137405
63	0x3d6b374d	0.057425786
64	0xb8956dc1	-7.125317e-05
65	0xbcfe2362	-0.031022731
66	0x3c648c10	0.013949409
67	0xbdb21c94	-0.08696857
68	0x3c87d095	0.016578952
69	0x3de5bc72	0.11217584
70	0xbc33fbc6	-0.01098532
71	0xbcb01ff0	-0.021499604
72	0x3e0ae8a2	0.13565305
73	0x3dc8ade5	0.09798793
74	0x3d77cc12	0.06049735
75	0x3e25231d	0.16126676
76	0x3db4a875	0.08821193
77	0x3d837bc9	0.064200945
78	0x3e1f7bca	0.15574566
79	0x3cd81115	0.026375333
80	0x3d951e41	0.07281161
81	0x3d32c5d3	0.04364569
82	0x3d0ca836	0.034340106
83	0x3d334f1c	0.043776616
84	0x3e05489b	0.13015978
85	0x3d00b0cc	0.031418607
86	0x3d935046	0.07193045
87	0x3ddf9928	0.10917884
88	0x3e00409c	0.12524647
89	0xbca601c9	-0.020264523
90	0xbd91e4a2	-0.071236864
91	0xbe296866	-0.16543731
92	0x3dd7cf0b	0.10537537
93	0x3e0255ec	0.12728089
94	0x3e02c711	0.1277125
95	0x3df13944	0.11778501
96	0x3d9b3f31	0.07580412
97	0x3d93f0e1	0.072236784
98	0x3e16972f	0.1470611
99	0x3e462992	0.19351795
100	0x3e057562	0.13033059
101	0x3de5c58f	0.11219322
102	0x3d96300c	0.07333383
103	0x3c00bae1	0.007857055
104	0x3d9b2797	0.075759105
105	0x3de0b38a	0.10971744
106	0x3d873e48	0.06603676
107	0x3d63e8fa	0.055642106
108	0x3db0175c	0.085982054
109	0x3d6d817f	0.057984825
110	0x3e0daf76	0.13836464
111	0x3e066dd0	0.13127828
112	0x3cbd4596	0.02310447
113	0xbda2a738	-0.07942051
114	0xbdb4c032	-0.08825721
115	0x3ccff504	0.025385387
116	0x3d3c970b	0.046042483
117	0x3df1667f	0.11787128
118	0x3d9580bb	0.07299944
119	0x3dbb98ed	0.09160028
120	0x3dc7962d	0.09745441
121	0x3e163a41	0.1467066
122	0x3d8c17d7	0.068404846
123	0x3d862456	0.06549899
124	0x3d7ff663	0.062490832
125	0x3d921ed3	0.071347855
126	0xbd85cbe7	-0.06533032
127	0x3e0870b3	0.13324241
128	0x3e3a67fc	0.1820373
129	0x3deda37d	0.116034485
130	0x3da2b6c9	0.0794502
131	0x3e3e1b5e	0.18565127
132	0xbd15f825	-0.036613602
133	0xbd3786fd	-0.04480647
134	0x3d41eb9a	0.047343828
135	0x3cd55f72	0.026046488
136	0x3bc9eac0	0.0061620176
137	0xbcc0f683	-0.023555046
138	0x3def7936	0.11693041
139	0xbbb406f7	-0.0054939943
140	0x3d8ba4de	0.06818555
141	0x3d979d94	0.074031025
142	0x3d0371d3	0.032090973
143	0x3e187506	0.14888391
144	0x3e444425	0.1916662
145	0x3dbd7614	0.09251037
146	0x3de96fa8	0.1139825
147	0x3e6350e5	0.22198828
148	0x3d6c4540	0.05768323
149	0x3c8eaf49	0.017417567
150	0xbd147df7	-0.036252942
151	0x3c106739	0.008813673
152	0x3e096106	0.13415918
153	0xbc6f55ba	-0.014607841
154	0xbcec3303	-0.028832918
155	0x3d74a548	0.059727937
156	0x3cf899ac	0.030346714
157	0xbd2c1bbd	-0.04201864
158	0x3b8e98f8	0.0043517314
159	0xbd4136a4	-0.04717125
160	0xbd8c979b	-0.06864854
161	0x3d4f4657	0.05060419
162	0x3cf4b840	0.029873013
163	0x3c16d163	0.009205195
164	0xbc4d3b69	-0.0125263715
165	0x3de81ced	0.11333642
166	0x3d9b538f	0.07584297
167	0x3d1c64e0	0.03818214
168	0x3d978534	0.07398453
169	0x3e792572	0.2433069
170	0x3d9e2b37	0.07723086
171	0x3da4ff4e	0.08056508
172	0x3d1adc3f	0.0378077
173	0x3d0a4ef7	0.033766713
174	0xbd58ae04	-0.05290033
175	0x3d006b6e	0.031352453
176	0x3e0b2757	0.13589226
177	0x3d98a128	0.07452613
178	0xbcc02808	-0.023456588
179	0x3ddb2630	0.10700643
180	0xbdf7b0fb	-0.12094303
181	0xbca4af3f	-0.020103095
182	0x3c869102	0.016426567
183	0xbe0cc7fb	-0.13748161
184	0x3dbb0114	0.09131065
185	0x3e3048c9	0.17215265
186	0x3e1505c0	0.14552975
187	0x3e15ba93	0.14621954
188	0x3dd5430f	0.10413181
189	0x3dc09471	0.09403313
190	0x3e33daf3	0.17563991
191	0x3d1ffcb1	0.039059345
192	0x3de27b72	0.110587016
193	0x3d4eb1b6	0.050462447
194	0x3e27d6f8	0.16390598
195	0x3deb8cac	0.115014404
196	0x3df19354	0.11795679
197	0x3d68c38a	0.056827106
198	0x3df602e1	0.12012268
199	0x3dd4fbe9	0.103996105
200	0xbd06ecec	-0.03294079
201	0x3d587fb0	0.052856147
202	0x3e1468fe	0.14493176
203	0x3d32c668	0.043646246
204	0xbd1f5f5f	-0.038909312
205	0xbd87b202	-0.06625749
206	0xbdc1c9ad	-0.09462295
207	0x3e05dc79	0.13072385
208	0x3dbd7236	0.092503
209	0x3da63c2f	0.08116948
210	0x3d6742f7	0.056460347
211	0x3e108dc8	0.14116585
212	0x3e143483	0.14473157
213	0x3dcb4d3f	0.09926843
214	0x3dbdd4b7	0.09269088
215	0x3d86e1f6	0.065860674
216	0xbe1aa7c0	-0.15103054
217	0xbe4684b3	-0.19386558
218	0x3d41934d	0.047259618
219	0x3d9eebe0	0.07759833
220	0x3c8e76a6	0.01739056
221	0x3d9b99af	0.07597672
222	0x3deec03a	0.11657758
223	0xbdd7a81f	-0.105301134
224	0x3d10a94d	0.035317708
225	0x3da4da5b	0.080494605
226	0x3d24b2a0	0.040209413
227	0x3d2879b3	0.041131686
228	0x3aef692f	0.00182656
229	0xbe4b1331	-0.1983154
230	0x3df03118	0.11728114
231	0xbcb3eaa4	-0.021962471
232	0xbd2fa86e	-0.042885236
233	0x3dad71fa	0.08469005
234	0x3e24d9e2	0.1609874
235	0x3db54f98	0.08853072
236	0x3df6e266	0.12054901
237	0x3e9bbc00	0.3041687
238	0x3dd7d27d	0.10538194
239	0xbe4eece8	-0.2020756
240	0xbec3dd76	-0.382549
241	0xbeb9bd90	-0.36277437
242	0x3d95e97d	0.07319925
243	0xbc704fab	-0.014667432
244	0x3d946445	0.072456874
245	0x3d98a2d3	0.07452931
246	0xbd84d204	-0.0648537
247	0xbc406d98	-0.011744879
248	0x3d56a93a	0.05240748
249	0x3d44b687	0.048025634
250	0xbcf42b65	-0.029805848
251	0xbc83979b	-0.016063502
252	0x3d5eb913	0.05437572
253	0x3bd7b7bf	0.0065831835
254	0xbcf4516b	-0.02982398
255	0x3d7122f4	0.058871225

bias f4 [5]
0	0xbdbf0a9b	-0.09328195
1	0xbdd1b215	-0.102390446
2	0xbde9ab52	-0.1140963
3	0xbdbb1f11	-0.09136785
4	0xbdc8c41c	-0.0980303
