archived_data/b4_r4_m20_s150--2019-01-28--150738.476053_stationary/episode_14250.model (torch_old, 375724 bytes, 8 tensors)

weight f4 [6, 6, 3, 3]
0	0x3db597d6	0.08866851
1	0xbd828e82	-0.063748375
2	0x3de2dbe8	0.110771
3	0xbdab10d2	-0.083528176
4	0x3db30e98	0.08743018
5	0x3cb19f70	0.021682471
6	0xbde8f903	-0.1137562
7	0xbd9251a4	-0.07144478
8	0xbcb90f74	-0.022590376
9	0xbb5c68d7	-0.0033631825
10	0x3d12ae3d	0.035810698
11	0xbcc5d6b1	-0.024150224
12	0xbbe136d9	-0.0068729934
13	0xbe45906c	-0.19293374
14	0x3cd0c8f0	0.02548644
15	0xbc9026db	-0.017596653
16	0x3bb4e754	0.0055207405
17	0xbca3387c	-0.019924395
18	0x3dacdf2c	0.08441004
19	0x3e62396d	0.22092219
20	0x3e2a5c84	0.16636854
21	0x3e52f210	0.20600152
22	0x3e3b9c67	0.18321382
23	0x3e3c2c7d	0.18376346
24	0x3df5ec99	0.12008018
25	0x3e34b045	0.17645366
26	0x3da2df92	0.07952799
27	0xbcbe8e58	-0.023261234
28	0x3d803a8c	0.06261167
29	0xbc1b2bd0	-0.009470895
30	0xbd7c1b8c	-0.06154971
31	0x3da599ac	0.08085951
32	0xbdb54332	-0.08850707
33	0xb93ab800	-0.00017806888
34	0xbe0280ba	-0.12744418
35	0xbd8ac38e	-0.0677558
36	0xbda57586	-0.080790564
37	0xbcce45f9	-0.02517985
38	0x3d987ae7	0.07445317
39	0xbe32839d	-0.17433019
40	0x3de15773	0.11003008
41	0xbd2419a3	-0.04006351
42	0x3c836d43	0.016043311
43	0xbd5fd93c	-0.05465053
44	0xbd670cd2	-0.05640871
45	0x3d17d8b9	0.037071917
46	0xbc25712f	-0.010097786
47	0xbd52b31d	-0.051440347
48	0x3d3dca9e	0.04633581
49	0xbf114ad9	-0.56754833
50	0xbc89697c	-0.016773932
51	0xbcf0f971	-0.029415818
52	0xbd248f3b	-0.040175658
53	0x3c92aa65	0.017903516
54	0x3d8972e2	0.06711365
55	0x3ddcb180	0.10776043
56	0x3d684588	0.056706935
57	0x3b8eba80	0.0043557286
58	0xbbc5a0e0	-0.0060311407
59	0x3ddce03c	0.10784957
60	0x3c963250	0.018334538
61	0x3d0cfc50	0.03442031
62	0xbd8ca8e5	-0.068681516
63	0xbd1d646a	-0.03842584
64	0x3d03fb06	0.032221816
65	0xbdbfedcb	-0.09371527
66	0x3def37d9	0.11680574
67	0xbe0fe287	-0.14051257
68	0x3e31fa6d	0.17380686
69	0xbd79ed90	-0.061017573
70	0x3df283e7	0.118415646
71	0xbdf7ce74	-0.12099925
72	0xbd268d67	-0.040662196
73	0xbe3866fc	-0.18008035
74	0xbda79a97	-0.081837825
75	0xbd03c362	-0.032168753
76	0xbe31c238	-0.17359245
77	0xbe0645ee	-0.13112614
78	0xbd360f1e	-0.04444801
79	0xbe7a8954	-0.24466449
80	0xbddafa2a	-0.10692246
81	0x3ddf01da	0.10889025
82	0xbd6dfba8	-0.058101326
83	0xbdf54541	-0.119761
84	0xbdfc973e	-0.12333535
85	0x3dc4562e	0.0958675
86	0xbd22f1e0	-0.03978145
87	0x3c688920	0.014192849
88	0xbd67c5e8	-0.056585222
89	0xbdc42606	-0.09577565
90	0xbe04c52a	-0.12965837
91	0xbe122908	-0.14273465
92	0xbd64b24e	-0.055834107
93	0xbf04a3e3	-0.5181257
94	0xbee35916	-0.44403905
95	0xbf98641c	-1.1905551
96	0xbf2b9482	-0.6702348
97	0xbf86a4fe	-1.0519102
98	0xbf382b70	-0.7194128
99	0xbd38f500	-0.045155525
100	0x3de2824e	0.1106001
101	0xbd5bb294	-0.053637102
102	0xba5b48f5	-0.00083650585
103	0xbe90b623	-0.2826396
104	0x3cb76151	0.022385271
105	0xbd4fe4dd	-0.05075537
106	0x3dc19e16	0.094539806
107	0xbd44f2c9	-0.0480831
108	0x3d6a5cc0	0.05721736
109	0xbdbf06b8	-0.093274534
110	0x3da435b6	0.08018057
111	0xbe0a3b41	-0.13499166
112	0x3bb47b00	0.005507827
113	0xbd97bcc6	-0.074090526
114	0x3e0b11b0	0.13580966
115	0x3ba8ace0	0.0051475614
116	0x3c49cf40	0.012317479
117	0xbd737d57	-0.059445705
118	0x3cc73093	0.024315154
119	0xbdf2340e	-0.11826335
120	0xbe8583b2	-0.26077038
121	0x3e80c856	0.25152844
122	0xbd9f2f70	-0.0777272
123	0xbe66632c	-0.22498769
124	0xbe394549	-0.18092836
125	0xbe8ac2e3	-0.27101812
126	0xbcf2671c	-0.029590182
127	0xbcb0e955	-0.021595636
128	0xbd4be5b8	-0.049779624
129	0xbcc55cb3	-0.024092054
130	0xbf17ca12	-0.5929271
131	0xbe7a208b	-0.24426477
132	0xbd4e9f15	-0.05044468
133	0xbdde6307	-0.10858732
134	0xbe88390b	-0.2660602
135	0x3dbb1638	0.09135097
136	0x3be50100	0.0069886446
137	0x3d9e8a1a	0.077411845
138	0xbddff190	-0.10934746
139	0xbd575fb4	-0.052581504
140	0xbdd5df17	-0.10442942
141	0x3d58c754	0.05292447
142	0xbd105b02	-0.03524304
143	0xbc944a30	-0.018101782
144	0xbe3ed9a4	-0.18637711
145	0x3bd0b6f7	0.0063694674
146	0x3c9ba986	0.019001734
147	0x3e671473	0.22566395
148	0xbd9eace9	-0.07747824
149	0xbe042e23	-0.12908225
150	0x3e2c133a	0.1680421
151	0x3c801c73	0.015638566
152	0x3e7ebf73	0.2487772
153	0xbdd9ba3c	-0.106312245
154	0x3d4897fc	0.04897307
155	0xbe0f9d81	-0.14024927
156	0xbe000dd6	-0.12505278
157	0x3e203d7c	0.15648454
158	0x3de69ca4	0.112603456
159	0xbc8c8610	-0.01715377
160	0x3d1302ea	0.03589145
161	0x3d8cd534	0.06876603
162	0x3d9b30b0	0.07577646
163	0xbdf0a66c	-0.117504925
164	0xbdd287a8	-0.102797806
165	0xbd6490e2	-0.055802234
166	0x3d36b598	0.044606775
167	0xbc3f0140	-0.011658013
168	0x3cb71338	0.022348031
169	0xbde2368d	-0.11045561
170	0x3d76a8f8	0.060219735
171	0x3d87a769	0.06623728
172	0x3da8024f	0.08203565
173	0x3d1a4ecf	0.037672814
174	0x3d4c1456	0.04982408
175	0xbd825fbe	-0.063659176
176	0x3d138bff	0.036022183
177	0x3c726a34	0.014795829
178	0x3d3d6d71	0.04624695
179	0xbcf4f16e	-0.029900279
180	0x3dc3ed89	0.095667906
181	0x3e0f4238	0.13990104
182	0x3d94d0a4	0.072663575
183	0x3e2b4eff	0.16729353
184	0x3df6de1d	0.120540835
185	0x3db975a7	0.090556435
186	0x3e0387d4	0.12844783
187	0x3df1fb51	0.11815513
188	0x3d64d53a	0.05586741
189	0xbdb08a62	-0.086201444
190	0x3d4571d0	0.048204243
191	0xbd46311a	-0.04838667
192	0xbd155f30	-0.03646773
193	0x3d76b76c	0.06023352
194	0xba72bf00	-0.00092600286
195	0xbdd6244c	-0.10456142
196	0xbc9ec180	-0.019379377
197	0xbcacefb4	-0.021110393
198	0xbf2d36ed	-0.67661935
199	0xbeec7d0d	-0.46189156
200	0xbf92fded	-1.1483742
201	0xbf8dcd79	-1.107833
202	0xbf255480	-0.6458206
203	0x3bab402c	0.0052261557
204	0xbe9bf4e5	-0.30460277
205	0xbe6be095	-0.2303489
206	0x3dc5cff2	0.09658803
207	0x3d5ba939	0.05362818
208	0x3c1e95e7	0.009679294
209	0x3d4c23bc	0.049838766
210	0xbb7a11af	-0.0038157513
211	0xbd25d864	-0.04048957
212	0xbd5c67d7	-0.053809967
213	0x3d9ef877	0.07762235
214	0xbd9c36b1	-0.07627619
215	0x3c9c0cc3	0.019049054
216	0xbdd783d7	-0.10523193
217	0xbdf6da50	-0.120533586
218	0x3d918236	0.07104914
219	0x3c694740	0.014238179
220	0x3dc270fe	0.09494208
221	0xbc96b284	-0.01839567
222	0xbcef083c	-0.029178731
223	0xbd30cba6	-0.043162964
224	0x3daca632	0.08430137
225	0xbe603e96	-0.21898875
226	0x3d95d68b	0.073163114
227	0xbd3fa397	-0.04678687
228	0x3dc5c00f	0.09655773
229	0xbe443d57	-0.19164024
230	0x3d2d5078	0.04231307
231	0xbdc771a9	-0.09738476
232	0x3deba118	0.115053356
233	0xbcdd71dd	-0.027031833
234	0xbe245b56	-0.16050467
235	0xbef71706	-0.48259753
236	0xbe5ba3da	-0.21449223
237	0xbf6034e6	-0.87580717
238	0xbec27977	-0.37983295
239	0xbf4a749a	-0.7908417
240	0xbe4319c4	-0.19052798
241	0xbf6014f6	-0.87531984
242	0xbd3ad063	-0.04560889
243	0xbd01c4c4	-0.03168179
244	0x3d886d28	0.06661445
245	0x3c8de978	0.01732324
246	0x3c992238	0.018693075
247	0xbd9afda3	-0.075679086
248	0x3d5c3530	0.05376166
249	0xbd1eead4	-0.03879817
250	0xbc337820	-0.010953933
251	0xbdb1a564	-0.08674124
252	0x3e1880f4	0.14892942
253	0xbdb91287	-0.09036737
254	0xbd9b8074	-0.0759286
255	0xbe85e1ab	-0.26148733

bias f4 [6]
0	0x3dff25b4	0.12458363
1	0xbd6b435b	-0.057437282
2	0xbe09418b	-0.13403909
3	0xbda4ae98	-0.080411136
4	0xbc744fcf	-0.014911606
5	0xbe1dff4b	-0.15429418

weight f4 [16, 6, 3, 3]
0	0x3e435545	0.19075496
1	0xbdb2dbaa	-0.08733304
2	0xbdd83453	-0.10556855
3	0x3e1103cf	0.14161609
4	0xbde6705d	-0.112519
5	0xbe90d417	-0.28286812
6	0x3e01a763	0.12661509
7	0xbd1d57c2	-0.03841377
8	0x3d17e1be	0.03708052
9	0xbe66e9d1	-0.22550131
10	0x3d551af8	0.052027673
11	0x3e779088	0.24176228
12	0xbdbffe51	-0.09374679
13	0x3e17ca0d	0.1482317
14	0x3d380886	0.044930004
15	0xbefee855	-0.4978663
16	0xbec1b443	-0.3783284
17	0x3e18a8d6	0.14908156
18	0xbda8c9ab	-0.0824159
19	0xbe093650	-0.13399625
20	0xbf2aa6c4	-0.66660714
21	0xbdb723b0	-0.08942354
22	0x3d394330	0.04523009
23	0xbd2c42a0	-0.042055726
24	0x3da53b59	0.0806796
25	0x3da3a4bc	0.07990405
26	0xbd9921f1	-0.07477177
27	0xbe9e8e4d	-0.30967942
28	0xbe23aa67	-0.15982972
29	0x3e405b28	0.18784773
30	0xbd62e062	-0.05538977
31	0x3db00d03	0.08596232
32	0x3e88aeae	0.2669577
33	0xbe9dcbf9	-0.3081968
34	0xbd5b87d8	-0.053596348
35	0xbdc05f83	-0.093932174
36	0x3cc3803b	0.023864856
37	0x3d9c5a92	0.076344624
38	0xbcb3fa73	-0.02197001
39	0x3e14d13e	0.14532945
40	0x3d1d4e81	0.038404945
41	0xbe9a4f78	-0.30138755
42	0x3d62167c	0.055197224
43	0x3dd58cf2	0.10427274
44	0xbd8f0724	-0.06983784
45	0xbe29f933	-0.16598968
46	0x3e13ccfc	0.14433664
47	0x3d8733af	0.06601655
48	0x3d876354	0.06610742
49	0xbdd8e613	-0.10590758
50	0xbd8c5626	-0.06852369
51	0xbeb79341	-0.35854533
52	0xbe9e34d8	-0.30899692
53	0xbdf255d9	-0.118327804
54	0xbf0406b9	-0.5157276
55	0xbe926efd	-0.28600302
56	0xbf073c2b	-0.52826184
57	0xbe79662f	-0.24355386
58	0xbe7c1878	-0.24618709
59	0xbe356a29	-0.17716278
60	0xbf2c5fc3	-0.6733362
61	0xbe82e404	-0.25564587
62	0xbf2eb7f8	-0.68249464
63	0xbd5ceaeb	-0.053934973
64	0x3e5e9379	0.21735944
65	0x3e13909e	0.14410636
66	0x3e2deb2d	0.16984244
67	0xbd3a5c4b	-0.045498174
68	0x3e5b8bb4	0.21440011
69	0x3dcb50e0	0.09927535
70	0x3e456d90	0.19280076
71	0x3df23624	0.11826733
72	0x3d890054	0.06689516
73	0xbe169ee7	-0.14709054
74	0xbd0ef723	-0.034903657
75	0x3d22b046	0.03971889
76	0x3e53a1a9	0.20667137
77	0xbea2db21	-0.31807807
78	0x3d5d45ce	0.05402165
79	0x3e22bd80	0.15892601
80	0xbe203328	-0.15644515
81	0x3dafef2e	0.08590542
82	0x3dd37f30	0.103269935
83	0xbc2f0473	-0.010682213
84	0x3bdc51eb	0.0067236326
85	0xbd1ec0a1	-0.038757924
86	0xbd31cbc5	-0.04340722
87	0xbd33cbcc	-0.043895528
88	0x3c686f9b	0.014186765
89	0xbd8370bc	-0.06417987
90	0x3dc7b869	0.0975197
91	0x3dd0242c	0.10163149
92	0xbd5e51e7	-0.054277327
93	0x3d9986d9	0.07496423
94	0xbe239236	-0.15973744
95	0x3e53e675	0.20693381
96	0x3cc3e5da	0.023913313
97	0x3d77ba16	0.0604802
98	0x3c1196ac	0.008886021
99	0x3aa6d587	0.0012728431
100	0x3c5ac303	0.0133521585
101	0xbd9d13cb	-0.07669791
102	0xbd82deaf	-0.0639013
103	0xbbdec631	-0.0067985286
104	0x3da0025c	0.0781295
105	0x3ca4bf90	0.020110875
106	0xbe1329af	-0.1437137
107	0x3deb5216	0.11490266
108	0x3dd7e6c6	0.105420634
109	0xbc2c4e56	-0.010516724
110	0x3dfdf6a6	0.1240056
111	0x3c5481f7	0.012970439
112	0xbd959dbe	-0.073054776
113	0xbe0b5a9d	-0.13608785
114	0xbd5e8961	-0.054330233
115	0xbd75cd5f	-0.06001031
116	0x3d71be7f	0.05901956
117	0x3df170aa	0.11789067
118	0xbf085d45	-0.5326732
119	0xbd90db15	-0.070730366
120	0x3c9a6dfc	0.018851273
121	0xbc191f46	-0.009345835
122	0x3e650c37	0.22367941
123	0x3d5d8916	0.054085813
124	0x3e1f1fe7	0.15539514
125	0x3d4e6981	0.050393585
126	0xbdbe86c2	-0.09303047
127	0x3e547a1a	0.20749703
128	0xbc3759d2	-0.011190848
129	0xbda4d621	-0.08048654
130	0x3e870e4e	0.263781
131	0x3db3cc93	0.08779254
132	0xbee6b379	-0.45058802
133	0xbdc62384	-0.09674743
134	0xbe13e79f	-0.14443825
135	0xbe017654	-0.12642795
136	0x3c424353	0.011856872
137	0xbe26a4f3	-0.1627386
138	0xbd6710e0	-0.056412578
139	0x3d8a4dca	0.06753118
140	0xbda85d37	-0.08220904
141	0x3d9e953e	0.077433094
142	0x3e174d79	0.14775647
143	0x3e0c3a12	0.13694027
144	0xbc922b12	-0.017842803
145	0x3e5e8026	0.21728572
146	0x3e4f31ba	0.20233813
147	0xbea1c703	-0.31597146
148	0xbf2a657e	-0.66561115
149	0xbead303c	-0.33825862
150	0xbe909593	-0.28239116
151	0xbeae1598	-0.3400085
152	0x3d640742	0.055670984
153	0xbc055349	-0.0081375325
154	0x3e862baf	0.26205203
155	0xbcd1ea80	-0.025624514
156	0xbcc1744c	-0.023615025
157	0xbd30b353	-0.043139767
158	0xbe4d64e3	-0.20058016
159	0xbecb58dd	-0.39716235
160	0x3b3e8bd3	0.002907504
161	0xbd3245f9	-0.043523762
162	0xbe834458	-0.2563808
163	0x3d96e4f3	0.07367887
164	0xbd8527ca	-0.0650173
165	0x3df2325c	0.118260115
166	0xbddd7537	-0.108133726
167	0x3e4f93d6	0.20271239
168	0xbd740e60	-0.05958402
169	0x3dc02d9c	0.09383699
170	0x3d758a31	0.059946243
171	0xbe2e82d6	-0.17042097
172	0x3eb40f17	0.35167763
173	0xbe90f024	-0.28308213
174	0xbce4f37f	-0.02794814
175	0xbe70c9f7	-0.23514543
176	0x3d90c531	0.07068861
177	0xbeaf2c98	-0.3421371
178	0x3d6dcd45	0.05805709
179	0xbe59a3dc	-0.21253914
180	0x3e6a993d	0.22910018
181	0x3dcfa799	0.101393886
182	0xbe84e8ce	-0.25958866
183	0x3c1af24b	0.009457181
184	0x3dd4323b	0.10361143
185	0x3b4dcd7b	0.0031402993
186	0xbec9c874	-0.39410746
187	0xbe4ff95e	-0.2030997
188	0xbefa7d13	-0.4892355
189	0xbcf552db	-0.029946735
190	0xbe3f4738	-0.18679512
191	0xbd67b07a	-0.056564786
192	0xbe515d0f	-0.20445655
193	0xbe6ae74f	-0.229398
194	0xbec28bfb	-0.37997422
195	0x3dad41e2	0.08459832
196	0xbd780943	-0.060555708
197	0xbdabe68f	-0.08393585
198	0x3e8f7573	0.28019294
199	0xbd95a081	-0.07306004
200	0xbd7ad1b9	-0.061235163
201	0x3d9f1805	0.07768253
202	0xbd9cf558	-0.07663983
203	0x3e4c8dc5	0.19975956
204	0xbd94b73e	-0.07261513
205	0x3daa136c	0.08304486
206	0x3d2bf182	0.041978367
207	0xbed20a9f	-0.41023728
208	0xbdcc8990	-0.099871755
209	0xbe74c736	-0.23904118
210	0xbe669cea	-0.22520795
211	0x3d4deb5e	0.05027329
212	0x3c19aad2	0.009379106
213	0xbe91702f	-0.28405902
214	0x3d08594d	0.03328829
215	0x3dbb87b5	0.091567434
216	0x3e47ed52	0.19524124
217	0xbdf53b2e	-0.11974178
218	0xbbb014fd	-0.0053735957
219	0xbda0d1b1	-0.078524955
220	0xbdeddbb6	-0.11614172
221	0xbe170be4	-0.1475063
222	0xbe3adae2	-0.1824756
223	0xbd698d32	-0.05701942
224	0xbd38abd2	-0.045085736
225	0x3e353bc2	0.17698577
226	0xbe3a8f8f	-0.18218826
227	0xbd02569a	-0.03182087
228	0x3e4b18bb	0.19833653
229	0xbcf445be	-0.029818412
230	0xbeafa32a	-0.34304172
231	0x3d4b0074	0.04956098
232	0x3dff3bc1	0.12462569
233	0xbd25d6b3	-0.040487956
234	0x3dbc76c0	0.09202337
235	0xbe55b0a5	-0.20868166
236	0xbd8b2408	-0.06793982
237	0x3e59a8ea	0.21255842
238	0x3e7045e3	0.2346416
239	0x3df1abbc	0.11800334
240	0xbe15eeb7	-0.14641844
241	0xbd9aaa05	-0.0755196
242	0xbcba55b8	-0.022745952
243	0xbc8d0582	-0.01721454
244	0x3db5e07b	0.08880707
245	0x3c1b491f	0.009477883
246	0x3d3f789c	0.04674588
247	0xbd3420b5	-0.043976504
248	0x3e0a2fde	0.13494822
249	0x3d341305	0.04396345
250	0x3deda00c	0.11602792
251	0xbd911eaf	-0.070859306
252	0x3e799cc6	0.2437621
253	0xbd6d44dd	-0.057927
254	0xbf2bad5e	-0.6706141
255	0x3d396b0c	0.045268103

bias f4 [16]
0	0xbd85aba5	-0.06526879
1	0x3d86bc9a	0.06578942
2	0xbd76aa6d	-0.060221124
3	0xbbfecc0f	-0.0077757905
4	0xbb19af4b	-0.002345043
5	0xbce0e650	-0.027453572
6	0xbe058e11	-0.13042475
7	0xbde3969e	-0.11112712
8	0xbe45b0c6	-0.19305715
9	0xbca8299e	-0.020527657
10	0x3d409569	0.04701749
11	0xbc0d3a13	-0.008619803
12	0xbd256b1e	-0.040385358
13	0xbc727f49	-0.014800855
14	0xbd59406a	-0.053039946
15	0x3c776b41	0.015101255

weight f4 [32, 16, 3, 3]
0	0x3e145513	0.14485578
1	0xbe06f939	-0.13181008
2	0xbd9ddae7	-0.07707768
3	0x3e1cf73d	0.15328689
4	0xbdfdf8e3	-0.12400987
5	0xbe825303	-0.25453958
6	0x3e02811d	0.12744565
7	0x3d05d4dd	0.032673705
8	0xbe85482a	-0.2603162
9	0xbcb170e8	-0.021660283
10	0x3c2e8b05	0.010653262
11	0x3e228541	0.15871145
12	0xbda662b9	-0.081242986
13	0xbd420d91	-0.04737622
14	0x3e055233	0.13019638
15	0x3c7bd0a5	0.015369569
16	0x3de6defc	0.11273
17	0xbd373771	-0.044730607
18	0x3e3c4727	0.18386517
19	0xbe1844c0	-0.14869976
20	0x3eae8b1f	0.34090516
21	0xbe2e3172	-0.1701105
22	0x3dd6cab7	0.104878835
23	0x3e7ddc7f	0.24791144
24	0xbdc1cd40	-0.094629765
25	0x3e514da3	0.20439772
26	0x3e77b55e	0.2419028
27	0x3c4ba5e9	0.012429693
28	0x3e362f27	0.17791425
29	0x3d9e3606	0.07725148
30	0x3d88c893	0.066788815
31	0x3d74abc2	0.059734114
32	0x3e562ca9	0.20915474
33	0x3dd6ea8d	0.10493956
34	0x3e389460	0.1802535
35	0x3e30cefd	0.1726646
36	0xbd5b0cd6	-0.05347904
37	0xbddea5b1	-0.10871447
38	0xbe03cf64	-0.12872082
39	0x3e275469	0.16340794
40	0xbcc0489e	-0.023472127
41	0xbedfefc9	-0.4373763
42	0xbd1b36e7	-0.037894156
43	0x3e1f8df5	0.15581496
44	0xbf0670e3	-0.52516
45	0xbe1212e5	-0.1426502
46	0x3b0d9b5e	0.0021607499
47	0x3d5c528d	0.053789664
48	0xbe1719e7	-0.14755975
49	0xbd9abc04	-0.075553924
50	0x3d925ea3	0.07146957
51	0x3d8e9bbe	0.06963299
52	0x3dfc1eff	0.123105995
53	0x3dca0362	0.098639265
54	0xbced1532	-0.02894077
55	0xbc0d43cd	-0.008622122
56	0xbe165ac4	-0.14683062
57	0xbd840023	-0.064453386
58	0xbe3cb708	-0.18429196
59	0xbdc17fc5	-0.09448198
60	0x3d06c437	0.03290197
61	0xbd641f14	-0.0556937
62	0x3d454087	0.04815724
63	0xbe46f28d	-0.19428463
64	0xbec4075c	-0.38286865
65	0xbe76ffa1	-0.24120952
66	0x3c3080ff	0.010772943
67	0xbe5b9db2	-0.21446875
68	0xbd151cca	-0.03640441
69	0xbdacf37c	-0.084448785
70	0x3ba02812	0.0048875893
71	0xbe81924d	-0.2530693
72	0xbdcad87e	-0.09904574
73	0xbe35299e	-0.17691657
74	0xbd9e04e9	-0.0771578
75	0xbe0e9e58	-0.13927591
76	0xbe431d40	-0.19054127
77	0xbe3086bd	-0.17238899
78	0xbe053f39	-0.13012399
79	0x3da60c1c	0.081077784
80	0xbd9fa1e1	-0.07794548
81	0xbd1cf70b	-0.038321536
82	0xbc566c6e	-0.013087375
83	0x3d0e1c07	0.034694698
84	0xbe41fb8f	-0.18943618
85	0x3d934930	0.07191694
86	0xbd48e69f	-0.049048062
87	0x3bfb7919	0.007674348
88	0xbde50b5c	-0.11183807
89	0x3a623487	0.0008629043
90	0x3cc24af1	0.023717375
91	0xbda12330	-0.078680396
92	0xbec98d4e	-0.3936562
93	0xbda08203	-0.07837298
94	0x3d21664f	0.03940421
95	0xbeadd55b	-0.3395184
96	0x3ce8e063	0.028427308
97	0xbc2d58c5	-0.010580246
98	0xbe6398d1	-0.22226264
99	0x3cc4cf58	0.02402465
100	0xbd9ed04b	-0.077545725
101	0x3d9cfc75	0.0766534
102	0xbe01920e	-0.12653372
103	0xbe35ffe1	-0.17773391
104	0x3e4d0668	0.20021975
105	0xbd602f76	-0.054732762
106	0x3ddb3b2e	0.10704647
107	0x3c91bcdf	0.017790256
108	0xbd0b7572	-0.03404755
109	0x3e0c1e14	0.13683349
110	0x3ecb4a09	0.39704922
111	0x3e8f3890	0.2797284
112	0x3ec574b4	0.385656
113	0x3ea3b748	0.3197577
114	0x3e891a71	0.26777986
115	0x3e07d8a1	0.13266231
116	0x3e9802b4	0.29689562
117	0x3b120d8f	0.0022285914
118	0xbd55cc65	-0.05219688
119	0x3e3c654c	0.18398017
120	0xbd260ba9	-0.040538464
121	0x3d8e5559	0.069498725
122	0x3cda44ef	0.026644198
123	0x3cb8ee2b	0.022574505
124	0xbd43fbfb	-0.04784773
125	0x3d1b38b3	0.03789587
126	0xbe10dd0f	-0.14146827
127	0xbe23059f	-0.15920113
128	0xbde2ef7e	-0.11080836
129	0xbd546bb5	-0.05186053
130	0xbd86357d	-0.06553171
131	0x3e254e58	0.16143167
132	0xbd32e56e	-0.043675832
133	0x3dc2afeb	0.0950621
134	0x3e61ebb8	0.22062576
135	0xbbd12ba0	-0.0063833743
136	0xbdd94159	-0.10608167
137	0xbe3ce081	-0.18445016
138	0xbe017dab	-0.12645595
139	0xbe4390ab	-0.19098155
140	0xbf070528	-0.5274224
141	0xbdd95691	-0.10612214
142	0x3e16188d	0.14657803
143	0xbe50fde8	-0.20409358
144	0xbd71f41a	-0.059070684
145	0x3e1f76ae	0.15572616
146	0x3e963925	0.29340473
147	0xbe140d59	-0.14458217
148	0x3d7ed6c0	0.06221652
149	0x3dc5e76c	0.09663281
150	0x3e492c82	0.19645885
151	0x3e82d7c5	0.25555244
152	0x3e2f59d0	0.17124104
153	0xbdaeda41	-0.085377224
154	0xbcb93660	-0.022608936
155	0x3d7599a1	0.059960965
156	0xbdb6543e	-0.08902787
157	0xbd57514d	-0.05256777
158	0xbd09a402	-0.033603676
159	0xbc604594	-0.013688464
160	0xbdbabadb	-0.09117671
161	0xbd7ad307	-0.061236408
162	0x3e05441d	0.13014264
163	0x3ce647d3	0.02811042
164	0xbdbaef85	-0.09127716
165	0xba2f55e9	-0.0006688522
166	0x3df8085e	0.12110971
167	0xbe40bd5a	-0.18822232
168	0xbe1947e8	-0.14968836
169	0x3bf872c4	0.0075820405
170	0x3e9d980a	0.3078006
171	0xbe126397	-0.14295803
172	0xbdfed383	-0.124426864
173	0x3de25d0a	0.11052902
174	0x3e6b71ee	0.2299268
175	0x3b59177c	0.003312557
176	0x3df802a4	0.12109879
177	0x3e455e83	0.19274335
178	0xbf6e8fc9	-0.9318815
179	0xbe3836b7	-0.17989622
180	0x3b9a5b0c	0.0047105607
181	0x3dfdddcc	0.1239582
182	0x3dfd5a13	0.12370696
183	0xbcb308a1	-0.0218547
184	0xbd9a698a	-0.07539661
185	0xbd06a625	-0.03287329
186	0x3da7cd2c	0.0819343
187	0x3b42366e	0.0029634493
188	0xbdc98ca0	-0.09841275
189	0xbcb40d40	-0.021978974
190	0x3e7f661f	0.249413
191	0xbea3d132	-0.3199554
192	0xbd2ff0b4	-0.04295416
193	0x3afa0a7d	0.0019076612
194	0xbe86b819	-0.2631233
195	0x3e3b6fa4	0.18304306
196	0xbdba1f0f	-0.09087955
197	0x3d3187c9	0.043342385
198	0xbe68b136	-0.2272385
199	0xbd7823f0	-0.060581148
200	0xbe478984	-0.19486052
201	0xbe2c1196	-0.16803584
202	0xbe532373	-0.20618992
203	0x3d147760	0.036246657
204	0xbd78edf5	-0.06077381
205	0xbdc53135	-0.09628526
206	0xbe25d654	-0.16195041
207	0xbea4c40f	-0.3218083
208	0xbe7d0493	-0.24708776
209	0xbd8995b9	-0.067180105
210	0xbea2bae2	-0.31783205
211	0xbee3922e	-0.44447464
212	0xbd7a44a6	-0.061100625
213	0xbf021209	-0.5080877
214	0xbee2b3d0	-0.4427781
215	0xbe166db0	-0.1469028
216	0x3d83061d	0.063976504
217	0x3cb41030	0.021980375
218	0x3cc71186	0.024300348
219	0x3e95171a	0.29119188
220	0x3e7dd629	0.24788727
221	0x3e405365	0.18781812
222	0x3e14956b	0.14510123
223	0x3dc333f6	0.09531395
224	0x3dbebe8b	0.09313687
225	0x3e932eb8	0.2874658
226	0x3d3809bf	0.04493117
227	0x3e1c048f	0.15236114
228	0xbdd93c4c	-0.10607204
229	0xbd64d6ac	-0.05586879
230	0xbe0e3658	-0.13887918
231	0xbd9ad32b	-0.07559808
232	0xbeaa2f37	-0.33239147
233	0xbdf30921	-0.118669756
234	0xbdc33dc5	-0.09533266
235	0xbdecbd6e	-0.11559568
236	0xbd8b6c3b	-0.06807753
237	0xbe0852fc	-0.13312906
238	0xbd62f00c	-0.055404708
239	0xbc52e5ab	-0.01287214
240	0xbe05a8ef	-0.13052724
241	0xbe15b49c	-0.14619678
242	0xbd9e8bd8	-0.07741517
243	0xbe2aee3d	-0.16692443
244	0xbd907bff	-0.070549004
245	0xbe916e67	-0.28404543
246	0xbe80b43e	-0.25137514
247	0xbe889167	-0.26673433
248	0xbedac7dd	-0.4273061
249	0xbe37f707	-0.17965327
250	0xbe989425	-0.29800525
251	0xbe6df81a	-0.23239174
252	0x3da47e72	0.0803193
253	0x3e85e659	0.26152304
254	0xbd449369	-0.047992144
255	0x3e0d0c9e	0.13774344

bias f4 [32]
0	0x3d23fe85	0.04003765
1	0x3d08849c	0.03332959
2	0xbbe3337e	-0.0069336286
3	0xbc500608	-0.01269675
4	0xbe0b8f06	-0.13628778
5	0x3bdec335	0.006798173
6	0x3d2fbd74	0.042905286
7	0x3bbed763	0.005824016
8	0x3d160efc	0.036635384
9	0x3d2f9e51	0.04287559
10	0x3d4c4005	0.04986574
11	0x3c07f9e7	0.008299327
12	0xbe6a031f	-0.22852753
13	0xbbabfa0f	-0.005248315
14	0x3cf83ee7	0.030303432
15	0x3c543a5b	0.012953366
16	0x3ced1298	0.02893953
17	0x3d129700	0.035788536
18	0x3d15b1f0	0.036546648
19	0x3cf14d90	0.02945593
20	0x3bbb5e85	0.0057180547
21	0x3cfbe0bc	0.03074681
22	0x3d2e75db	0.042592864
23	0x3d9ae464	0.07563093
24	0x3ccc31c6	0.024926078
25	0x3dbe86b5	0.09303037
26	0xbbb55053	-0.005533257
27	0x3b11fcbc	0.0022275886
28	0x3cd6de71	0.026229115
29	0x3bd3f355	0.0064682164
30	0xbaec313e	-0.0018020046
31	0x3c98e31f	0.018662987

weight f4 [5, 16928]
0	0xbd15b963	-0.03655375
1	0xbdb7ac0a	-0.08968361
2	0x3d30731a	0.04307852
3	0x3dade967	0.084917836
4	0xbd6eca5d	-0.058298457
5	0x3ced821d	0.028992707
6	0x3d5e4e1a	0.054273702
7	0x3d3aa119	0.04556379
8	0x3cf25426	0.02958114
9	0xbc005296	-0.00783219
10	0xbe098654	-0.13430148
11	0xbc4c04a6	-0.01245228
12	0x3e1e496d	0.15457697
13	0x3de49156	0.11160533
14	0x3d5c4adc	0.05378233
15	0xbc931ff4	-0.017959572
16	0xbddfd534	-0.10929337
17	0x3df0b5e9	0.117534466
18	0xbd81f773	-0.06346025
19	0x3c89daeb	0.016828021
20	0x3db97d0f	0.09057056
21	0x3ce34ccf	0.027746586
22	0xbdb1025a	-0.08643027
23	0x3dbfa9a4	0.09358528
24	0x3d479c2f	0.048732933
25	0x3d09cd73	0.033643197
26	0xbdc1b060	-0.09457469
27	0x3dbc3216	0.09189241
28	0x3e038f82	0.12847713
29	0xbd83b8b2	-0.06431712
30	0x3c402897	0.011728427
31	0xb94ae41c	-0.00019349199
32	0xbd1b70f3	-0.037949514
33	0xbdea33f9	-0.11435694
34	0xbb32c84a	-0.0027280026
35	0x3d3df58f	0.04637676
36	0xbbb3d526	-0.0054880558
37	0x3ddf591e	0.1090567
38	0xbbb8bf99	-0.0056380746
39	0xbc31501e	-0.010822324
40	0x3d2c14a4	0.042011872
41	0x3e2827f7	0.16421495
42	0x3d373ca9	0.044735584
43	0x3d52fdaa	0.051511444
44	0xbd27d11c	-0.040970907
45	0xbde861d2	-0.11346783
46	0x3d0b380b	0.033988994
47	0x3d620bd4	0.05518706
48	0x3d2434cf	0.040089425
49	0xbc6064a7	-0.013695872
50	0x3e2f493b	0.17117779
51	0x3d8908e0	0.06691146
52	0xbd90f298	-0.07077521
53	0x3d7eb3ae	0.062183075
54	0xbd0604ac	-0.0327193
55	0x3e1e1e28	0.15441191
56	0x3e080f4f	0.1328709
57	0x3dc6b6ca	0.09702833
58	0x3d89ff50	0.0673815
59	0x3dc2d2fb	0.095128976
60	0xbc329297	-0.010899208
61	0x3cd9b188	0.026573911
62	0x3c474532	0.012162494
63	0xbc9b7e36	-0.01898108
64	0xba9ed3f9	-0.0012117616
65	0x3d1202ac	0.03564708
66	0x3ca705df	0.020388542
67	0xbd49632c	-0.049166843
68	0x3c22cf11	0.009937064
69	0x3d93d9ec	0.072193
70	0x3d4b9f54	0.049712494
71	0x3d067f15	0.03283604
72	0x3e0b1e81	0.13585855
73	0x3de72f8c	0.11288366
74	0x3e2b6c0c	0.16740435
75	0x3d759742	0.059958704
76	0x3d77ed5f	0.06052911
77	0x3c74403f	0.014907896
78	0x3d44507a	0.04792831
79	0x3dde83eb	0.10865005
80	0x3cd0fdb5	0.025511602
81	0x3c8f8a1b	0.017521909
82	0x3c608365	0.013703202
83	0x3c209e50	0.00980337
84	0x3d922e36	0.0713772
85	0x3d610ad5	0.05494197
86	0x3d72b073	0.059250306
87	0x3d8152b0	0.063145995
88	0x3dfd507a	0.12368865
89	0xbc803855	-0.015651861
90	0x3ca53d00	0.020170689
91	0xbe4747f6	-0.19461045
92	0x3e0acf06	0.13555536
93	0x3dca20c5	0.098695315
94	0x3e34002f	0.17578195
95	0x3e29e8bc	0.16592687
96	0x3db2c837	0.08729594
97	0x3e1f81ff	0.15576933
98	0x3e3b82df	0.18311642
99	0x3e0f08f4	0.13968259
100	0x3e09d018	0.13458288
101	0x3de842c3	0.11340859
102	0x3b5f3dfb	0.0034064043
103	0x3c16fb49	0.0092151845
104	0x3d30c74d	0.043158818
105	0x3d794493	0.060856413
106	0x3d12437d	0.035708893
107	0x3dce0928	0.1006034
108	0x3d9873c8	0.074439585
109	0x3dfb0599	0.12256927
110	0x3e01cf57	0.1267675
111	0x3e102519	0.14076652
112	0x3d5de567	0.054173853
113	0xbd8c29be	-0.06843899
114	0xbd96c60b	-0.073619924
115	0xbd20a67d	-0.039221276
116	0x3da5ed05	0.081018485
117	0x3dc810c1	0.097688206
118	0x3ddc5ccb	0.10759886
119	0x3e53dedd	0.20690484
120	0x3bb6570c	0.005564576
121	0x3e139d1c	0.14415401
122	0x3d32a5c3	0.043615114
123	0x3d0b1cff	0.0339632
124	0x3df2c332	0.11853637
125	0xbc795d1d	-0.015219954
126	0xbc9d3a9e	-0.01919299
127	0x3b7a6f53	0.0038213327
128	0x3df289ba	0.118426755
129	0xbd1bd46b	-0.038044374
130	0x3d7fbb2a	0.062434353
131	0x3d87ab08	0.066244185
132	0x3d18d66f	0.037313875
133	0x3d8275dc	0.06370136
134	0x3dd62fdd	0.10458348
135	0x3cc7c108	0.024384037
136	0xbd24210d	-0.040070582
137	0x3c8abea6	0.016936611
138	0x3e0862f6	0.13319
139	0x3d63158b	0.055440467
140	0x3e2d153d	0.16902633
141	0x3d2d0bd9	0.042247627
142	0x3db6d81a	0.08927937
143	0x3e1f2607	0.1554185
144	0x3e2d7f96	0.16943201
145	0x3cfaa180	0.030594587
146	0x3cacb8d5	0.021084229
147	0x3deef472	0.11667718
148	0x3dddd148	0.10830933
149	0x3dd8b950	0.105822206
150	0x3d99bca2	0.07506682
151	0x3d617114	0.05503948
152	0x3df075f9	0.117412515
153	0x3cb7b506	0.022425186
154	0x3d4d9e9b	0.050200086
155	0x3c8dc68e	0.017306592
156	0x3d4f85f4	0.050664857
157	0x3cd220d0	0.025650412
158	0x3d1da816	0.038490377
159	0xbdfad47d	-0.1224756
160	0xbd42453a	-0.0474293
161	0x3d83fb05	0.064443626
162	0x3d86b7c6	0.06578021
163	0x3d90465a	0.070446685
164	0x3db13e63	0.086544774
165	0x3e15db89	0.14634527
166	0x3db15d47	0.08660369
167	0x3db3528f	0.08755981
168	0x3dd009c6	0.10158114
169	0x3e40d3ee	0.18830845
170	0x3ceb31be	0.028710242
171	0x3d6f6127	0.05844226
172	0x3d01e221	0.031709794
173	0x3b9baa22	0.004750506
174	0x3d200b12	0.039073057
175	0x3cd8208f	0.026382713
176	0x3def21d8	0.11676377
177	0x3dbb0356	0.09131496
178	0xbb2b9a40	-0.002618447
179	0x3db5e9e3	0.08882501
180	0xbd175ef9	-0.036955807
181	0xbd1a637b	-0.03769253
182	0x3da8287a	0.08210845
183	0xbe32bc7b	-0.17454712
184	0x3d849b00	0.064748764
185	0x3e30e8fe	0.1727638
186	0x3e2a12d4	0.16608745
187	0x3db806a2	0.0898564
188	0x3dbba58e	0.091624364
189	0x3d157005	0.036483783
190	0x3e4dc2ab	0.20093791
191	0x3df6c808	0.12049872
192	0x3dfa2ad9	0.12215204
193	0x3d9ed53a	0.077555135
194	0x3de478a4	0.11155823
195	0x3e20cd34	0.15703279
196	0x3e1df75c	0.15426391
197	0x3dccf0b0	0.10006845
198	0x3d85d2b7	0.06534331
199	0x3da2dd00	0.07952309
200	0x3d534870	0.051582754
201	0x3cf914ec	0.030405484
202	0x3d097942	0.033562906
203	0x3d7d865b	0.06189571
204	0xbd9033b3	-0.07041111
205	0x3d0b9d14	0.03408535
206	0xbddaca14	-0.106830746
207	0x3d57d923	0.052697312
208	0x3db50158	0.08838147
209	0x3d8fa9a0	0.07014775
210	0x3dd8e8ea	0.105913
211	0x3e1a46ca	0.15066066
212	0x3cef4886	0.029209387
213	0x3dd1bc21	0.10240961
214	0x3cb3f205	0.02196599
215	0x3e2cd19b	0.16876833
216	0xbdabad23	-0.083826326
217	0xbe560612	-0.20900753
218	0x3cbb7431	0.022882553
219	0x3dc6f5f1	0.09714878
220	0x3e07f93b	0.13278668
221	0x3d218f22	0.039443143
222	0xbb62170f	-0.0034498607
223	0xbabe0985	-0.0014498687
224	0x3d57749b	0.052601438
225	0x3d9d926e	0.07693945
226	0x3ddf7623	0.10911205
227	0x3c290ba7	0.01031772
228	0x3db8a547	0.09015899
229	0xbe66d004	-0.22540289
230	0x3e1e03b1	0.15431096
231	0x3d3b4ac8	0.045725614
232	0x3da0b2d8	0.07846612
233	0x3ddbc1ea	0.107303455
234	0x3e2559d4	0.16147548
235	0x3d19aab3	0.037516307
236	0x3d6734d2	0.056446858
237	0x3e40f9c3	0.18845277
238	0x3d426fbc	0.04746984
239	0xbe0e4cd0	-0.13896489
240	0xbe709ade	-0.23496577
241	0xbe8e4900	-0.2779007
242	0x3ceb61c6	0.028733145
243	0x3c66e489	0.014092573
244	0xbd0b7ad3	-0.03405268
245	0x3dc94a79	0.09828658
246	0x3be34e89	0.0069368524
247	0x3c957129	0.018242436
248	0x3ab7e45e	0.0014029851
249	0x3c36a263	0.011147114
250	0xbcbd6a76	-0.023122054
251	0xbd058922	-0.032601483
252	0x3d37a0b4	0.044830993
253	0xbc8697b2	-0.016429756
254	0x3db5a207	0.08868795
255	0x3e0b8470	0.1362474

bias f4 [5]
0	0xbd85ae6c	-0.06527409
1	0xbd91ede2	-0.07125451
2	0xbda3ce6c	-0.07998356
3	0xbd8a1013	-0.06741347
4	0xbd848430	-0.06470525
