archived_data/b4_r4_m20_s150--2019-01-28--150738.476053_stationary/episode_3750.model (torch_old, 375724 bytes, 8 tensors)

weight f4 [6, 6, 3, 3]
0	0x3db597d6	0.08866851
1	0xbd828e82	-0.063748375
2	0x3de2dbe8	0.110771
3	0xbdab10d2	-0.083528176
4	0x3db30e98	0.08743018
5	0x3cb19f70	0.021682471
6	0xbde8f903	-0.1137562
7	0xbd9251a4	-0.07144478
8	0xbcb90f74	-0.022590376
9	0xbb7efd0a	-0.0038908147
10	0x3d60f23b	0.05491851
11	0xbd845d48	-0.064631045
12	0x3d6b11ec	0.05739014
13	0xbe52403f	-0.2053232
14	0x3e1504e4	0.14552647
15	0xbbd9c676	-0.006645973
16	0x3deeeb3c	0.11665961
17	0xbd0dccb6	-0.034619056
18	0x3defbb3d	0.11705635
19	0x3ed49772	0.41521794
20	0x3eb4b501	0.35294345
21	0x3e73582d	0.23764105
22	0x3e959b92	0.29220253
23	0x3eaff264	0.34364617
24	0x3e831886	0.25604647
25	0x3ec4e0a7	0.38452646
26	0x3e8cb13d	0.27478972
27	0xbcbe8e58	-0.023261234
28	0x3d803a8c	0.06261167
29	0xbc1b2bd0	-0.009470895
30	0xbd7c1b8c	-0.06154971
31	0x3da599ac	0.08085951
32	0xbdb54332	-0.08850707
33	0xb93ab800	-0.00017806888
34	0xbe0280ba	-0.12744418
35	0xbd8ac38e	-0.0677558
36	0x3e976674	0.29570353
37	0x3cbd485c	0.023105793
38	0x3eb08740	0.34478188
39	0x3e751369	0.23933186
40	0x3e9a1c07	0.30099508
41	0x3e8a8600	0.2705536
42	0x3e84fe62	0.2597533
43	0x3e145028	0.14483702
44	0x3e0766d9	0.13222827
45	0xbd2234cf	-0.039601143
46	0x3da70045	0.08154348
47	0xbcce0cb5	-0.025152544
48	0x3c4227d0	0.011850312
49	0xbe345c60	-0.17613363
50	0xbdb6e14a	-0.08929689
51	0xbd13c43a	-0.036075808
52	0xbddec633	-0.10877647
53	0x3dadaf07	0.084806494
54	0x3d8972e2	0.06711365
55	0x3ddcb180	0.10776043
56	0x3d684588	0.056706935
57	0x3b8eba80	0.0043557286
58	0xbbc5a0e0	-0.0060311407
59	0x3ddce03c	0.10784957
60	0x3c963250	0.018334538
61	0x3d0cfc50	0.03442031
62	0xbd8ca8e5	-0.068681516
63	0xbdad5377	-0.08463185
64	0x3dcfe9b0	0.10151994
65	0xbdbac856	-0.09120242
66	0x3de1bd9a	0.11022492
67	0xbded6469	-0.11591417
68	0x3e03fc49	0.12889208
69	0xbd24b9b7	-0.040216174
70	0x3dda6eeb	0.10665687
71	0x3c90d261	0.017678441
72	0x3b7ccf07	0.0038575546
73	0xbd6c9cdf	-0.05776679
74	0x3bcea789	0.006306593
75	0xbd4e62db	-0.050387245
76	0xbd2daea6	-0.042402886
77	0xbdc47a4a	-0.09593637
78	0xbbdef69b	-0.0068043
79	0xbdeee2a4	-0.11664322
80	0xbd87ca93	-0.06630435
81	0x3ddf01da	0.10889025
82	0xbd6dfba8	-0.058101326
83	0xbdf54541	-0.119761
84	0xbdfc973e	-0.12333535
85	0x3dc4562e	0.0958675
86	0xbd22f1e0	-0.03978145
87	0x3c688920	0.014192849
88	0xbd67c5e8	-0.056585222
89	0xbdc42606	-0.09577565
90	0xbe87c27c	-0.26515567
91	0xbea5d985	-0.32392517
92	0x3b4fed09	0.0031726977
93	0xbece25b7	-0.4026315
94	0xbefcc5c4	-0.49369633
95	0xbf751dd2	-0.9574863
96	0xbef5bc4c	-0.47995222
97	0xbf495b5c	-0.7865503
98	0xbe923157	-0.28553268
99	0xbe1ede5e	-0.15514514
100	0x3da09138	0.07840198
101	0xbd11b050	-0.035568535
102	0x3d46ac6b	0.048504274
103	0xbe8fed3e	-0.2811069
104	0x3deaaa83	0.11458304
105	0xbdd29098	-0.10281485
106	0x3dfb2cdc	0.122644156
107	0xbd30578a	-0.043052234
108	0x3d6a5cc0	0.05721736
109	0xbdbf06b8	-0.093274534
110	0x3da435b6	0.08018057
111	0xbe0a3b41	-0.13499166
112	0x3bb47b00	0.005507827
113	0xbd97bcc6	-0.074090526
114	0x3e0b11b0	0.13580966
115	0x3ba8ace0	0.0051475614
116	0x3c49cf40	0.012317479
117	0x3d93955a	0.07206221
118	0xbe1add98	-0.15123594
119	0x3e0f7fc6	0.14013585
120	0xbda46db6	-0.08028738
121	0x3e1a4eff	0.15069197
122	0xbdde695e	-0.10859941
123	0x3da1edd4	0.0790669
124	0xbd407a4c	-0.04699163
125	0xbe38837c	-0.18018907
126	0xbe47800c	-0.1948244
127	0xbd31d678	-0.043417424
128	0x3bb5c6f5	0.005547399
129	0xbdf89c19	-0.12139148
130	0xbe84544f	-0.25845572
131	0xbd9c69cd	-0.076373674
132	0x3d9551ad	0.07290969
133	0xbe0aeb72	-0.13566378
134	0xbd2b54e4	-0.041829005
135	0x3dbb1638	0.09135097
136	0x3be50100	0.0069886446
137	0x3d9e8a1a	0.077411845
138	0xbddff190	-0.10934746
139	0xbd575fb4	-0.052581504
140	0xbdd5df17	-0.10442942
141	0x3d58c754	0.05292447
142	0xbd105b02	-0.03524304
143	0xbc944a30	-0.018101782
144	0x3d96bce7	0.07360249
145	0x3cbeab20	0.023274958
146	0xbd5503ad	-0.05200546
147	0x3e11c9e8	0.14237177
148	0x3d3774d0	0.044789135
149	0x3d56cf3c	0.052443728
150	0x3e9c1d2a	0.30491
151	0xbd607dcb	-0.054807466
152	0x3da1cc3b	0.07900282
153	0xbdc15e16	-0.094417736
154	0x3dcd816b	0.1003445
155	0xbdb9fea6	-0.090817735
156	0xbcf74784	-0.030185468
157	0x3e2926f0	0.1651876
158	0x3e12ccca	0.14335933
159	0xbd1955db	-0.037435394
160	0x3d1e592f	0.03865927
161	0x3d85e598	0.06537932
162	0x3d9b30b0	0.07577646
163	0xbdf0a66c	-0.117504925
164	0xbdd287a8	-0.102797806
165	0xbd6490e2	-0.055802234
166	0x3d36b598	0.044606775
167	0xbc3f0140	-0.011658013
168	0x3cb71338	0.022348031
169	0xbde2368d	-0.11045561
170	0x3d76a8f8	0.060219735
171	0xbcca5b8d	-0.024701858
172	0x3dd2f5c6	0.10300784
173	0xbd7bd316	-0.061480604
174	0x3d864ebe	0.06557988
175	0xbd85aef4	-0.0652751
176	0x3c009552	0.007848101
177	0xbc25f758	-0.010129772
178	0x3cc5cb55	0.024144808
179	0xbcd69c38	-0.026197538
180	0x3e682292	0.22669438
181	0x3e7c516a	0.24640432
182	0x3e83c5fd	0.2573699
183	0x3e6c46f2	0.23073938
184	0x3e55e6ca	0.2088882
185	0x3da2effc	0.0795593
186	0x3e00d98f	0.12582992
187	0x3e4bdd3b	0.19908611
188	0x3e934d3d	0.28769866
189	0xbdb08a62	-0.086201444
190	0x3d4571d0	0.048204243
191	0xbd46311a	-0.04838667
192	0xbd155f30	-0.03646773
193	0x3d76b76c	0.06023352
194	0xba72bf00	-0.00092600286
195	0xbdd6244c	-0.10456142
196	0xbc9ec180	-0.019379377
197	0xbcacefb4	-0.021110393
198	0xbf013b9c	-0.5048158
199	0xbeb35f76	-0.35033768
200	0xbf6e34c8	-0.9304929
201	0xbf55868f	-0.83408445
202	0xbf0a3466	-0.53986204
203	0xbe9ccd14	-0.30625212
204	0xbe9fc707	-0.31206533
205	0xbeaa1312	-0.33217674
206	0xbe293fbb	-0.16528217
207	0xbadc5dc5	-0.0016812613
208	0xbb8b734c	-0.004255688
209	0xbc87288a	-0.016498823
210	0xbcd0a35a	-0.025468517
211	0x3da12d64	0.07869986
212	0xbd5360f7	-0.051606145
213	0x3db8383e	0.08995102
214	0xbde2dfac	-0.11077818
215	0xbd5de583	-0.054173958
216	0xbdd783d7	-0.10523193
217	0xbdf6da50	-0.120533586
218	0x3d918236	0.07104914
219	0x3c694740	0.014238179
220	0x3dc270fe	0.09494208
221	0xbc96b284	-0.01839567
222	0xbcef083c	-0.029178731
223	0xbd30cba6	-0.043162964
224	0x3daca632	0.08430137
225	0xbd62eff0	-0.055404603
226	0xbc3794b7	-0.01120489
227	0x3c4c88ed	0.0124838175
228	0x3cd0b6b6	0.025477748
229	0xbdac56c7	-0.08414989
230	0x3d5b4482	0.05353213
231	0xbdc0a496	-0.09406392
232	0x3c3a7f84	0.011382941
233	0xbb934768	-0.0044945963
234	0xbe871f33	-0.2639099
235	0xbf0e9de8	-0.55709696
236	0xbe5258ca	-0.20541683
237	0xbf3383e9	-0.70123154
238	0xbecbf428	-0.39834714
239	0xbf1fa5b2	-0.62362206
240	0xbe55e6a4	-0.20888764
241	0xbf3c02ba	-0.7344166
242	0xbeb6d0b9	-0.35706118
243	0xbd01c4c4	-0.03168179
244	0x3d886d28	0.06661445
245	0x3c8de978	0.01732324
246	0x3c992238	0.018693075
247	0xbd9afda3	-0.075679086
248	0x3d5c3530	0.05376166
249	0xbd1eead4	-0.03879817
250	0xbc337820	-0.010953933
251	0xbdb1a564	-0.08674124
252	0x3e143dce	0.14476702
253	0xbd8b6a7d	-0.068074204
254	0x3e1cec33	0.15324478
255	0x3b76010c	0.0037537245

bias f4 [6]
0	0x3e0692cc	0.13141936
1	0xbc380df1	-0.011233793
2	0xbd05d687	-0.032675292
3	0xbd655370	-0.055987775
4	0x3dae008a	0.084961966
5	0xbd588342	-0.052859552

weight f4 [16, 6, 3, 3]
0	0x3e553999	0.20822753
1	0xbe089276	-0.1333712
2	0xbd7ff7a4	-0.062492028
3	0xbca10e2f	-0.019660084
4	0xbdaef2c2	-0.08542396
5	0xbe6cf60c	-0.23140734
6	0xbb936ba1	-0.0044989143
7	0xbc40b0d5	-0.01176091
8	0xbd66ca6b	-0.056345385
9	0xbe0025d2	-0.12514427
10	0xbd171d9d	-0.036893476
11	0x3e9d8910	0.30768633
12	0x3cfa5a6b	0.030560693
13	0x3e344312	0.1760371
14	0x3e3ef3da	0.1864771
15	0xbce03458	-0.02736871
16	0xbe40967e	-0.18807408
17	0x3e12df0d	0.143429
18	0xbdc02363	-0.093817495
19	0xbe16a283	-0.14710431
20	0xbde0d56b	-0.10978206
21	0x3c429605	0.011876588
22	0xbe380ef1	-0.1797445
23	0xbda499fa	-0.08037181
24	0xbcbadbe5	-0.022809932
25	0xbdbb6f19	-0.091520496
26	0xbdfda1dd	-0.123843886
27	0xbe3a7041	-0.18206884
28	0xbd407f14	-0.04699619
29	0x3db98648	0.09058815
30	0xba5ad807	-0.00083482306
31	0x3d699588	0.05702737
32	0x3e981ef9	0.2971113
33	0xbe1bb84e	-0.15207025
34	0x3dc87560	0.097880125
35	0x3df91d9c	0.12163851
36	0x3df53bd2	0.119743004
37	0xbcb07e51	-0.021544607
38	0x3debc342	0.11511852
39	0xbc4c0737	-0.012452892
40	0x3cebb8a7	0.028774573
41	0xbe836aa2	-0.25667292
42	0xbe1a47f6	-0.15066513
43	0x3e285c71	0.16441514
44	0xbc8622ad	-0.016373957
45	0xbe35933b	-0.17731945
46	0x3d6067b5	0.054786403
47	0xbd1df6f0	-0.038565576
48	0xbdb46739	-0.08808751
49	0x3d40ab28	0.047038227
50	0xbdcdedcb	-0.10055121
51	0xbe3991ac	-0.18121976
52	0xbcadc349	-0.021211283
53	0x3cdec40f	0.027193097
54	0xbe9ea35b	-0.30984005
55	0xbe62326c	-0.22089547
56	0xbe694b08	-0.22782528
57	0xbe17663e	-0.14785096
58	0xbe188a1b	-0.14896433
59	0xbe3e3850	-0.18576169
60	0xbe6ffdda	-0.2343668
61	0xbdbd0589	-0.09229571
62	0xbef0773e	-0.46965975
63	0xbd0d316a	-0.034470953
64	0x3e5b9b74	0.2144602
65	0xbd8649c0	-0.065570354
66	0x3e00af84	0.12566954
67	0xbd4c8177	-0.049928155
68	0x3e1bef5f	0.15228032
69	0x3d438a1f	0.047739144
70	0x3e1dffb8	0.1542958
71	0xbc04f15e	-0.008114187
72	0xbcf7b355	-0.03023688
73	0xbdfccefd	-0.123441674
74	0x3df0ce21	0.11758066
75	0xbd887d2f	-0.06664502
76	0x3e2ddc60	0.16978598
77	0xbd1d127d	-0.03834771
78	0xbcdfe905	-0.027332792
79	0xbcd55b3e	-0.026044484
80	0xbb389800	-0.002816677
81	0xbd54693b	-0.051858168
82	0xbd070c64	-0.0329708
83	0xbbd7589c	-0.0065718424
84	0x3cdfc950	0.027317673
85	0xbce395f3	-0.027781462
86	0xbe0882ed	-0.13331194
87	0xbe5826a6	-0.21108493
88	0x3cb00ed1	0.02149144
89	0xbd0c2ca7	-0.03422227
90	0xbe153d2c	-0.14574116
91	0x3e0f31cb	0.13983838
92	0x3d4007b8	0.04688236
93	0x3d8d05ef	0.06885897
94	0xbe27bf8f	-0.16381668
95	0x3d3fa761	0.046790484
96	0x3d8237c7	0.06358295
97	0x3d3021fa	0.043001153
98	0xbc28e3e2	-0.010308238
99	0x3e221bd6	0.15830931
100	0x3dee3f7f	0.11633205
101	0x3d25052b	0.04028813
102	0x3de4a6da	0.11164637
103	0x3dc76e5e	0.09737848
104	0x3dd459f4	0.1036872
105	0x3dee40c9	0.116334505
106	0xbd8b885d	-0.068131186
107	0x3dc935de	0.098247275
108	0x3d48da03	0.049036037
109	0xbdc6924a	-0.09695871
110	0xbcb96c84	-0.022634752
111	0x3d360b13	0.044444155
112	0xbd82f3fd	-0.06394193
113	0xbcd252c5	-0.025674233
114	0xbd9c2075	-0.07623378
115	0xbe10e6ca	-0.14150539
116	0xbcef8a87	-0.02924086
117	0x3e02080c	0.12698382
118	0xbe3b5b19	-0.1829647
119	0xbcca3980	-0.024685621
120	0x3df6282e	0.120193824
121	0x3e15dccf	0.14635013
122	0x3e01231e	0.12611052
123	0x3e1ca9df	0.15299176
124	0x3e2a989e	0.16659781
125	0x3ba6bd3f	0.005088478
126	0x3d222082	0.039581783
127	0xbd2f88bd	-0.042855013
128	0x3d1809a6	0.037118576
129	0xbe817c64	-0.25290215
130	0x3d8dc121	0.06921602
131	0x3dbd00b6	0.09228651
132	0xbeb9c539	-0.3628328
133	0xbe40e6b5	-0.18838008
134	0xbe07a5e4	-0.13246876
135	0xbdce9144	-0.10086301
136	0x3cf74a75	0.030186871
137	0xbe4ed4db	-0.20198385
138	0x3b45ef05	0.0030202281
139	0x3e001f54	0.1251195
140	0x3d4e42fa	0.050356843
141	0x3e232d34	0.15935212
142	0x3e3cd3cb	0.18440168
143	0x3d59a9ea	0.05314056
144	0x3d38b408	0.045093566
145	0xbd81b768	-0.0633381
146	0x3e052041	0.13000585
147	0xbe576281	-0.2103367
148	0xbe1616c2	-0.14657119
149	0x399fd6ad	0.0003048679
150	0xbc82c02c	-0.015960775
151	0xbe946550	-0.28983545
152	0xbdbe0d05	-0.09279827
153	0xbe41325c	-0.18866867
154	0xbe351060	-0.17682028
155	0xbe341e67	-0.17589723
156	0xbddb6bdb	-0.10713931
157	0xbe97438d	-0.29543725
158	0xbea8aca7	-0.32944223
159	0xbe99c5e0	-0.3003378
160	0xbe1f1454	-0.15535098
161	0xbce179ae	-0.027523842
162	0xbe734e61	-0.23760368
163	0xbd438494	-0.04773386
164	0xbdfe02d9	-0.12402887
165	0x3d3e79bf	0.046502825
166	0xbdb40d4a	-0.08791597
167	0x3df1e2cd	0.11810837
168	0xbe85309f	-0.26013657
169	0x3db3be95	0.08776585
170	0xbdf71d78	-0.120661676
171	0xbd8ff4cb	-0.070291124
172	0x3d0ddc4c	0.03463392
173	0xbd80e427	-0.062935166
174	0xbda08e90	-0.07839692
175	0xbc0c09b6	-0.008547237
176	0x3e52e997	0.2059692
177	0xbe1180f3	-0.14209346
178	0x3da1457e	0.07874583
179	0xbd0de5fe	-0.034643166
180	0x3d457bb8	0.04821369
181	0xbd6cf295	-0.05784853
182	0xbe547215	-0.20746644
183	0x3da7d1fb	0.081943475
184	0xbc1fdc1b	-0.009757067
185	0xbe30f9f2	-0.17282847
186	0xbd54a399	-0.05191383
187	0xbd2755ce	-0.040853314
188	0xbd296adf	-0.041361686
189	0x3c144fe2	0.009052249
190	0x3ca3f18c	0.02001264
191	0xbe141810	-0.14462304
192	0xbda486ad	-0.080335
193	0x3d9915f2	0.07474889
194	0xbdb905be	-0.09034298
195	0xbd67855f	-0.056523677
196	0xbdd03e56	-0.1016814
197	0xbe1edecc	-0.15514678
198	0x3e5dd3c7	0.21662818
199	0x3d696886	0.056984447
200	0x3d3f1536	0.046651088
201	0x3e094e1c	0.13408703
202	0x3d6bd0fd	0.057572354
203	0x3e6d8151	0.23193862
204	0x3b812700	0.0039414167
205	0x3db36b1f	0.08760666
206	0x3cc51cd4	0.024061598
207	0xbd7bf885	-0.061516304
208	0x3c99d322	0.018777434
209	0xbe1c29eb	-0.15250365
210	0xbe421a3a	-0.18955317
211	0x3d924e8f	0.0714389
212	0x3d747853	0.059685063
213	0xbdd678b5	-0.10472242
214	0x3d0fd788	0.035117656
215	0x3da7c6ab	0.0819219
216	0x3d9bae7d	0.076016404
217	0xbe43fb05	-0.19138725
218	0xbd9cdbde	-0.07659124
219	0xbddf0185	-0.10888962
220	0x3de25353	0.11051049
221	0xbe362d0e	-0.17790624
222	0x3b3b74a7	0.0028603466
223	0xbc40c2f5	-0.011765231
224	0x3d8d2b0d	0.06892977
225	0x3dad8215	0.08472077
226	0xbe22adb1	-0.1588657
227	0x3d464e3b	0.04841445
228	0x3d834628	0.064098656
229	0xbe2c44ff	-0.16823195
230	0xbe2257d3	-0.15853815
231	0x3dee37c1	0.11631728
232	0x3b6f2686	0.0036491468
233	0x3d240fdd	0.04005419
234	0x3df62148	0.12018067
235	0xbba842f9	-0.005134937
236	0xbbbad1b2	-0.005701267
237	0x3cae2ece	0.021262553
238	0x3da59e9d	0.08086894
239	0x3de3c200	0.11120987
240	0xbe974170	-0.29542112
241	0x3d033e7c	0.03204201
242	0xbdefbc74	-0.117058665
243	0x3df1a663	0.11799314
244	0x3df2178f	0.118209
245	0x3dd929bd	0.10603664
246	0x3d522e70	0.051313818
247	0x3d1368b8	0.03598854
248	0x3e325fa9	0.17419304
249	0xbc016f70	-0.007900104
250	0x3da752a3	0.081700586
251	0x3d80cc83	0.062890075
252	0xbd1b72c9	-0.037951265
253	0xbdd704bb	-0.10498949
254	0xbdb0da1f	-0.08635353
255	0xbdeda835	-0.116043486

bias f4 [16]
0	0x3d8232f1	0.063573726
1	0x3d0d2fb3	0.034469318
2	0x3c941429	0.01807602
3	0xbc8cc009	-0.017181413
4	0xbc1f1e96	-0.009711882
5	0xbdb2460b	-0.08704766
6	0x3bdb74c9	0.0066972715
7	0xbd385f76	-0.045012914
8	0xbd6ad9e0	-0.057336688
9	0xbcfabc34	-0.03060732
10	0xbc9e07e3	-0.01929087
11	0x3dc9f4fb	0.098611794
12	0x3bd8e4be	0.006619065
13	0xbdd33fb2	-0.10314883
14	0xbd86da40	-0.06584597
15	0x3a46668a	0.000756838

weight f4 [32, 16, 3, 3]
0	0xbdaed6e2	-0.085370794
1	0xbd8e94b1	-0.069619544
2	0x3cd8cae5	0.026463935
3	0x3d4d2f66	0.05009403
4	0xbdf5e56a	-0.12006648
5	0xbd94f5b3	-0.07273426
6	0x3c42028c	0.011841428
7	0x3d05f8e2	0.032708056
8	0xbd82beeb	-0.06384071
9	0xbe0cf121	-0.13763858
10	0xbd4bb731	-0.04973525
11	0x3de173de	0.11008428
12	0xbe374649	-0.17897905
13	0xbc771217	-0.015079997
14	0x3d8d8283	0.06909659
15	0xbd233042	-0.039840944
16	0x3d5384af	0.05164021
17	0xbd3fb380	-0.046802044
18	0x3c7a84cf	0.015290453
19	0xbdafb75b	-0.08579894
20	0xbe05f1e0	-0.13080549
21	0x3debc551	0.115122445
22	0x3d80733a	0.06271978
23	0x3d44dc46	0.04806163
24	0x3d7fa9d6	0.062417828
25	0xbd323143	-0.04350401
26	0xbc9d4451	-0.019197615
27	0xbdac26c9	-0.08405835
28	0x3d66a5ea	0.05631057
29	0x3c00243b	0.007821138
30	0x3ca477bf	0.02007663
31	0x3d1a0622	0.037603505
32	0x3bd7c954	0.0065852795
33	0x3dadd84d	0.08488522
34	0xbd149d2b	-0.0362827
35	0x3df67971	0.12034882
36	0xbe857208	-0.2606356
37	0xbd6619d8	-0.05617699
38	0xbd5cfe5f	-0.053953525
39	0x3d51a0fd	0.05117892
40	0xbdef75ba	-0.116923764
41	0x3d8d4e58	0.068997085
42	0x3de41ac7	0.1113792
43	0xbd5c5b1f	-0.053797837
44	0xbd329792	-0.04360158
45	0xbd75414a	-0.059876718
46	0xbd92dc24	-0.07170895
47	0x3d0d5421	0.03450406
48	0xbdb6e365	-0.08930091
49	0xbc387a6b	-0.0112596555
50	0x3ca9364f	0.02065578
51	0x3de72976	0.11287205
52	0x3dad7a80	0.08470631
53	0xbc5c34da	-0.013440335
54	0x3e8f7e9f	0.28026292
55	0x3ddce965	0.10786704
56	0x3d4722d4	0.0486172
57	0x3e6fe0c4	0.23425585
58	0xbdcea14a	-0.10089357
59	0xbd04fb61	-0.032466296
60	0x3dc32330	0.09528196
61	0x3c481be5	0.012213682
62	0xbd5dda0f	-0.054163035
63	0xbd447fa2	-0.047973283
64	0xbd8ad69c	-0.06779215
65	0x3c925bf4	0.017866112
66	0xbbb9e674	-0.005673224
67	0x3c8626de	0.016375955
68	0x3e6e66e6	0.2328144
69	0x3e27f0fc	0.16400522
70	0x3dc9dfeb	0.09857162
71	0x3de28646	0.11060767
72	0xbdfe1e52	-0.12408127
73	0xbdc3fb66	-0.09569435
74	0xbdca5a23	-0.098804735
75	0xbd8b1076	-0.06790249
76	0xbd188f2f	-0.037245926
77	0xbe0c53f4	-0.137039
78	0x3d4f30ca	0.05058364
79	0x3d813fc6	0.06310992
80	0xbc89e1ca	-0.016831297
81	0xbe390206	-0.18067178
82	0xbc55787a	-0.013029212
83	0x3d0d7f83	0.034545433
84	0xbdaac443	-0.08338215
85	0x3cccedc5	0.025015721
86	0x3b33645c	0.0027373051
87	0xbe165f12	-0.14684704
88	0xbd1bba97	-0.038019743
89	0xbdbfd333	-0.09366455
90	0x3dd99b6f	0.1062535
91	0xbd60c082	-0.05487109
92	0xbd78652c	-0.06064336
93	0xbd81a9c3	-0.063312076
94	0x3d95439d	0.07288287
95	0xbd15dbb6	-0.036586486
96	0xbd626a1e	-0.055276982
97	0x3d3b81b9	0.04577801
98	0xbd171b33	-0.036891174
99	0x3d4494e4	0.047993556
100	0x3cb35dda	0.021895338
101	0x3c52e97e	0.012873052
102	0x3c5efa29	0.0136094475
103	0xbd70266d	-0.058630396
104	0x3e2321b5	0.15930827
105	0x3cb03b11	0.02151254
106	0x3d914b20	0.07094407
107	0xbe410c04	-0.1885224
108	0x3e0a82da	0.13526478
109	0x3d8bde78	0.06829542
110	0x3b8d9281	0.004320443
111	0x3ded9261	0.11600185
112	0x3e2a9c29	0.16661133
113	0xbca3ba26	-0.019986223
114	0x3d0abcab	0.033871334
115	0xbd4ff9a8	-0.0507752
116	0x3a1e88e4	0.000604762
117	0xbe5c4769	-0.21511616
118	0xbeab1213	-0.33412227
119	0x3dd00989	0.10158069
120	0xbe56d1fb	-0.20978539
121	0xbd9ddfc4	-0.077086955
122	0xbd39c906	-0.045357727
123	0xbdb42499	-0.08796043
124	0xbc93de30	-0.018050283
125	0xbc8a4404	-0.016878136
126	0xbd33642b	-0.0437967
127	0x3bd9848d	0.0066381157
128	0xbd91d4a1	-0.07120634
129	0x3d87ca69	0.066304035
130	0xbd907a16	-0.07054536
131	0x3d3eeed1	0.04661447
132	0xbe03aa7f	-0.12858008
133	0x3d625300	0.055254936
134	0x3d0f8933	0.035042953
135	0xbd811480	-0.06302738
136	0xbe3c383a	-0.18380824
137	0xbe7b044f	-0.24513362
138	0x3d0cbf1a	0.034361936
139	0xbe1970ae	-0.1498439
140	0xbe53f970	-0.20700622
141	0xbdd2ae15	-0.1028711
142	0x3dfd8d40	0.12380457
143	0xbe96ea79	-0.29475763
144	0xbd9cc0bc	-0.07653949
145	0xbad17aa4	-0.0015981984
146	0x3d0b74bf	0.034046885
147	0xbd33e0da	-0.043915607
148	0x3d3606ff	0.044440266
149	0x3ba83e84	0.0051344056
150	0x3d646231	0.055757705
151	0x3d96be29	0.07360489
152	0xbc304bb6	-0.010760238
153	0xbc934b94	-0.017980374
154	0xbc995f1d	-0.018722111
155	0x3da69bc5	0.081351794
156	0xbd7967e1	-0.060890082
157	0x3c8cd2b0	0.017190307
158	0x3d5b9563	0.053609263
159	0x3c91a8bc	0.017780654
160	0x3c8f3633	0.017481899
161	0x3d0ba793	0.034095358
162	0xbdb76b0b	-0.08955964
163	0xbc5cb3c0	-0.01347059
164	0xbe361880	-0.17782784
165	0xbd74dc23	-0.05978025
166	0xbbd428bc	-0.0064745825
167	0xbd1f1f65	-0.0388483
168	0xbdef2d47	-0.11678558
169	0xbd80e30d	-0.062933065
170	0x3d4195bf	0.04726195
171	0x39f36632	0.00046424713
172	0xbd804b9f	-0.062644236
173	0xbe285969	-0.16440357
174	0xbde8455e	-0.11341356
175	0xbdb2a997	-0.08723753
176	0x3d9fc715	0.07801644
177	0xbd239d42	-0.039944895
178	0xbe1d6c36	-0.1537331
179	0x3d43f7f1	0.047843877
180	0x3b856ad9	0.004071575
181	0xbca6fb1b	-0.020383408
182	0xbd4da184	-0.05020286
183	0xbd107e69	-0.035276804
184	0xbdbb4866	-0.09144668
185	0xbdda839a	-0.10669632
186	0x3d1ee659	0.038793895
187	0x3ce708cb	0.028202435
188	0xbddf7e9f	-0.10912823
189	0xbdcfc187	-0.10144334
190	0x3d28d908	0.041222602
191	0xbcaffc06	-0.021482479
192	0x3db98efc	0.09060475
193	0x3d9df24a	0.077122286
194	0xbdf17214	-0.11789337
195	0x3cd3200a	0.025772113
196	0xbd6a2e81	-0.057173256
197	0x3c0c9f6f	0.008582934
198	0x3e07ac5a	0.1324934
199	0x3d97be20	0.0740931
200	0x3cb98232	0.02264509
201	0x3da85ac1	0.08220435
202	0xbc9f6493	-0.019457137
203	0xbe032630	-0.12807536
204	0x3d177e7b	0.036985856
205	0xbce8964f	-0.028391985
206	0x3c966b15	0.018361608
207	0xbcc727ff	-0.024311064
208	0x3c7a97d4	0.015294988
209	0x3db7e81f	0.089798205
210	0x3d1b3cf6	0.037899934
211	0xbcbcd7ee	-0.023052182
212	0x3e0975d5	0.13423856
213	0xbc6198b8	-0.013769321
214	0x3e263f2f	0.1623504
215	0xbdd91a3b	-0.10600706
216	0xbc4d3d99	-0.012526893
217	0x3da8387f	0.08213901
218	0x3da32846	0.07966666
219	0x3da99597	0.08280485
220	0x3df60ece	0.120145425
221	0x3d9dc457	0.077034645
222	0x3d32b6bd	0.043631304
223	0xbd2da53d	-0.04239391
224	0x3d51f11b	0.051255327
225	0xbd3e85e9	-0.046514425
226	0xbdaa65ff	-0.083202355
227	0xbc56c46d	-0.013108355
228	0xbd36d7fd	-0.044639576
229	0xbd4a91c3	-0.049455415
230	0xbd9126ff	-0.07087516
231	0xbde6cbbe	-0.112693295
232	0xbd9f10b8	-0.07766861
233	0xbc31303b	-0.010814722
234	0xbdc75836	-0.09733622
235	0xbe06b8fd	-0.13156505
236	0xbd837a1c	-0.06419775
237	0xbe07dd57	-0.13268028
238	0xbc557c47	-0.013030118
239	0xbd0e1af0	-0.03469366
240	0xbe0b17fd	-0.1358337
241	0xbd087b3e	-0.033320658
242	0xbd517b4a	-0.05114297
243	0xbe71c853	-0.23611574
244	0xbe4240f0	-0.18970084
245	0xbe458639	-0.19289483
246	0xbe4443e2	-0.1916652
247	0xbe226c96	-0.15861735
248	0xbe7344d7	-0.23756729
249	0xbe6dd5a5	-0.2322603
250	0xbdcb8d94	-0.09939113
251	0xbe15b161	-0.14618446
252	0xbda9bced	-0.08287988
253	0xbd878e22	-0.066189066
254	0xbe197c88	-0.14988911
255	0xbc1aad18	-0.009440683

bias f4 [32]
0	0xbc6e4851	-0.014543609
1	0x3b9620da	0.004581553
2	0xbc158e9c	-0.009128239
3	0xbd087762	-0.033316977
4	0xbd766e5f	-0.06016385
5	0xbc97b501	-0.018518927
6	0x3cb747c6	0.022373091
7	0xbc389f84	-0.0112685
8	0x3bb2c5d5	0.0054557123
9	0xbd4f367f	-0.05058908
10	0xbcac253e	-0.021013852
11	0xbd17dcef	-0.037075933
12	0xbd72e75f	-0.059302684
13	0xbd53cdab	-0.051709812
14	0xbce11f05	-0.027480612
15	0xbc6fb512	-0.014630573
16	0xbc188af9	-0.009310477
17	0xbc7def88	-0.015499003
18	0xbd2fd737	-0.042929854
19	0xbdb83198	-0.08993834
20	0xbda90a64	-0.08253935
21	0xbd6f0eff	-0.05836391
22	0xbc26376a	-0.010145048
23	0xbc69b70a	-0.014264831
24	0xbc63ebb6	-0.013911178
25	0xbd165b93	-0.036708426
26	0xbd338a77	-0.043833222
27	0xba8e347d	-0.0010849383
28	0xbc9b03ab	-0.018922647
29	0x3cb5c110	0.022186786
30	0xbb2bd879	-0.0026221557
31	0xbb37c9ab	-0.0028043787

weight f4 [5, 16928]
0	0xbce3c11e	-0.027802046
1	0x3d730e8b	0.05934004
2	0xbc8f2e77	-0.01747821
3	0x3db95990	0.09050286
4	0xbcadfff6	-0.021240216
5	0xbd18538c	-0.03718905
6	0xbd90058b	-0.07032307
7	0xbd7e1446	-0.062031053
8	0xbd623484	-0.055225864
9	0x3ceb9663	0.028758233
10	0xbb8b9474	-0.0042596404
11	0x3d034213	0.032045435
12	0x3d1847d5	0.03717788
13	0x3d2194a3	0.03944839
14	0xbd74f9d8	-0.059808582
15	0xbc8ae8ad	-0.016956652
16	0xbe03880c	-0.12844867
17	0x3d166194	0.03671415
18	0x3dc53556	0.09629314
19	0xbd760a3c	-0.060068354
20	0xbda4326d	-0.080174305
21	0xbbfc34b1	-0.007696711
22	0xbcb25518	-0.021769091
23	0x3d97fdf3	0.07421484
24	0xbdb2e503	-0.08735087
25	0xbcc0c378	-0.023530707
26	0xbd439f91	-0.047759596
27	0xba923c3b	-0.0011156866
28	0x3dbb1405	0.09134678
29	0xbc6c95b1	-0.014439986
30	0xbd2a277f	-0.041541573
31	0x3cbe6414	0.02324108
32	0xbd7b3874	-0.061333135
33	0x3d9287f9	0.07154841
34	0x3d2a1dd6	0.04153236
35	0xbd06cdf0	-0.03291124
36	0x3d6a0519	0.057133768
37	0x3bc9ea37	0.006161954
38	0xbcac050f	-0.020998506
39	0x3d120e36	0.035658084
40	0xbdcbf74d	-0.09959278
41	0xbdb83854	-0.08995119
42	0x3d8c4c9e	0.06850551
43	0xbd1842e5	-0.03717317
44	0x3c7629d1	0.015024618
45	0x3e83f0ab	0.25769553
46	0x3d8c014a	0.06836183
47	0x3ce02aa0	0.027364075
48	0x3d17bfaf	0.037048038
49	0x3c71f975	0.014768948
50	0xbd43fb7a	-0.04784725
51	0xbcb79d3f	-0.022413848
52	0x3b03e5d5	0.0020126004
53	0xbd29fc7e	-0.04150056
54	0x3d6c94b8	0.057759017
55	0x3d171ecd	0.03689461
56	0x3d519636	0.051168643
57	0x3bccc343	0.006248863
58	0x3cfdc84c	0.030979298
59	0xbdb05940	-0.08610773
60	0xbd8ec016	-0.06970231
61	0xbd1de748	-0.038550645
62	0x3d2ea117	0.042634096
63	0xbb284c18	-0.002568012
64	0x3c862f63	0.016380018
65	0x3dc6052f	0.096689574
66	0xbd13985f	-0.036033984
67	0x3b38ef28	0.002821872
68	0x3debfd9c	0.115229815
69	0x3c8c7991	0.017147811
70	0xbd804595	-0.06263272
71	0xbb1842e8	-0.0023233239
72	0x3d630d33	0.05543251
73	0xbd4bb3fd	-0.049732197
74	0x3b1c4723	0.0023846112
75	0x3b184713	0.0023235723
76	0xbdc59fc2	-0.09649612
77	0x3cfc3373	0.030786252
78	0xbc582fb1	-0.013194964
79	0x3d858f7c	0.06521508
80	0x3d757786	0.05992844
81	0xbd88c4dd	-0.06678174
82	0xbd0b884c	-0.03406553
83	0xbdfdfc14	-0.12401596
84	0xbcab6055	-0.020919958
85	0xbdba0e97	-0.09084814
86	0x3c0fe2d7	0.00878211
87	0x3ca13fc9	0.019683735
88	0xbd75ce11	-0.060010973
89	0x3d27b6bc	0.040945753
90	0xbdc71ba0	-0.09722066
91	0xbe31a8f7	-0.17349611
92	0x3c00693c	0.00783759
93	0x3d179ae8	0.037012964
94	0x3be834b7	0.007086362
95	0x3df1012d	0.117678024
96	0x3afa2fbc	0.0019087712
97	0x3d28e8a2	0.04123748
98	0x3c9f66eb	0.019458255
99	0xbd9872db	-0.07443782
100	0xbd9afdc7	-0.075679354
101	0x3bcf7f43	0.0063323095
102	0xbdc95b2a	-0.09831841
103	0x3bc1e227	0.005916852
104	0x3b0ec6c7	0.002178596
105	0x3cf90b1e	0.030400809
106	0x3dce8d86	0.10085587
107	0xbd32ad2c	-0.04362218
108	0x3df31ac6	0.11870341
109	0x3d2de6f4	0.042456582
110	0xbc9e0bc9	-0.019292729
111	0xbccca81e	-0.024982508
112	0xbc9204d9	-0.017824577
113	0x3df1f730	0.118147254
114	0xbe2688bb	-0.16263096
115	0x3d1c86b3	0.038214397
116	0xbdbc4a11	-0.091938145
117	0x3da00878	0.07814115
118	0x3c977262	0.01848716
119	0xbccf2046	-0.025283944
120	0x3dc2d9af	0.09514176
121	0xbc8eda03	-0.01743794
122	0x3c53e12c	0.012932103
123	0x3dacab50	0.08431113
124	0x3d691fd0	0.056915104
125	0xbc1cd15c	-0.0095714
126	0x3db1bde9	0.086788006
127	0xbcca90f7	-0.024727328
128	0x3accf8ad	0.0015638076
129	0x3cced752	0.025249157
130	0x3cf72f99	0.030174064
131	0xbb514afe	-0.0031935568
132	0x3b5234d1	0.0032074938
133	0xbdc74fc8	-0.09732014
134	0xbdc1c3cd	-0.09461174
135	0x3d83a982	0.064288154
136	0xbcc33fc0	-0.02383411
137	0xbe54418e	-0.20728132
138	0x3c7d665e	0.015466301
139	0xbd2db18a	-0.042405643
140	0x3d9fdc4a	0.07805689
141	0xbd30aa22	-0.043131
142	0xbd0a1fbb	-0.033721667
143	0xbd0e1d13	-0.034695696
144	0x3d76be31	0.060239974
145	0xbcff8994	-0.031193532
146	0x3db21e5d	0.086971976
147	0xbcf7fcad	-0.030271852
148	0xbdb513ee	-0.08841692
149	0x3d0a4b62	0.033763297
150	0xbcb86825	-0.022510597
151	0xbd064cff	-0.032788273
152	0xbcdb1d93	-0.0267475
153	0x3dc2693c	0.09492728
154	0x3d694269	0.0569481
155	0x3cb098c0	0.021557212
156	0x3d26559d	0.04060899
157	0xbcca3a3b	-0.02468597
158	0x3d4774c7	0.048695352
159	0x3bc7a439	0.006092575
160	0xbe187ecb	-0.14892118
161	0x3d4bbf9c	0.04974328
162	0xbcb6f5c2	-0.022333983
163	0x3d637240	0.05552888
164	0x3bf7508b	0.0075474433
165	0xbcc45444	-0.023965962
166	0x3d8703da	0.065925315
167	0x3d2031ab	0.039109867
168	0x3e047495	0.12935098
169	0x3d84b54a	0.06479891
170	0x3d9136bb	0.07090517
171	0xbda4859f	-0.08033299
172	0x3cc78dbf	0.024359582
173	0xbd60eb1d	-0.05491172
174	0xbd081e69	-0.033232126
175	0xbbe42c00	-0.006963253
176	0xbcfdc742	-0.030978803
177	0xbd49b232	-0.049242206
178	0x3d94205e	0.07232736
179	0xbcf153bb	-0.029458871
180	0x3c16ccea	0.009204129
181	0xbcac0974	-0.021000601
182	0x3be12f60	0.0068721026
183	0xbcee0f39	-0.029059993
184	0xbd55f07c	-0.052231297
185	0x3d3ff071	0.046860162
186	0x3d2080c9	0.03918532
187	0x3aa618dd	0.0012672205
188	0xbd5bd1ff	-0.053667065
189	0x3d3bcb52	0.0458482
190	0x3cf3bdd7	0.029753609
191	0x3d715777	0.058921304
192	0x3da73c12	0.081657544
193	0xbc557e1a	-0.013030553
194	0xbcaecf8a	-0.021339197
195	0xbdab4895	-0.08363453
196	0xbd9a8d92	-0.07546534
197	0x3d6f01d8	0.058351368
198	0xbcbe3a40	-0.023221135
199	0x3daa453a	0.08313985
200	0x3d4c6e41	0.049909834
201	0xbceaa53c	-0.028643243
202	0x3d31b349	0.04338387
203	0x3d29d437	0.04146215
204	0x3d20d92b	0.039269608
205	0xbbdc0fe4	-0.0067157615
206	0x3cac7213	0.021050489
207	0x3d4a23ee	0.04935067
208	0xbca4439e	-0.020051774
209	0x3dc99ff0	0.09844959
210	0x3bed5211	0.007242449
211	0x3dcd326e	0.10019384
212	0x3e047ad3	0.12937479
213	0x3df73471	0.12070549
214	0x3dddee13	0.10836425
215	0x3d0a9073	0.033829164
216	0xbd83ebae	-0.06441437
217	0x3d98356b	0.07432064
218	0xbd964c04	-0.073387176
219	0x3c395e64	0.011314008
220	0xbd67471a	-0.056464292
221	0xbd4a740a	-0.04942707
222	0x3c983e13	0.018584287
223	0x3ca516a3	0.020152396
224	0x3cc6a190	0.02424696
225	0x3d17e55d	0.037083972
226	0x3c96b3a7	0.018396212
227	0x3cee51ba	0.029091705
228	0x3c5a3c89	0.013320097
229	0xbdf2c3e5	-0.1185377
230	0x3e2a39e5	0.16623648
231	0x3b2c819f	0.0026322377
232	0x3d34c2dd	0.04413115
233	0x3d6f8c6d	0.05848353
234	0x3d8ff450	0.07029021
235	0x3d38ca05	0.045114536
236	0x3dc84d38	0.09780353
237	0x3d3cfd05	0.046139736
238	0x3d1d7706	0.038443588
239	0xbd13d7e5	-0.036094565
240	0xbc9ab99e	-0.018887337
241	0xbd559366	-0.052142523
242	0xbe543766	-0.20724258
243	0xbe2fb505	-0.17158897
244	0xbd9eef6f	-0.07760512
245	0x3b9a0e7c	0.0047014337
246	0x3d845521	0.064615496
247	0xbbbe70d8	-0.005811792
248	0x3dc3ef99	0.09567184
249	0x3ded82db	0.11597224
250	0x3d87c334	0.06629029
251	0xbcc424d3	-0.02394334
252	0xbda24ce1	-0.0792482
253	0x3c4cf21b	0.012508894
254	0xbbd9f9d5	-0.0066520968
255	0x3d9f88cb	0.07789763

bias f4 [5]
0	0x3d9e3c97	0.077264
1	0xbd05c177	-0.032655206
2	0xbcf768ca	-0.030201335
3	0xbcff7c95	-0.031187335
4	0xbcf11969	-0.029431062
