archived_data/b4_r4_m20_s150--2019-01-28--150738.476053_stationary/episode_7000.model (torch_old, 375724 bytes, 8 tensors)

weight f4 [6, 6, 3, 3]
0.08866851 -0.063748375 0.110771 -0.083528176 0.08743018 0.021682471 -0.1137562 -0.07144478
-0.022590376 -0.00055448106 0.049266834 -0.061237518 0.036596514 -0.23358503 0.102042705 0.008028673
0.06777156 -0.050616622 0.16272746 0.29769364 0.17133507 0.28944477 0.34907085 0.26938626
0.15708435 0.29833663 0.17435502 -0.023261234 0.06261167 -0.009470895 -0.06154971 0.08085951
-0.08850707 -0.00017806888 -0.12744418 -0.0677558 0.06896148 0.06441266 0.15254231 0.03850282
0.27733412 -0.06993959 0.03701451 0.023992382 0.07632175 -0.0021403062 0.03781127 -0.043172363
0.03385213 -0.2441504 -0.067749314 0.0012356966 -0.053040884 0.0039791325 0.06711365 0.10776043
0.056706935 0.0043557286 -0.0060311407 0.10784957 0.018334538 0.03442031 -0.068681516 -0.07609539
0.059753943 -0.09890564 0.055091526 -0.16003036 0.115064286 -0.022998735 0.14786404 -0.026508816
-0.014135117 -0.014406836 -0.09346964 -0.023652423 -0.038425032 -0.0059422525 -0.0076496648 -0.09879498
-0.12722848 0.10889025 -0.058101326 -0.119761 -0.12333535 0.0958675 -0.03978145 0.014192849
-0.056585222 -0.09577565 -0.11729134 -0.29640794 -0.14516447 -0.5367761 -0.53196025 -1.008934
-0.53950673 -0.9132828 -0.37724936 -0.013848567 0.08756902 -0.09705456 0.08412388 -0.3022521
0.17768806 -0.13670576 0.118300974 9.2504066e-05 0.05721736 -0.093274534 0.08018057 -0.13499166
0.005507827 -0.074090526 0.13580966 0.0051475614 0.012317479 0.033205993 -0.14495824 0.026521679
-0.106079735 0.17495693 -0.1686601 0.0888128 0.031434953 -0.036337886 0.02364894 -0.10414795
-0.10706032 -0.055198535 -0.4623888 -0.1949096 0.08423615 -0.14236043 -0.014016196 0.09135097
0.0069886446 0.077411845 -0.10934746 -0.052581504 -0.10442942 0.05292447 -0.03524304 -0.018101782
0.007605669 0.001304942 0.07426692 0.12325034 0.14667287 -0.043777626 0.3428482 0.050540496
0.1054866 -0.07881273 0.10368307 -0.09668299 -0.0767823 0.15372106 0.105002 0.0010093936
0.050746176 0.066952914 0.07577646 -0.117504925 -0.102797806 -0.055802234 0.044606775 -0.011658013
0.022348031 -0.11045561 0.060219735 -0.012546846 0.06989433 -0.022956058 0.047562033 -0.098651215
0.035333764 -0.008444731 0.0020839 -0.024831897 0.20502068 0.25908008 0.16071694 0.18293084
0.23253664 0.14161478 0.11279689 0.19143787 0.116201125 -0.086201444 0.048204243 -0.04838667
-0.03646773 0.06023352 -0.00092600286 -0.10456142 -0.019379377 -0.021110393 -0.4741118 -0.36325395
-1.0617313 -0.97248876 -0.6120358 -0.30738795 -0.36619762 -0.27279413 0.0077106995 0.039835997
0.008232807 0.021151876 -0.057318483 -0.00935967 -0.059860382 0.030312315 -0.082803145 -0.0071458938
-0.10523193 -0.120533586 0.07104914 0.014238179 0.09494208 -0.01839567 -0.029178731 -0.043162964
0.08430137 -0.035047293 -0.010409035 -0.058547463 0.11157678 -0.08950818 0.05603917 -0.1427994
0.009867345 -0.060093928 -0.034901425 -0.6718809 -0.17305568 -0.867917 -0.45125607 -0.6115861
-0.24218355 -0.8144884 -0.20634659 -0.03168179 0.06661445 0.01732324 0.018693075 -0.075679086
0.05376166 -0.03879817 -0.010953933 -0.08674124 0.037823714 -0.035139624 0.0019097608 -0.0048823105
00000000: d697 b53d 828e 82bd e8db e23d d210 abbd
00000010: 980e b33d 709f b13c 03f9 e8bd a451 92bd
00000020: 740f b9bc 985a 11ba 05cc 493d 31d4 7abd
00000030: 3ae6 153d ea30 6fbe c4fb d03d b28a 033c
00000040: d1cb 8a3d 6053 4fbd 07a2 263e 4d6b 983e
00000050: 7672 2f3e 1b32 943e 6ab9 b23e ffec 893e
00000060: b8da 203e 94bf 983e 1f8a 323e 588e bebc
00000070: 8c3a 803d d02b 1bbc 8c1b 7cbd ac99 a53d
00000080: 3243 b5bd 00b8 3ab9 ba80 02be 8ec3 8abd
00000090: ad3b 8d3d c9ea 833d 0d34 1c3e 22b5 1d3d
000000a0: bdfe 8d3e 7d3c 8fbd 879c 173d ac8b c43c
000000b0: 944e 9c3d 6144 0cbb fedf 1a3d 81d5 30bd
000000c0: 88a8 0a3d 9002 7abe 27c0 8abd 19f7 a13a
000000d0: 6641 59bd 6263 823b e272 893d 80b1 dc3d
000000e0: 8845 683d 80ba 8e3b e0a0 c5bb 3ce0 dc3d
000000f0: 5032 963c 50fc 0c3d e5a8 8cbd e6d7 9bbd
00000100: 8dc0 743d 0a8f cabd a7a7 613d 00df 23be
00000110: d3a6 eb3d d867 bcbc ac69 173e 0429 d9bc
00000120: fa96 67bc a60a 6cbc 036d bfbd bac2 c1bc
00000130: 9163 1dbd 3ab7 c2bb 0aaa fabb 0655 cabd
00000140: 2f48 02be da01 df3d a8fb 6dbd 4145 f5bd
00000150: 3e97 fcbd 2e56 c43d e0f1 22bd 2089 683c
00000160: e8c5 67bd 0626 c4bd 7136 f0bd c8c2 97be
00000170: ffa5 14be 296a 09bf 8c2e 08bf c024 81bf
00000180: 1d1d 0abf e7cc 69bf d426 c1be 1ae5 62bc
00000190: 6357 b33d 8bc4 c6bd 2449 ac3d cac0 9abe
000001a0: dcf3 353e 98fc 0bbe c847 f23d befe c138
000001b0: c05c 6a3d b806 bfbd b635 a43d 413b 0abe
000001c0: 007b b43b c6bc 97bd b011 0b3e e0ac a83b
000001d0: 40cf 493c 0203 083d ef6f 14be fe43 d93c
000001e0: 5540 d9bd e927 333e 3cb5 2cbe 7ce3 b53d
000001f0: f0c1 003d 09d7 14bd 6cbb c13c 854b d5bd
00000200: 7142 dbbd dc17 62bd 3abe ecbe 6296 47be
00000210: 0184 ac3d efc6 11be 30a4 65bc 3816 bb3d
00000220: 0001 e53b 1a8a 9e3d 90f1 dfbd b45f 57bd
00000230: 17df d5bd 54c7 583d 025b 10bd 304a 94bc
00000240: fa38 f93b 960a ab3a 4119 983d ad6a fc3d
00000250: 6a31 163e 2b50 33bd cd89 af3e 8d03 4f3d
00000260: 5c09 d83d 9268 a1bd ca57 d43d bb01 c6bd
00000270: 0a40 9dbd 0e69 1d3e 4a0b d73d a14d 843a
00000280: 39db 4f3d 9c1e 893d b030 9b3d 6ca6 f0bd
00000290: a887 d2bd e290 64bd 98b5 363d 4001 3fbc
000002a0: 3813 b73c 8d36 e2bd f8a8 763d 4991 4dbc
000002b0: c224 8f3d 580e bcbc 68d0 423d a609 cabd
000002c0: 23ba 103d c55b 0abc 0a92 083b 436c cbbc
000002d0: f1f0 513e 25a6 843e fb92 243e 3952 3b3e
000002e0: 161e 6e3e 7703 113e 0e02 e73d 4a08 443e
000002f0: dbfa ed3d 628a b0bd d071 453d 1a31 46bd
00000300: 305f 15bd 6cb7 763d 00bf 72ba 4c24 d6bd
00000310: 80c1 9ebc b4ef acbc c8be f2be 6cfc b9be
00000320: d0e6 87bf 06f5 78bf 61ae 1cbf f461 9dbe
00000330: 417e bbbe acab 8bbe 09aa fc3b 122b 233d
00000340: e5e2 063c b346 ad3c c9c6 6abd 4d59 19bc
00000350: 2930 75bd 8851 f83c b294 a9bd 1a28 eabb
00000360: d783 d7bd 50da f6bd 3682 913d 4047 693c
00000370: fe70 c23d 84b2 96bc 3c08 efbc a6cb 30bd
00000380: 32a6 ac3d c08d 0fbd a88a 2abc 77cf 6fbd
00000390: 5e82 e43d 1150 b7bd 5489 653d 023a 12be
000003a0: a5aa 213c 0d25 76bd ccf4 0ebd 6300 2cbf
000003b0: 8235 31be cf2f 5ebf 090b e7be e890 1cbf
000003c0: f7fe 77be 5082 50bf 854c 53be c4c4 01bd
000003d0: 286d 883d 78e9 8d3c 3822 993c a3fd 9abd
000003e0: 3035 5c3d d4ea 1ebd 2078 33bc 64a5 b1bd
000003f0: 0aed 1a3d 91ee 0fbd f050 fa3a cafb 9fbb

bias f4 [6]
0.17436701 0.03012444 -0.06700523 -0.057433728 0.04396895 -0.1229739
00000000: 448d 323e 88c7 f63c 0a3a 89bd a13f 6bbd
00000010: c918 343d bdd9 fbbd

weight f4 [16, 6, 3, 3]
0.17463844 -0.082479544 -0.06856175 0.050213825 -0.114829175 -0.2607629 0.07280455 0.002667901
-0.026754493 -0.09440623 -0.026625687 0.30406564 -0.007853714 0.115777865 0.1642118 -0.19726858
-0.19956349 0.15390085 -0.21753672 -0.1448088 -0.31436568 -0.052405223 -0.12718193 -0.13187422
0.05626373 -0.05199559 -0.035802465 -0.22847238 -0.07520706 0.12907948 0.019429417 0.07745598
0.26344183 -0.21295074 0.047807932 0.09695879 -0.0036462315 0.005078133 0.054051448 0.0062339436
0.06868868 -0.35056698 -0.13985103 0.0605935 -0.030398173 -0.12698576 0.1479024 -0.034282207
-0.05405259 -0.03374531 -0.089274645 -0.18992522 -0.054325953 0.032225676 -0.41641462 -0.2517802
-0.33596838 -0.2077779 -0.1892998 -0.22384696 -0.3292623 -0.13732159 -0.5549037 -0.066768415
0.16919947 0.035135616 0.15790328 -0.05956989 0.20334809 0.06873081 0.1356092 0.100984916
0.013224514 -0.10757823 0.1058333 -0.06890056 0.10015271 -0.09592341 -0.033042092 0.005870849
-0.0051437635 0.023197612 0.08357747 -0.037493724 0.06775378 -0.051700618 -0.09032504 -0.056361917
0.044806372 -0.04446527 -0.08857175 0.09232671 0.013766898 0.10733814 -0.097666815 0.10456939
0.048757844 0.052108023 -0.056096923 0.16790228 0.12835139 0.06049132 0.11249481 0.10657644
0.15396315 0.05238006 -0.10210649 0.10576924 0.0921328 -0.08239707 0.07226561 0.02249923
-0.04327341 0.04819808 -0.039602827 -0.12283652 -0.019641276 0.06906953 -0.22832818 -0.19770147
0.12480062 0.07942399 0.18081217 0.11279115 0.17123164 0.010930773 -0.071603395 0.091365375
0.00021740908 -0.27007353 0.13973688 -0.008378936 -0.5211105 -0.09343245 -0.031071955 -0.23698805
-0.050777335 -0.31720695 -0.08873699 0.040423937 -0.047133073 0.15416782 0.12246945 0.07223959
-0.08901687 0.055692427 0.21268275 -0.37312153 -0.23947607 -0.031907044 -0.08560379 -0.4847068
0.006675462 -0.06709827 0.08711143 -0.007301859 -0.014461559 -0.16124906 -0.17723605 -0.30356193
-0.1283543 0.04038112 -0.27750114 0.0024897105 -0.0869971 0.052598674 -0.05761586 0.12989269
-0.27062348 0.18015634 0.00714076 -0.0901913 0.09121998 -0.11526325 -0.028637016 -0.024424616
0.1660635 -0.33320147 0.0068783336 -0.068659104 0.23673807 0.08810603 -0.15882103 0.11110739
-0.06586007 -0.19363184 -0.039504934 -0.04860961 -0.1902248 0.010506746 -0.085532814 -0.17877434
-0.2528545 -0.0903705 -0.22185765 -0.12529217 -0.23642708 -0.22306105 0.18904589 -0.03211927
0.003180946 0.09241466 -0.032185186 0.22092605 0.01839668 0.13768937 -0.07086174 -0.10450143
-0.017557617 -0.10657594 -0.042738594 0.1049637 0.16787584 -0.16009632 0.022742743 0.051849946
0.106978334 -0.11754625 -0.0010582397 -0.03965285 0.05180653 -0.22357434 0.06908096 -0.016152026
0.034974318 0.10832348 -0.09317749 -0.01797913 0.0991766 -0.11597827 -0.30010617 0.16253686
0.034736954 -0.11548393 0.15512726 -0.005637853 -0.026536638 0.06703987 0.086941026 0.099640965
-0.35968924 -0.09586417 -0.17332266 0.011984337 0.21646686 0.12718487 0.08966444 0.034184456
0.1281998 0.080429554 0.12775522 -0.08268212 0.08041615 -0.090117104 -0.21767098 -0.09072762
00000000: 6bd4 323e 09eb a8bd 1a6a 8cbd 03ad 4d3d
00000010: 8f2b ebbd b782 85be 8d1a 953d f4d7 2e3b
00000020: 3d2c dbbc 0e58 c1bd 1d1e dabc 7eae 9b3e
00000030: ddac 00bc f21c ed3d 2327 283e c600 4abe
00000040: 5f5a 4cbe 2f98 1d3e f2c1 5ebe c248 14be
00000050: 8af4 a0be dca6 56bd fb3b 02be 090a 07be
00000060: cc74 663d 54f9 54bd 9ba5 12bd aaf4 69be
00000070: 2906 9abd 692d 043e 712a 9f3c 3ea1 9e3d
00000080: d9e1 863e c20f 5abe 40d2 433d 5592 c63d
00000090: 9df5 6ebb 7866 a63b 0d65 5d3d 1c46 cc3b
000000a0: a7ac 8c3d 847d b3be 1c35 0fbe e430 783d
000000b0: 9705 f9bc 8e08 02be ba73 173e 806b 0cbd
000000c0: 4066 5dbd 8638 0abd a0d5 b6bd c27b 42be
000000d0: e484 5ebd 12ff 033d 4c34 d5be 56e9 80be
000000e0: 0c04 acbe bbc3 54be cfd7 41be 2338 65be
000000f0: 1195 a8be 089e 0cbe 2b0e 0ebf e1bd 88bd
00000100: a042 2d3e 5dea 0f3d 66b1 213e 8fff 73bd
00000110: 7b3a 503e bdc2 8c3d 23dd 0a3e 2ed1 ce3d
00000120: a2ab 583c fa51 dcbd 21bf d83d bd1b 8dbd
00000130: dd1c cd3d 7e73 c4bd 2557 07bd 4060 c03b
00000140: 048d a8bb eb08 be3c aa2a ab3d 0593 19bd
00000150: 7ec2 8a3d 07c4 53bd 56fc b8bd c1db 66bd
00000160: e386 373d 3721 36bd 1b65 b5bd c915 bd3d
00000170: 8e8e 613c 19d4 db3d 8a05 c8bd 7a28 d63d
00000180: 4eb6 473d 396f 553d e3c5 65bd 93ee 2b3e
00000190: 8c6e 033e bfc5 773d ae63 e63d c044 da3d
000001a0: 84a8 1d3e 798c 563d 351d d1bd 8b9d d83d
000001b0: 1fb0 bc3d ccbf a8bd feff 933d 4e50 b83c
000001c0: 763f 31bd 5a6b 453d 9336 22bd b791 fbbd
000001d0: bee6 a0bc 5374 8d3d ddce 69be 4172 4abe
000001e0: 7897 ff3d 0ba9 a23d d326 393e 0cff e63d
000001f0: 5957 2f3e fc16 333c cda4 92bd c51d bb3d
00000200: 4ef8 6339 1447 8abe 2f17 0f3e ce47 09bc
00000210: 7f67 05bf 8359 bfbd 9d8a febc ffac 72be
00000220: e5fb 4fbd f368 a2be bdbb b5bd 9293 253d
00000230: 9c0e 41bd 2bde 1d3e 43d1 fa3d 5af2 933d
00000240: 7a4e b6bd be1d 643d 82c9 593e c909 bfbe
00000250: 3739 75be f6b0 02bd 0a51 afbd 7d2b f8be
00000260: d5bd da3b d16a 89bd 7a67 b23d 6f44 efbb
00000270: 2df0 6cbc 791e 25be 5e7d 35be 786c 9bbe
00000280: 4f6f 03be ac66 253d a114 8ebe 692a 233b
00000290: 892b b2bd b571 573d 9cfe 6bbd 9702 053e
000002a0: 298f 8abe e77a 383e 09fd e93b 37b6 b8bd
000002b0: 8ad1 ba3d 240f ecbd 2d98 eabc 2216 c8bc
000002c0: 8d0c 2a3e 6299 aabe a563 e13b 259d 8cbd
000002d0: 776b 723e ef70 b43d fba1 22be 458c e33d
000002e0: a5e1 86bd 6d47 46be edcf 21bd df1a 47bd
000002f0: 4aca 42be 7d24 2c3c d42b afbd 9f10 37be
00000300: 2576 81be 2b14 b9bd a72e 63be 974c 00be
00000310: f119 72be 1e6a 64be 3f95 413e 7f8f 03bd
00000320: 6b77 503b e643 bd3d 9dd4 03bd 703a 623e
00000330: a2b4 963c 71fe 0c3e f61f 91bd d904 d6bd
00000340: fed4 8fbc 7d44 dabd aa0e 2fbd 35f7 d63d
00000350: a5e7 2b3e 4af0 23be fd4e ba3c 9c60 543d
00000360: 7517 db3d 17bc f0bd a2b4 8aba 076b 22bd
00000370: 1633 543d acf0 64be 517a 8d3d 4151 84bc
00000380: 3b41 0f3d b3d8 dd3d d7d3 bebd f848 93bc
00000390: 1a1d cb3d 0486 edbd 84a7 99be 1070 263e
000003a0: 5648 0e3d d782 ecbd aed9 1e3e bdbd b8bb
000003b0: 5d63 d9bc 334c 893d 230e b23d 9010 cc3d
000003c0: 3029 b8be 6f54 c4bd 7f7b 31be f459 443c
000003d0: 7da9 5d3e c03c 023e fda1 b73d 0005 0c3d
000003e0: cf46 033e 40b8 a43d 44d2 023e 3e55 a9bd
000003f0: 39b1 a43d 518f b8bd 24e5 5ebe 67cf b9bd

bias f4 [16]
0.005418622 0.11051656 0.009985332 0.033955175 -0.019527283 -0.07749568 -0.020407556 -0.050656423
-0.10061335 -0.007998349 -0.050581988 0.065905295 0.0105745485 -0.12279315 -0.063628554 0.011555696
00000000: b28e b13b 8256 e23d 8599 233c 9514 0b3d
00000010: aef7 9fbc 0eb6 9ebd bf2d a7bc 1c7d 4fbd
00000020: 5f0e cebd 820b 03bc 0f2f 4fbd 5bf9 863d
00000030: df40 2d3c fa7a fbbd b04f 82bd 1a54 3d3c

weight f4 [32, 16, 3, 3]
-0.12059661 -0.12173405 -0.07221247 -0.10233957 -0.08956327 -0.11168303 -0.05482214 0.041819286
-0.021770045 -0.094563976 -0.04607877 0.13180935 -0.1534352 -0.056983422 0.084278405 0.010703094
0.07077511 -0.025760693 -0.06088491 -0.38060716 -0.1012588 0.05408702 -0.059168752 -0.02994523
0.039692666 -0.054598544 -0.09607054 -0.08551502 0.08633506 0.008170999 0.13240084 0.016043622
0.05857822 0.038552385 -0.009586186 0.12684001 -0.3036967 -0.114616685 -0.03996446 0.023392554
-0.064986706 -0.029783921 0.027894692 0.045646664 -0.22804143 -0.11020742 -0.079062335 0.034322303
-0.13446356 -0.12209878 0.043217037 0.10925653 0.074544325 0.03635916 0.15400937 -0.019657543
-0.090623334 0.14046733 -0.15268421 -0.15357426 0.090007834 0.067879245 -0.08359126 -0.09914402
-0.1274799 -0.036596335 0.10607898 -0.10004183 0.084713064 -0.08521465 -0.060087863 -0.024859948
-0.19709219 -0.11978003 0.10185282 -0.08794943 0.047713608 -0.059430435 0.025384674 0.07717054
-0.0026633048 -0.11799418 0.01863593 0.032795805 -0.16150643 0.03125494 0.030115359 0.0052043605
-0.04101849 0.010569025 0.07435554 0.025571374 -0.0574175 -0.032677803 0.021604061 -0.08900599
0.025289962 -0.014314718 -0.11595644 0.06466007 0.02789557 0.06788346 -0.06688521 -0.07787282
0.18504165 0.030251538 0.10846134 -0.087475434 0.021897012 0.058129244 0.01634784 0.052411247
0.086286746 -0.110482074 0.107661225 -0.04949196 -0.040651087 -0.0102319755 -0.09519991 0.18074058
-0.06263716 0.008849588 0.060654014 -0.07790663 -0.03481203 0.032495193 -0.13256659 -0.17187318
-0.23420294 0.043972325 -0.21207939 -0.073659174 -0.2112 -0.01424597 -0.07660186 -0.050126787
-0.0702233 -0.094078794 -0.033375468 -0.18954219 -0.3066267 -0.22273418 0.12988673 -0.33804855
-0.012273576 0.054353718 0.083714224 0.02955258 0.0840186 0.060854387 0.11734338 0.095017426
0.048039243 0.028985007 -0.020976506 0.028267212 -0.007924851 0.046797197 0.025016291 0.027516462
0.07664013 0.014103473 -0.123923905 0.0015378745 -0.10906644 -0.10699778 -0.07529847 -0.07790807
-0.15968417 -0.09843632 -0.007298817 -0.120783806 -0.22066319 -0.10320508 0.07088063 0.018804438
0.1449191 0.037713237 -0.19495657 0.064492695 -0.00985693 -0.010459532 0.06394207 0.029575868
-0.011425781 -0.007212054 0.010473087 0.013580804 -0.05441346 -0.063526124 0.0034291984 -0.079241835
0.06213351 0.007565277 -0.24051093 0.11319816 -0.0675851 0.0079110395 0.087594576 0.09865648
0.01525445 0.080689035 0.036331415 -0.10295619 0.030495731 0.0074436036 0.064349905 -0.004539605
-0.061867397 0.04241375 -0.07619309 -0.106083624 0.10488211 0.026995711 0.081192054 -0.04249215
-0.009375657 0.05221277 0.089654446 0.10121775 0.08664821 0.04143009 0.037424617 -0.08076182
0.025759583 0.07842045 0.017853556 0.02156043 -0.07187561 0.01692343 -0.07741309 -0.051669896
-0.079307735 -0.12286022 -0.117364146 -0.10086775 0.002319398 -0.1908928 -0.0903056 0.03234181
-0.20032932 -0.119390346 -0.020204466 -0.31576693 -0.21708988 -0.284516 -0.19005479 -0.17850545
-0.16733265 -0.3237522 -0.17741206 -0.23904191 -0.06998079 0.0102169225 -0.123424865 -1.5951926e-05
00000000: 5bfb f6bd b44f f9bd 22e4 93bd 6997 d1bd
00000010: f36c b7bd 13ba e4bd 2e8d 60bd b34a 2b3d
00000020: 1857 b2bc c2aa c1bd 18bd 3cbd 08f9 063e
00000030: 1e1e 1dbe 7367 69bd 289a ac3d 085c 2f3c
00000040: 8af2 903d 1708 d3bc 7562 79bd f1de c2be
00000050: c660 cfbd 5a8a 5d3d ef5a 72bd b34f f5bc
00000060: c794 223d b9a2 5fbd a2c0 c4bd 8022 afbd
00000070: 70d0 b03d a7df 053c 1694 073e ea6d 833c
00000080: b7ef 6f3d 1be9 1d3d 610f 1dbc 59e2 013e
00000090: 227e 9bbe 27bc eabd c6b1 23bd bea1 bf3c
000000a0: c017 85bd 69fd f3bc 6983 e43c fff7 3a3d
000000b0: b183 69be 6eb4 e1bd 6feb a1bd 8b95 0c3d
000000c0: d1b0 09be ed0e fabd 5904 313d e3c1 df3d
000000d0: b2aa 983d 58ed 143d a2b4 1d3e db08 a1bc
000000e0: ba98 b9bd abd6 0f3e 4059 1cbe 9242 1dbe
000000f0: 0756 b83d 4604 8b3d e531 abbd 050c cbbd
00000100: 178a 02be 0ae6 15bd f03f d93d bbe2 ccbd
00000110: 0b7e ad3d 0585 aebd b11e 76bd 17a7 cbbc
00000120: 89d2 49be 3b4f f5bd 3698 d03d d51e b4bd
00000130: 586f 433d 546d 73bd 85f3 cf3c 970b 9e3d
00000140: d78a 2ebb efa6 f1bd 61aa 983c e554 063d
00000150: f161 25be 2e05 003d 7cb4 f63c 5789 aa3b
00000160: 0103 28bd b429 2d3c b847 983d 0f7b d13c
00000170: 9d2e 6bbd 29d9 05bd 00fb b03c c648 b6bd
00000180: e52c cf3c 4788 6abc 927a edbd 806c 843d
00000190: 4085 e43c 7c06 8b3d 1dfb 88bd c97b 9fbd
000001a0: 8f7b 3d3e 13d2 f73c fb20 de3d 5226 b3bd
000001b0: 5d61 b33c ee18 6e3d e8eb 853c 2dad 563d
000001c0: 1bb7 b03d 6d44 e2bd 7d7d dc3d 15b8 4abd
000001d0: c181 26bd 04a4 27bc 2cf8 c2bd 0f14 393e
000001e0: e947 80bd ddfd 103c 5870 783d 838d 9fbd
000001f0: 0f97 0ebd ae19 053d 89bf 07be 86ff 2fbe
00000200: e5d2 6fbe 531c 343d 572b 59be 9fda 96bd
00000210: d044 58be ee67 69bc 70e1 9cbd bf51 4dbd
00000220: 3cd1 8fbd 62ac c0bd b7b4 08bd 5917 42be
00000230: 2dfe 9cbe 6e14 64be 0701 053e b314 adbe
00000240: 1c17 49bc 01a2 5e3d 5d72 ab3d 4118 f23c
00000250: f211 ac3d 7342 793d ba51 f03d 7f98 c23d
00000260: ccc4 443d f771 ed3c ecd6 abbc a490 e73c
00000270: 3cd7 01bc 6bae 3f3d f7ee cc3c 346a e13c
00000280: 80f5 9c3d 4112 673c d1cb fdbd 8192 c93a
00000290: 3a5e dfbd a721 dbbd 1636 9abd 448e 9fbd
000002a0: 3f84 23be fb98 c9bd ea2a efbb 805d f7bd
000002b0: 88f5 61be 2f5d d3bd dd29 913d c40b 9a3c
000002c0: ac65 143e 3279 1a3d b2a2 47be bf14 843d
000002d0: f67e 21bc 755e 2bbc 0ff4 823d 1749 f23c
000002e0: 3333 3bbc 1853 ecbb 5097 2b3c 0582 5e3c
000002f0: a6e0 5ebd fc19 82bd 67bc 603b 8b49 a2bd
00000300: b57f 7e3d 25e6 f73b 7f48 76be 70d4 e73d
00000310: 0f6a 8abd 4e9d 013c c964 b33d 690c ca3d
00000320: cded 793c 4b40 a53d 40d0 143d b2da d2bd
00000330: 2fd2 f93c 79e9 f33b e2c9 833d f8c0 94bb
00000340: ab68 7dbd 0aba 2d3d 1f0b 9cbd 5f42 d9bd
00000350: 6fcc d63d 1c26 dd3c 0548 a63d 400c 2ebd
00000360: 5b9c 19bc 0fdd 553d c09c b73d 404b cf3d
00000370: 9e74 b13d 99b2 293d 8e4a 193d 7466 a5bd
00000380: c305 d33c e79a a03d 9f41 923c 809f b03c
00000390: 8533 93bd 01a3 8a3c c18a 9ebd d0a3 53bd
000003a0: 186c a2bd 249e fbbd 9d5c f0bd c093 cebd
000003b0: 0b01 183b 6779 43be 24f2 b8bd d978 043d
000003c0: 2123 4dbe ed82 f4bd d683 a5bc 34ac a1be
000003d0: cf4c 5ebe 15ac 91be b99d 42be 22ca 36be
000003e0: 4059 2bbe d9c2 a5be 82ab 35be 67c7 74be
000003f0: 1752 8fbd e164 273c 2dc6 fcbd 80d0 85b7

bias f4 [32]
0.010051231 -0.0051044053 -0.00024532233 -0.029121194 -0.053101726 -0.03137039 0.0076731676 0.004913169
0.00899325 -0.011560158 3.7161033e-05 -0.03564955 -0.12447586 -0.0094123725 -0.009532212 -0.00703662
0.024313072 0.0036682049 -0.018400554 -0.031184558 -0.06284115 -0.03931481 0.024604162 -0.022570523
-0.011213028 -0.00073589047 -0.048305683 0.00799388 0.0060140034 0.011734438 0.0010012063 -0.007323498
00000000: ebad 243c db42 a7bb 9b9e 80b9 928f eebc
00000010: 3281 59bd 3d7e 00bd 326f fb3b a6fe a03b
00000020: 6d58 133c d166 3dbc 5bdd 1b38 4305 12bd
00000030: 33ed febd 5a36 1abc ff2c 1cbc 7293 e6bb
00000040: 352c c73c 4466 703b c2bc 96bc c276 ffbc
00000050: dcb2 80bd 9108 21bd ab8e c93c d1e5 b8bc
00000060: d9b6 37bc c6e8 40ba 2edc 45bd c3f8 023c
00000070: 1e11 c53b cd41 403c e93a 833a f4f9 efbb

weight f4 [5, 16928]
-0.13450587 -0.08659151 -0.06873446 0.1381034 -0.041394223 -0.054921623 0.026030557 -0.037945632
-0.011166586 -0.00862451 -0.04339929 0.043714877 0.1061356 0.04054247 0.02332689 0.026246572
-0.03307766 -0.0187147 -0.08040526 0.0465799 0.006156279 -0.072466835 -0.20867674 0.098560035
0.04016313 0.073024146 -0.008317227 0.034373455 0.064215034 -0.06596853 -0.03928457 0.009711509
0.010566163 0.13557614 -0.037612908 0.0017474872 0.015255514 -0.004957948 0.018451056 0.011928354
-0.047596034 -0.01014277 -0.015898064 -0.020888899 0.018092692 -0.08382747 0.079421125 0.048433796
0.049066488 0.10265697 0.09536548 0.097681016 0.017569574 0.043836653 0.022936365 0.02007727
0.022242423 0.0136962 -0.012786742 0.019113356 -0.13000824 0.013742 -0.0051407698 0.041755244
0.09895895 0.0007669303 -0.046342168 0.0100602545 0.03563721 0.09618459 -0.10857097 0.00037707813
0.08273644 0.016848871 0.0504111 -0.02105063 -0.013240046 -0.036265727 -0.049951404 0.019725306
0.009475036 -0.025826273 -0.022066735 -0.0007187836 0.039686903 0.07047782 0.0596682 0.10234472
-0.07017532 0.0005958072 0.048693255 -0.15360953 0.077391036 -0.028357577 0.06141852 0.09390164
0.026775623 -0.06498273 0.04502924 0.042329647 -0.01796593 0.0795928 -0.049310405 0.07270092
0.002114624 0.06692812 0.06421257 0.031604234 0.05177555 0.05028425 0.08767466 0.093995936
0.05017456 0.10545116 -0.30710727 0.028027728 -0.022495894 -0.041832056 0.026015114 0.1368815
0.052769996 0.13367516 0.034397036 0.1150555 0.1770836 0.046964824 0.07598556 -0.03955696
0.13160843 0.02382694 0.018163608 0.061648965 -0.012767117 0.018551858 0.0035688297 -0.015261252
-0.024602378 -0.17824866 0.1026229 0.053985704 0.06693107 0.067632034 0.01645916 0.020691575
0.051936027 0.09743576 0.09130495 -0.011132844 -0.0736042 -0.027681096 0.02662683 0.047677092
0.09185459 0.009321926 0.08142978 0.08746057 0.068282664 0.039463647 0.038569603 -0.06260718
-0.14103949 0.063646965 -0.007003626 0.11860195 0.20319624 0.20699672 0.063361764 -0.01849862
0.119137995 0.001052981 0.046259653 -0.060404066 0.06342691 -0.021238193 0.023794854 -0.010315495
0.039216854 0.0027161138 0.058451585 -0.017519254 -0.013508163 0.022184359 -0.045892995 -0.1777706
-0.058610678 0.051616862 0.14986409 0.17575137 0.11141881 0.09485038 0.14447235 0.0469359
0.059120014 -0.079551004 0.05101571 -0.021295384 -0.0018966566 0.072020955 -0.048832137 0.098619156
0.123026974 -0.057348788 -0.04740382 0.00079608493 -0.05034374 -0.014813769 0.014871562 0.07015249
0.015629908 0.05522276 0.084848404 0.08399314 0.06445351 0.12659788 0.105994366 0.089023516
-0.047773123 -0.0177763 0.053587448 0.02579344 0.012336929 0.017695205 0.03324592 0.03754877
-0.06633224 -0.041035917 -0.040482648 -0.04308722 -0.03135178 -0.036045622 0.09689895 0.07207144
0.1323914 0.10302272 0.07699144 0.016965099 0.05913847 0.1316397 -0.0034521692 0.0104049435
0.021014748 -0.24218436 -0.079584956 -0.13055508 0.023218716 0.034692466 -0.016298728 -0.0068232697
-0.11881758 0.019194258 -0.085674316 -0.045693032 0.06484157 0.06162634 0.062659234 0.069773585
00000000: e8bb 09be e456 b1bd a7c4 8cbd fa6a 0d3e
00000010: fd8c 29bd 7ff5 60bd 093e d53c e16c 1bbd
00000020: 0ef4 36bc d14d 0dbc 74c3 31bd 5f0e 333d
00000030: 9f5d d93d dc0f 263d 0918 bf3c 0d03 d73c
00000040: 717c 07bd 924f 99bc 83ab a4bd 91ca 3e3d
00000050: 9cba c93b 7e69 94bd 5baf 55be d8d9 c93d
00000060: 1882 243d af8d 953d fa44 08bc 2ecb 0c3d
00000070: 2c83 833d 821a 87bd dbe8 20bd 051d 1f3c
00000080: b31d 2d3c 79d4 0a3e fe0f 1abd f10b e53a
00000090: 43f2 793c 4876 a2bb ab26 973c 256f 433c
000000a0: 0ff4 42bd dc2d 26bc a83c 82bc 321f abbc
000000b0: 2037 943c bdad abbd 8ba7 a23d 8462 463d
000000c0: f1f9 483d d13d d23d fa4e c33d fc0c c83d
000000d0: 11ee 8f3c 108e 333d 0be5 bb3c 1679 a43c
000000e0: be35 b63c 0766 603c 7c7f 51bc 9d93 9c3c
000000f0: e120 05be 2026 613c e773 a8bb 8c07 2b3d
00000100: fdaa ca3d d20b 493a 49d1 3dbd c4d3 243c
00000110: 53f8 113d 6dfc c43d 755a debd 92b2 c539
00000120: b971 a93d a506 8a3c df7b 4e3d 5f72 acbc
00000130: c7ec 58bc 5f8b 14bd d899 4cbd f796 a13c
00000140: 2e3d 1b3c 9f91 d3bc 4cc5 b4bc c06c 3cba
00000150: bc8e 223d ad56 903d a466 743d 1c9a d13d
00000160: 14b8 8fbd f22f 1c3a 9472 473d d14b 1dbe
00000170: 317f 9e3d 264e e8bc fc91 7b3d 814f c03d
00000180: 8d58 db3c aa15 85bd 9570 383d da61 2d3d
00000190: 492d 93bc 8d01 a33d b5f9 49bd 38e4 943d
000001a0: 8195 0a3b 9c11 893d e181 833d 7173 013d
000001b0: 9912 543d dcf6 4d3d c68e b33d f180 c03d
000001c0: d783 4d3d c7f6 d73d 2a3d 9dbe 689a e53c
000001d0: 4f49 b8bc 1758 2bbd a61d d53c aa2a 0c3e
000001e0: 5a25 583d 24e2 083e e8e3 0c3d 38a2 eb3d
000001f0: 6755 353e 305e 403d 519e 9b3d 7b06 22bd
00000200: 5cc4 063e b730 c33c d9cb 943c a083 7c3d
00000210: 2b2d 51bc 11fa 973c 07e3 693b 550a 7abc
00000220: ed8a c9bc d186 36be f42b d23d 1d20 5d3d
00000230: 2813 893d aa82 8a3d 5cd5 863c 6181 a93c
00000240: dfba 543d 668c c73d 17fe ba3d 8866 36bc
00000250: ccbd 96bd 77c3 e2bc 8320 da3c 0e49 433d
00000260: 421e bc3d feba 183c a8c4 a63d 871e b33d
00000270: c8d7 8b3d a2a4 213d 29fb 1d3d 3138 80bd
00000280: a86c 10be 5759 823d ac7e e5bb 94e5 f23d
00000290: ad12 503e f3f6 533e d0c3 813d 6b8a 97bc
000002a0: 9ffe f33d 2e04 8a3a c37a 3d3d 416a 77bd
000002b0: f8e5 813d b8fb adbc 6ded c23c 5202 29bc
000002c0: daa1 203d d400 323b ee6a 6f3d 8a84 8fbc
000002d0: 5851 5dbc f9bb b53c 4bfa 3bbd 7f09 36be
000002e0: c011 70bd 346c 533d f975 193e 2bf8 333e
000002f0: 8c2f e43d eb40 c23d 8ff0 133e dc3f 403d
00000300: d427 723d a3eb a2bd d9f5 503d a873 aebc
00000310: 3c99 f8ba b97f 933d 3504 48bd d7f8 c93d
00000320: 91f5 fb3d 90e6 6abd 822a 42bd 5bb0 503a
00000330: 3d35 4ebd 73b5 72bc daa7 733c 1cac 8f3d
00000340: 4b0a 803c 4331 623d 00c5 ad3d 9804 ac3d
00000350: 3400 843d e0a2 013e 9313 d93d f651 b63d
00000360: c0ad 43bd 9a9f 91bc 837e 5b3d c44c d33c
00000370: d520 4a3c 89f5 903c e02c 083d bdcc 193d
00000380: 33d9 87bd 4715 28bd 22d1 25bd 3a7c 30bd
00000390: b96a 00bd 93a4 13bd f572 c63d 319a 933d
000003a0: 9c91 073e 93fd d23d b0ad 9d3d 64fa 8a3c
000003b0: 2e3b 723d 8fcc 063e ca3d 62bb 7f79 2a3c
000003c0: 1f27 ac3c 2dff 77be 70fd a2bd 3bb0 05be
000003d0: 2d35 be3c b019 0e3d e984 85bc bc95 dfbb
000003e0: a256 f3bd 473d 9d3c 0476 afbd 9e28 3bbd
000003f0: a8cb 843d e76b 7c3d 7c53 803d 74e5 8e3d

bias f4 [5]
0.027650205 -0.060186546 -0.04762818 -0.043064322 -0.06456921
00000000: af82 e23c 2b86 76bd c415 43bd 3764 30bd
00000010: dd3c 84bd
