archived_data/b4_r0_m20_s150--2019-01-28--150333.524729_nav/episode_5250.model (torch_old, 375717 bytes, 8 tensors)

weight f4 [6, 6, 3, 3]
0.09540291 0.12795046 -0.122034065 -0.09244548 -0.040952757 -0.06326535 0.12173 0.015830606
0.08443765 0.10430971 -0.013946376 0.053200744 0.045798305 0.09487308 -0.04419188 0.051640183
0.08326039 0.047741093 -0.10572659 -0.26298398 -0.24121982 -0.24860042 -0.12852263 -0.7531155
-0.194938 -0.25517702 -0.29331368 -0.12276996 0.047059476 -0.033979714 -0.12024288 0.08280647
-0.026514217 0.0795711 0.0842071 -0.036301717 0.070844695 0.073354796 -0.4097115 -0.03323928
-0.22056279 -0.73157954 -0.061471146 -0.09900309 -0.24440809 -0.027606701 0.09580046 -0.0034914452
0.1097813 -0.026720978 -0.08979286 -0.024901493 0.098702684 0.011908467 -0.10883954 0.0024188012
0.118620604 -0.10544537 -0.084280655 -0.023089014 -0.051868014 0.05709961 -0.10715579 0.062464952
0.019333411 0.044477645 -0.061804924 -0.0068727527 -0.03943323 0.03757253 0.08285057 -0.041416455
0.07744069 0.06544924 0.07548202 0.15162873 0.1203696 0.14329395 0.094147734 0.12760583
0.11691049 0.02161163 0.12135866 0.105936974 -0.046742454 0.06507188 -0.04033257 -0.084675
-0.047070645 0.13332912 -0.30389637 0.22977279 -0.44246027 -0.3517357 -0.5740299 -0.7311667
-0.25249234 0.2645036 0.4000878 -0.0676182 0.12365508 -0.10176797 -0.46146128 -0.2451232
-0.16832109 0.07282161 0.011847313 -0.05154472 0.09747438 -0.033497438 -0.0641482 -0.0125602335
-0.024242096 -0.09855932 -0.13372388 0.010111317 0.11313121 0.03775446 0.12462753 -0.032942347
-0.0813811 -0.01060303 0.009255602 -0.018856414 0.0077240374 0.1074902 -0.007759165 0.023391878
0.02468409 0.0039777607 0.051850315 -0.02614538 0.04626078 0.039283294 0.057549268 -0.05347868
-0.0025119632 0.015572071 -0.09270936 0.11340265 -0.04905639 -0.055373058 0.051549435 0.068453535
-0.056592554 0.043885186 -0.46385714 -0.53007257 0.09621752 -0.16796178 0.5668244 0.269543
0.17488505 0.014112927 0.06512349 0.19342682 -0.08134986 -0.1776505 0.12769365 -0.13225028
-0.19242552 0.120008305 0.07780489 0.04623632 -0.05996602 0.12363899 -0.018728904 0.12586007
0.04858361 0.1264846 0.046810865 -0.014942707 0.06791599 0.008769051 -0.06870154 -0.14360473
-0.012664703 0.002462421 0.038009014 -0.043205053 0.07562426 0.18123484 0.117137015 0.14322895
0.21036176 0.18801382 0.08720877 0.1407885 0.13797131 -0.0068758726 -0.12747471 0.07927626
0.113909125 -0.058465198 -0.017219938 0.04567285 0.06416717 0.12897715 0.07824437 -0.39021626
0.21384905 0.15060145 -0.025560226 0.16224046 0.16480619 -0.520913 0.30155382 0.0033308163
-0.08601869 0.023631807 -0.0024942965 -0.024902374 0.016098602 -0.007124598 0.041745298 -0.063255444
0.11208348 0.017535344 0.049920052 0.03717193 -0.10764794 -0.093774736 0.0926906 0.098908275
0.097998664 -0.1853441 0.03693137 0.09498319 -0.13461179 0.018800896 0.04697432 -0.14538166
-0.028770942 0.09901092 -0.02442597 -0.04773787 0.0028958612 -0.033481624 -0.052624896 -0.009112388
0.0013886165 -0.021520898 0.0019879204 0.09397492 0.06876269 0.014709294 0.08781034 0.04373385
0.04785794 0.0024552941 -0.06437039 0.08659467 0.27267638 -0.042761616 -0.21242496 -0.30551583
00000000: 9a62 c33d 7205 033e ffec f9bd 0e54 bdbd
00000010: 14be 27bd 4491 81bd 944d f93d 30af 813c
00000020: a6ed ac3d 54a0 d53d 577f 64bc 06e9 593d
00000030: 0197 3b3d d14c c23d 8b02 35bd a884 533d
00000040: 6c84 aa3d 2a8c 433d 2f87 d8bd d6a5 86be
00000050: 5402 77be 1c91 7ebe 709b 03be 2dcc 40bf
00000060: d49d 47be 90a6 82be 362d 96be d16e fbbd
00000070: 70c1 403d 502e 0bbd e641 f6bd 7096 a93d
00000080: 5834 d9bc 2cf6 a23d c674 ac3d 1cb1 14bd
00000090: 0617 913d 0a3b 963d b5c5 d1be e925 08bd
000000a0: 36db 61be cc48 3bbf 2bc9 7bbd 22c2 cabd
000000b0: 1d46 7abe 7327 e2bc 0833 c43d bbd0 64bb
000000c0: 05d5 e03d f4e5 dabc 52e5 b7bd 37fe cbbc
000000d0: a224 ca3d bb1b 433c 44e7 debd c084 1e3b
000000e0: 5cef f23d bef3 d7bd 569b acbd 2c25 bdbc
000000f0: 8e73 54bd 48e1 693d 7f74 dbbd 40db 7f3d
00000100: 1a61 9e3c 312e 363d 2927 7dbd d434 e1bb
00000110: bd84 21bd a7e5 193d 8fad a93d 4da4 29bd
00000120: 3999 9e3d 400a 863d 5196 9a3d 9044 1b3e
00000130: 5684 f63d a6bb 123e 87d0 c03d 1aab 023e
00000140: c46e ef3d e00a b13c e48a f83d 7cf5 d83d
00000150: 0475 3fbd 6844 853d c433 25bd 166a adbd
00000160: 26cd 40bd 6e87 083e 4e98 9bbe 8f49 6b3e
00000170: 278a e2be b416 b4be a0f3 12bf be2d 3bbf
00000180: ad46 81be 046d 873e 4fd8 cc3e 697b 8abd
00000190: e03e fd3d ba6b d0bd a744 ecbe 9301 7bbe
000001a0: 5d5c 2cbe 7f23 953d 3b1b 423c 8e20 53bd
000001b0: a6a0 c73d 9c34 09bd 2260 83bd 70c9 4dbc
000001c0: 5c97 c6bc 78d9 c9bd eaee 08be f0a9 253c
000001d0: 56b1 e73d 6ca4 1a3d b83c ff3d 8eee 06bd
000001e0: 22ab a6bd 55b8 2dbc cfa4 173c c478 9abc
000001f0: ec19 fd3b d223 dc3d 9840 febb 53a0 bf3c
00000200: 4a36 ca3c e057 823b ff60 543d d62e d6bc
00000210: f27b 3d3d 85e7 203d c8b8 6b3d 760c 5bbd
00000220: c09f 24bb 0022 7f3c 68de bdbd a63f e83d
00000230: 5aef 48bd dcce 62bd 8025 533d 5e31 8c3d
00000240: 98cd 67bd f4c0 333d af7e edbe d6b2 07bf
00000250: b10d c53d 2cfe 2bbe 671b 113f 8a01 8a3e
00000260: 1115 333e e839 673c 775f 853d ae11 463e
00000270: c19a a6bd 03ea 35be 20c2 023e 9e6c 07be
00000280: 320b 45be eac6 f53d 2c58 9f3d 4c62 3d3d
00000290: ee9e 75bd 7036 fd3d 5c6d 99bc 76e1 003e
000002a0: 9cff 463d 2e85 013e c0bc 3f3d 41d2 74bc
000002b0: 8a17 8b3d 11ac 0f3c 65b3 8cbd 1e0d 13be
000002c0: 9d7f 4fbc 9260 213b 57af 1b3d c8f7 30bd
000002d0: e4e0 9a3d a095 393e 88e5 ef3d 9caa 123e
000002e0: 1369 573e b286 403e 839a b23d dc2a 103e
000002f0: 5a48 0d3e 004f e1bb bb88 02be 985b a23d
00000300: 3049 e93d 3479 6fbd d410 8dbc 7413 3b3d
00000310: 146a 833d 9612 043e 963e a03d 6dca c7be
00000320: 3ffb 5a3e 4437 1a3e ae63 d1bc 5d22 263e
00000330: f4c2 283e 8e5a 05bf 4365 9a3e d349 5a3b
00000340: 912a b0bd 7e97 c13c 5a77 23bb 1000 ccbc
00000350: 37e1 833c 7675 e9bb 1efd 2a3d 128c 81bd
00000360: 068c e53d 48a6 8f3c f878 4c3d 9841 183d
00000370: 8676 dcbd f80c c0bd 92d4 bd3d 6c90 ca3d
00000380: 86b3 c83d d8ca 3dbe 5945 173d 8c86 c23d
00000390: acd7 09be 5604 9a3c 2568 403d eede 14be
000003a0: 0ab1 ebbc 3dc6 ca3d f918 c8bc c988 43bd
000003b0: 7dc8 3d3b 0724 09bd 348d 57bd 204c 15bc
000003c0: 3d02 b63a 984c b0bc c547 023b ec75 c03d
000003d0: 74d3 8c3d 40ff 703c e8d5 b33d 4422 333d
000003e0: b006 443d 00e9 203b 9fd4 83bd 8c58 b13d
000003f0: 3d9c 8b3e ce26 2fbd ee85 59be 926c 9cbe

bias f4 [6]
-0.15824814 -0.073852606 -0.009565041 0.05825384 0.052458037 -0.045647543
00000000: cd0b 22be 0940 97bd b1b6 1cbc 949b 6e3d
00000010: 3dde 563d ebf8 3abd

weight f4 [16, 6, 3, 3]
-0.0948778 -0.16182442 -0.10842068 -0.07518309 -0.2830202 -0.03462153 -0.2638303 -0.24927154
-0.058902238 0.01665743 0.05338452 0.111456886 0.02777869 0.082134545 -0.09711403 -0.16803104
0.019787395 0.28202432 -0.26220402 -0.22677375 0.1284652 -0.116920136 -0.07309704 0.26720563
-0.15826379 -0.09219529 0.056236107 -0.023372956 -0.050768714 0.009741846 -0.03838916 -0.06779491
-0.055956453 -0.026041755 -0.053051278 -0.19810612 0.038136758 -0.07995785 0.16336162 -0.28053248
-0.11442226 0.1780277 -0.19117877 -0.08446937 -0.0009981896 0.27510336 0.027860772 0.023110816
0.09349973 0.08893093 0.17871115 0.19940972 -0.013285727 0.2419766 -0.3635232 0.10914767
-0.020369997 -0.07235455 -0.015633043 0.048834734 -0.17569289 0.011442044 0.108257025 -0.04579034
0.0345239 0.016109759 0.010681506 -0.13824007 -0.19730008 -0.11710773 -0.05808426 -0.008032353
-0.27515125 -0.13576505 0.0038205676 -0.036055963 -0.013460905 -0.15756886 -0.107948035 -0.06086982
0.078632474 -0.03682564 0.044696536 -0.098757096 -0.083862215 -0.024009697 0.046200003 0.027414044
-0.04924021 0.046325605 -0.13740866 0.0893496 -0.0547828 0.022128811 -0.05803293 -0.105770886
-4.6300745e-05 0.106932245 -0.17564484 -0.051143963 0.08763257 0.26915577 -0.042584732 0.11151551
0.13087672 -0.026578326 0.123656474 0.20040369 0.011844557 -0.23665792 -0.20982492 -0.098641425
-0.11619507 -0.16848148 -0.23771198 0.082879886 0.15002516 0.12727123 0.03757874 -0.07654083
0.110187225 -0.30583492 -0.11994353 -0.13811527 0.1595708 0.21549115 0.084915936 -0.06416761
0.11386593 0.19947676 -0.17640936 0.0043377853 -0.12012749 -0.018193066 -0.12242333 -0.02528573
-0.04697502 -0.17423588 -0.09429629 0.10093005 0.04502312 0.09209714 -0.1551819 -0.29437628
0.14540994 0.020443818 -0.04137139 0.1048126 -0.024846766 -0.123646826 -0.09547666 0.0987275
-0.060231294 0.016926382 0.21786013 0.014024614 0.03767315 0.019776735 0.07739399 0.17140757
0.08079732 0.24557324 0.059817813 0.15379152 0.024319274 -0.17243075 0.14572011 -0.113274336
-0.22771388 0.14874448 -0.12191776 0.06519884 0.07640598 -0.03727271 0.013538699 0.030267725
-0.12991276 -0.17683984 -0.030064592 -0.16003491 0.020589199 -0.0064352145 0.029247224 0.020105533
0.07321589 -0.25938764 -0.28736526 0.11528249 0.011878816 -0.19877994 -0.0454803 -0.105814934
-0.22542335 -0.03896009 -0.05497685 -0.3258638 -0.069132075 -0.15658356 -0.26124737 -0.1809864
-0.0031050453 -0.11453575 0.045535896 0.101104915 -0.090003036 0.15288396 -0.2245179 -0.23582654
-0.15327834 0.16766572 -0.36287236 -0.024602776 0.15679294 -0.52010345 -0.5265448 0.0678746
-0.060383316 -0.035586968 0.20433061 0.005090691 0.049964473 -0.05017377 0.22061901 0.01645926
0.102451555 -0.02470942 -0.042745493 0.17718053 -0.14541067 -0.116338894 -0.021890342 0.15589938
0.086720094 -0.089383125 -0.016620906 -0.08717935 0.17027499 -0.19349396 -0.1558612 0.08934786
0.050829917 0.03886059 -0.2204693 -0.14214633 -0.0054268804 -0.13375497 0.13381426 0.01291186
0.0015562015 -0.2128559 -0.017377794 -0.07859856 -0.0025095928 0.0050654965 0.065077566 -0.049830258
00000000: 4b4f c2bd 4db5 25be a90b debd 98f9 99bd
00000010: 06e8 90be 4ecf 0dbd c414 87be 0a41 7fbe
00000020: 7943 71bd 2a75 883c baa9 5a3d 8243 e43d
00000030: 2390 e33c 2836 a83d b8e3 c6bd 5410 2cbe
00000040: 2d19 a23c 7e65 903e 9b3f 86be 6137 68be
00000050: 628c 033e d373 efbd e7b3 95bd 2dcf 883e
00000060: e70f 22be e2d0 bcbd d557 663d a478 bfbc
00000070: dbf2 4fbd 439c 1f3c f43d 1dbd 0fd8 8abd
00000080: 9832 65bd 8555 d5bc 4c4c 59bd 55dc 4abe
00000090: 4a35 1c3d f1c0 a3bd 4548 273e f4a1 8fbe
000000a0: 3856 eabd e54c 363e 5ec4 43be 47fe acbd
000000b0: afd5 82ba 59da 8c3e 463c e43c e552 bd3c
000000c0: c97c bf3d 6b21 b63d 0e00 373e 1032 4c3e
000000d0: 61ac 59bc b7c8 773e b61f babe d088 df3d
000000e0: fbde a6bc 9f2e 94bd de10 80bc ee06 483d
000000f0: d6e8 33be 6977 3b3c dcb5 dd3d a78e 3bbd
00000100: ef68 0d3d 9df8 833c 7c01 2f3c ce8e 0dbe
00000110: 0809 4abe 2dd6 efbd c3e9 6dbd 219a 03bc
00000120: a0e0 8cbe fe05 0bbe 7d62 7a3b 6baf 13bd
00000130: 218b 5cbc bb59 21be dc13 ddbd a252 79bd
00000140: 100a a13d 7bd6 16bd b713 373d 2941 cabd
00000150: f4bf abbd fcaf c4bc 373c 3d3d 6b93 e03c
00000160: 1ab0 49bd ebbf 3d3d dbb4 0cbe ecfc b63d
00000170: ee63 60bd 7b47 b53c f0b3 6dbd 689e d8bd
00000180: 0c33 42b8 4bff da3d 3edc 33be 557c 51bd
00000190: b478 b33d c9ce 893e 546d 2ebd 3e62 e43d
000001a0: 8c04 063e caba d9bc 9b3f fd3d a036 4d3e
000001b0: ac0f 423c 7456 72be 58dc 56be 8404 cabd
000001c0: aef7 edbd 6986 2cbe c56a 73be eebc a93d
000001d0: 32a0 193e 6453 023e 2aec 193d 70c1 9cbd
000001e0: d7a9 e13d 6596 9cbe f4a4 f5bd 176e 0dbe
000001f0: 8766 233e b6a9 5c3e 68e8 ad3d 4f6a 83bd
00000200: 8a32 e93d a343 4c3e a8a4 34be fb23 8e3b
00000210: 6705 f6bd a009 95bc 15b9 fabd 0524 cfbc
00000220: e168 40bd e46a 32be 6a1e c1bd 6ab4 ce3d
00000230: 2a6a 383d 6d9d bc3d 01e8 1ebe 7db8 96be
00000240: 58e6 143e cb79 a73c 0c75 29bd fda7 d63d
00000250: 728b cbbc 8c3a fdbd 4489 c3bd a531 ca3d
00000260: 17b5 76bd 32a9 8a3c ba16 5f3e 7fc7 653c
00000270: 294f 1a3d d202 a23c bd80 9e3d 7785 2f3e
00000280: 1179 a53d 8d77 7b3e 8603 753d 867b 1d3e
00000290: 3739 c73c b091 30be a737 153e 60fc e7bd
000002a0: d42d 69be 7950 183e 05b0 f9bd f886 853d
000002b0: bd7a 9c3d 45ab 18bd 6bd1 5d3c 05f4 f73c
000002c0: da07 05be 8115 35be 054a f6bc 31e0 23be
000002d0: aeaa a83c 7ede d2bb e097 ef3c 5cb4 a43c
000002e0: 36f2 953d 75ce 84be 8a21 93be 3a19 ec3d
000002f0: 5e9f 423c f88c 4bbe 8d49 3abd 80b5 d8bd
00000300: 61d5 66be 9e94 1fbd 682f 61bd 9fd7 a6be
00000310: 1e95 8dbd 7157 20be 37c2 85be 8054 39be
00000320: 047e 4bbb b891 eabd d983 3a3d 1810 cf3d
00000330: 8353 b8bd 9d8d 1c3e 05e8 65be 837c 71be
00000340: fff4 1cbe 90b0 2b3e 68ca b9be c38b c9bc
00000350: 548e 203e 8025 05bf a4cb 06bf d701 8b3d
00000360: 7f54 77bd a4c3 11bd 0b3c 513e d0cf a63b
00000370: 8ca7 4c3d 0383 4dbd f3e9 613e 92d5 863c
00000380: 1fd2 d13d 696b cabc e615 2fbd d06e 353e
00000390: 89e6 14be 1643 eebd 6053 b3bc 16a4 1f3e
000003a0: 4e9a b13d 800e b7bd 9128 88bc 168b b2bd
000003b0: 915c 2e3e 4823 46be 149a 1fbe 03fc b63d
000003c0: 0833 503d 482c 1f3d b4c2 61be cf8e 11be
000003d0: f9d3 b1bb 10f7 08be 9b06 093e 448c 533c
000003e0: 75f9 cb3a e6f6 59be e05b 8ebc 48f8 a0bd
000003f0: fb77 24bb 77fc a53b 6347 853d d01a 4cbd

bias f4 [16]
-0.01110903 0.027472608 -0.09087735 0.06873511 -0.040699866 -0.004193793 -0.07510092 -0.1340878
-0.12493317 0.003929373 0.013112121 -0.11552506 0.05160989 -0.06756246 -0.02716123 0.019063309
00000000: a602 36bc 3c0e e13c e71d babd fec4 8c3d
00000010: e7b4 26bd 166c 89bb 83ce 99bd 504e 09be
00000020: f6dc ffbd f8c1 803b 39d4 563c 6798 ecbd
00000030: e464 533d 305e 8abd 3a81 debc a82a 9c3c

weight f4 [32, 16, 3, 3]
0.03201826 0.0029347283 0.034713753 0.18460749 0.08130942 -0.043496955 -0.051638234 0.105229296
0.06868806 0.0105900485 -0.24408284 -0.04389284 0.03856506 -0.026135491 -0.014770351 0.1254056
-0.06385252 0.0838158 0.13085751 0.20714651 -0.110764466 0.08729301 0.0047162203 -0.20144399
-0.106377006 0.15122259 -0.27532429 0.12647888 -0.0127476435 0.06527531 0.032671873 -0.07003412
-0.16279432 0.07541888 -0.13282862 -0.0152719915 -0.11126688 -0.17777368 -0.15358745 0.19879045
-0.06249542 0.14907655 0.11645521 -0.0950497 -0.2645654 -0.09985221 -0.010363196 -0.062196355
-0.035890684 0.17398745 0.026270187 0.21989591 -0.06278081 0.011760736 -0.12459298 0.30942306
0.13575174 -0.124481365 0.013043183 0.11585126 -0.013342253 0.093983814 0.09364031 -0.30076844
0.059110235 -0.11952664 -0.002274059 0.09617792 0.12764168 -0.07724604 0.10269416 0.07374258
-0.10004166 0.056563936 -0.12945749 -0.44205672 -0.051355515 0.025851795 -0.16554838 -0.021522738
0.043952636 0.13056199 0.14401218 0.27445966 -0.04217135 -0.261285 0.051876 -0.10643579
-0.10305918 0.040849138 -0.27514473 -0.056077898 -0.008992685 0.034519345 0.02205751 0.086606175
0.22390448 -0.09319837 0.1033625 -0.38794172 0.018570123 -0.27730092 -0.19105192 0.03322056
0.14473552 -0.073193796 -0.036325995 0.1459873 -0.05293964 -0.091167465 -0.010182193 -0.16975299
0.05697033 -0.051937055 0.04640472 -0.0017413226 -0.09087873 0.015822632 0.05292503 -0.08883048
0.059536964 0.018989038 -0.047335997 -0.08111017 -0.08065008 -0.1621942 -0.048648566 0.0014717976
0.21303172 -0.09610374 0.05498715 0.17074649 0.22799814 0.10039904 -0.042531915 0.10715349
-0.05462055 -0.0765165 0.080949284 0.09503329 -0.085230835 0.022915207 0.10500639 0.0359937
0.043314066 0.037542623 -0.17915599 0.105430126 0.033780754 -0.16158427 0.09415766 -0.039526895
-0.055941354 -0.18554744 -0.21197969 -0.040626135 -0.0022195242 -0.08563152 -0.08130942 0.046419263
0.14136377 0.1050421 0.059289746 -0.060055766 -0.087645 -0.04697516 0.064264275 0.03640922
-0.10799213 -0.2175355 -0.090052165 -0.1455605 0.012425261 0.09038836 0.10132718 -0.075410746
0.02579784 -0.016438758 0.07213692 0.02903631 0.08331743 -0.46706012 -0.33120385 -0.048100904
-0.12909198 -0.075757794 -0.11185836 -0.006211202 -0.08785204 -0.25613537 -0.10722777 0.05417799
0.018452873 -0.07397527 -0.018126737 -0.08567123 -0.15899244 0.17791209 -0.018374385 -0.20414877
-0.16315804 -0.112286836 -0.13417187 -0.2771945 -0.09311409 -0.28333476 -0.22737525 0.20838656
-0.24911617 0.15444112 0.20252052 -0.0857082 0.21927801 0.13643016 0.12297985 0.14075907
-0.11984007 -0.1109559 -0.065007076 -0.039241526 -0.027186466 -0.0505436 -0.044255767 -0.24872154
-0.15940139 0.1308921 0.15296547 -0.1015601 0.15173945 0.10652887 0.05093378 -0.18595251
-0.1910253 0.014920255 0.024964498 -0.14297672 -0.24792217 -0.008761837 -0.41581455 -0.066371635
-0.2841872 -0.009063269 0.013775047 -0.033182357 -0.24414343 -0.20238793 -0.03695792 -0.192467
-0.04190068 -0.18657778 -0.19253649 -0.2697935 -0.082129665 0.10485895 0.0018816701 -0.09026162
00000000: 9425 033d 9254 403b 0230 0e3d bf09 3d3e
00000010: 8e85 a63d dd29 32bd 9d82 53bd 7582 d73d
00000020: 53ac 8c3d e281 2d3c daf0 79be fbc8 33bd
00000030: 65f6 1d3d 191a d6bc 58ff 71bc 536a 003e
00000040: 1cc5 82bd 9ea7 ab3d 83ff 053e 371e 543e
00000050: 7bd8 e2bd adc6 b23d 868a 9a3b 5547 4ebe
00000060: 30dc d9bd 18da 1a3e 4ef7 8cbe ae83 013e
00000070: 7edb 50bc 10af 853d f1d2 053d 0c6e 8fbd
00000080: 8eb3 26be 3775 9a3d 3a04 08be 6037 7abc
00000090: e4df e3bd 4e0a 36be 0746 1dbe b98f 4b3e
000000a0: 33fb 7fbd 86a7 183e 1280 ee3d 6ba9 c2bd
000000b0: 1e75 87be 517f ccbd 65ca 29bc 9bc1 7ebd
000000c0: 1c02 13bd c429 323e 9334 d73c 652c 613e
000000d0: 3a93 80bd 1ab0 403c 9b2a ffbd b36c 9e3e
000000e0: 8102 0b3e 16f0 febd 13b3 553c 6d43 ed3d
000000f0: 7799 5abc 967a c03d 7ec6 bf3d 52fe 99be
00000100: 931d 723d 62ca f4bd 6108 15bb eef8 c43d
00000110: 80b4 023e 2c33 9ebd 5151 d23d 5a06 973d
00000120: a4e2 ccbd 96af 673d 8190 04be 4255 e2be
00000130: 295a 52bd 25c7 d33c 8485 29be 7450 b0bc
00000140: ae07 343d 0bb2 053e ee77 133e fa85 8c3e
00000150: debb 2cbd 26c7 85be ee7b 543d 02fb d9bd
00000160: b110 d3bd 6d51 273d c5df 8cbe f0b1 65bd
00000170: 0e56 13bc 2864 0d3d f4b1 b43c 945e b13d
00000180: 3747 653e c9de bebd b8af d33d 4ca0 c6be
00000190: 5f20 983c 63fa 8dbe 1da3 43be 4812 083d
000001a0: 8c35 143e a1e6 95bd 91ca 14bd b27d 153e
000001b0: 3cd7 58bd 02b6 babd 36d3 26bc bad3 2dbe
000001c0: b959 693d f3bb 54bd e012 3e3d 173d e4ba
000001d0: a11e babd 779e 813c ebc7 583d c1ec b5bd
000001e0: 08dd 733d e68e 9b3c 64e3 41bd 171d a6bd
000001f0: df2b a5bd 3d16 26be b843 47bd 55e9 c03a
00000200: fd24 5a3e 0ad2 c4bd 353a 613d 2bd8 2e3e
00000210: 5878 693e 039e cd3d f235 2ebd 4a73 db3d
00000220: ccb9 5fbd afb4 9cbd bdc8 a53d d0a0 c23d
00000230: 818d aebd acb8 bb3c 970d d73d 216e 133d
00000240: 176a 313d 4bc6 193d ab74 37be c0eb d73d
00000250: b05d 0a3d 5976 25be bbd5 c03d f4e6 21bd
00000260: c322 65bd 2600 3ebe 3411 59be 9767 26bd
00000270: 7075 11bb 945f afbd 8e85 a6bd 2022 3e3d
00000280: aac1 103e 5020 d73d ced9 723d 09fd 75bd
00000290: 397f b3bd 0669 40bd fd9c 833d d621 153d
000002a0: fa2a ddbd a0c1 5ebe 456d b8bd d00d 15be
000002b0: 5293 4b3c 881d b93d a084 cf3d f370 9abd
000002c0: fe55 d33c 93aa 86bc 86bc 933d 8edd ed3c
000002d0: 54a2 aa3d 8122 efbe 8d93 a9be 7405 45bd
000002e0: b030 04be e726 9bbd ff15 e5bd 5787 cbbb
000002f0: c5eb b3bd 2d24 83be 3c9a dbbd bde9 5d3d
00000300: 7b2a 973c 5980 97bd 867e 94bc 6674 afbd
00000310: eace 22be 962e 363e e185 96bc 600c 51be
00000320: e712 27be a4f6 e5bd 5a64 09be 70ec 8dbe
00000330: 9ab2 bebd 4111 91be 0fd5 68be 4963 553e
00000340: 4f18 7fbe d025 1e3e 8a61 4f3e c887 afbd
00000350: 6a8a 603e 59b4 0b3e dcdc fb3d 2523 103e
00000360: b66e f5bd d93c e3bd 6e22 85bd b9bb 20bd
00000370: 27b6 debc ce06 4fbd 8945 35bd dcb0 7ebe
00000380: 1e3a 23be 9408 063e fba2 1c3e befe cfbd
00000390: 9661 1b3e cf2b da3d f09f 503d 566a 3ebe
000003a0: 239c 43be 1674 743c 5982 cc3c 7d68 12be
000003b0: 4fdf 7dbe cf8d 0fbc a5e5 d4be daed 87bd
000003c0: fc80 91be 1b7e 14bc bcb0 613c 39ea 07bd
000003d0: bc00 7abe c83e 4fbe 3061 17bd 1216 45be
000003e0: 0ca0 2bbd 3f0e 3fbe 4928 45be 6022 8abe
000003f0: 9933 a8bd 4ac0 d63d 5fa2 f63a 16db b8bd

bias f4 [32]
-0.041435607 0.0012404649 -0.035907406 0.017674161 0.014844395 -0.02075069 -0.017835923 -0.05321305
-0.02749704 -0.03342994 -0.0072602406 0.0029341902 -0.005961613 -0.0033228074 -0.08147749 -0.0019745312
-0.022817623 -0.036883246 -0.028513653 -0.08106771 -0.033498093 -0.06210801 -0.11909881 0.005664538
-0.07697657 -0.01968771 -0.020507857 -0.09386878 -0.09454654 -0.034100935 0.019991796 0.018938867
00000000: 62b8 29bd 1897 a23a a513 13bd 67c9 903c
00000010: e835 733c 5afd a9bc a41c 92bc edf5 59bd
00000020: 7941 e1bc d5ed 08bd 50e7 edbb 8b4b 403b
00000030: a259 c3bb 75c3 59bb acdd a6bd 2367 01bb
00000040: 06ec babc e312 17bd 7795 e9bc d406 a6bd
00000050: 4c35 09bd f864 7ebd 14ea f3bd 979d b93b
00000060: e4a5 9dbd 1f48 a1bc 1800 a8bc 463e c0bd
00000070: 9ea1 c1bd 6cad 0bbd d6c5 a33c af25 9b3c

weight f4 [5, 16928]
0.04138533 0.07232829 -0.002336205 0.10552646 -0.0015096512 0.10471172 0.052639816 0.03737346
0.074473314 0.0036801382 -0.032935623 0.025536174 -0.057597905 0.009851793 0.057890695 0.1541808
0.019589763 0.01709601 0.1150592 0.0051568984 0.04397737 -0.072438255 -0.041449483 0.018468156
0.09468566 0.06356879 0.033730395 0.030759871 0.041350547 0.08156879 -0.009201748 0.038047895
0.0012881843 0.017548408 0.08773145 0.11889362 0.017974658 -0.060333196 0.08569913 0.0868302
-0.020109806 0.027396351 0.057857607 0.031659998 -0.09048818 0.13993108 0.074957415 0.006832014
0.008162763 0.16624208 0.08005088 0.050715987 -0.006287571 0.026801787 0.11445226 -0.0014482605
-0.008217032 0.09858751 -0.011497657 0.03754552 0.035259873 0.059162125 -0.07666842 0.019614996
-0.04375306 -0.07188101 -0.039008945 0.09360009 0.12547603 0.09406239 -0.022920387 0.111186184
-0.051897835 0.049573522 0.039837074 -0.0008906983 -0.030558228 0.025023717 0.046322253 0.015029239
-0.037806537 0.038150255 0.099559136 0.039292235 0.013711203 0.010642877 0.051859673 -0.01509694
0.041790575 -0.04535107 -0.004796497 0.01283216 0.075276494 0.048746273 0.02809996 0.026026824
-0.05287733 -0.00041551967 -0.049798798 -0.007847111 -0.03142469 0.04345536 0.06370189 0.053670317
0.09339335 0.10250843 0.07418514 0.10558287 0.031267706 0.07587299 -0.0049382425 -0.07148387
-0.015899308 -0.14876357 0.0047021257 -0.034424316 0.03842625 -0.0671609 -0.04881269 -0.036380287
-0.02308234 -0.0040029557 0.057257965 -0.0882707 0.15119748 -0.059415042 0.0025527119 -0.013527521
0.009547389 0.090365216 0.023849115 0.07492834 0.0715787 -0.004701598 0.026614651 0.008551431
-0.08064192 0.010468786 0.032643143 0.020082949 0.0789369 0.029220605 0.027292296 -0.031216305
-0.037413314 -0.0061037447 -0.06209666 0.059556562 0.030230708 0.015762435 0.0048229494 0.08180655
0.06292447 0.071972415 0.069309376 0.06664598 -0.06279935 -0.037879605 -0.03484065 -0.06807398
0.0231497 0.059959818 0.030271502 -0.0073897643 0.046756126 0.029507382 0.007404971 0.038312703
-0.015616403 0.08021278 0.026265368 0.023706522 -0.014778319 0.020212563 0.07253262 -0.013086065
-0.0629796 -0.010168486 0.011759217 -0.006489601 0.012193686 -0.018598882 -0.027665025 -0.0077047464
0.10360583 -0.08930477 0.019628339 -0.018415004 -0.024682442 0.042505015 -0.0094456505 -0.0057456335
0.00438441 -0.07344076 0.018228019 -0.009487514 -0.021794982 -0.026668603 -0.016969813 -0.08136194
-0.025591962 -0.021041196 -0.12500544 -0.03489519 0.10218173 -0.064399734 -0.040247243 0.12490691
0.0043484587 0.05895381 0.046162117 0.004566793 0.06073695 0.109436505 0.06259689 -0.004089365
0.06967996 -0.050706454 -0.022333756 -0.061321054 -0.027169706 -0.0029712394 -0.0021790587 -0.007116763
0.00034702948 0.017262535 -0.053976584 0.0057498515 -0.17352253 -0.13027236 0.054495554 0.029883323
-0.008096519 -0.0066764196 0.026216155 0.12737633 0.039396107 0.123981334 0.03312325 -0.0273332
-0.010625465 -0.04846888 -0.056414574 -0.046863455 0.05165993 0.033379324 0.0021303254 0.0750554
0.054494694 0.015774745 -0.05114085 -0.067762986 -0.053888414 -0.023865823 -0.0520848 -0.015825002
00000000: aa83 293d db20 943d 041b 19bb 421e d83d
00000010: 7ddf c5ba 1973 d63d d99c 573d ea14 193d
00000020: 7785 983d 792e 713b 81e7 06bd 3d31 d13c
00000030: c8eb 6bbd 6a69 213c cb1e 6d3d 92e1 1d3e
00000040: b67a a03c ee0c 8c3c 28a4 eb3d 33fb a83b
00000050: 9d21 343d 825a 94bd efc6 29bd 884a 973c
00000060: 8eea c13d 5b30 823d e228 0a3d 20fc fb3c
00000070: 315f 293d 8a0d a73d eec2 16bc 1cd8 1b3d
00000080: 4bd8 a83a aec1 8f3c 8cac b33d 807e f33d
00000090: 973f 933c f11f 77bd 0783 af3d 08d4 b13d
000000a0: 52bd a4bc 506e e03c 19fc 6c3d eaad 013d
000000b0: de51 b9bd 184a 0f3e 4683 993d 16df df3b
000000c0: 1cbd 053c 5d3b 2a3e b7f1 a33d 91bb 4f3d
000000d0: f807 cebb 6c8f db3c f265 ea3d 8fd3 bdba
000000e0: bba0 06bc 40e8 c93d ab60 3cbc 55c9 193d
000000f0: a86c 103d fc53 723d 5504 9dbd a1af a03c
00000100: 6936 33bd 5a36 93bd d8c7 1fbd 67b1 bf3d
00000110: ca7c 003e c8a3 c03d 89c3 bbbc 95b5 e33d
00000120: d392 54bd 9b0d 4b3d 332c 233d c07d 69ba
00000130: 4055 fabc 8afe cc3c 67bc 3d3d 323d 763c
00000140: 07db 1abd 7143 1c3d a9e5 cb3d e5f0 203d
00000150: f4a4 603c 765f 2e3c cf6a 543d 2859 77bc
00000160: 982c 2b3d 0bc2 39bd ef2b 9dbb fb3d 523c
00000170: 902a 9a3d 2caa 473d e331 e63c 3536 d53c
00000180: e695 58bd 1bda d9b9 d3f9 4bbd 2b91 00bc
00000190: 2db7 00bd 3ffe 313d 2376 823d 68d5 5b3d
000001a0: 0345 bf3d f1ef d13d 61ee 973d d53b d83d
000001b0: 9112 003d 4c63 9b3d fbd0 a1bb 2366 92bd
000001c0: 443f 82bc 7a55 18be 4a14 9a3b 8300 0dbd
000001d0: d864 1d3d a78b 89bd d1ef 47bd 7f03 15bd
000001e0: 2d17 bdbc 3a2b 83bb 5487 6a3d 45c7 b4bd
000001f0: 83d3 1a3e 305d 73bd 664b 273b 89a2 5dbc
00000200: a76c 1c3c 6611 b93d 385f c33c 0874 993d
00000210: da97 923d dd0f 9abb f806 da3c 4d1b 0c3c
00000220: 9727 a5bd 4585 2b3c d1b4 053d ff84 a43c
00000230: aba9 a13d 0d60 ef3c 1894 df3c 56b9 ffbc
00000240: b43e 19bd ec01 c8bb 1159 7ebd 95f1 733d
00000250: 64a6 f73c 3920 813c d509 9e3b 318a a73d
00000260: 8bde 803d 4666 933d 13f2 8d3d b07d 883d
00000270: f29c 80bd a527 1bbd 12b5 0ebd 5f6a 8bbd
00000280: 71a4 bd3c 6d98 753d f1fb f73c d625 f2bb
00000290: 5a83 3f3d 77b9 f13c 66a5 f23b c8ed 1c3d
000002a0: f1db 7fbc 9946 a43d 782a d73c 2e34 c23c
000002b0: c320 72bc d194 a53c fb8b 943d ef66 56bc
000002c0: 73fb 80bd b999 26bc bba9 403c b8a6 d4bb
000002d0: 07c8 473c af5c 98bc c3a1 e2bc 1978 fcbb
000002e0: 4b2f d43d 6be5 b6bd 9ccb a03c 10db 96bc
000002f0: d532 cabc bd19 2e3d eec1 1abc de45 bcbb
00000300: 19ab 8f3b 1c68 96bd ed52 953c 8571 1bbc
00000310: 648b b2bc 1d78 dabc 4704 8bbc 17a1 a6bd
00000320: 3ca6 d1bc 965e acbc 6d01 00be 42ee 0ebd
00000330: a844 d13d 02e4 83bd 4bda 24bd 32cf ff3d
00000340: 847d 8e3b 8d79 713d 7d14 3d3d 09a5 953b
00000350: 4fc7 783d 3f20 e03d cc32 803d 1400 86bb
00000360: 5eb4 8e3d 92b1 4fbd 48f5 b6bc c92b 7bbd
00000370: 0193 debc 20b9 42bb 8ace 0ebb bc33 e9bb
00000380: 82f1 b539 296a 8d3c 8d16 5dbd 4069 bc3b
00000390: e4af 31be 1e66 05be bb36 5f3d dfcd f43c
000003a0: 43a7 04bc dec5 dabb 43c3 d63c f16e 023e
000003b0: d05d 213d ede9 fd3d 3fac 073d e0e9 dfbc
000003c0: 6e16 2ebc 4e87 46bd f812 67bd e5f3 3fbd
000003d0: 5d99 533d c2b8 083d ee9c 0b3b a5b6 993d
000003e0: d435 5f3d 0a3a 813c 1179 51bd 52c7 8abd
000003f0: 19ba 5cbd 4282 c3bc df56 55bd 6fa3 81bc

bias f4 [5]
-0.088116206 -0.0752413 -0.08342362 -0.08200237 -0.08118746
00000000: 4576 b4bd 1c18 9abd 01da aabd dcf0 a7bd
00000010: 9c45 a6bd
