archived_data/b4_r0_m20_s150--2019-01-28--150333.524729_nav/episode_17000.model (torch_old, 375717 bytes, 8 tensors)

weight f4 [6, 6, 3, 3]
00000000: 9a62 c33d 7205 033e ffec f9bd 0e54 bdbd
00000010: 14be 27bd 4491 81bd 944d f93d 30af 813c
00000020: a6ed ac3d 7444 9dbd 2d56 a43c e059 17bd
00000030: 39a0 9c3c c50a 0c3e 66d2 163d b836 18bc
00000040: a1bd 843c b8b2 c83b f628 28be 7532 95be
00000050: 48cc 04bf d9ba 6bbe c20d a9be 2dcc 40bf
00000060: d78e 4ebe a190 a3be d176 dfbe d16e fbbd
00000070: 70c1 403d 502e 0bbd e641 f6bd 7096 a93d
00000080: 5834 d9bc 2cf6 a23d c674 ac3d 1cb1 14bd
00000090: 45c1 a1be 794a a63d f908 f3be 9614 49be
000000a0: 8b3e 19bc 90f2 39bf 5311 8fbe a325 bc3d
000000b0: d8d7 ddbe 6c05 a13d 7107 a0bb aa98 903d
000000c0: e5d7 e43d 6b5a 71be bf21 1dbe e9db 743d
000000d0: 9975 b13d 9e5e cf3c 44e7 debd c084 1e3b
000000e0: 5cef f23d bef3 d7bd 569b acbd 2c25 bdbc
000000f0: 8e73 54bd 48e1 693d 7f74 dbbd 3d44 b23d
00000100: 0a51 483d 7775 a43b c40e 453c 788d 0a3b
00000110: e6d5 8cba ee02 7f3d b9b0 7b3d 575f 2ebd
00000120: 7a87 183e e45f db3d 1195 5d3d 4fa2 1e3e
00000130: 73c4 4f3e 8de0 403e 1acc a53d 8a70 313e
00000140: efca c03d e00a b13c e48a f83d 7cf5 d83d
00000150: 0475 3fbd 6844 853d c433 25bd 166a adbd
00000160: 26cd 40bd 6e87 083e 106e 22bf 59c3 f7be
00000170: 61c9 2ebf 181e b4be 0628 1bbf 557f 27bf
00000180: 1e3f fcbd fe20 403d 762e 5b3f 9392 983d
00000190: 86fe de3d aed1 41bd 786b 83be 6747 a3bc
000001a0: b60f 6dbd dd7c 0f3e cedb 483d 4706 10bd
000001b0: a6a0 c73d 9c34 09bd 2260 83bd 70c9 4dbc
000001c0: 5c97 c6bc 78d9 c9bd eaee 08be f0a9 253c
000001d0: 56b1 e73d cb07 033c 01b5 d7bc f5f1 113d
000001e0: 2fc3 d3bc 372c 3bbd c9ce 2ebc 5a8c 5abd
000001f0: 4470 b7bd 7e22 80bd c927 e3bc e703 153c
00000200: f852 fcba 22be 51bc 9d30 113c 53ac 0dbc
00000210: f429 8fbc 46cd e9bc 87df 133d 760c 5bbd
00000220: c09f 24bb 0022 7f3c 68de bdbd a63f e83d
00000230: 5aef 48bd dcce 62bd 8025 533d 5e31 8c3d
00000240: 1ab6 4b3e 91c8 b23d db69 14bf 1c06 26bf
00000250: 6208 703d 413a 3cbe 1342 a03e 6cff d03e
00000260: 0ea0 193f 6abe a33d b8e8 f6bb aec7 b03d
00000270: 26a6 17bd b62c d9bd 2f1e 243e f5ff b0bd
00000280: 0454 1bbe 2532 c13d 2c58 9f3d 4c62 3d3d
00000290: ee9e 75bd 7036 fd3d 5c6d 99bc 76e1 003e
000002a0: 9cff 463d 2e85 013e c0bc 3f3d 7640 443d
000002b0: 395e f2ba 702b ffbc bc9a 5a3d 66c9 88bd
000002c0: 7d80 fb3c a15c 9b3b 3414 b03c afed 98bb
000002d0: 766c 303e 849f 673e e4bf 123e ce07 703e
000002e0: ecba a43e c1f3 7d3e 3270 103e 2f89 513e
000002f0: b0f2 4e3e 004f e1bb bb88 02be 985b a23d
00000300: 3049 e93d 3479 6fbd d410 8dbc 7413 3b3d
00000310: 146a 833d 9612 043e 118b 4e3e 6562 abbe
00000320: b2bf 693e 59bc af3d 89c2 08bc 0ee4 af3e
00000330: 8ed1 833e d8b8 3ebf cb79 fe3e 6eac ae3c
00000340: 6257 173c a887 14bc fa00 83bc 32ee fcbb
00000350: 2ff7 113d b8d6 183d dc45 663c 5d4a 05bd
00000360: 068c e53d 48a6 8f3c f878 4c3d 9841 183d
00000370: 8676 dcbd f80c c0bd 92d4 bd3d 6c90 ca3d
00000380: 86b3 c83d bd2d 41be 10e0 80bd 09a1 b03b
00000390: 7e80 85be e9f4 d6bd a05b 1e3d ef87 c9bd
000003a0: 482c a7bd 47e6 f63c 0ef4 7a3c 8c64 6fbc
000003b0: 4a9e 373b d1c0 6eba 6ff0 ddbb 1542 5abc
000003c0: 5624 7d3c 3d40 3f3c 21dc 9fbc ec75 c03d
000003d0: 74d3 8c3d 40ff 703c e8d5 b33d 4422 333d
000003e0: b006 443d 00e9 203b 9fd4 83bd 8c58 b13d
000003f0: 3bda d13e 7fc3 833d b4f3 d7bd 65a1 0fbf
0.09540291 0.12795046 -0.122034065 -0.09244548 -0.040952757 -0.06326535 0.12173 0.015830606
0.08443765 -0.07679072 0.020060623 -0.036950946 0.019119369 0.13675983 0.036821745 -0.00929039
0.016203703 0.0061248206 -0.16421875 -0.29140058 -0.5187421 -0.23020495 -0.3301831 -0.7531155
-0.20171677 -0.3194628 -0.43645337 -0.12276996 0.047059476 -0.033979714 -0.12024288 0.08280647
-0.026514217 0.0795711 0.0842071 -0.036301717 -0.31592765 0.08119673 -0.47467783 -0.19636759
-0.00935329 -0.72635746 -0.27942905 0.09186866 -0.43328738 0.07862362 -0.0048836996 0.07060368
0.11173991 -0.23569648 -0.15344904 0.059780035 0.08665008 0.025313672 -0.10883954 0.0024188012
0.118620604 -0.10544537 -0.084280655 -0.023089014 -0.051868014 0.05709961 -0.10715579 0.08704422
0.04890541 0.0050188857 0.012027446 0.002114145 -0.0010744899 0.062258653 0.061447833 -0.042571392
0.1489543 0.10711649 0.05409724 0.15491603 0.20289783 0.1883566 0.0809557 0.17328086
0.094137065 0.02161163 0.12135866 0.105936974 -0.046742454 0.06507188 -0.04033257 -0.084675
-0.047070645 0.13332912 -0.6344919 -0.48391226 -0.6827603 -0.3517921 -0.60607946 -0.6542867
-0.12316726 0.046906464 0.8561777 0.07449832 0.1088839 -0.047319107 -0.2566793 -0.019931508
-0.05787631 0.14012475 0.049037747 -0.035162237 0.09747438 -0.033497438 -0.0641482 -0.0125602335
-0.024242096 -0.09855932 -0.13372388 0.010111317 0.11313121 0.007997463 -0.026331427 0.03563114
-0.025849907 -0.045696463 -0.010669419 -0.053356506 -0.0895696 -0.06256579 -0.027728932 0.009095169
-0.0019250801 -0.012801679 0.008861688 -0.008647042 -0.01747606 -0.028540265 0.036101844 -0.05347868
-0.0025119632 0.015572071 -0.09270936 0.11340265 -0.04905639 -0.055373058 0.051549435 0.068453535
0.19893685 0.08729661 -0.5797402 -0.6485307 0.058601744 -0.18381597 0.3130041 0.4081987
0.6000985 0.07995303 -0.0075350665 0.08631836 -0.037023686 -0.10604231 0.16027139 -0.0864257
-0.15168768 0.094333924 0.07780489 0.04623632 -0.05996602 0.12363899 -0.018728904 0.12586007
0.04858361 0.1264846 0.046810865 0.047913037 -0.0018491215 -0.031148642 0.053370222 -0.06679039
0.030700916 0.004741267 0.021494009 -0.004667006 0.17228875 0.22619444 0.14331013 0.23440477
0.3217386 0.24800016 0.14105299 0.20462488 0.20209765 -0.0068758726 -0.12747471 0.07927626
0.113909125 -0.058465198 -0.017219938 0.04567285 0.06416717 0.12897715 0.20170237 -0.33473507
0.22827032 0.08580846 -0.008347162 0.3435368 0.25745815 -0.745008 0.49702296 0.021322455
0.009237142 -0.009065546 -0.015991677 -0.007718825 0.035636123 0.037314147 0.014054742 -0.03254162
0.11208348 0.017535344 0.049920052 0.03717193 -0.10764794 -0.093774736 0.0926906 0.098908275
0.097998664 -0.18865104 -0.062927365 0.0053902906 -0.26074594 -0.10495932 0.0386616 -0.098403804
-0.08162743 0.030139102 0.015316976 -0.014611375 0.0028017932 -0.00091077114 -0.0067730467 -0.013321419
0.015450558 0.01167303 -0.019514145 0.09397492 0.06876269 0.014709294 0.08781034 0.04373385
0.04785794 0.0024552941 -0.06437039 0.08659467 0.4098681 0.06433772 -0.105445296 -0.56105644

bias f4 [6]
00000000: 0e3a 8abe c845 b3be cb66 1ebe 147a 78bd
00000010: e503 d13d 416a 15be
-0.26997417 -0.35014176 -0.154689 -0.060663298 0.10205821 -0.14591314

weight f4 [16, 6, 3, 3]
00000000: c463 8bbd 20dd d7bd ee80 00be ded8 38be
00000010: 87a9 c5be cf3f e9be 3797 d0be b21a b8be
00000020: 33e7 babe 806b c3bb 2775 b0be 1caf 4ebc
00000030: 040e fd3d 1407 e93c e8a3 3cbe f1db 8c3d
00000040: 6b0a 553e bc8f a83d ecf1 04bf c6b8 14bf
00000050: 22fa 38bd 754f 3e3e 2285 03be 8a1e 793e
00000060: e9f0 133e 85db f0bd 34aa 08be a9ae 83bb
00000070: 5d39 c63c 8f4d 3bbd 90a6 77bd 0b51 a3bc
00000080: 5152 143c 962e f4bc f5be b33c e3de bcbc
00000090: df7e 953c 5d05 8cbd d3eb a43e edb1 8ebe
000000a0: 7b5d e6bd 6199 793e c811 dabd f58a 303d
000000b0: 0542 c0bd bffd 893e 87c4 f63d 4753 aa3d
000000c0: 2d45 843e 36f7 d43e 6f20 893e 0e24 8b3e
000000d0: 3160 003e 22f4 bd3e c7a9 023d 1f74 12be
000000e0: ad11 163d d410 223e 684a 233d 3470 093c
000000f0: 3cd6 0a3d 9712 853d 2120 e93c 17e4 343e
00000100: ffb1 3abc 1dfe 88be f901 4d3d 41c8 9dbe
00000110: 6a7d 9fbe b3e3 02be 1fe2 263d a1bb 24be
00000120: 5b5b 7ebe b324 cdbc ee45 3ebd a481 823d
00000130: e0ca 02be f1d7 e1be 94ea 47be 77f3 a6bc
00000140: 599d 163b 4b72 7a3d 037b 103d 0411 f4bc
00000150: 9fca 8cbd e01a 91bc 31c3 00bd ccf8 253d
00000160: 6f3a 71bd 5cbd 253e e2b7 0cbf 31fd 4dbc
00000170: 10d5 833b 5d84 10bf aa2d e2bb aa79 bfbb
00000180: 0016 1dbf 1391 4d3d d5e4 663d 6592 0dbe
00000190: 2f66 4d3e b142 c73e 6a67 8ebe 4d90 1c3d
000001a0: 36e9 b93e 1752 87be dbfa a33c 9bc8 8f3e
000001b0: 5039 d2be 3909 92be 0578 e1bd 2d23 2ebe
000001c0: b0a2 6dbc e0dd 43bf 8741 01bf 656b 273e
000001d0: b444 e9bc b241 61bd bf02 3339 3498 9e3d
000001e0: 3695 f73d 99c3 dc3d 9ae6 ea3d 25a3 0bbd
000001f0: 02e5 373e 0a37 a83d f9df a23e 6f78 c4bc
00000200: f387 f9be 308e ed3d 82c1 2bbf 1cdf 1cbe
00000210: 9ccb ad3c 392c b03d f302 9bbc 6690 5e3d
00000220: b337 e8bc 7fad 63bd a88e a7bd 6b9b 7d3b
00000230: 6ac1 423a 5547 babc 00bd 02be 7911 fdbd
00000240: 19f2 b23e e736 92bd c701 9f3d 022a 4e3e
00000250: cafd 04be ddcd f33d e45c 03be c88f 123e
00000260: 6187 b53d 1fa8 d63d 031f 4d3d 6860 383d
00000270: 6384 243e 74d2 20bd 9089 86be 6152 513e
00000280: bd84 143e 2e89 533d fe35 70bd 1560 243e
00000290: 262c 87bd 755a 19bd 641a 3e3e ce83 c4be
000002a0: b2cb 9fbd 34d5 6b3e 34bf d53d 4987 05bf
000002b0: d1a9 ad3d 3012 6dbe 7e4a f5bc 3b09 7d3e
000002c0: 888d cebd 5884 a6be 1e66 193e df7f 04be
000002d0: 3915 e03d 9400 1dbe aa0f 1abf 0421 e93d
000002e0: e52e 8c3d 4dd2 eabe 31a2 34be 9f31 133e
000002f0: bb77 6ebe f15c 8dbe 3730 5bbe e05a 81bd
00000300: bc97 cdbe 8c67 77be 7773 9abd 0beb 13bc
00000310: df40 96be 5534 76be d099 94bf 9fa2 1ebf
00000320: 3f94 a9bd 6646 e4be 80dd 4e3e 9fd8 913d
00000330: b5a5 27bf 9720 a3be 267a 69be 31b5 16bf
00000340: e6cf 07bf f09a 5e3c a1f5 9dbf db9f b7bc
00000350: e5d1 c13d b636 59bf 97ad 97bf 12d8 003e
00000360: 5cab 0d3c 4331 52be 7ea7 ae3e f56e 213e
00000370: 280d 423c fec3 883d 973e 393e 306d 503e
00000380: c26e 743e bb5c 163d 6781 4c3d 0a51 943e
00000390: 30d5 45bd ac22 2fbd b090 ac3d 54fe d43d
000003a0: 89c9 e53d 5069 07be a881 a83b f88f 4bbe
000003b0: c82f ab3e 9bab fdbe bb29 a2be de13 223e
000003c0: ded3 50be a1d0 273e 0471 db3d a3dc e5bc
000003d0: ae36 a53c 2453 dbbd 5cb7 dabc 0e0e 98bc
000003e0: 217d 07be ba52 3bbe 253c 8b3d 53a1 19bc
000003f0: 00ba dc3d 8233 9c3d d94d 87be 39d3 a7ba
-0.06806138 -0.10540223 -0.12549183 -0.18051478 -0.38605902 -0.45556495 -0.40740368 -0.35957867
-0.36504516 -0.0059637427 -0.3446438 -0.0126149915 0.12356189 0.028445758 -0.184219 0.06877888
0.20804755 0.0823054 -0.51931643 -0.5809444 -0.04516042 0.18584998 -0.12843755 0.24328056
0.14447369 -0.1176062 -0.13346177 -0.004018624 0.024197275 -0.045728263 -0.06046158 -0.019936105
0.009052829 -0.02980737 0.021941641 -0.0230555 0.018248973 -0.068369605 0.3221117 -0.27870122
-0.11248299 0.24374916 -0.10647923 0.04310127 -0.09387592 0.26951405 0.12049203 0.08316665
0.25834027 0.41594857 0.26782557 0.27175945 0.12536694 0.3710032 0.031900194 -0.14302109
0.03663795 0.15826732 0.03986588 0.008388568 0.033895716 0.06497686 0.028457703 0.17665134
-0.011394977 -0.26756373 0.05005071 -0.30816844 -0.3115037 -0.12782173 0.04074299 -0.160872
-0.24839537 -0.025041914 -0.04645341 0.06372383 -0.12772703 -0.44110063 -0.19523078 -0.020379765
0.002298197 0.061144155 0.035273563 -0.02979327 -0.068745844 -0.01771301 -0.03143615 0.040520474
-0.058893617 0.16185516 -0.5496808 -0.012572573 0.0040232018 -0.5645197 -0.0069024162 -0.005843361
-0.61361694 0.05018718 0.056370575 -0.13825376 0.20058511 0.3891807 -0.27813274 0.038223553
0.36310738 -0.26429817 0.020017078 0.28082737 -0.4105935 -0.2852266 -0.1100922 -0.17005606
-0.01450412 -0.7651043 -0.5049061 0.16349562 -0.028475143 -0.054994293 0.00017071793 0.07743874
0.120890066 0.10779495 0.11469765 -0.034091134 0.17958453 0.08213623 0.31811503 -0.023983208
-0.48736534 0.11599386 -0.67092144 -0.15319484 0.021215253 0.08602185 -0.018922305 0.054336928
-0.028346872 -0.05558538 -0.081815064 0.0038697373 0.00074293336 -0.022739092 -0.1276741 -0.12356848
0.3495033 -0.07139378 0.07764011 0.20133212 -0.12987438 0.119045 -0.12828404 0.1431266
0.08863712 0.10481285 0.050078403 0.045013815 0.16066127 -0.039263204 -0.26276827 0.20441581
0.1450376 0.051644497 -0.05864524 0.16052277 -0.066002175 -0.037439782 0.18564755 -0.3838181
-0.07802524 0.2303055 0.1043686 -0.52159554 0.084796555 -0.23151469 -0.029942747 0.24710552
-0.10085589 -0.32522845 0.14980361 -0.12939404 0.10941548 -0.15332252 -0.6018015 0.1138325
0.06844882 -0.45863572 -0.17639996 0.14374398 -0.23287861 -0.2760997 -0.21405111 -0.06316161
-0.40154827 -0.24160594 -0.075415544 -0.009028207 -0.29346368 -0.240434 -1.160944 -0.6196689
-0.08280229 -0.4458496 0.20201683 0.07121395 -0.65487224 -0.31860802 -0.22800502 -0.58870226
-0.530516 0.013586745 -1.2340585 -0.022415092 0.09463862 -0.8484911 -1.184985 0.12582424
0.008646812 -0.20526604 0.3411216 0.15764983 0.011843957 0.066780075 0.18090282 0.20354152
0.23870376 0.03670953 0.049928095 0.28968078 -0.048299015 -0.042757675 0.084260345 0.10400072
0.112200804 -0.13223767 0.0051424094 -0.19879138 0.33434892 -0.49544987 -0.31672463 0.15827891
-0.20393321 0.1638818 0.107149154 -0.02805931 0.020167675 -0.10709217 -0.02669876 -0.01856139
-0.13231327 -0.18293276 0.06798581 -0.009376842 0.10777664 0.07627012 -0.2642658 -0.0012804038

bias f4 [16]
00000000: 18e2 b73d 8e27 14bc 4187 ffbd a765 c1bd
00000010: 3d97 23bd e045 9fbc 5e60 00bd b4ab 22bd
00000020: b9ae 93be e0bb 88bd 945d 17bd 6301 44bc
00000030: d9bd 4d3d 79ed b9bd 745b 8ebc c586 9bbc
0.08978671 -0.009042634 -0.124769695 -0.09443217 -0.039939154 -0.019442499 -0.031341903 -0.03971453
-0.2884424 -0.06676459 -0.036954477 -0.011963221 0.05022988 -0.090784974 -0.017377593 -0.018985162

weight f4 [32, 16, 3, 3]
00000000: 774a 20be b6cf 8fbd 216c e43c 51be 8b3d
00000010: 0676 753d 39dc 20bd 9805 2b3d 74c4 373d
00000020: f70c 9fbd 512f d83d 926e b4be 4a7d babe
00000030: 0c36 553d a417 163e 1647 f0bc 5534 b83d
00000040: 0b8a 193e 0607 c5be b1b6 9dbe da3a 9f3d
00000050: 3818 98be 62e1 a23e a611 94be 594e 01bf
00000060: 69ab 36be c4b9 203e 593e ecbe 3f62 773e
00000070: 6108 ecbd 0286 003e 9515 063d d714 1dbf
00000080: 32fe 693b 3df7 f13d d3ef 5cbe 37ef 9b3e
00000090: 7afa b23d c2d8 b6be 6bb6 b53d 65b9 1a3e
000000a0: 95d5 7bbe bc13 1b3e 11ce fa3d d01b a3bc
000000b0: 7196 edbe af18 debe 5f4f 28be ad90 59be
000000c0: a323 3c3e 3e1e 253e 3995 793e 6b72 d13c
000000d0: 90eb a0be 8a58 fc3d 9c5c 31be 6ea9 b03e
000000e0: 2163 be3d 3dec 85be abc7 de3d cf6c 4c3e
000000f0: c3cd d8be 9f6c 96bd a1a9 c6bc e633 93be
00000100: 95ab 88bc a061 e9be e094 d6be c186 4fbd
00000110: 307a 8c3d f7aa 2dbf c929 62be c1b0 80bd
00000120: 5ae6 3dbe 6f2d 9a3e a729 0ebe 4f42 1ebf
00000130: 6661 7b3e e2dc 38bd 1325 6bbd c0f2 103e
00000140: 9a50 f23c 21e7 09bf 88dd 2d3e bdab 513c
00000150: e123 bdbe fcfd e5bc f0c8 2a3e 1eea 0a3d
00000160: 7fad 983d 6ce7 a23e 288f 34be 763c 1a3e
00000170: 0c4f 01bf b7b7 193e 7b5e ddbe bd68 18bf
00000180: 25a6 ed3e 7ce3 0abf 5018 ae3d 4744 5a3d
00000190: 199a 2e3e 222d 36be d343 31be 6785 44be
000001a0: bbe1 493d 4e9f 433e 1c31 883d b6f2 673d
000001b0: d000 a03e 1dec 44be 32a2 48be 66f7 f53d
000001c0: 0ab1 5d3e 685a 59bc dad9 6a3e c5bb 76be
000001d0: 8b09 afbe 49f9 083e 0bb7 20be a48d f4bd
000001e0: 66b1 80be 74e6 313e baaa ae3d 09d1 06be
000001f0: d20a edbd f73c 73be 71c1 05bf d4f7 79be
00000200: 7dd4 16be afb9 e0be fa4e f8bd ab40 ec3d
00000210: 3153 09be 6754 3cbe 6112 36bd da57 0a3e
00000220: 3904 36bc 45dc f83e 424e 4b3d 3320 4a3e
00000230: 2caa 713e 6068 ee3d 22e8 bd3e 4972 7d3e
00000240: 892c 00be 716f 983e 1644 c2be c7b0 23bd
00000250: 436b e13d aee5 17bf dfba 4f3d bea6 493d
00000260: 3c62 95be 76f4 cbbe 68b2 b6bd ff15 ca3e
00000270: 6335 61be e6d6 263e 51b2 06bd d9c5 8cbe
00000280: 932a 11bd f59f b5bd 88fe 2fbe a98e 14be
00000290: 8f70 d6bd f939 403e 4426 683e 905d 7a3e
000002a0: e65f f2bd ca44 fbbd 006e 043e c23c 55bd
000002b0: 0ce9 503e da8b b43e 5d95 52bd f560 da3e
000002c0: 599a 8e3e 3420 203e 8308 7d3e 204e b33d
000002d0: 24d8 053e 6c63 b6be c4e9 7fbe 8fd3 98bd
000002e0: cd15 4ebe 7a8c b13d 92ea 98bd 9043 2f3e
000002f0: 42c2 a43d 1616 85be 8457 723c b25d a2be
00000300: 0fbb 6b3d 866b 843e 596a 84be 7c4f dbbd
00000310: 4439 d0bd 537f 8b3b 05b4 8abe 2f76 26bf
00000320: cd3f d6be d114 55be 5b42 8d3c 0242 58bf
00000330: f908 55be 5dc3 913d 2277 c7be 0e10 3d3e
00000340: e62d dbbd 920b 71bc 8175 bdbe ab4a 64bd
00000350: de8f b43e 46fd 6cbe bd66 8a3d b8b1 083e
00000360: 0f70 a8be a7f4 ba3d e160 bb3e 6928 2abd
00000370: 4622 8f3e 74a6 043e a3c4 843c 38f3 7cbe
00000380: 6321 1ebe 8453 7dbe 60f0 ce3c 3486 a6be
00000390: 6f17 a7be 4748 1b3d d1a9 c7be 93e3 c0be
000003a0: b1db 90bd 774f 0e3e be75 0b3e 96ad 833d
000003b0: e660 af3d 1a6c 96be 8be6 d0be fe04 a0be
000003c0: 7b9b 97be 194e 493d 2631 32be 51c1 09bc
000003d0: 564a 5fbe 0ecf eb3d 1e1d aa3d 45f3 cdbd
000003e0: bcce a63d 2e65 3ebd c59f de3b 85a1 603c
000003f0: 596a b7be 26b9 37be c5a7 1dbe 399f 9dbe
-0.15653406 -0.070220396 0.027883591 0.06823409 0.05992701 -0.03927252 0.04175338 0.044865087
-0.07766145 0.105559 -0.35240608 -0.36423713 0.052053496 0.14657456 -0.029330771 0.089943565
0.14994065 -0.3848192 -0.30803445 0.07774897 -0.29705977 0.31812578 -0.28919715 -0.50510174
-0.17838825 0.15695864 -0.46141317 0.24158572 -0.11525036 0.1255112 0.032735426 -0.61359924
0.003570449 0.11814735 -0.2157586 0.30455944 0.08739181 -0.35712248 0.08872684 0.15109785
-0.24593194 0.15144247 0.12246335 -0.019910723 -0.4640384 -0.43378207 -0.16436528 -0.21246596
0.1837297 0.16124818 0.2437333 0.025567254 -0.3142972 0.12321575 -0.17320484 0.34504265
0.09296251 -0.26156798 0.108779274 0.19963382 -0.42344484 -0.073449366 -0.024250807 -0.28750533
-0.01668338 -0.45582294 -0.41910458 -0.05066562 0.06859243 -0.67838997 -0.22086252 -0.06283713
-0.18544903 0.30112788 -0.13883077 -0.6181993 0.24548873 -0.045132525 -0.057408404 0.14155102
0.02957945 -0.538683 0.16979039 0.012797293 -0.36941436 -0.02807521 0.16678214 0.033914678
0.07454967 0.31817186 -0.17632735 0.15062127 -0.5051124 0.15011488 -0.43236145 -0.5953482
0.4641582 -0.54253364 0.08500731 0.05328777 0.17050971 -0.17790654 -0.17311029 -0.19191514
0.04928754 0.19103739 0.06649992 0.05662795 0.3125062 -0.19230695 -0.19593123 0.12010078
0.21649566 -0.013266183 0.22934666 -0.24095066 -0.34186968 0.13376345 -0.15694825 -0.11941078
-0.25135344 0.17373067 0.08528657 -0.13165678 -0.115743294 -0.23753725 -0.52248293 -0.24410945
-0.14729495 -0.43891665 -0.121244386 0.11535772 -0.13410641 -0.18391572 -0.04445112 0.13510075
-0.011109405 0.48605552 0.04963518 0.19738846 0.23600072 0.11641002 0.37091166 0.24750628
-0.12516989 0.29772523 -0.3794257 -0.03996351 0.11006787 -0.5933484 0.050715324 0.049231283
-0.2917651 -0.39834946 -0.08920747 0.39469907 -0.21993022 0.16292915 -0.0328849 -0.27494696
-0.035440993 -0.088684 -0.1718694 -0.14507546 -0.104706876 0.18772115 0.22670847 0.24449754
-0.118346974 -0.1226898 0.12932587 -0.052059896 0.204014 0.35262948 -0.051411975 0.42652097
0.27852133 0.15637285 0.24710278 0.087551355 0.13070732 -0.35622728 -0.24991518 -0.074622266
-0.20125504 0.08669372 -0.07466616 0.17115617 0.08044864 -0.25993413 0.014791373 -0.3171211
0.05755144 0.25863284 -0.25862387 -0.1070852 -0.101671726 0.0042571216 -0.2709047 -0.65024084
-0.4184555 -0.20808722 0.017243555 -0.8447572 -0.20804204 0.07117341 -0.3895808 0.18463156
-0.10702114 -0.014712231 -0.3700371 -0.05573527 0.35266012 -0.23143491 0.06757877 0.13349044
-0.32897994 0.09128695 0.3659735 -0.041542444 0.27955836 0.12954122 0.016207045 -0.24702156
-0.15442424 -0.2473889 0.025261104 -0.32524264 -0.32635066 0.037910726 -0.38996747 -0.37673625
-0.07073153 0.13897501 0.13619134 0.06429593 0.08563404 -0.2937935 -0.4080089 -0.3125381
-0.2961081 0.049146745 -0.17401561 -0.008407907 -0.218057 0.11514102 0.08306335 -0.100561656
0.081449 -0.04648321 0.0067939484 0.013710384 -0.35823324 -0.17941722 -0.1539603 -0.3078554

bias f4 [32]
00000000: 0998 82bd d97b fbbc 933b bcbd 2345 a8bc
00000010: 762f cfbc 723a 993a 5fd3 c1bc 5e2a 94be
00000020: 9d15 e1bd 3c09 adbc d2af b0bc 8590 ba3c
00000030: 45d3 05bd 0d24 81bd 66c5 f9bd 2a6d 9dbc
00000040: 6705 11be 4c53 d5bd c555 bfbd 5655 53be
00000050: 7ec6 15be 57a3 edbe fd32 9fbe aa78 b2bd
00000060: 5493 01be 5301 44bc c932 2cbd 8b69 50be
00000070: 0602 25be 055a 03be 84a2 df3b 9342 bfbc
-0.06376655 -0.030698704 -0.091910504 -0.02054078 -0.025291186 0.0011690392 -0.02366036 -0.28938574
-0.109904505 -0.021122567 -0.021568213 0.02277399 -0.032672185 -0.06305704 -0.12195854 -0.019217093
-0.14162217 -0.10416278 -0.09342531 -0.20638022 -0.146265 -0.4641368 -0.31093588 -0.08714421
-0.12653857 -0.011963206 -0.04204062 -0.20352761 -0.16114053 -0.12827308 0.0068247933 -0.023347175

weight f4 [5, 16928]
00000000: 4e79 a8bc d8c6 11be 929f 383e 50a2 893d
00000010: ab7a 08bb 3525 80bc 2967 3ebd cc33 d33d
00000020: e9b5 503d 251c 003c 8331 3c3e 192b 7f3d
00000030: 7541 683d 91c5 823d 8542 903d e375 4b3e
00000040: 28ea 1b3b 2ced 823c 251b 803d b3e4 413d
00000050: 1b1a d63c d369 1c3d 97e7 e73d 76b9 bc3d
00000060: e2a8 e23d 85aa 143e d9e4 e13d 0406 f93d
00000070: 8b70 653d 89be e3bc 7012 203d 875c 263d
00000080: 9872 043e 8afa af3d 2efd 923e a182 103e
00000090: 77bc 1a3e 4360 fe3d 5009 d43d 1799 1ebc
000000a0: bf3a 453c beb4 5d3d d1bd 673d 02ac 00bd
000000b0: 7435 983d 9104 f93d 0f0d 2d3e 8fb0 703d
000000c0: 20fd 91bc dd91 043d 5cf7 bd3d 7f0e fe3d
000000d0: 0498 de3d 5e03 a73d 3fcc 133d ed27 8ebc
000000e0: 3633 c73d 9155 c23e dfc6 0f3e 97b9 8c3e
000000f0: 65cf 543e 290f 9a3d d681 643d 44fd d53d
00000100: 853c cbbc 857c 163e 9d48 a43d e108 4cbd
00000110: eeed d5bc 910b c73d 44f3 3dbd 2515 86bb
00000120: 47dd bf3d 94ec 823c b9fd 223e 7ead 82bb
00000130: 44dc 5b3d 562f 273e 8cd0 6f3d ba52 873e
00000140: 473a 133e 0f4a 533e 028a 8a3e ac7b 413e
00000150: 36c5 b13d d160 253e 8c93 d0bc e542 f93d
00000160: 87ba 28bd ef59 c8bc 49c2 813d 6d79 ce3d
00000170: 2af2 3b3d f821 853d 081c a6bc 5fdf 2c3e
00000180: 9c6d 403e 65c9 bd3d b3e0 303e 77c2 0a3d
00000190: 0ca5 1d3e b96d a23c 36a3 233e 773f a43e
000001a0: 20f1 433e e7b7 da3d 9a8c 0a3e f067 063e
000001b0: 0dbb 813d 4bb5 cd3d 4f76 253e a363 c4bd
000001c0: a8e0 ae3a 42e4 833d 1138 a4bd e4e1 083e
000001d0: 5e50 3a3b 468e 843d d991 9f3d cd3d 1c3e
000001e0: 8cfd 723d d9a1 d43d 99eb 3eba 8a80 933d
000001f0: bb2d 1d3e a82a 4b3e cf4b 463e 0655 1b3e
00000200: 70ac 253e 9349 bc3d 1d4b ee3d c98c 083e
00000210: f1f3 453e 210b 2c3e fd4f 80bc c5d1 02bd
00000220: 7e1d f43d 4555 413a e867 303e 5e85 393e
00000230: b2e8 593d 1fbb 1e3e f900 263e aaf7 5a3e
00000240: b274 1b3e 4e6a 4a3b e377 243e bb25 153e
00000250: a095 d43d 03a1 353e cb6a 4b3e da9c 403e
00000260: c511 403e 32f0 9f3d febb 383e b7b9 403e
00000270: 76a8 743c bdb7 bbbc 15c7 d53d 22b0 babd
00000280: c901 90bd f6be a13d 556b 023e 5568 1b3e
00000290: 39c5 463e 5711 f73d c664 0f3e 4e82 0e3e
000002a0: d678 343e c596 803e c678 953e 1901 5a3e
000002b0: 541f 7d3d bbe6 c43d 5d35 483e c8eb 8e3d
000002c0: 8597 c63d 7b29 ed3c c0d2 813c 2518 ab3d
000002d0: 4388 f2bd d7c5 0e3e 6527 40bd c4d6 483d
000002e0: be98 523e ecea 0d3e f978 bfbc 04a6 ba3d
000002f0: 7469 b03d 0de9 313e 4a1f c83d c0e7 ef3d
00000300: cb01 c03d 9e9d 373e 3405 543e 72ce 543e
00000310: 348a 2b3e 87dc 813e 8bdd cc3d 6308 523e
00000320: 6b26 593e 694b 043e 602e ff3d c98f 273d
00000330: ce54 8f3d ad07 5cbe ca79 d63c 5057 b93d
00000340: 6a71 bf3d 7c1c e63d af03 de3d c562 483e
00000350: b705 e43d 81c4 d03c 771d 383e 1a6e 5e3e
00000360: b1e6 ff3d ffb7 af3c 571a aa3d 315e 473e
00000370: 56ec a33d e980 843e 9c9b 893e 2cb1 213e
00000380: 4984 313e b729 033d f5c6 c3bd 1ce8 0f3d
00000390: ee66 3dbd 1c80 f4bc 1bc2 3c3d 5865 ed3d
000003a0: b85d cebc bd6e e33d bce0 663d 7fea 393e
000003b0: a05c fc3d 2dd8 fb3d b2e9 543e 3b5f 763e
000003c0: a1fa f43d 5aef 103e 8591 2bbd fe7f 34ba
000003d0: 9467 5c3c 885b 3fbd a78b 4a3e 5ca1 743d
000003e0: 4e05 cc3d 7a5f 063d d165 883e cce9 32be
000003f0: c5c4 803c 4c78 753d 443a 183e 547a 703d
-0.020565655 -0.14236009 0.18029621 0.06720412 -0.002082507 -0.015642742 -0.0464851 0.10312614
0.050954733 0.00781921 0.18378262 0.06229696 0.05670305 0.06385339 0.070439376 0.19869189
0.002379069 0.015982233 0.062551774 0.047337245 0.026135495 0.03818686 0.11323469 0.09215061
0.11067368 0.14518173 0.11029977 0.121593505 0.056015532 -0.027800815 0.039080083 0.040615585
0.12934339 0.085927084 0.28708786 0.14112331 0.15110956 0.12420704 0.10353339 -0.009680054
0.012037932 0.054127447 0.056577507 -0.03141404 0.074320704 0.12159074 0.16899513 0.05876213
-0.017820895 0.03236567 0.09275696 0.12405109 0.108688384 0.08154939 0.036083456 -0.017353022
0.097265646 0.37955907 0.14040707 0.27485344 0.2078224 0.07522423 0.055787884 0.10448697
-0.024809131 0.14695938 0.080216624 -0.049813155 -0.02611443 0.09719003 -0.046374574 -0.004091876
0.09368377 0.01598195 0.159171 -0.003987967 0.05367686 0.16326651 0.058548495 0.26430303
0.143777 0.2063372 0.27058417 0.18894833 0.08680193 0.16150214 -0.02546098 0.12170962
-0.04119351 -0.024456946 0.06335885 0.10081754 0.045885243 0.0650062 -0.020277038 0.16882084
0.18791813 0.092669286 0.17273216 0.033876862 0.15394992 0.01982771 0.15980229 0.3207967
0.1913495 0.10679608 0.13530198 0.13125587 0.06334505 0.100443445 0.16158412 -0.09589317
0.0013342099 0.06440021 -0.08018506 0.1336742 0.002842925 0.06472449 0.0779149 0.1525795
0.059323832 0.103824325 -0.00072830316 0.07202251 0.15349476 0.19840491 0.19364856 0.15169153
0.16179061 0.09193721 0.116354205 0.13334955 0.19331338 0.1680112 -0.015663141 -0.031938333
0.11919688 0.0007375072 0.17227137 0.18117282 0.05320043 0.15501069 0.16211309 0.21383539
0.15181234 0.0030886116 0.16061358 0.14565174 0.10380101 0.17737202 0.19864957 0.18809834
0.18756779 0.078094855 0.18040463 0.18820845 0.014932742 -0.022914762 0.104383625 -0.09115626
-0.070315905 0.07897751 0.12736256 0.15176518 0.19411172 0.12063854 0.14003286 0.13916895
0.1762422 0.25115028 0.29193705 0.21289481 0.061797455 0.09614321 0.19551606 0.069785655
0.09696869 0.028950443 0.015847564 0.083542146 -0.11842396 0.13942657 -0.04691257 0.04903294
0.20566079 0.13859147 -0.023373114 0.09113696 0.086138636 0.17374058 0.09771593 0.11714125
0.09375342 0.1793122 0.2070511 0.20781878 0.16751939 0.25363562 0.100031935 0.20511012
0.21206062 0.12919392 0.12460017 0.04090861 0.06998597 -0.21487303 0.02618112 0.09049857
0.09347804 0.11235902 0.10840546 0.19568928 0.111339025 0.025484325 0.1797999 0.21721688
0.12495173 0.02145004 0.08305805 0.19469525 0.08004062 0.258796 0.26876533 0.15790242
0.17335619 0.032022204 -0.095594324 0.035133466 -0.04624074 -0.029846244 0.04608355 0.115915954
-0.025191173 0.11105106 0.056366667 0.1815586 0.12322354 0.12297092 0.20792273 0.24059765
0.11961866 0.14153805 -0.041886825 -0.00068855274 0.013452429 -0.04671815 0.19779836 0.059724197
0.09961949 0.032805897 0.2664018 -0.17471999 0.015718827 0.059929177 0.14865977 0.05871041

bias f4 [5]
00000000: c2bb 3bbe d7d7 4dbe d4bb 42be 7f34 5abe
00000010: af93 3bbe
-0.18333343 -0.20101868 -0.19016963 -0.21309088 -0.18318056
