archived_data/b4_r0_m20_s150--2019-01-28--150333.524729_nav/episode_7750.model (torch_old, 375717 bytes, 8 tensors)

weight f4 [6, 6, 3, 3]
0.09540291 0.12795046 -0.122034065 -0.09244548 -0.040952757 -0.06326535 0.12173 0.015830606
0.08443765 0.047235787 -0.028551724 -0.02216701 0.04305046 0.09812179 -0.040492166 0.03439484
0.06886855 0.035463832 -0.0812883 -0.27496895 -0.39505526 -0.20090057 -0.24573532 -0.7531155
-0.16139406 -0.21676323 -0.36470857 -0.12276996 0.047059476 -0.033979714 -0.12024288 0.08280647
-0.026514217 0.0795711 0.0842071 -0.036301717 -0.05878493 -0.018728888 -0.4225211 -0.18845117
-0.31206322 -0.7537003 -0.1646426 -0.21241613 -0.3055258 -0.05238281 0.02074541 0.055401996
0.13760254 -0.025669737 -0.05525621 -0.0067047835 -0.002072258 -0.04855911 -0.10883954 0.0024188012
0.118620604 -0.10544537 -0.084280655 -0.023089014 -0.051868014 0.05709961 -0.10715579 0.04114731
0.013645878 0.03396361 -0.04782401 -0.017096601 -0.0130680865 0.005907272 0.08040448 -0.010535255
0.1657685 0.108486645 0.08306004 0.17913637 0.18566155 0.1280755 0.13067864 0.18812492
0.1618769 0.02161163 0.12135866 0.105936974 -0.046742454 0.06507188 -0.04033257 -0.084675
-0.047070645 0.13332912 -0.35565925 -0.042310238 -0.51818925 -0.36974096 -0.60018355 -0.747494
-0.24466166 0.35292307 0.335658 0.010430275 0.1379769 -0.09593166 -0.42052147 -0.17529453
-0.051940303 0.11325319 0.035729088 -0.08648769 0.09747438 -0.033497438 -0.0641482 -0.0125602335
-0.024242096 -0.09855932 -0.13372388 0.010111317 0.11313121 0.0039771902 0.06803263 0.010654443
-0.0806308 -0.021447906 0.036643803 -0.044258505 -0.019987097 0.10534329 0.029307662 0.0252448
0.069406815 -0.004330393 0.03058678 0.059369273 -0.010538434 0.004226965 0.035612114 -0.05347868
-0.0025119632 0.015572071 -0.09270936 0.11340265 -0.04905639 -0.055373058 0.051549435 0.068453535
-0.021186285 0.14219604 -0.5078571 -0.5775392 0.1558072 -0.23673326 0.5046763 0.35640094
0.33922964 0.001215963 0.01825112 0.098280266 -0.053805623 -0.17285867 0.058265906 0.03966105
-0.13745289 0.1260551 0.07780489 0.04623632 -0.05996602 0.12363899 -0.018728904 0.12586007
0.04858361 0.1264846 0.046810865 -0.010315871 0.044816818 -0.028939001 0.018798478 -0.10834428
-0.0032055012 0.018804457 0.03893613 -0.03280992 0.132307 0.19777752 0.12836152 0.18227462
0.25331157 0.20821643 0.08396805 0.21397585 0.11185813 -0.0068758726 -0.12747471 0.07927626
0.113909125 -0.058465198 -0.017219938 0.04567285 0.06416717 0.12897715 0.17214811 -0.40519035
0.14688963 0.2140047 -0.08202836 0.13545142 0.258042 -0.6016599 0.17756462 0.02078557
-0.09092734 0.016379865 -0.005314815 -0.055832192 0.008388843 0.031367216 -0.0066097146 -0.052134868
0.11208348 0.017535344 0.049920052 0.03717193 -0.10764794 -0.093774736 0.0926906 0.098908275
0.097998664 -0.17392069 -0.029949553 -0.011080058 -0.11190182 0.041953366 0.005772195 -0.08481412
-0.013526131 0.009287514 -0.0182075 0.0047836364 0.0032527326 -0.03050804 0.0015042278 -0.030936059
-0.043349154 -0.04669429 -0.0035661357 0.09397492 0.06876269 0.014709294 0.08781034 0.04373385
0.04785794 0.0024552941 -0.06437039 0.08659467 0.29636478 0.07257869 -0.011315588 -0.37529635
00000000: 9a62 c33d 7205 033e ffec f9bd 0e54 bdbd
00000010: 14be 27bd 4491 81bd 944d f93d 30af 813c
00000020: a6ed ac3d 507a 413d 4ee5 e9bc 9797 b5bc
00000030: ae55 303d 14f4 c83d 1ddb 25bd 9be1 0c3d
00000040: f40a 8d3d 8642 113d 7b7a a6bd bbc8 8cbe
00000050: af44 cabe e1b8 4dbe 0aa2 7bbe 2dcc 40bf
00000060: 7c44 25be 2ef7 5dbe 15bb babe d16e fbbd
00000070: 70c1 403d 502e 0bbd e641 f6bd 7096 a93d
00000080: 5834 d9bc 2cf6 a23d c674 ac3d 1cb1 14bd
00000090: 77c8 70bd 536d 99bc b054 d8be 58f9 40be
000000a0: c0c6 9fbe 81f2 40bf 1298 28be 9d83 59be
000000b0: e16d 9cbe 5b8f 56bd 47f2 a93c 34ed 623d
000000c0: aee7 0c3e 5749 d2bc 5654 62bd cdb3 dbbb
000000d0: b8ce 07bb ebe5 46bd 44e7 debd c084 1e3b
000000e0: 5cef f23d bef3 d7bd 569b acbd 2c25 bdbc
000000f0: 8e73 54bd 48e1 693d 7f74 dbbd 158a 283d
00000100: f692 5f3c 6d1d 0b3d 1ce3 43bd 2c0e 8cbc
00000110: 871b 56bc ca91 c13b 1bab a43d 109c 2cbc
00000120: 38bf 293e 3f2e de3d 621b aa3d 866f 373e
00000130: 101e 3e3e 3926 033e 9fd0 053e d2a3 403e
00000140: 0fc3 253e e00a b13c e48a f83d 7cf5 d83d
00000150: 0475 3fbd 6844 853d c433 25bd 166a adbd
00000160: 26cd 40bd 6e87 083e f818 b6be 804d 2dbd
00000170: 0da8 04bf b04e bdbe a1a5 19bf c45b 3fbf
00000180: 9688 7abe 55b2 b43e 5edb ab3e bfe3 2a3c
00000190: d149 0d3e d177 c4bd 974e d7be 6980 33be
000001a0: 5bbf 54bd 4af1 e73d aa58 123d 7520 b1bd
000001b0: a6a0 c73d 9c34 09bd 2260 83bd 70c9 4dbc
000001c0: 5c97 c6bc 78d9 c9bd eaee 08be f0a9 253c
000001d0: 56b1 e73d 1753 823b b154 8b3d f98f 2e3c
000001e0: c321 a5bd 85b3 afbc d017 163d 6848 35bd
000001f0: fbbb a3bc 39be d73d 9f16 f03c 2fce ce3c
00000200: 2925 8e3d f8e5 8dbb 2091 fa3c 322d 733d
00000210: 65a9 2cbc 5a82 8a3b 02de 113d 760c 5bbd
00000220: c09f 24bb 0022 7f3c 68de bdbd a63f e83d
00000230: 5aef 48bd dcce 62bd 8025 533d 5e31 8c3d
00000240: dc8e adbc d79b 113e ec02 02bf 9cd9 13bf
00000250: ec8b 1f3e 346a 72be 7732 013f 2f7a b63e
00000260: 82af ad3e f360 9f3a 5f83 953c 2a47 c93d
00000270: 4963 5cbd dd01 31be 3ba8 6e3d a073 223d
00000280: 73c0 0cbe 9714 013e 2c58 9f3d 4c62 3d3d
00000290: ee9e 75bd 7036 fd3d 5c6d 99bc 76e1 003e
000002a0: 9cff 463d 2e85 013e c0bc 3f3d e603 29bc
000002b0: d791 373d 7c11 edbc 44ff 993c 9be3 ddbd
000002c0: 6313 52bb ce0b 9a3c 7e7b 1f3d b263 06bd
000002d0: 7c7b 073e 3186 4a3e 3471 033e 33a6 3a3e
000002e0: 0eb2 813e b036 553e 71f7 ab3d 7c1c 5b3e
000002f0: e015 e53d 004f e1bb bb88 02be 985b a23d
00000300: 3049 e93d 3479 6fbd d410 8dbc 7413 3b3d
00000310: 146a 833d 9612 043e 9847 303e 1c75 cfbe
00000320: 3c6a 163e 0c24 5b3e 7cfe a7bd c7b3 0a3e
00000330: 151e 843e 6206 1abf 80d3 353e 8046 aa3c
00000340: 1d38 babd 112f 863c e627 aebb 4cb0 64bd
00000350: 5c71 093c e97a 003d 4e96 d8bb 5f8b 55bd
00000360: 068c e53d 48a6 8f3c f878 4c3d 9841 183d
00000370: 8676 dcbd f80c c0bd 92d4 bd3d 6c90 ca3d
00000380: 86b3 c83d 4418 32be c458 f5bc 2289 35bc
00000390: c82c e5bd 4bd7 2b3d ae24 bd3b 06b3 adbd
000003a0: b59c 5dbc a82a 183c e527 95bc 0dc0 9c3b
000003b0: cc2b 553b ffeb f9bc 8229 c53a 9e6d fdbc
000003c0: e28e 31bd 8342 3fbd d4b5 69bb ec75 c03d
000003d0: 74d3 8c3d 40ff 703c e8d5 b33d 4422 333d
000003e0: b006 443d 00e9 203b 9fd4 83bd 8c58 b13d
000003f0: 20bd 973e 23a4 943d 0465 39bc d826 c0be

bias f4 [6]
-0.19082572 -0.14672633 -0.043980993 0.029883388 0.08913402 -0.03513047
00000000: d167 43be 6d3f 16be 6a25 34bd 02ce f43c
00000010: e68b b63d f8e4 0fbd

weight f4 [16, 6, 3, 3]
-0.17708942 -0.26957822 -0.14247747 -0.03240813 -0.44261205 -0.09386597 -0.2247091 -0.16225842
-0.07120477 0.0032307913 -0.053814556 0.03418465 0.07485889 0.073369764 -0.099531166 -0.04031815
0.104064204 0.32195422 -0.34516647 -0.0026245147 0.06936391 -0.1228746 -0.11251928 0.16837285
-0.12344029 -0.034224153 -0.025615383 -0.023608834 -0.012455244 -0.006547927 0.013849751 -0.03749313
-0.02244263 -0.051716093 -0.083209306 -0.21305911 -0.026209671 -0.11692163 0.25937515 -0.24214628
-0.12615246 0.35225573 -0.22576359 -0.08846047 0.069741994 0.22501333 0.039005656 0.01656075
0.09892117 0.11812519 0.16732457 0.15803166 -0.025154734 0.22732486 -0.41511554 0.17896919
0.03659369 -0.07646442 0.007841527 0.057075307 -0.031220349 0.026566034 0.14931262 0.06648005
0.05635785 -0.0550862 0.07089055 -0.17634462 -0.25364482 0.093387544 0.051787205 -0.071449354
-0.334811 -0.09520361 -0.05319282 0.053809803 -0.04528515 -0.20777526 -0.073573716 -0.12357041
-0.0100132525 0.009128135 0.011384497 0.0139350295 -0.07256303 0.032964554 0.13748105 0.016435608
0.012842036 0.120324396 -0.22475296 0.088723674 -0.050522707 0.032591112 -0.14307341 -0.15271154
0.041694976 0.120348886 -0.09130876 0.052986234 0.0848736 0.32911462 0.100889556 0.11163188
0.12158263 -0.0044462434 0.1271771 0.14755388 -0.038271997 -0.32986504 -0.265328 -0.1486015
-0.22474885 -0.18836868 -0.29729214 -0.026345385 0.1517715 0.02745948 0.03826772 -0.09961196
0.08215547 -0.23568575 -0.24313827 -0.15369675 0.14979902 0.19758025 0.2074345 0.0292764
0.11119603 0.13493322 -0.11073012 -0.0555535 -0.073494 -0.03378011 -0.114028014 -0.013807134
0.014808385 -0.11133731 -0.0805415 0.18996017 0.10712225 0.1555015 -0.101586446 -0.12800717
0.22164647 0.08607425 0.067709826 0.032133825 0.066509455 -0.045371603 -0.04849345 0.12822123
-0.01846774 0.0015658392 0.10745763 0.00968026 -0.168341 -0.021723019 0.011398678 0.23805419
0.020045396 0.23653068 0.046646565 0.13596603 0.017372038 -0.20246656 0.17502442 -0.12139403
-0.25406376 0.21689025 -0.13787955 -0.12672263 0.023065312 -0.1608109 -0.29014406 0.108463086
-0.13576613 -0.3058351 -0.028489694 -0.2575972 0.081853114 -0.07682464 -0.018410582 0.15612043
0.046990775 -0.27153596 -0.2568967 0.115981884 0.03276892 -0.23845682 0.006804615 -0.02417991
-0.30612963 0.06400553 -0.024309399 -0.2744885 -0.014743705 -0.13366789 -0.42460123 -0.1510121
-0.0059889057 -0.22582401 0.12822953 0.13680829 -0.22868882 0.126937 -0.1800481 -0.35004532
-0.11703206 0.06828812 -0.79755336 0.06719905 0.1573638 -0.70044434 -0.40753466 0.0537144
-0.1307432 -0.10432508 0.22451527 0.09664602 0.1067451 -0.00201827 0.24634218 0.13048197
0.117733516 0.032643735 -0.08995757 0.17008284 -0.103096604 -0.10300723 0.043770242 0.15025157
0.08772692 -0.09700186 0.06606762 -0.04970032 0.23020013 -0.16438101 -0.16319068 0.18482882
0.12872075 0.07289453 -0.07062489 -0.10111108 0.009176561 -0.10093116 0.12271707 0.045238808
0.047678653 -0.23792349 -0.04882685 -0.036735866 0.028623912 -0.14594632 -0.019857097 -0.1164235
00000000: ee56 35be 2806 8abe 9de5 11be 63be 04bd
00000010: 0c9e e2be cd3c c0bd 241a 66be 1227 26be
00000020: ced3 91bd afbb 533b a76c 5cbd 3405 0c3d
00000030: 9e4f 993d e342 963d ffd6 cbbd a524 25bd
00000040: 9d1f d53d 2fd7 a43e a9b9 b0be 0d00 2cbb
00000050: aa0e 8e3d aea5 fbbd 8270 e6bd ef69 2c3e
00000060: 43ce fcbd a02e 0cbd 5ad7 d1bc 5067 c1bc
00000070: 1411 4cbc fe8f d6bb 11ea 623c 6592 19bd
00000080: 9bd9 b7bc 41d4 53bd a469 aabd 2b2c 5abe
00000090: aab5 d6bc 9c74 efbd d2cc 843e 32f5 77be
000000a0: 1c2e 01be dd5a b43e 922e 67be c32a b5bd
000000b0: e4d4 8e3d e569 663e 65c4 1f3d 69aa 873c
000000c0: 2f97 ca3d 9feb f13d 2257 2b3e 0dd3 213e
000000d0: 4d11 cebc d9c7 683e 068a d4be b343 373e
000000e0: 44e3 153d 6199 9cbd c079 003c ccc7 693d
000000f0: d1c1 ffbc 03a1 d93c 68e5 183e b126 883d
00000100: 7dd7 663d 11a2 61bd 112f 913d af93 34be
00000110: bcdd 81be f841 bf3d d21e 543d 0a54 92bd
00000120: 596c abbe 1cfa c2bd b7e0 59bd ab67 5c3d
00000130: ec7c 39bd 0ac3 54be d1ad 96bd 7c12 fdbd
00000140: a00e 24bc 2c8e 153c 0b86 3a3c c04f 643c
00000150: ed9b 94bd d705 073d d5c7 0c3e f8a3 863c
00000160: 6767 523c a36c f63d a425 66be c2b4 b53d
00000170: e6f0 4ebd 427e 053d d681 12be 6a60 1cbe
00000180: 5ac8 2a3d 7a79 f63d 1600 bbbd 1808 593d
00000190: 36d2 ad3d b681 a83e 2f9f ce3d 419f e43d
000001a0: 5000 f93d cbb1 91bb b73a 023e 5d18 173e
000001b0: 19c3 1cbd 12e4 a8be 12d9 87be fe2a 18be
000001c0: 9024 66be b8e3 40be ad36 98be 47d2 d7bc
000001d0: fd69 1b3e b4f2 e03c 9dbe 1c3d 5b01 ccbd
000001e0: 2141 a83d 9b57 71be 3df9 78be ae62 1dbe
000001f0: ea64 193e 7a52 4a3e b669 543e 10d5 ef3c
00000200: bfba e33d ef2b 0a3e 79c6 e2bd 118c 63bd
00000210: 0684 96bd 035d 0abd 8587 e9bd 5137 62bc
00000220: de9e 723c d104 e4bd f1f2 a4bd eb84 423e
00000230: e962 db3d c93b 1f3e 8e0c d0bd 5014 03be
00000240: 4bf7 623e b247 b03d 73ab 8a3d c29e 033d
00000250: 1c36 883d 93d7 39bd 11a1 46bd 6d4c 033e
00000260: a849 97bc d83c cd3a bf12 dc3d f499 1e3c
00000270: 9561 2cbe 79f4 b1bc 85c1 3a3c 7ac4 733e
00000280: 3e36 a43c 1935 723e 7810 3f3d ae3a 0b3e
00000290: ce4f 8e3c 6553 4fbe 9a39 333e 6f9d f8bd
000002a0: a514 82be 7a18 5e3e 4c30 0dbe 94c3 01be
000002b0: 77f3 bc3c 9dab 24be c38d 94be e521 de3d
000002c0: 4706 0bbe 6b96 9cbe 3863 e9bc c8e3 83be
000002d0: 9ba2 a73d 3d56 9dbd cad1 96bc 09de 1f3e
000002e0: 6679 403d c306 8bbe f787 83be e987 ed3d
000002f0: b438 063d 062e 74be 3ff9 de3b f214 c6bc
00000300: 06bd 9cbe 5515 833d 8124 c7bc c289 8cbe
00000310: 958f 71bc 3ce0 08be 5565 d9be eaa2 1abe
00000320: 953e c4bb 693e 67be 9a4e 033e 7917 0c3e
00000330: 672d 6abe c6fb 013e 875e 38be 2439 b3be
00000340: 81ae efbd a4da 8b3d 752c 4cbf a89f 893d
00000350: fa23 213e 5250 33bf 62a8 d0be a103 5c3d
00000360: 8ce1 05be 63a8 d5bd 55e7 653e 59ee c53d
00000370: 2d9d da3d f444 04bb 2041 7c3e 119d 053e
00000380: 451e f13d 70b5 053d ad3b b8bd 322a 2e3e
00000390: 5024 d3bd 74f5 d2bd 6d48 333d 8cdb 193e
000003a0: 2caa b33d e9a8 c6bd 764e 873d 9092 4bbd
000003b0: 95b9 6b3e 7f53 28be 751b 27be c443 3d3e
000003c0: 5fcf 033e ba49 953d c8a3 90bd 5313 cfbd
000003d0: 4959 163c ffb4 cebd 1653 fb3d 544c 393d
000003e0: b14a 433d 37a2 73be aafe 47bd 5978 16bd
000003f0: b27c ea3c f472 15be 5aab a2bc 726f eebd

bias f4 [16]
0.02990869 -0.029215531 -0.07546381 -0.0070836158 -0.050264288 -0.0013433638 -0.0889607 -0.129956
-0.14625372 0.00559572 0.031887144 -0.080247365 0.052040413 -0.045846965 -0.024086973 -0.029517919
00000000: 1203 f53c 6955 efbc c58c 9abd ad1d e8bb
00000010: ede1 4dbd cf13 b0ba 0731 b6bd 3013 05be
00000020: 89c3 15be 4d5c b73b 189c 023d bb58 a4bd
00000030: 5428 553d 07ca 3bbd 0b52 c5bc 90cf f1bc

weight f4 [32, 16, 3, 3]
-0.10479523 -0.12247922 -0.08954408 0.08285918 0.024493586 -0.11920434 -0.007084273 0.027093917
-0.036530733 -0.018595751 -0.15991583 -0.09691338 -0.04228849 -0.027896173 -0.08278286 0.10125077
-0.062264908 -0.16773216 0.11673344 0.211922 -0.25350788 0.04489408 -0.028560499 -0.23586397
-0.13139877 0.1127932 -0.69589233 0.10775718 -0.11539022 0.108830884 0.03135378 -0.20398575
-0.0069827763 0.07040712 -0.1302459 0.06697811 -0.118257135 -0.24429397 -0.14692897 0.07988786
-0.058948077 -0.008564741 0.023405641 -0.016468452 -0.3781275 -0.28367612 -0.096593015 -0.006374354
-0.02700881 0.20213833 0.13584208 0.10500679 -0.11805524 0.12933572 -0.20385757 0.262014
0.090965904 -0.19111222 0.042935368 0.1718064 -0.12222432 -0.0072261863 0.08225092 -0.35066268
0.03979897 -0.24186927 -0.027446127 0.16072458 0.12899391 -0.29549828 0.1747151 -0.029751202
-0.079973675 0.044941463 -0.0802326 -0.47800645 -0.09372108 -0.060844377 -0.18782672 0.042731762
-0.0593561 -0.18724729 0.115895644 0.20131716 -0.19620292 -0.14206052 0.17812867 -0.09655279
0.03845115 0.1873495 -0.26381636 -0.0820813 -0.1449519 -0.058738183 -0.16304173 -0.19801825
0.3733547 -0.18500021 -0.106332794 -0.32381493 0.14994295 -0.19701008 -0.2544355 0.00054986286
0.041240558 0.111989185 0.10910112 0.022705445 0.0764017 -0.12472201 -0.01646602 -0.06991601
0.018681565 0.008790887 0.01640598 -0.086719155 -0.18860382 -0.05218517 0.061179835 -0.119014695
-0.07580664 0.049924027 -0.0338481 -0.11917945 0.04885309 -0.0634062 -0.035416424 -0.17334546
0.13899541 -0.17657673 -0.02502229 0.10078183 0.07474744 0.11000077 -0.15112787 0.101441965
0.04738197 0.05915598 0.05220949 0.21297164 -0.0019992404 -0.04510726 0.17119029 -0.02150086
-0.0010590925 0.106293075 -0.32359338 0.01991952 0.041020107 -0.19326802 0.007243729 -0.012935901
-0.13075411 -0.26352805 -0.1515969 -0.059208468 0.11513893 0.086264566 -0.22129773 0.068167135
0.19374748 -0.027217057 -0.17026731 -0.014381568 -0.15885226 -0.24938464 0.06787496 -0.024353702
-0.28571588 -0.21767546 -0.2089866 -0.20364617 -0.034336455 -0.048295755 -0.033500277 -0.097485
-0.052052744 -0.10990688 -0.032944318 -0.084005356 0.126128 -0.60327405 -0.209639 -0.023794187
-0.20049381 -0.00026235 -0.12795903 -0.06002425 0.014257564 -0.18037057 0.03150798 0.0963098
-0.12676579 0.19338532 0.016783876 -0.1339834 -0.22924158 -0.026527178 -0.12065132 -0.32110554
-0.18110016 -0.013322886 -0.06506196 -0.37854254 -0.086826734 0.11163524 -0.32294363 0.26741874
-0.21291324 0.24430698 0.2061069 -0.33058086 0.2697038 0.18769413 0.11099171 0.074100696
-0.091773905 -0.14376399 -0.03918909 -0.002085555 0.019526398 -0.22264913 -0.077492096 -0.43386266
-0.3767178 0.15599193 0.09737289 -0.17575115 0.12280903 0.12503037 0.016330631 -0.19020817
-0.09842628 -0.031884365 -0.15961176 -0.1998195 -0.36183065 -0.022893095 -0.35854372 -0.22024387
-0.25501305 0.06546625 0.021778487 -0.06846255 -0.1491853 -0.10679636 -0.12615357 -0.15193199
-0.022576252 -0.046805833 -0.079819866 -0.07557613 -0.09991405 0.0012431728 -0.046561267 -0.06654774
00000000: e29e d6bd 63d6 fabd e362 b7bd 13b2 a93d
00000010: c6a6 c83c 6821 f4bd 3023 e8bb 10f4 dd3c
00000020: 40a1 15bd 1e56 98bc fac0 23be 867a c6bd
00000030: b236 2dbd 8486 e4bc 0f8a a9bd 905c cf3d
00000040: 7d09 7fbd fbc1 2bbe f111 ef3d 1502 593e
00000050: c9cb 81be dbe2 373d b5f7 e9bc 5386 71be
00000060: 668d 06be 1f00 e73d 0026 32bf ccaf dc3d
00000070: b551 ecbd bae2 de3d d26c 003d a4e1 50be
00000080: c6cf e4bb 9c31 903d 2e5f 05be d22b 893d
00000090: cc30 f2bd 3328 7abe 8c74 16be 3f9c a33d
000000a0: 8a73 71bd 2153 0cbc 30bd bf3c d9e8 86bc
000000b0: ed99 c1be ff3d 91be 8fd2 c5bd f5df d0bb
000000c0: 9441 ddbc 5afd 4e3e 301a 0b3e cd0d d73d
000000d0: f2c6 f1bd 9570 043e 0ac0 50be b326 863e
000000e0: 554c ba3d ecb2 43be ffdc 2f3d 04ee 2f3e
000000f0: bf50 fabd a5c9 ecbb 2c73 a83d 0f8a b3be
00000100: 3f04 233d 94ac 77be b3d6 e0bc fc94 243e
00000110: fb16 043e 8d4b 97be 84e8 323e cbb8 f3bc
00000120: 3dc9 a3bd 8a14 383d fd50 a4bd 43bd f4be
00000130: d6f0 bfbd f437 79bd a655 40be 8007 2f3d
00000140: 621f 73bd c1bd 3fbe b25a ed3d 1626 4e3e
00000150: 6be9 48be 5078 11be 5d67 363e 78bd c5bd
00000160: f47e 1d3d 8cd8 3f3e f012 87be 3e1a a8bd
00000170: 456e 14be 7397 70bd 69f4 26be 4cc5 4abe
00000180: 5928 bf3e b270 3dbe 02c5 d9bd 12cb a5be
00000190: a58a 193e 03bd 49be 5f45 82be ac24 103a
000001a0: dceb 283d 965a e53d 6870 df3d c500 ba3c
000001b0: 7f78 9c3d 416e ffbd bfe3 86bc 2030 8fbd
000001c0: 150a 993c a707 103c d565 863c d099 b1bd
000001d0: 5c21 41be 1ec0 55bd b597 7a3d fabd f3bd
000001e0: 8340 9bbd 237d 4c3d 4ea4 0abd 5b14 f4bd
000001f0: 2d1a 483d 1cdb 81bd d010 11bd 7981 31be
00000200: d054 0e3e 88d0 34be 8cfb ccbc b466 ce3d
00000210: 3015 993d 1548 e13d 44c1 1abe cec0 cf3d
00000220: 9913 423d 8a4d 723d 9ed9 553d 3d15 5a3e
00000230: b005 03bb 64c2 38bd 824c 2f3e 9222 b0bc
00000240: 3fd1 8aba 2fb0 d93d 08ae a5be 432e a33c
00000250: b304 283d 0de8 45be ce5c ed3b 1af1 53bc
00000260: 68e4 05be 26ed 86be 383c 1bbe 9484 72bd
00000270: f6cd eb3d 7aab b03d df9b 62be 369b 8b3d
00000280: bd65 463e 4ef6 debc 8e5a 2ebe aba0 6bbc
00000290: 2baa 22be b05e 7fbe 0702 8b3d 6a81 c7bc
000002a0: 5a49 92be 51e6 5ebe 9500 56be 9f88 50be
000002b0: 62a4 0cbd c5d1 45bd 9637 09bd 37a6 c7bd
000002c0: 4235 55bd dc16 e1bd 9ff0 06bd 000b acbd
000002d0: b327 013e 2b70 1abf 9bab 56be 07ec c2bc
000002e0: 404e 4dbe 058c 89b9 b107 03be fddb 75bd
000002f0: 8f98 693c 10b3 38be 830e 013d 133e c53d
00000300: e4ce 01be cd06 463e 577e 893c f232 09be
00000310: 4ebe 6abe 864f d9bc 0a18 f7bd f267 a4be
00000320: 5272 39be 3c48 5abc 343f 85bd 54d0 c1be
00000330: 37d2 b1bd 04a1 e43d de58 a5be 1ceb 883e
00000340: ee05 5abe 9c2b 7a3e b00d 533e e541 a9be
00000350: 9e16 8a3e e432 403e 9f4f e33d 1bc2 973d
00000360: f5f3 bbbd de36 13be bd84 20bd cfad 08bb
00000370: d3f5 9f3c 22fe 63be 2db4 9ebd 3f23 debe
00000380: 28e1 c0be 59bc 1f3e 706b c73d 1cf8 33be
00000390: 4d83 fb3d f607 003e d1c7 853c eec5 42be
000003a0: b893 c9bd 2e99 02bd 4471 23be 7c9d 4cbe
000003b0: de41 b9be 4d8a bbbc 0b93 b7be 9c87 61be
000003c0: 1291 82be 2b13 863d cc68 b23c 1836 8cbd
000003d0: 08c4 18be 0db8 dabd 672e 01be 0f94 1bbe
000003e0: d5f1 b8bc 79b7 3fbd 9978 a3bd a8c7 9abd
000003f0: bd9f ccbd f5f1 a23a 07b7 3ebd 2e4a 88bd

bias f4 [32]
-0.088220604 -0.00021679494 -0.036823466 -0.036600627 -0.010801736 -0.022893904 -0.006661569 -0.077521764
-0.04825257 0.0011478802 -0.0064297873 0.010163311 -0.002607959 -0.014737907 -0.074830234 -0.037827943
-0.052977942 -0.05810361 -0.08448131 -0.11791633 -0.066835664 -0.16740148 -0.16725358 -0.0048365146
-0.1237757 -0.016721372 0.0040986207 -0.15425414 -0.10273178 -0.0719346 0.011593195 -0.0032632896
00000000: 01ad b4bd 7353 63b9 34d4 16bd 8aea 15bd
00000010: c4f9 30bc ff8b bbbc 4a49 dabb bbc3 9ebd
00000020: 7da4 45bd 7874 963a f7b0 d2bb 0484 263c
00000030: 4bea 2abb 4377 71bc 9840 99bd 79f1 1abd
00000040: 66ff 58bd 0dfe 6dbd 8904 adbd 1e7e f1bd
00000050: 23e1 88bd 4b6b 2bbe 8644 2bbe a07b 9ebb
00000060: 1d7e fdbd 42fb 88bc b94d 863b ccf4 1dbe
00000070: 0a65 d2bd 7352 93bd 62f1 3d3c eadc 55bb

weight f4 [5, 16928]
0.0059287963 0.05835734 -0.05623153 0.23216821 0.087919615 0.10451195 0.05652261 -0.0024994302
-0.03938383 -0.008221539 0.029526565 0.05402925 0.0023489615 0.06825975 0.12570378 0.07194608
0.10490098 0.08055804 0.047475316 0.05771895 0.019019429 -0.034128528 -0.07399631 -0.0012915975
0.05867072 0.03793464 0.0937258 0.09461198 0.057972323 0.0966341 0.09785104 -0.014215947
0.096941866 0.042105217 0.17188488 0.073842205 0.16240162 -0.026602661 0.033583887 0.0033529203
0.10597973 0.1315307 0.15154593 0.053903524 0.024214951 0.17077817 0.0633417 0.052740607
0.0027146062 0.16282672 0.04612328 0.054808352 -0.011106234 0.037215773 0.14666939 0.121765204
0.027731858 0.14517218 0.0037363947 0.21365695 0.016044412 -0.023728313 -0.062413093 0.08727114
0.132166 -0.093335256 0.012472342 0.09706431 0.092496194 0.06632396 -3.200919e-05 0.07547332
-0.032206908 0.057807054 0.103719965 0.041237738 -0.0026355763 -0.039812837 0.10593737 0.07481348
0.11780587 0.08501888 0.124954194 -0.044728428 0.08710347 0.001604326 0.0934721 0.047408074
0.0006588772 -0.0644643 -0.0883002 -0.0047202967 0.08531998 0.11893987 0.076085284 0.0856021
0.056702945 -0.017445836 -0.00848045 -0.0009520446 0.014861137 0.027706996 0.14940587 0.07269942
0.13407853 0.11090023 0.04111686 0.08994457 0.060436197 0.06644141 -0.044507984 -0.18129721
-0.077016234 -0.2304577 0.03702175 0.028968085 0.05252925 0.025963627 0.07380751 0.043726414
0.006142042 0.06652432 0.13290107 0.025882456 0.048703488 0.09758057 0.14918838 -0.023159198
0.19151464 0.049245242 0.04215822 0.09523959 0.030438496 0.08829785 0.07444071 0.06288542
-0.009164891 0.08165899 -0.0004732352 0.14541066 0.09390401 0.11534097 0.039921306 0.0067968885
0.024074294 0.05611469 -0.045761198 0.082773395 0.0016083489 0.10193724 0.05376548 0.095715985
0.07246216 0.058558583 0.02273652 0.063172534 0.020404244 -0.024363164 -0.09557368 -0.08487111
0.05153631 0.08892808 0.088318005 0.0583008 0.102272004 0.022083348 0.036699276 0.062124107
0.08531473 0.07008397 0.122827746 0.04134002 0.06886003 0.04447319 0.12623881 0.09191521
-0.07714171 0.032836683 0.0009818384 -0.0010877076 -0.035101835 -0.15327221 -0.03339084 0.011590337
0.09518144 0.0076596173 0.06112885 0.09058455 0.06965798 0.19140233 -0.012260615 0.09220916
0.025573812 0.009993946 0.15385698 0.07756162 0.038637597 0.05941505 -0.12135704 -0.045256995
0.023414306 -0.016442837 -0.006846857 -0.016927414 -0.018688131 -0.14436218 0.04450395 0.059254747
0.047867816 0.074822016 0.06051112 0.084034845 0.14572734 0.113413654 0.030793391 0.09974635
0.018043034 -0.01518535 -0.021381745 0.010868424 -0.020074083 -0.08620418 -0.022804003 0.10166064
0.006223096 0.01420199 -0.008492961 0.017061476 -0.042740747 -0.11215271 -0.017092794 0.1309921
0.00664193 0.08312076 0.1103854 0.07454557 0.05170483 0.1431343 0.086548775 0.05082343
0.12302842 0.012034545 -0.02710516 -0.05986103 -0.019817377 0.021972658 -0.0020376684 0.03393274
0.01487328 -0.00898132 0.055876873 -0.0146628665 0.015339646 0.057859227 0.066274635 0.035900686
00000000: 5946 c23b 1b08 6f3d 0853 66bd 81bd 6d3e
00000010: 330f b43d 5c0a d63d 4184 673d 7bcd 23bb
00000020: f050 21bd a2b3 06bc b2e1 f13c c64d 5d3d
00000030: 09f1 193b c5cb 8b3d 7eb8 003e 7758 933d
00000040: 53d6 d63d 9dfb a43d 7a75 423d b56a 6c3d
00000050: a2ce 9b3c 5bca 0bbd 618b 97bd d24a a9ba
00000060: b550 703d 5a61 1b3d 50f3 bf3d edc3 c13d
00000070: 6374 6d3d 19e8 c53d 2066 c83d 01ea 68bc
00000080: 7589 c63d 8576 2c3d 9702 303e 953a 973d
00000090: 9c4c 263e d3ed d9bc 428f 093d abbc 5b3b
000000a0: e70b d93d fcaf 063e db2e 1b3e f1c9 5c3d
000000b0: 6f5e c63c 79e0 2e3e 4bb9 813d 8906 583d
000000c0: 89e7 313b 0cbc 263e c4eb 3c3d b97e 603d
000000d0: ecf6 35bc 916f 183d 8030 163e 0960 f93d
000000e0: ec2d e33c 04a8 143e 4dde 743b e3c8 5a3e
000000f0: 926f 833c e161 c2bc dfa4 7fbd 36bb b23d
00000100: 8656 073e 8e26 bfbd cb58 4c3c a7c9 c63d
00000110: a56e bd3d dbd4 873d 9b41 06b8 c291 9a3d
00000120: 64eb 03bd 17c7 6c3d 226b d43d e7e8 283d
00000130: a2b9 2cbb c912 23bd b1f5 d83d cf37 993d
00000140: 3444 f13d 611e ae3d fce7 ff3d 2835 37bd
00000150: 4e63 b23d 3f48 d23a 4d6e bf3d f82e 423d
00000160: 80b8 2c3a dc05 84bd bcd6 b4bd b8ac 9abb
00000170: 3ebc ae3d bf96 f33d 9ad2 9b3d 2750 af3d
00000180: 5941 683d 92ea 8ebc 96f1 0abc a292 79ba
00000190: 207c 733c c8f9 e23c dafd 183e 6fe3 943d
000001a0: e24b 093e a91f e33d 276a 283d dc34 b83d
000001b0: f28b 773d 6f12 883d 014e 36bd faa5 39be
000001c0: b0ba 9dbd 1afd 6bbe 1ea4 173d 7a4e ed3c
000001d0: e928 573d acb1 d43c 6428 973d 781a 333d
000001e0: 2f43 c93b e73d 883d 3817 083e 7207 d43c
000001f0: 4f7d 473d 52d8 c73d d7c4 183e 5cb8 bdbc
00000200: 6a1c 443e 61b5 493d 19ae 2c3d f90c c33d
00000210: 275a f93c 81d5 b43d 5f74 983d 12ca 803d
00000220: 5728 16bc d43c a73d 8e1c f8b9 88e6 143e
00000230: bf50 c03d e337 ec3d 8684 233d 6fb8 de3b
00000240: 7437 c53c 84d8 653d 1870 3bbd 1985 a93d
00000250: 3ccf d23a 79c4 d03d 3139 5c3d be06 c43d
00000260: 0a67 943d 20db 6f3d f041 ba3c 9a60 813d
00000270: cd26 a73c 4295 c7bc 22bc c3bd e8d0 adbd
00000280: bd17 533d ed1f b63d 12e0 b43d d2cc 6e3d
00000290: fc73 d13d 23e8 b43c fb51 163d d975 7e3d
000002a0: 7db9 ae3d 2f88 8f3d 1d8d fb3d 2754 293d
000002b0: 7d06 8d3d 8529 363d bf44 013e 0b3e bc3d
000002c0: 79fc 9dbd c27f 063d 08b1 803a 6991 8eba
000002d0: f1c6 0fbd 64f3 1cbe d5c4 08bd 66e5 3d3c
000002e0: 7dee c23d 87fd fa3b 3f62 7a3d 6484 b93d
000002f0: d8a8 8e3d f9fe 433e bfe0 48bc 28d8 bc3d
00000300: 2c80 d13c a6bd 233c af8c 1d3e a0d8 9e3d
00000310: 7542 1e3d 325d 733d 0a8a f8bd 665f 39bd
00000320: 5ccf bf3c 21b3 86bc 995b e0bb 5cab 8abc
00000330: da17 99bc aed3 13be c649 363d 1bb5 723d
00000340: 0b11 443d 493c 993d 82da 773d 761a ac3d
00000350: 8c39 153e 6b45 e83d 6c42 fc3c d047 cc3d
00000360: fcce 933c f9cb 78bc c528 afbc 7911 323c
00000370: 6772 a4bc d18b b0bd 76cf babc 7433 d03d
00000380: 1deb cb3b 77af 683c 0f26 0bbc 82c4 8b3c
00000390: ec10 2fbd 52b0 e5bd 3006 8cbc cb22 063e
000003a0: 8ca4 d93b 383b aa3d be11 e23d 59ab 983d
000003b0: 72c8 533d cc91 123e 7c40 b13d 3b2c 503d
000003c0: 53f6 fb3d 8a2c 453c a40b debc d730 75bd
000003d0: 0d58 a2bc 0100 b43c 678a 05bb 0ffd 0a3d
000003e0: 0faf 733c 6326 13bc 26df 643d 853c 70bc
000003f0: 2353 7b3c ccfd 6c3d ffba 873d 990c 133d

bias f4 [5]
-0.098373875 -0.11093475 -0.101226605 -0.10564124 -0.10955555
00000000: 3e78 c9bd c231 e3bd e54f cfbd 6f5a d8bd
00000010: a95e e0bd
