archived_data/old/b1_r0_m20_s200--2019-01-09--142908.030333/episode_23000.model (torch_old, 70087 bytes, 8 tensors)

weight f4 [6, 6, 3, 3]
000000 39 1b df bd 7c 98 e3 3d dc 69 9f bc 82 a1 55 bd
       -0.10893864 0.111130685 -0.019459657 -0.05215598
000010 a4 fc 0f bd d2 5f a9 bd 02 31 c0 3d fe eb 4c bd
       -0.035153046 -0.082702294 0.093843475 -0.050029747
000020 08 98 92 bd 53 fe 10 3d 88 ae 35 3c f5 a9 fd 3c
       -0.07157904 0.035398792 0.011088975 0.03096483
000030 52 3d 3b 3c 24 9b e3 bc 89 33 dd bc 02 0e 33 3c
       0.011428194 -0.027783938 -0.027002113 0.010928633
000040 66 a8 1b ba 3a 22 8e 3d f9 fc 16 3e 38 c7 e1 3d
       -0.0005937874 0.06940122 0.14744939 0.11024326
000050 2f 62 15 3e d6 3f e6 3d 74 20 3f 3e df b5 83 3e
       0.14588235 0.112426445 0.18664724 0.25724694
000060 80 64 67 3d bd 2b 09 3e 32 ca 1c 3e 16 95 6d bd
       0.05649233 0.13395591 0.15311506 -0.058003508
000070 08 95 a2 3c 24 80 b2 bd 69 db ef bd bc 05 a9 3d
       0.019846454 -0.08715847 -0.11711771 0.08253047
000080 d8 02 90 3d b0 a8 18 bc d0 f6 45 3d ba 9b 97 3d
       0.070317924 -0.009317562 0.048331082 0.07402749
000090 55 ec 1e 3d 5d c7 04 bf 15 ac 48 bd 33 be 64 3d
       0.038799603 -0.51866704 -0.048992235 0.05584545
0000a0 83 b5 73 3e 68 7b 0d bf e1 ac 9b bd 7a 31 88 3e
       0.2379971 -0.5526643 -0.076013334 0.26600248
0000b0 6b 41 c9 be 86 fd 47 3b af 5e 82 3d 45 3c 98 3d
       -0.39307722 0.0030516102 0.06365716 0.074333705
0000c0 55 1f f1 bd 30 c9 6d 3d 56 b6 b0 bd a7 e2 fb 3c
       -0.11773554 0.058053195 -0.08628528 0.030747725
0000d0 aa cb da 3d 18 71 76 bd 34 be 04 3e ba 40 01 3e
       0.10683377 -0.06016645 0.12963182 0.12622347
0000e0 57 37 d6 bd f4 ec b2 bc ca bb 7d bd d6 34 7b bd
       -0.10459774 -0.021841504 -0.061946668 -0.061329685
0000f0 f4 25 a3 3d c1 7c 01 be e0 d7 1c 3c 61 fb 0d bc
       0.07966223 -0.12645246 0.009572953 -0.00866589
000100 78 f9 ff bc 3e ce b9 3d 11 d4 63 bc 81 79 62 bc
       -0.031246886 0.09072541 -0.013905541 -0.013822914
000110 0c a6 e1 bc 53 64 04 bc 6d 5d d6 3c 2e f3 a3 3c
       -0.027544998 -0.00808056 0.026167596 0.020013418
000120 97 fb 7b 3d 61 6d d6 3d f3 20 c6 3d 4f 59 cd 3d
       0.06151923 0.10470081 0.09674253 0.100268
000130 ef fa c1 3d 18 dc 95 3d 9f 31 e7 3d 0b ea e8 3d
       0.0947169 0.0731737 0.11288761 0.11372765
000140 6f 55 24 3e 00 fd 03 3c 1c 5b ed bd 58 ea 7c bc
       0.16048215 0.008055925 -0.11589643 -0.015436731
000150 80 b0 e4 3c cc 8f ad 3d 20 a0 90 bd fe 28 05 3e
       0.027916193 0.08474693 -0.070617914 0.13003919
000160 c4 73 a6 bc b8 5d 05 3e 51 e6 93 be 69 19 42 be
       -0.020318873 0.13024032 -0.28886655 -0.18955006
000170 4b 97 cf be 27 07 2e bf 8a db 88 be 4e 06 70 be
       -0.40545115 -0.67979664 -0.26729995 -0.23439905
000180 61 08 1c bf 33 5c 1f bd d4 42 48 bf e9 61 70 bc
       -0.60950285 -0.038906287 -0.7822697 -0.014671781
000190 ed db 82 bd d0 90 22 3d 63 43 d0 bc 83 7d d4 3c
       -0.06389604 0.039688885 -0.025422757 0.025938755
0001a0 82 6b df bc 61 69 72 3b d7 63 25 3c bb f5 4b 3d
       -0.027272943 0.003698908 0.010094604 0.049794894
0001b0 20 5c 9c bd e6 7a 0f bd 80 8d 05 bc e0 a0 23 3d
       -0.07634759 -0.035029314 -0.008151412 0.039948344
0001c0 b2 96 da bd 6b 0b a6 bd 20 4c a0 3d 7e dc 9f bd
       -0.10673274 -0.081076466 0.0782702 -0.078057274
0001d0 20 af 4f bc 29 2d 21 3c ab f0 54 bd b9 5f 85 3c
       -0.01267603 0.009837427 -0.05198733 0.016280996
0001e0 d5 b8 72 bc 7c 66 48 3d cd 18 c9 bb 48 f6 58 3d
       -0.014814575 0.04892586 -0.0061369897 0.052969247
0001f0 37 3b 0c 3e 5e 3d 7a 3d 5c cf ca 3d 6a 25 05 bd
       0.13694464 0.06109368 0.09902832 -0.032506384
000200 af 0c 6e 3d b6 b8 a6 bb a5 fe 96 3d fa e8 93 3d
       0.058117565 -0.005087937 0.07372788 0.07222171
000210 d1 49 3a 3d 69 05 84 3d ea 33 70 bc 68 af 73 bd
       0.045480553 0.064463444 -0.014660815 -0.059493452
000220 ce 68 66 bd 98 64 f3 3d c0 9f d4 3d e8 ee 56 3d
       -0.056252293 0.11884421 0.103820324 0.052473933
000230 5c 42 a6 bd dc 78 f7 bc 00 d9 33 ba 80 63 ea 3c
       -0.08118126 -0.030208997 -0.00068606436 0.028611898
000240 88 fa 7d 3d dc e9 d7 be ce 16 43 3e 0c 6b 0e 3e
       0.062006503 -0.42170608 0.19051668 0.13908023
000250 df 0c 7d 3d 77 7a 81 3d 5d e5 34 3e a3 4b 36 3e
       0.061779853 0.063221864 0.1766562 0.1780229
000260 65 c6 2e 3e b9 6f 8b 3d 01 96 e7 bc 28 dd a5 bc
       0.17067869 0.06808419 -0.02826977 -0.020247057
000270 6c 05 a1 3d db 64 da bb 96 4a 5a bc d1 93 7e 3c
       0.07862362 -0.006664855 -0.013323447 0.015538172
000280 09 20 10 3e f5 b9 8e 3d 0c 7a f9 3d 8c 40 f6 bd
       0.1407472 0.06969062 0.12181482 -0.1202403
000290 92 65 a3 bd 20 90 cd bd 00 47 80 bd a2 61 b8 bd
       -0.079783574 -0.10037255 -0.06263542 -0.09002997
0002a0 94 73 f0 bd a8 78 fd bc 0a 55 e0 3d 1d 0e 9a 3b
       -0.11740795 -0.030941322 0.1095372 0.0047013895
0002b0 4a ad a6 be 82 53 1a bd fb 6c 43 bd dc 8b 20 be
       -0.32554084 -0.037677296 -0.047711354 -0.15678352
0002c0 f7 a5 33 3b d2 a8 f2 3a 41 04 23 bd de c0 15 bd
       0.0027412155 0.0018513447 -0.03979898 -0.036560886
0002d0 66 83 ef 3c ea 48 47 3b 03 4c 88 3e 8c 5f 42 bd
       0.02923746 0.003040845 0.26620492 -0.0474544
0002e0 04 2c 17 3d 23 5e c6 3c 01 10 b6 3c ea 82 a7 3d
       0.03690721 0.02421481 0.022224428 0.08179267
0002f0 25 55 85 3d 03 bc 04 be fe e0 f4 bd 30 7d b7 3c
       0.06510381 -0.12962346 -0.11956976 0.022398561
000300 5a 63 6b bd 34 ed ad 3d 0c 45 06 3d 18 dd fb 3d
       -0.057467796 0.084925085 0.032780692 0.1229803
000310 44 ea 04 be 5d 09 01 be f8 43 4a 3d 8e 2f 9d 3d
       -0.1297999 -0.12601228 0.049381226 0.07675086
000320 13 17 d4 3d 46 f1 ce 3d d3 8d 0b 3d 2e 8e 06 3e
       0.103559636 0.10104613 0.0340708 0.13140175
000330 a1 ef 86 bd 18 e2 21 3b f1 9d e7 3c 52 1d cb bc
       -0.06588674 0.0024701413 0.028273555 -0.024794254
000340 6e 27 cd 3d df 5c d4 3c c7 74 0d be b0 a8 1f 3e
       0.10017286 0.02592319 -0.13814078 0.15591693
000350 f0 be 25 bb 2f a5 36 3d d0 2e 0f 3e 45 d1 c0 bd
       -0.002529081 0.044591125 0.13982701 -0.09414915
000360 c4 47 cd bc d0 7a 01 bc 92 ee d3 3d 40 30 88 3d
       -0.025058635 -0.007902816 0.10348238 0.06649828
000370 b0 28 ff bc 71 fa c6 bd ff 4f 07 be 10 c0 15 bd
       -0.031147331 -0.09715737 -0.1321411 -0.03656012
000380 34 fd 5a 3d 06 2d 42 bd 55 d5 1b bd 64 8f b4 bc
       0.05346413 -0.04740622 -0.038045246 -0.02204103
000390 88 89 0b 3c e7 e6 61 bc 28 1a 04 3c 7d 7b 42 bd
       0.008516677 -0.013787962 0.008062877 -0.04748105
0003a0 c7 c5 81 bc 25 98 9b 3c be 53 c3 bb 38 7b 86 3d
       -0.015841378 0.018993447 -0.0059609106 0.06566471
0003b0 e6 47 3e 3d 41 56 4b 3d 33 9b 2c 3d 0c 08 a7 3a
       0.046455286 0.049642805 0.042140197 0.0012743487
0003c0 cc 13 80 bd 89 fd 8a bd e2 c1 d1 bc ac 20 3a 3d
       -0.06253776 -0.06786639 -0.025605146 0.045441315
0003d0 cc d1 1c 3d 42 8b e3 3d e0 da f2 bc b8 a2 e0 3d
       0.038286015 0.11110546 -0.029645383 0.10968536
0003e0 d0 80 b0 bd fc a7 a7 3d 9e 36 2c bd 8c 0a 4b 3d
       -0.08618319 0.08186337 -0.042044275 0.049570605
0003f0 90 f8 3f 3d 2b 7d 91 3d ea d0 5f 3d 5e 5d 83 3c
       0.046867907 0.07103952 0.054642595 0.016035732

bias f4 [6]
000000 8b 31 d7 bd 38 3a 8a bd d0 d7 f6 bd 98 c9 52 bc
       -0.105074964 -0.067493856 -0.12052882 -0.0128654465
000010 57 e6 00 bd 10 45 21 3c
       -0.03146967 0.009843126

weight f4 [6, 6, 3, 3]
000000 85 41 ff 3c a6 d4 d6 bb 3f 3e cd 3d 34 d3 e9 bd
       0.031159172 -0.0065561114 0.10021638 -0.11417237
000010 65 7a 31 bd 43 88 7d bd 87 d1 22 bd 54 67 d8 bd
       -0.043329615 -0.061897527 -0.039750602 -0.10566583
000020 43 5d 30 3d 3f 9c 4d 3e e6 83 37 3d 78 22 8a bc
       0.04305769 0.20079134 0.044803523 -0.01686214
000030 a9 2e 29 be c7 9c 32 bd 95 27 09 3b 41 e3 20 be
       -0.16521706 -0.043606546 0.0020928134 -0.1571169
000040 91 2f bd bd ec c1 27 3d d3 43 00 be 70 4c a6 3d
       -0.09237588 0.040956423 -0.12525873 0.08120048
000050 ea 83 02 3c 87 54 9a bd ce 56 f8 3b 15 7b 99 bd
       0.007966021 -0.075356536 0.0075787073 -0.07494179
000060 a0 3a ee 3d 5a 9d af 3d b0 ea 7a bd cb 44 aa bd
       0.116322756 0.08574934 -0.06125897 -0.083139025
000070 65 46 87 bd f9 6b 98 bc ce 7f 32 be 98 8a ba 3c
       -0.066052236 -0.018606173 -0.17431566 0.022771165
000080 a6 09 7b 3b 0f fb 03 bc e9 3a 8e bd 25 69 b3 3d
       0.0038305311 -0.0080554625 -0.0694483 0.08760289
000090 11 c5 6a 3a 51 0e 9e 3c 60 83 5c 3d 64 48 e0 3c
       0.0008955757 0.019293936 0.053836226 0.027378269
0000a0 c8 30 5b 3d eb a6 03 3e a7 ba 6c 3d 4b 9a 64 3e
       0.05351332 0.12856643 0.057795193 0.22324483
0000b0 6f 08 30 3d 37 bf 04 be 44 14 3a be 4a 44 61 be
       0.042976793 -0.12963568 -0.18171793 -0.21998706
0000c0 72 4a 28 bd 30 e8 28 3d 9c b7 d9 3c 13 1f 88 bd
       -0.04108662 0.041237056 0.02657681 -0.06646552
0000d0 e3 c8 c8 bd 48 a5 ba bd c9 fc 09 bd 5c 41 81 bd
       -0.09803941 -0.09113556 -0.03368834 -0.063112944
0000e0 6d 29 93 3e eb f2 61 3e c0 16 d2 bd d6 44 83 3d
       0.28742543 0.22065322 -0.102582455 0.06409614
0000f0 d2 45 4d 3c 83 84 0b 3e 95 f5 93 3e 7b de 86 bc
       0.0125288535 0.13624768 0.28898302 -0.016463509
000100 e6 ad 35 3e 92 41 be bc be ff ce bc 9e 8d 64 3e
       0.17742118 -0.023224626 -0.025268432 0.22319648
000110 ab 59 df 3d 46 bf 63 3d 7a b3 e2 3d 6b 74 0f 3e
       0.10905775 0.055602334 0.11069389 0.14009254
000120 26 ac 18 bd 72 96 50 3d 37 f3 4e 3e f7 75 79 3e
       -0.03727355 0.050924726 0.20209967 0.24361406
000130 fc a2 08 be e0 38 af bc c7 44 2f 3e b7 e6 3e 3c
       -0.13343424 -0.021389425 0.1711608 0.011651686
000140 66 05 a0 bd fd 8e 5d bd 40 40 c7 bd bd 3d e4 3c
       -0.0781353 -0.054091442 -0.097290516 0.02786147
000150 76 a5 22 be 40 f8 80 bd 95 57 ea bd 9d 85 57 be
       -0.15883431 -0.0629735 -0.11442486 -0.21047063
000160 01 c6 1d bd 6c ad 0e bd a2 02 13 be 51 75 d4 3d
       -0.03851891 -0.034833357 -0.14356473 0.10373939
000170 d1 41 c2 bd 1c e6 8b bd 68 16 99 3c d0 43 27 3e
       -0.0948521 -0.06830999 0.018687442 0.16334462
000180 91 e6 f1 3c 74 b1 f2 ba 31 00 f7 3d 06 aa 1a 3d
       0.029528888 -0.001851602 0.120605834 0.037759803
000190 69 62 78 bc bc 0c 55 be d2 0c 3e 3e c2 75 ff 3d
       -0.015160182 -0.20805639 0.18559578 0.124736324
0001a0 db ae 4b 3d a3 1a ef 3d 32 62 a2 3c 06 b4 28 3e
       0.049727302 0.116750024 0.019822214 0.16474923
0001b0 3a b1 e2 3d be d6 b5 3d c1 c5 84 bc 48 b3 96 3d
       0.110689595 0.088788494 -0.016207578 0.07358414
0001c0 00 3c e6 3c 25 74 c6 3d 57 23 4f 3d ad b9 92 3d
       0.028104782 0.096901216 0.050570812 0.07164321
0001d0 de bc 0d be 2e 30 1a be 0d 33 ff 3c 60 cb b6 bd
       -0.13841578 -0.15057442 0.031152273 -0.089255095
0001e0 b5 42 63 3e 71 75 e8 3d 71 cf 12 be f0 41 63 3e
       0.22193415 0.11350525 -0.14336945 0.22193122
0001f0 21 31 b9 3e f3 b5 c8 bd fb 8d 51 3e 22 e8 66 bd
       0.36170295 -0.09800329 0.20464318 -0.056373723
000200 c0 eb 22 3d c4 73 1b 3d aa 77 be bd da 88 19 3e
       0.03977561 0.0379522 -0.09300168 0.14993611
000210 1d e9 a8 3d 95 9d 06 be da 33 0a be af 70 14 3e
       0.08247588 -0.1314605 -0.13496342 0.1449611
000220 bd 42 c9 3d 78 cf 07 3e cd 14 a5 bd b9 b8 79 3d
       0.098271824 0.13262737 -0.08060608 0.06096718
000230 d0 a8 59 3b 0f e4 52 bd 3c 74 60 bd 6a 8e 33 3c
       0.0033212192 -0.051487025 -0.05479835 0.010959247
000240 32 cb 8d bd 21 48 c5 ba 01 72 3d bc f4 ef 79 3d
       -0.06923522 -0.0015051403 -0.011562825 0.061019853
000250 4c 86 2f 3d 3a 50 b3 bc 35 e1 65 be 7b d1 0c 3c
       0.042852685 -0.021888841 -0.22449191 0.008594866
000260 82 c4 9d bd 57 85 7f 3b a1 9e 7d 3d 67 c8 3d be
       -0.077034965 0.003898939 0.06191886 -0.18533479
000270 cc 27 a6 3c 76 3f 14 be 45 ab 1d 3e 1c 55 b1 3c
       0.020282649 -0.14477333 0.15397365 0.021647029
000280 6c 13 24 bd 79 c9 bc 3d ed 24 ef 3d 59 01 34 be
       -0.040057585 0.09218115 0.11676965 -0.17578639
000290 03 ae c4 3d c4 4f 89 3d 3c f4 3e bd 5a 82 9e bd
       0.096035026 0.06704667 -0.04661964 -0.07739706
0002a0 b8 24 b8 bd 59 ac 61 3d 06 81 ca 3d 62 11 b0 3d
       -0.089913785 0.055096004 0.098878905 0.085970655
0002b0 f6 40 48 3d ff df 8f 3d 49 70 63 3e 21 3f 8b bc
       0.048890077 0.07025146 0.22210802 -0.016997876
0002c0 bf 8e 5a 3d 2f 41 3c 3d 32 0c b3 3b f2 77 10 be
       0.05335879 0.0459606 0.0054641003 -0.14108256
0002d0 c7 13 8a 3d 08 2e 58 bd 48 47 8d bd c1 29 72 bd
       0.067420535 -0.052778274 -0.068983614 -0.05912185
0002e0 52 bb 08 3e 21 0e 00 3d 2f 44 e8 bd fc 91 de 3c
       0.13352707 0.031263474 -0.1134113 0.02716922
0002f0 b0 e4 23 3e 7a 40 ff 3c 34 49 6a bc 2f 5f bf bd
       0.16005206 0.031158675 -0.01429968 -0.09344327
000300 90 6c ff bd fc 0e 7d be a0 90 16 3d d3 84 02 bc
       -0.124718785 -0.24712747 0.03675902 -0.007966238
000310 20 9b 43 3d 9f 8f 1e bd ae d0 95 3c 3e 41 c6 bc
       0.04775536 -0.038711186 0.018287983 -0.024201032
000320 8a e5 fa 3d 7f e5 6a be 47 a5 58 be 1e 12 10 3e
       0.12250812 -0.22939108 -0.21156798 0.14069411
000330 39 be 4f be 7d 3a bd 3d bb cc 0c be 57 28 bb bd
       -0.20287408 0.092396714 -0.13749973 -0.091385536
000340 53 00 c7 bd 92 bf c7 3d 3a 0a 0f 3e 2f 37 af bb
       -0.09716859 0.09753336 0.13968745 -0.0053471546
000350 8a c4 32 be 92 96 87 bd e5 dc 7b bd 58 71 99 3d
       -0.17457786 -0.06620516 -0.06148996 0.07492322
000360 e5 df 0e 3d cc 29 05 be 05 01 a0 3c 80 78 d4 bd
       0.03488149 -0.13004225 0.019531736 -0.10374546
000370 32 32 34 be af 0a 8c 3c 5f a4 97 3d eb c7 a9 3d
       -0.17597273 0.017094938 0.07404398 0.082900845
000380 d5 e6 cd bc c7 13 1f be af ec da bd ae 15 6c bd
       -0.025134483 -0.15534888 -0.10689675 -0.057637863
000390 be c5 b1 3c f9 d4 1a bd c4 e1 39 bd 88 50 cb bd
       0.021700736 -0.037800763 -0.045381323 -0.099274695
0003a0 a7 54 0b 3e 35 f0 71 bc 61 54 52 3b 75 b5 5e be
       0.13606511 -0.0147667425 0.003209375 -0.21748908
0003b0 58 cd dd 3d c4 f0 52 3e 39 95 5e bd 7c 21 68 bd
       0.10830182 0.20599657 -0.05434153 -0.05667256
0003c0 13 b9 24 3d 7d 98 2c bc fd 05 bc bc 04 43 a7 bc
       0.040215563 -0.010534403 -0.022952074 -0.020417698
0003d0 38 45 00 bd b1 58 4c 3d 8c b5 17 3e 76 05 12 be
       -0.031316012 0.04988927 0.14815348 -0.14259896
0003e0 3b 6f 10 3d 96 2d b4 3d 34 9c ef bd fb 8c 49 3d
       0.035262328 0.08797757 -0.11699715 0.049206715
0003f0 e5 93 d4 bd b6 5c 07 3e ea 8d 99 3d b5 cc f8 3d
       -0.10379771 0.1321896 0.07497771 0.1214842

bias f4 [6]
000000 3d a3 4f bd e1 18 f8 bd 89 ee 01 be bc 5a 67 bb
       -0.050692786 -0.1211412 -0.1268865 -0.0035301885
000010 21 c9 26 be ca 6b e6 3d
       -0.16287662 0.11251028

weight f4 [6, 6, 3, 3]
000000 e1 c2 6c bd 7e 13 85 3d 4f fe db bb 3a 64 86 bd
       -0.05780304 0.064978585 -0.0067136656 -0.065620854
000010 fc c4 b8 3d 0c 8a 6a be ee 62 ab 3d 18 ba 22 bd
       0.09021947 -0.22904223 0.08368479 -0.039728254
000020 d2 24 02 3e 46 96 cb 3c 54 0b 0b be 98 17 83 3e
       0.12709358 0.02485193 -0.1357854 0.25603938
000030 d0 17 a6 bd 5e 48 d7 3c 94 84 84 3d a7 e4 e4 3c
       -0.081100106 0.026279625 0.064706 0.027941061
000040 cc b2 97 3d 3e c4 f4 3d 90 fc 53 3d ce 43 08 3d
       0.0740715 0.11951493 0.051754534 0.03326779
000050 49 0f 34 3e c8 2e 5d 3b e2 59 8b 3e f4 ff 38 3e
       0.17583956 0.0033749808 0.27217013 0.18066388
000060 d5 cf 3c 3e a7 f3 37 3d db 3a 01 3c 22 a0 ed bd
       0.18438657 0.0449101 0.007887567 -0.116028085
000070 2b ef 1a be 94 8f 68 3d d1 29 54 be 4b fd a6 3d
       -0.15130298 0.05677755 -0.20719077 0.081537805
000080 8c 39 90 3c 05 b9 be 3d a9 18 a6 3d 48 aa bd bd
       0.017605565 0.093126334 0.08110172 -0.09260994
000090 ff 27 32 be b4 97 8c be 85 57 ce bd 71 9e 95 3d
       -0.1739807 -0.2745949 -0.10075287 0.07305611
0000a0 84 ff ac be 7d 37 cc 3c 9d 66 2e bd dd 9e d6 3c
       -0.33788693 0.024928803 -0.04257833 0.026198799
0000b0 3f e5 42 bc a4 0a 09 be dc bd 39 3d 1c ff 5f 3e
       -0.011895477 -0.13382965 0.04534708 0.2187466
0000c0 22 87 30 3c bd f0 0b 3c f7 34 26 be d1 1a f8 3d
       0.010774406 0.008541283 -0.16231142 0.1211449
0000d0 6a fe a6 bd 25 67 6c 3c 43 0e a5 3c be b4 df bd
       -0.081539944 0.014428888 0.020148402 -0.10923146
0000e0 2e 55 d4 3d ea 60 8a 3d 42 86 92 3c 1b 3b a6 bd
       0.10367809 0.06756766 0.017886285 -0.08116742
0000f0 a7 24 cc 3d 87 af 41 bd e2 bb 6f 3d f6 49 87 3e
       0.099679284 -0.047286537 0.05852879 0.26423615
000100 ff 87 3c 3e 0b 43 94 bd ac bb 35 3e 18 0e 1e 3d
       0.18411253 -0.0723935 0.17747372 0.03858766
000110 1c e6 2d bb c5 8f 90 be c0 67 39 3e d4 f8 2b be
       -0.002653486 -0.28234687 0.18105984 -0.16794139
000120 60 e5 f9 bd 43 23 87 be 38 ed 0a 3e 0c b3 fd bd
       -0.12201953 -0.2639409 0.13567054 -0.12387666
000130 4f ad 0d be 39 12 57 3d 6a cb 38 3d 23 10 98 ba
       -0.13835643 0.052507613 0.045115866 -0.0011601489
000140 81 42 88 bd ff 85 23 3d 52 e0 18 3e 12 18 1b be
       -0.066533096 0.03992271 0.14929321 -0.15145901
000150 a5 d7 02 be 4f 8b 1f be eb c0 95 be 4d d5 d5 3c
       -0.12777574 -0.15580486 -0.29248747 0.026102686
000160 e9 06 d1 bd cb 43 5b bc 2b 37 9f 3d ff 5e de bd
       -0.10206396 -0.013382862 0.07774194 -0.10857963
000170 bb d5 15 3e 86 90 7a 3e b3 b0 83 be c3 b0 a8 bd
       0.14632313 0.24469194 -0.25720748 -0.082368396
000180 72 24 b6 3d d8 6b f3 3d ae b9 03 3d 22 97 26 3e
       0.0889367 0.11885804 0.0321595 0.1626859
000190 9b ab e7 bd bc 2c 7d bd 26 75 21 be a1 0f 4f bd
       -0.11312028 -0.06181024 -0.15767345 -0.050552014
0001a0 76 7b 9a bd 12 9d 57 3e 6d 7b c8 3d bc 9a 2f be
       -0.075430796 0.21056011 0.097891666 -0.1714887
0001b0 22 3c 64 be fa ce 81 3d ca b5 af bb 11 eb 85 be
       -0.22288564 0.06338306 -0.005362247 -0.26155904
0001c0 b2 2d fd 3d 63 86 da 3c 66 67 b6 3e b6 a0 fd 3d
       0.12362231 0.026675409 0.35625762 0.12384169
0001d0 08 83 8c 3e 29 78 f2 3d 4c 4a 14 bd c7 b6 4e 3e
       0.2744372 0.11839325 -0.036203668 0.20186912
0001e0 5a f6 90 bd 69 f3 25 3c f8 00 80 3d 65 07 94 3d
       -0.07078238 0.010128834 0.06250185 0.07227973
0001f0 b1 35 4c bd 8c 07 5e 3d 3f 49 30 3e bc a2 6f 3c
       -0.04985589 0.054206416 0.17215441 0.014626201
000200 5f 20 5a be 44 08 42 3e df 2d ea bd d8 58 23 3c
       -0.21301411 0.18948466 -0.114345305 0.0099699125
000210 37 50 7a 3e c7 2e 46 3e d9 b0 83 3e 9c 83 16 3e
       0.24444662 0.19353782 0.25720862 0.14698642
000220 c4 36 02 3e 7e 18 42 3d 39 ad a2 3e 83 a6 04 3e
       0.12716204 0.04738664 0.31772783 0.12954144
000230 32 b3 21 3e 9c 4d 30 3e 78 15 13 3e 37 f2 3b bd
       0.15791014 0.17217106 0.14363658 -0.04588529
000240 ff f8 bc 3d 1b 15 c7 3d d4 b9 9d 3e a3 27 35 3e
       0.0922718 0.097208224 0.30805838 0.17690901
000250 db 87 17 3e c9 26 04 3e e7 2b 01 3d 7b 45 b3 3c
       0.14797918 0.1290542 0.03153601 0.021883717
000260 48 2c 8d 3e f2 f8 e6 3d 3b 5b d0 3d ae 56 eb 3d
       0.27572846 0.11277951 0.10173651 0.11491142
000270 4a f1 39 3e ca 53 d9 3c fb bd 2a 3e 63 70 72 3e
       0.1815845 0.026529212 0.16674034 0.23675685
000280 24 2a 31 3e 39 1b 68 3e 73 83 4e 3e 93 28 b3 3c
       0.17301232 0.22666635 0.20167331 0.021869933
000290 a0 04 1c bb 01 55 6b bd 7a fa a4 bd 25 fd a1 bd
       -0.0023806468 -0.057454113 -0.08055587 -0.079096116
0002a0 d8 47 17 3d 8e 0a ec bd a5 01 19 3d fc 91 96 bc
       0.03693375 -0.11525451 0.037355084 -0.018380158
0002b0 1a 0e 81 bd 64 3c bd 3d 56 ad 8d bd 59 62 cf bd
       -0.06301518 0.09240034 -0.06917827 -0.1012618
0002c0 3d 1c 3a 3d 11 9f 80 bd b3 1e 95 3e 60 2c 63 3d
       0.045437086 -0.062803395 0.29124984 0.05546224
0002d0 46 1a b2 3d 15 a8 c9 bd df e8 07 3e c2 7d 86 3e
       0.086964175 -0.09846512 0.13272427 0.2626782
0002e0 9f 3f 69 3d b6 60 2c 3e ca 1f 81 3e 69 21 b0 3e
       0.05694544 0.16833767 0.25219566 0.3440049
0002f0 cb 54 53 bc 59 ba 9a be 8a 2e 56 3e 3a 79 0e 3e
       -0.012898634 -0.30220297 0.2091619 0.13913432
000300 5b 3c fb 3d 69 9a 1b bd 42 72 1c 3e c0 59 3f 3e
       0.12267371 -0.037989054 0.15277961 0.1868658
000310 41 a3 39 3d e6 e1 a4 3e 0c 66 63 3d 2f d3 c0 bc
       0.045321707 0.32203597 0.05551724 -0.0235382
000320 f3 79 8a 3d 6d 92 1f 3d 53 06 a1 3c cc bd aa 3d
       0.06761541 0.038958002 0.019656336 0.08336982
000330 61 ad e2 bd 21 00 87 bc d4 5f c0 3d 72 67 d3 be
       -0.11068226 -0.016479554 0.09393278 -0.4128986
000340 95 4a fc 3c c3 6c b5 3d 82 99 b2 3d 57 f1 5a be
       0.030797282 0.08858635 0.087206855 -0.21381126
000350 82 a6 30 bd 04 b8 76 3d b7 0c cf 3d ed 4b a8 3d
       -0.043127544 0.060234085 0.10109847 0.08217607
000360 ac e7 5f bd 99 d3 26 3d 5c 1f a6 bb 41 19 82 bc
       -0.0546643 0.04072914 -0.0050696563 -0.015881183
000370 a7 ef eb 3d c1 66 71 be d0 69 cc bc 0f d9 36 be
       0.115203194 -0.23574354 -0.0249528 -0.17856239
000380 b2 9b eb 3c cc c5 14 3e 40 f1 2c 3e 94 d8 75 3e
       0.028760765 0.14528579 0.16888905 0.24008399
000390 ff 28 58 3e 6c 09 95 3e 5d 90 3a 3e eb 06 02 3e
       0.21109389 0.2910875 0.18219133 0.12697951
0003a0 df dc a1 3e 21 e6 a6 3e d3 ec bf be 64 b0 90 be
       0.31613824 0.3259745 -0.3748537 -0.28259575
0003b0 6d 3d 01 bd 2e 2c 48 be 2f 11 a6 be 29 5b 89 be
       -0.03155272 -0.19548103 -0.32434985 -0.26827362
0003c0 5e 89 14 bf ed 5b d0 bd b3 52 65 be 88 3d 66 be
       -0.58022106 -0.101737835 -0.22394828 -0.2248441
0003d0 b8 58 5d bd 05 53 d8 3d b3 76 4f be a7 76 80 be
       -0.054039687 0.1056271 -0.20260124 -0.25090525
0003e0 81 6a b9 be e0 a0 07 be 1a 1b cd be 2e be 18 bf
       -0.3621407 -0.13244963 -0.4005974 -0.5966519
0003f0 3c 6b 44 be f0 2a d9 be 4b f6 ac be 97 5e 68 3d
       -0.19181532 -0.4241557 -0.33781657 0.056730833

bias f4 [6]
000000 d9 ac 8e bb 66 4f 08 bd 41 63 28 be c5 2b 1f bd
       -0.004354101 -0.033278845 -0.16444112 -0.0388601
000010 ff ab 8b 3c f7 64 6f 3d
       0.017049788 0.058445897

weight f4 [5, 2646]
000000 be 6b 64 3e c8 c1 32 3d b1 5c 6b 3e 93 7f 42 bd
       0.22306725 0.043641835 0.22984578 -0.047484946
000010 5b 16 37 3d 7d b0 2c bd 5e f9 7a 3c a7 ec 01 3e
       0.044699054 -0.0421605 0.015318243 0.12687932
000020 12 cb ab 3d 58 1b 6c 3d 21 1b 67 bc 62 06 e5 bc
       0.08388342 0.057643265 -0.014105589 -0.027957145
000030 73 09 33 bd f3 66 22 3e be c1 d1 bb 58 3a 9d bd
       -0.043710183 0.15859585 -0.0064012697 -0.07677144
000040 ae 22 bf bd e9 e8 27 be 54 30 c2 bd e1 63 fc 3c
       -0.093327865 -0.16397442 -0.09481874 0.030809345
000050 4f d3 59 bd a3 93 b0 bc 68 2b 4d 3e d2 47 4f 3d
       -0.053180035 -0.021554774 0.2003609 0.050605603
000060 03 f1 60 3e 1c df bd 3d 84 53 c5 3d dd bc 49 bd
       0.21966939 0.0927107 0.0963507 -0.04925238
000070 4c 5c 80 3d 32 e2 ca bd d3 e6 ac 3d db 8c 4d bd
       0.06267604 -0.099064246 0.08442464 -0.05018316
000080 ee 53 21 bc 8a 57 d7 3c 86 4e 44 bd 39 da fc bc
       -0.009846671 0.026286859 -0.04792645 -0.030865775
000090 b3 1f 92 bd 5f a0 08 3d 65 fb 64 3d 05 54 6f 3d
       -0.071349524 0.033356067 0.05590381 0.058429737
0000a0 c0 6b 11 bd a6 e5 87 bd b8 9d 18 3d 61 14 cd b9
       -0.03550315 -0.06635599 0.037259787 -0.0003911583
0000b0 dc b3 17 3c 12 15 cd 3d 8f d1 35 bc a1 2d 8a bd
       0.00925919 0.100137845 -0.011097326 -0.06746984
0000c0 da 18 0a 3d 60 29 8d bc f3 5d 0e 3d 63 71 00 3d
       0.033715107 -0.017231643 0.034757566 0.031358134
0000d0 ec 1c 25 3c 2d 26 f0 3b 25 d7 22 bd 43 8d d2 bc
       0.010077696 0.0073287697 -0.03975596 -0.025702124
0000e0 6c 34 58 bb c9 6d 93 bd af ef 6b bd 7b 15 9b bd
       -0.003299023 -0.07198674 -0.057601627 -0.075724564
0000f0 bc 63 07 be e9 a8 ca bd 4c 72 fd bc fa a8 21 3e
       -0.1322164 -0.09895498 -0.03093829 0.15787116
000100 c7 11 94 3d a1 c0 3e bd 2f b1 8f 3d 42 bf df 3c
       0.07229953 -0.046570424 0.07016217 0.027312879
000110 6b 2f 20 3e c4 43 27 3e 05 3f 4f 3d a0 fc dc 3c
       0.15643089 0.16334444 0.05059721 0.02697593
000120 4b a7 63 3d 70 de 74 3d 21 ea 29 bd 45 27 67 3d
       0.055579465 0.059782445 -0.04148305 0.056433935
000130 07 99 b6 bd 45 38 15 be ed 9f 22 bd 99 38 11 be
       -0.089159064 -0.14572246 -0.0397033 -0.14181747
000140 44 99 dd bc 8a cf 89 3c 2b 89 84 3d 97 62 b4 3d
       -0.027050622 0.016822595 0.06471475 0.08807867
000150 6b 78 25 bd 0d 7c 23 3c 57 22 63 bd 69 a3 42 3c
       -0.040398043 0.0099783065 -0.05545267 0.01187978
000160 db 6a a9 bc 77 a2 fc bc 4b 2c 06 3b 26 06 8d 3c
       -0.020680835 -0.030839188 0.0020473178 0.017214846
000170 d6 33 df 3d 8d eb 22 3e 3b 01 ad bd 59 09 d9 3d
       0.10898559 0.15910168 -0.084475 0.10597486
000180 ec 51 8f 3d e9 ed 06 3e 4a 91 d9 bc 4c bf 89 3b
       0.06998047 0.13176693 -0.026558537 0.0042037126
000190 53 1c f0 bd e5 58 b1 bd df 72 58 bc f4 98 a6 3d
       -0.117241524 -0.086595334 -0.013210981 0.08134642
0001a0 b5 7e 4a bd 04 85 41 bc ac 71 2a 3e 5b a9 21 be
       -0.049437243 -0.011811499 0.16644925 -0.1578726
0001b0 be 6f 37 bd 4b 7a 43 3d 8d e8 d4 3c 62 c7 27 3d
       -0.0447843 0.04772405 0.025989795 0.04096163
0001c0 c5 8b 0d 3d 35 0b e9 bd 13 76 ac 3d 93 b4 af 3d
       0.034557123 -0.11379091 0.08420958 0.08579364
0001d0 78 95 5f 3d 89 bc c0 3c 72 fb 5a 3d 7d 52 80 bd
       0.054585904 0.0235274 0.053462453 -0.062657334
0001e0 b1 7b fb bd 43 16 8c bc b9 bd a6 bd f4 5a a2 3d
       -0.12279452 -0.017100459 -0.081416555 0.07927504
0001f0 a3 d6 6c 3d ce 0e 96 bd 47 72 ea 3b 0c b1 44 3b
       0.05782188 -0.073270425 0.007154736 0.0030012755
000200 5d ea 0a bb 6f d4 c8 3c 9f ee 2a bc bb 60 4c 3e
       -0.002119682 0.024515359 -0.010432868 0.19958775
000210 2a 7a 3b 3c c6 1e c3 3d 34 af d6 3d 10 5e 98 3d
       0.0114427 0.09527354 0.10482636 0.07439816
000220 b5 33 c2 3c 09 c5 d1 3d c1 d5 43 3d ff 20 f0 3d
       0.023706296 0.102426596 0.047811273 0.117250435
000230 ac 5c 64 3c d1 bc cd bd bb c9 82 bd 5d f5 27 bd
       0.01393811 -0.100457795 -0.06386133 -0.04100548
000240 6b cf a1 bc 8c c0 51 bd b7 7e d4 bd 96 23 fc 3d
       -0.019752225 -0.051209018 -0.103757314 0.12311475
000250 66 01 c7 3d 5f bc b4 bd 34 87 0b 3d 5c eb 6c 3d
       0.097170636 -0.088249914 0.034064487 0.057841644
000260 7c 30 27 3e 7e fe 44 3d 59 aa de 3d f3 f9 be 3d
       0.16327089 0.048094265 0.10872335 0.09325018
000270 a4 4a 4d 3e bd f7 e3 bc 25 4b 53 3e 36 97 66 3e
       0.20048004 -0.027828092 0.20634134 0.2251862
000280 c7 a1 e5 3c 7a d0 a7 3d 29 b7 c4 bd 72 30 9c bd
       0.028031243 0.081940606 -0.096052475 -0.07626428
000290 e6 4b 7f bd 44 4f a3 bd a7 a8 28 3d 11 c8 02 be
       -0.06232824 -0.07974103 0.041176464 -0.12771632
0002a0 b0 0f 7a 3d c8 7e a2 3d a2 54 eb 3d 78 b3 49 3b
       0.061050117 0.07934338 0.11490752 0.0030777138
0002b0 d5 66 1e bc cf c8 23 3e 83 d6 c4 3d 36 ea 17 bd
       -0.009668072 0.15994571 0.09611227 -0.037088595
0002c0 90 db f3 3d 98 ab 0a 3e a4 ea 83 3d f2 8d 38 3e
       0.119071126 0.1354202 0.064412385 0.18022898
0002d0 9f 9c d8 3d cf b4 7b 3c 6f a6 96 bd 4f a1 09 3d
       0.10576748 0.015362932 -0.073559634 0.0336011
0002e0 0e 9b 3a 3b 6d 90 7a bc 32 da f5 3c 58 a2 bc 3c
       0.0028473767 -0.015293223 0.03001127 0.02302663
0002f0 27 49 aa bb 3c 81 11 3d 63 cc a2 3d a5 65 7d 3d
       -0.0051967087 0.035523638 0.0794914 0.061864514
000300 f9 9c 86 3e ad d9 52 3e b9 a3 33 3d ac 96 e8 bc
       0.26291636 0.20590849 0.04385731 -0.028392158
000310 fc fd e8 bc be fd ef 3d 27 db af 3d c4 48 ce 3d
       -0.028441422 0.11718319 0.08586722 0.10072473
000320 0f e3 10 3e 7a 6d a2 3d 9d c7 1b 3d 7a 15 95 3b
       0.14149116 0.07931037 0.038032163 0.0045496793
000330 4a c7 27 bd 69 c9 be bc c6 d7 42 bc 3b 00 92 3d
       -0.04096154 -0.0232894 -0.011892265 0.0712895
000340 3f 0c 38 bd e3 8a 67 3c 32 98 e7 3d b2 fb a4 3e
       -0.044933554 0.014132234 0.11308326 0.32223278
000350 71 50 46 3d 72 5e 68 3e 30 b0 09 3e e1 ee fe 3d
       0.04841656 0.22692278 0.13446116 0.12447906
000360 a0 f2 d3 3d c6 6e b1 3d 7c 27 19 3e 85 67 be 3d
       0.103490114 0.086637065 0.14956468 0.092970885
000370 5d 0f d6 3d 4f dc a4 3d 80 a8 21 3e 08 d6 03 3d
       0.10452149 0.08049833 0.15786934 0.032186538
000380 4f 47 b6 3c aa f4 30 bd f3 db 4d bd fc 36 00 3b
       0.0222508 -0.04320208 -0.050258588 0.0019564023
000390 11 d7 2f 3c f2 b3 2c 3d 5f 1b 66 bd 69 4d 0b 3c
       0.010732428 0.042163797 -0.056178447 0.008502343
0003a0 63 6f d0 3d 2d f3 b5 bd 45 07 e6 3d 34 12 0f 3e
       0.10177495 -0.08884273 0.11231855 0.13971788
0003b0 b6 0c ac 3c 03 0c 6c 3e 6d 38 9b 3d 34 13 78 3e
       0.021002155 0.23051457 0.07579122 0.24226075
0003c0 97 3d 29 3c 71 d1 2e 3e 20 97 df bb 4d b7 cd 3d
       0.010329626 0.17072083 -0.0068234354 0.100447275
0003d0 a2 1a 73 3d e8 7a a6 3d d4 09 c9 bc fe 52 a5 bd
       0.05935157 0.08128911 -0.02454082 -0.0807247
0003e0 de 85 06 bd 8d f0 8d bb 76 5f ff 3c 85 52 92 bd
       -0.03284251 -0.0043316544 0.031173449 -0.071446456
0003f0 c3 2a 01 3d ef eb dc 3d b0 6a b8 bc 2f 19 52 3e
       0.03153492 0.10787188 -0.02251181 0.2051742

bias f4 [5]
000000 1c 9b a2 bd a9 89 5d bd 83 21 50 bd 0b ea 4c bd
       -0.07939741 -0.05408636 -0.05081321 -0.05002789
000010 6b 4d 24 bd
       -0.040112894
