data/b4_r0_m10_s100--2019-01-03--172008.722935/episode_12500.model (torch_old, 70109 bytes, 8 tensors)

weight f4 [6, 6, 3, 3]
-0.073551394 0.0020944476 -0.0095354915 0.0021583587 -0.040538676 -0.13527194 -0.06952954 0.0048464835
0.12364182 0.07602062 0.11842765 0.14627835 0.09062061 -0.083932765 0.11455531 0.049130347
0.04676873 0.13637935 0.107767105 0.22455014 0.21510506 0.099072464 0.12394923 0.21178575
0.15801002 0.36740983 0.4858475 0.08291994 -0.12363312 0.10991652 -0.009285465 0.060858846
-0.08446906 0.09652996 -0.05293937 -0.03573385 0.20604779 -0.3575429 -0.072669834 0.3370499
-0.9164759 0.13578616 -0.52224255 -0.60562193 0.20833132 -0.031204753 -0.22032061 -0.19438466
0.13607891 -0.04337788 0.12696451 0.04979138 -0.051917493 0.1072994 0.0016983896 0.10571718
0.1039411 0.10382792 -0.023090072 0.09471844 0.03532006 -0.07156565 -0.07314924 -0.008590095
-0.045582533 -0.005751693 -0.036481034 -0.04700365 -0.020523762 -0.00025798898 0.06683046 -0.0021599233
0.03544585 0.01161279 -0.035460338 0.009818936 -0.03014187 -0.16164336 -0.038121443 0.06249809
-0.038239505 0.047612354 -0.039989226 -0.041437753 0.08316815 0.10392836 0.12857461 -0.110030696
0.10862069 -0.035417013 -0.89675343 -1.0366503 -0.7068612 0.10420233 -0.048440922 -0.93793666
-0.13212933 -0.03661236 -0.12971236 -0.23724392 -0.056390703 0.028643757 -0.10050189 0.039271828
0.023752281 -0.09050977 0.024113063 -0.048075337 0.089619085 -0.06419249 -0.10306338 -0.09129202
-0.07577772 0.038852885 0.11413625 0.12899438 -0.0963608 0.10461493 0.014729769 0.26379153
-0.033389825 -0.050519682 -0.03752757 0.15076812 -0.019276315 0.07313125 0.35667545 0.40527904
0.28653175 0.07384572 0.0011836288 0.08098724 0.011376831 0.044801813 0.13330293 -0.09788351
0.006606087 -0.12226168 -0.12887207 -0.10544585 -0.093424395 -0.0038679987 0.055469498 0.0923717
0.12274948 0.21023676 -0.149604 -0.046381544 0.14667714 -0.17377801 -0.1363701 -0.031899
-0.20369565 -0.3244367 -0.49836278 -0.5811298 -0.020853767 0.2516881 0.09873719 0.01711066
-0.002760864 0.078762084 -0.06295778 0.02767004 -0.0141516775 0.07167806 -0.0370562 0.055828452
0.010560885 -0.020904519 -0.006206453 -0.16914603 -0.0011349093 0.038640708 -0.055762466 0.007327721
-0.035909124 0.014524338 -0.064565286 0.014438939 0.101834744 0.11528288 0.0164264 0.006263472
-0.03801609 -0.06601482 0.045644462 -0.012375227 0.15190221 0.07168701 -0.07833484 -0.0664666
-0.037751667 0.010146186 -0.07808958 0.086265 -0.08634016 -0.115208134 0.24398947 -0.5262046
-0.13944705 0.35377574 -0.2032796 -0.6703674 -0.8107478 -0.38977924 0.77781725 0.07762969
0.0019343266 -0.0037073956 0.0068919193 -0.030168353 -0.24307716 -0.5248246 -0.09686799 0.119121104
-0.10019956 -0.0008562356 -0.080285355 -0.104396895 0.09963228 0.07988815 0.08361526 -0.11096251
0.018946454 0.10359996 0.03218077 0.081895664 -0.014695194 0.15146987 0.008214655 0.08853462
0.015923476 -0.13123761 -0.39048883 -0.61848867 -1.33917 -0.5107456 -0.78836423 -1.2662325
-0.06886468 -0.5289898 -1.0426913 0.09198837 -0.10971193 0.0683672 0.017523527 -0.004942253
0.03894946 -0.005182281 0.049041435 -0.011887677 -0.1791569 -0.1614916 -0.4235581 0.021449562
00000000: 1da2 96bd 0043 093b c03a 1cbc 4073 0d3b
00000010: e20b 26bd ba84 0abe 8165 8ebd 40cf 9e3b
00000020: ec37 fd3d b3b0 9b3d 328a f23d fec9 153e
00000030: 4c97 b93d f1e4 abbd f99b ea3d e73c 493d
00000040: 9190 3f3d 07a7 0b3e 00b5 dc3d 79f0 653e
00000050: 8044 5c3e 81e6 ca3d 18d9 fd3d 5dde 583e
00000060: 61cd 213e 241d bc3e 01c1 f83e eed1 a93d
00000070: 5c33 fdbd ea1b e13d 1022 18bc 2047 793d
00000080: 1dfe acbd 80b1 c53d f4d6 58bd a85d 12bd
00000090: 31fe 523e dd0f b7be ecd3 94bd ce91 ac3e
000000a0: 2a9e 6abf 870b 0b3e b0b1 05bf 0a0a 1bbf
000000b0: ce54 553e 1ca1 ffbc ba9b 61be c60c 47be
000000c0: 4558 0b3e 01ad 31bd fc02 023e 0cf2 4b3d
000000d0: 70a7 54bd cabf db3d 809c de3a 4082 d83d
000000e0: 12df d43d bca3 d43d 6427 bdbc befb c13d
000000f0: c4ab 103d 0391 92bd 45cf 95bd 78bd 0cbc
00000100: c0b4 3abd b378 bcbb 236d 15bd e686 40bd
00000110: 7321 a8bc b242 87b9 69de 883d 808d 0dbb
00000120: ab2f 113d 9243 3e3c dc3e 11bd 9adf 203c
00000130: 15ec f6bc d685 25be 3b25 1cbd fffd 7f3d
00000140: 07a1 1cbd 2c05 433d becb 23bd a2ba 29bd
00000150: 1054 aa3d 64d8 d43d 10a9 033e c657 e1bd
00000160: 8674 de3d 6e11 11bd a291 65bf f5b0 84bf
00000170: dbf4 34bf 0868 d53d fd69 46bd 9e1c 70bf
00000180: e94c 07be d8f6 15bd 51d3 04be 12f0 72be
00000190: f0f9 66bd 50a6 ea3c efd3 cdbd 7fdb 203d
000001a0: 2594 c23c 305d b9bd c288 c53c a5ea 44bd
000001b0: 368a b73d 5a77 83bd e512 d3bd 50f7 babd
000001c0: 5931 9bbd 3424 1f3d 44c0 e93d 1a17 043e
000001d0: d058 c5bd 5a40 d63d 2155 713c af0f 873e
000001e0: c5c3 08bd baed 4ebd 82b6 19bd f562 1a3e
000001f0: 5de9 9dbc d6c5 953d 2a9e b63e bc80 cf3e
00000200: 4ab4 923e 6d3c 973d fe23 9b3a a3dc a53d
00000210: e365 3a3c 1b82 373d 9080 083e 2677 c8bd
00000220: e077 d83b 5564 fabd 0af7 03be fef3 d7bd
00000230: 4a55 bfbd 407e 7dbb fc33 633d 602d bd3d
00000240: 1464 fb3d 4e48 573e ca31 19be 93fa 3dbd
00000250: 8832 163e ddf2 31be 9aa4 0bbe 87a8 02bd
00000260: 9895 50be 911c a6be 6829 ffbe ecc4 14bf
00000270: 85d5 aabc 43dd 803e b936 ca3d a82b 8c3c
00000280: 9def 34bb 044e a13d 02f0 80bd 48ac e23c
00000290: 70dc 67bc f2cb 923d 3ec8 17bd 60ac 643d
000002a0: 9007 2d3c f43f abbc 805f cbbb 9e34 2dbe
000002b0: 3dc1 94ba b845 1e3d 2f67 64bd 611d f03b
000002c0: 7215 13bd 7df7 6d3c ce3a 84bd 4d91 6c3c
000002d0: bc8e d03d 6e19 ec3d a890 863c d03d cd3b
000002e0: c2b6 1bbd c732 87bd b0f5 3a3d 77c1 4abc
000002f0: 418c 1b3e a4d0 923d 046e a0bd a41f 88bd
00000300: 7ea1 1abd 303c 263c 6eed 9fbd b4ab b03d
00000310: 1cd3 b0bd 3ef2 ebbd 60d8 793e 58b5 06bf
00000320: 35cb 0ebe 1822 b53e 8728 50be 339d 2bbf
00000330: 2b8d 4fbf 2591 c7be 081f 473f 51fc 9e3d
00000340: 3b89 fd3a c7f7 72bb 9cd5 e13b 9f23 f7bc
00000350: 38e9 78be e85a 06bf ba62 c6bd c4f5 f33d
00000360: 6d35 cdbd 0075 60ba a66c a4bd 0ace d5bd
00000370: 020c cc3d 669c a33d 7a3e ab3d 5040 e3bd
00000380: 9835 9b3c 372c d43d fccf 033d eab8 a73d
00000390: 1cc4 70bc eb1a 1b3e c396 063c a451 b53d
000003a0: f371 823c 2763 06be 27ee c7be 4655 1ebf
000003b0: ec69 abbf 39c0 02bf 3dd2 49bf e813 a2bf
000003c0: ed08 8dbd e06b 07bf e976 85bf 6664 bc3d
000003d0: a6b0 e0bd 1a04 8c3d 808d 8f3c a0f2 a1bb
000003e0: 7889 1f3d 20d0 a9bb acdf 483d 88c4 42bc
000003f0: e874 37be 0e5e 25be 9bdc d8be feb6 af3c

bias f4 [6]
-0.16567646 -0.006811873 0.092448115 0.13382897 0.09924691 -0.012703021
00000000: 17a7 29be 2236 dfbb 7055 bd3d 760a 093e
00000010: f741 cb3d 5520 50bc

weight f4 [6, 6, 3, 3]
-0.045297395 0.3406678 0.13859107 -0.06620913 0.2824289 -0.35481322 -0.053792186 -0.0014647703
-0.17168015 0.058487393 -0.57115173 0.015417619 -0.14094311 0.31502512 0.45218843 -0.18520756
0.12774323 0.38109583 0.13214193 0.083640076 -0.07219467 -0.05054019 -0.2557697 0.084998176
-0.149627 -0.12021213 0.04827007 0.029995902 0.019897228 0.3243868 0.15735981 0.02080118
-0.13864826 0.040711574 0.18042551 -0.28304952 -0.070035666 -0.03688172 0.11339376 -0.08209759
0.15550937 0.12683971 -0.08073947 0.086545 0.0016579598 -0.03458496 -0.2721748 0.34379792
0.15348928 -0.088701755 -0.02429978 0.09220832 0.047528867 -0.042780973 0.1290962 -0.113034576
-0.14662158 -0.20365235 0.042919315 -0.088018335 -0.026370263 -0.217923 -0.198197 0.10173618
0.025195815 0.16037413 0.11245612 0.21963222 -0.0026257013 -0.021975286 -0.14717194 0.15847525
-0.1677466 -0.16183299 -0.14635104 0.0969833 0.20184475 -0.06388528 -0.20640676 -0.033138655
-0.03334569 -0.09712592 0.072603956 0.20167916 0.0008258093 -0.01843109 0.120126486 -0.44115937
-0.187903 -0.062250495 0.043878626 0.216874 -0.0056101033 0.14929517 0.22165568 0.14044319
0.20656376 0.008918298 0.20474127 -0.07382483 -0.027741404 0.029512785 -0.08312497 -0.13245901
-0.16548845 0.015455092 0.13012788 0.09812223 -0.55850005 -0.03218378 0.3275498 -0.22836258
-0.17431703 0.25307187 0.060421698 0.16424528 0.1143293 0.5170327 0.18669271 0.3131627
0.36192647 0.029818192 0.4573878 0.35492128 0.10684536 0.29000804 0.24862863 0.029168475
0.028973969 0.32107693 -0.019426938 0.065570325 0.5464086 0.40113598 0.26066336 0.29093927
0.006172371 0.1542229 0.4597251 0.13712232 0.30738664 0.4044595 0.24188231 0.18589772
0.010689022 -0.11646423 -0.0840957 -0.15847437 0.0023516852 -0.11714359 -0.13814819 -0.025113925
-0.07585271 -0.15212972 -0.023263358 -0.014152749 -0.25327143 -0.4580243 -0.27987647 -0.004470108
0.10238786 -0.14935455 -0.17345034 0.038414095 -0.19524984 -0.00066688115 0.3039146 -0.0456367
0.0358471 0.11113658 0.06414748 0.2902162 0.21458103 0.14718075 0.32776082 0.3775434
0.14768523 -0.016021674 0.20231159 -0.049422756 -0.07454741 -0.06076481 0.111127876 0.15175644
-0.036836594 0.07920209 -0.10801017 -0.21645744 -0.008419701 -0.031287674 0.020935168 0.20855565
0.070653625 0.020077161 -0.10613015 0.1929401 0.18700534 0.15657295 0.014525301 -0.32329634
0.054657053 -0.1849568 -0.37086517 -0.11267921 -0.0134244645 -0.21410167 -0.059788946 0.09951859
0.14416687 0.089001656 -0.13042 -0.030182717 -0.17237474 0.26290777 0.18367667 -0.13951916
0.09517846 0.025903346 -0.004031695 -0.23062998 -0.11218238 0.047624744 -0.14833497 -0.008327877
0.05670749 -0.33182585 -0.22177917 0.2544426 0.19747029 0.11780956 0.3470147 -0.22202563
0.3688449 0.52600145 0.054280628 0.060519584 -0.012293838 0.056298517 0.12363121 0.06275996
-0.0017263619 0.06825047 0.10537714 -0.003248326 0.051492766 0.22200993 -0.0017232309 0.0654881
0.12991852 -0.2995101 -0.13551365 -0.10748818 -0.060985465 0.007090822 0.2493656 -0.054671194
00000000: c389 39bd 036c ae3e d1ea 0d3e a798 87bd
00000010: 859a 903e 14aa b5be 3255 5cbd 89fd bfba
00000020: eccc 2fbe 7a90 6f3d 0037 12bf 2e9a 7c3c
00000030: 6453 10be f94a a13e 3e85 e73e 0da7 3dbe
00000040: 1fcf 023e fe1e c33e 3750 073e 7d4b ab3d
00000050: cdda 93bd 3b03 4fbd 3ff4 82be 8613 ae3d
00000060: d237 19be c731 f6bd d6b6 453d f7b9 f53c
00000070: 83ff a23c 0716 a63e ee22 213e 3c67 aa3c
00000080: cff9 0dbe 2ec1 263d 77c1 383e deeb 90be
00000090: dc6e 8fbd 4911 17bd fd3a e83d c822 a8bd
000000a0: d93d 1f3e 45e2 013e bc5a a5bd 813e b13d
000000b0: e64f d93a f6a8 0dbd 7f5a 8bbe 4806 b03e
000000c0: 4b2c 1d3e 44a9 b5bd 5510 c7bc b7d7 bc3d
000000d0: a1ad 423d 1a3b 2fbd cb31 043e ac7e e7bd
000000e0: f823 16be 3e8a 50be 2acc 2f3d f542 b4bd
000000f0: 7306 d8bc 3527 5fbe 28f4 4abe 0f5b d03d
00000100: 7467 ce3c 1e39 243e 654f e63d 45e7 603e
00000110: f513 2cbb 8405 b4bc 3eb4 16be 5647 223e
00000120: c4c5 2bbe 8cb7 25be 0cdd 15be 2e9f c63d
00000130: 64b0 4e3e 49d6 82bd 4b5c 53be 66bc 07bd
00000140: 7e95 08bd f4e9 c6bd 62b1 943d fb84 4e3e
00000150: 207b 583a ccfc 96bc e004 f63d a4df e1be
00000160: a569 40be 60fa 7ebd 13ba 333d 3814 5e3e
00000170: f5d4 b7bb d5e0 183e b5f9 623e 57d0 0f3e
00000180: 7385 533e 0e1e 123c b2a7 513e 7931 97bd
00000190: f141 e3bc ccc4 f13c 6d3d aabd 56a3 07be
000001a0: ce75 29be 5b37 7d3c 3e40 053e 4ff4 c83d
000001b0: dcf9 0ebf 24d3 03bd 9bb4 a73e e1d7 69be
000001c0: 2a80 32be a392 813e be7c 773d ea2f 283e
000001d0: 7b25 ea3d 415c 043f 602c 3f3e dd56 a03e
000001e0: 6d4e b93e 4845 f43c bc2e ea3e 3eb8 b53e
000001f0: bdd1 da3d ef7b 943e 8198 7e3e baf2 ee3c
00000200: d15a ed3c 3264 a43e 3e25 9fbc bc49 863d
00000210: 6fe1 0b3f b261 cd3e ab75 853e fef5 943e
00000220: 9a41 ca3b 9cec 1d3e 1761 eb3e cb69 0c3e
00000230: c861 9d3e 5115 cf3e ffaf 773e f95b 3e3e
00000240: 0221 2f3c cc84 eebd 5e3a acbd 1b47 22be
00000250: bb1e 1a3b fae8 efbd b876 0dbe b8bb cdbc
00000260: aa58 9bbd e5c7 1bbe cc92 bebc efe0 67bc
00000270: cbac 81be 2982 eabe f84b 8fbe fc79 92bb
00000280: bab0 d13d 66f0 18be f79c 31be 1958 1d3d
00000290: 93ef 47be a3d1 2eba b29a 9b3e 8ced 3abd
000002a0: 69d4 123d 939b e33d c15f 833d 3897 943e
000002b0: 21bb 5b3e 8db6 163e 44d0 a73e 5e4d c13e
000002c0: cc3a 173e e33f 83bc c52a 4f3e 846f 4abd
000002d0: 50ac 98bd 85e4 78bd 0397 e33d 0a66 1b3e
000002e0: f8e1 16bd b534 a23d 7034 ddbd 05a7 5dbe
000002f0: c9f2 09bc 8127 00bd 3b80 ab3c 9d8f 553e
00000300: d9b2 903d dc78 a43c c45a d9bd 1792 453e
00000310: 547e 3f3e a954 203e 87fb 6d3c 1987 a5be
00000320: 13e0 5f3d 5165 3dbe 0ae2 bdbe 5cc4 e6bd
00000330: 49f2 5bbc 783d 5bbe 41e5 74bd 67d0 cb3d
00000340: 7ba0 133e 8046 b63d d28c 05be bf41 f7bc
00000350: 0183 30be d99b 863e bd15 3c3e 1cde 0ebe
00000360: edec c23d 4133 d43c 4f1c 84bb 442a 6cbe
00000370: e0bf e5bd 2a12 433d 1fe5 17be a671 08bc
00000380: 1d46 683d 14e5 a9be 141a 63be 4d46 823e
00000390: a735 4a3e 2346 f13d e9ab b13e b05a 63be
000003a0: 3dd9 bc3e 08a8 063f 5d55 5e3d 62e3 773d
000003b0: 186c 49bc 4699 663d 5c32 fd3d 4b88 803d
000003c0: 1847 e2ba e7c6 8b3d f8cf d73d dee1 54bb
000003d0: 14ea 523d 9256 633e 09de e1ba a01e 863d
000003e0: 5c09 053e 6359 99be 17c4 0abe c322 dcbd
000003f0: e5cb 79bd 205a e83b b259 7f3e e7ee 5fbd

bias f4 [6]
-0.17967866 0.017763995 -0.05849206 -0.037759885 -0.1946171 -0.16477725
00000000: affd 37be cc85 913c 5f95 6fbd 1caa 1abd
00000010: b449 47be 5ebb 28be

weight f4 [6, 6, 3, 3]
0.28944448 0.22568734 0.1710866 0.3653934 0.14848152 0.1424755 0.30613476 0.291876
0.1706058 -0.24588639 -0.09868284 -0.067451686 0.054111984 0.13400553 0.21820794 -0.22399488
0.05745761 0.21584716 -0.7078 -0.52315354 -0.22147496 -1.3126868 -0.30551955 -0.05128247
-1.6275109 -0.46962902 -0.06718969 -0.18237941 -0.05324529 0.07646333 -0.06491703 -0.0641981
-0.23540205 0.006542353 0.03394617 -0.4763291 0.20128128 0.17850024 0.3672239 0.23960218
0.38076356 0.41528755 0.07766896 0.22972299 0.33675334 -0.3413895 -0.15150736 0.23495181
-0.08918103 0.28789172 0.373948 -0.31117016 0.37939993 0.25454414 0.34903112 0.36667445
0.25210837 0.33390915 0.21786614 0.009355278 0.38443947 0.2577024 0.033800196 -0.09271472
0.005113289 -0.09311382 -0.09859285 0.11248612 0.025890613 0.1267895 0.10916655 0.065894134
-1.0109324 -0.52722925 -0.3304233 -0.9727894 -0.28171793 0.04055133 -1.0612189 -0.3806606
-0.18337968 -0.2030881 0.043624066 0.12279088 -0.30760196 -0.3332805 -0.21217662 -0.2504806
-0.061428774 -0.7179314 0.16310844 0.27044848 0.61491394 0.33357432 0.37453583 0.61126304
0.33618215 0.26574478 0.53430676 -0.41020727 -0.13349335 0.09643384 0.056686744 0.1984335
0.4159142 0.09608185 0.2505241 0.41527277 -0.44930825 0.08478048 0.27548668 -0.12754215
0.05488029 0.16390702 0.100992024 0.11278873 0.00013150705 -0.09613396 0.03418189 -0.0071592983
-0.15340826 -0.09391205 0.11742237 0.091580376 0.10136506 0.0349396 0.06970561 -0.06262355
-0.054720685 -0.054720156 0.10271202 -0.063931994 0.11498402 -0.02433647 -0.012172806 -0.029644255
-0.36571243 0.08382337 -0.010678769 -0.03134245 0.20327698 0.065528974 0.10252127 0.2631518
-0.02937973 0.09887136 -0.105742075 0.05402391 0.10886909 0.028894894 0.013757842 -0.0026136881
0.033750456 -0.112298734 0.057756625 0.017587734 0.13201977 -0.18042581 0.17325737 -0.080831796
-0.17739119 0.12241382 -0.090441965 0.07158065 -0.016528664 0.15275161 -0.017222876 -0.1687013
0.070203856 0.13427117 -0.04246487 -0.23286206 0.00021836492 0.096452996 0.0655345 -0.01586594
-0.06243407 0.01709836 -0.18632017 -0.0075719827 0.104726054 -0.1346554 0.03899967 0.01532047
0.038895193 -0.059208293 0.008062297 -0.09020203 0.019577645 -0.12893708 0.12978943 -0.14390174
-0.09409038 0.12694524 0.2975418 -0.23108897 0.08334038 -0.026859479 0.16446447 0.16360305
0.21682364 0.0031933328 -0.037091047 -0.11891896 -0.059856746 -0.28204912 0.070796624 -0.19907372
-0.037968677 0.053510778 0.13783483 0.101078406 -0.084656864 0.08967728 0.2137309 0.1308895
0.08878012 0.059531257 -0.28509036 0.018883852 0.20291667 0.14683956 0.27838263 0.01967505
0.061644327 0.07419769 -0.028958924 -0.07714168 0.10309915 0.0024442114 -0.13092111 -0.026050927
-0.17005368 -0.17902657 -0.008829368 -0.0691119 -0.0020175194 -0.013925961 0.029961621 -0.17117599
-0.030751372 -0.07648848 0.037431784 -0.16374728 -0.24591307 -0.10597873 -0.06440347 0.26386157
0.1599375 -0.22524391 0.028267443 -0.10276578 0.06267476 -0.07249366 -0.13091564 0.06439753
00000000: 1132 943e 951a 673e 5331 2f3e d814 bb3e
00000010: 8a0b 183e 19e5 113e b2bd 9c3e c570 953e
00000020: 49b3 2e3e a4c9 7bbe 3b1a cabd 1c24 8abd
00000030: 87a4 5d3d bf38 093e e771 5f3e ea5e 65be
00000040: ac58 6b3d 0a07 5d3e 6132 35bf 64ed 05bf
00000050: 55ca 62be 1f06 a8bf 0f6d 9cbe 910d 52bd
00000060: 4752 d0bf 3773 f0be c09a 89bd abc1 3abe
00000070: bc17 5abd ce98 9c3d 38f3 84bd 4b7a 83bd
00000080: 3c0d 71be 3c61 d63b 240b 0b3d 68e1 f3be
00000090: ae1c 4e3e c4c8 363e c504 bc3e 465a 753e
000000a0: 71f3 c23e 92a0 d43e e710 9f3d 813c 6b3e
000000b0: ef6a ac3e 9bca aebe bf24 1bbe 3597 703e
000000c0: 8ba4 b6bd 8b66 933e 1d76 bf3e b251 9fbe
000000d0: b540 c23e 9c53 823e 35b4 b23e c1bc bb3e
000000e0: 5914 813e 24f6 aa3e 4d18 5f3e e146 193c
000000f0: 40d5 c43e 92f1 833e 1372 0a3d 37e1 bdbd
00000100: 618d a73b 75b2 bebd 0ceb c9bd 1f5f e63d
00000110: 8d18 d43c 1bd5 013e b692 df3d 81f3 863d
00000120: 3c66 81bf 7ff8 06bf 3e2d a9be ba08 79bf
00000130: 553d 90be 2719 263d 05d6 87bf f2e5 c2be
00000140: e2c7 3bbe 54f6 4fbe 26af 323d c979 fb3d
00000150: 017e 9dbe bea3 aabe d444 59be fe3e 80be
00000160: bd9c 7bbd 5aca 37bf e605 273e 3978 8a3e
00000170: 006b 1d3f 41ca aa3e 29c3 bf3e bc7b 1c3f
00000180: 1120 ac3e b30f 883e 54c8 083f b006 d2be
00000190: 7bb2 08be 1b7f c53d 5c30 683d 2732 4b3e
000001a0: b5f2 d43e 90c6 c43d b244 803e a29e d43e
000001b0: bb0b e6be 63a1 ad3d 970c 8d3e 699a 02be
000001c0: 28ca 603d 3ed7 273e e8d4 ce3d c7fd e63d
000001d0: 28e5 0939 e2e1 c4bd 4f02 0c3d 8c98 eabb
000001e0: 0e17 1dbe f654 c0bd 247b f03d 7e8e bb3d
000001f0: 7c98 cf3d d31c 0f3d d1c1 8e3d c740 80bd
00000200: cc22 60bd 3e22 60bd ae5a d23d c7ee 82bd
00000210: be7c eb3d 475d c7bc 7370 47bc 82d8 f2bc
00000220: a93e bbbe 96ab ab3d 01f6 2ebc f160 00bd
00000230: d727 503e 0e34 863d acf6 d13d d5bb 863e
00000240: c2ad f0bc 117d ca3d 4d8f d8bd 2d48 5d3d
00000250: c2f6 de3d fcb4 ec3c 9268 613c 694a 2bbb
00000260: eb3d 0a3d e1fc e5bd 3692 6c3d 2714 903c
00000270: 3130 073e 8bc1 38be 616a 313e 248b a5bd
00000280: 09a6 35be 19b4 fa3d a339 b9bd e098 923d
00000290: 1f67 87bc eb6a 1c3e fd16 8dbc 09c0 2cbe
000002a0: 0ac7 8f3d 627e 093e a5ef 2dbd 6473 6ebe
000002b0: e3f8 6439 2689 c53d f436 863d 4af9 81bc
000002c0: deba 7fbd dc11 8c3c b7ca 3ebe 651e f8bb
000002d0: 9d7a d63d 1be3 09be 1ebe 1f3d b502 7b3c
000002e0: 9150 1f3d 6584 72bd b917 043c d8bb b8bd
000002f0: 4c61 a03c 1508 04be 85e7 043e fa5a 13be
00000300: 75b2 c0bd effd 013e 6657 983e 96a2 6cbe
00000310: 5cae aa3d 6908 dcbc 6069 283e 8f87 273e
00000320: 0407 5e3e 3c47 513b c8ec 17bd c98b f3bd
00000330: 592c 75bd be68 90be d2fd 903d fbd9 4bbe
00000340: 0b85 1bbd 1e2e 5b3d 9324 0d3e 3202 cf3d
00000350: 9460 adbd b9a8 b73d 46dc 5a3e e607 063e
00000360: 5ad2 b53d 0cd7 733d 5df7 91be 4fb2 9a3c
00000370: 63c9 4f3e 1c5d 163e 2b88 8e3e 922d a13c
00000380: c37e 7c3d f5f4 973d 443b edbc 75fc 9dbd
00000390: a625 d33d 102f 203b 2f10 06be c168 d5bc
000003a0: 8d22 2ebe be52 37be 0ea9 10bc 8a8a 8dbd
000003b0: 5c38 04bb b729 64bc 1372 f53c c248 2fbe
000003c0: 4dea fbbc fea5 9cbd 1252 193d 5ead 27be
000003d0: a3d0 7bbe 600b d9bd f7e5 83bd dd18 873e
000003e0: a8c6 233e 57a6 66be 2091 e73c de76 d2bd
000003f0: a05b 803d 8e77 94bd c00e 06be dae2 833d

bias f4 [6]
-0.097453795 -0.16111845 -0.20464812 -0.12437411 -0.11671329 -0.03714397
00000000: db95 c7bd 3cfc 24be 478f 51be dab7 febd
00000010: 6107 efbd 4724 18bd

weight f4 [5, 2646]
0.00068481936 0.06551525 0.09353942 0.086248934 0.103310466 0.13733187 0.11788802 0.03762465
0.10958359 0.03870142 0.08790733 0.024563368 0.06785795 -0.078582995 -0.09486539 -0.10097348
-0.08482226 -0.07725875 -0.15652898 0.08422175 -0.08340844 0.06458396 0.027392508 0.10834075
-0.00533285 0.0040564104 0.10818952 -0.042381905 -0.09725473 0.092517994 -0.023450062 -0.12975939
-0.040724218 -0.16267169 -0.13575149 -0.07758682 -0.14567745 -0.052749366 -0.038797278 0.052727472
0.022514114 -0.044646345 0.1332675 0.07374464 0.08345491 0.056973044 0.053278342 -0.003093564
-0.0041402318 0.101034604 -0.058481347 -0.05350867 -0.06448207 -0.04441409 -0.096596025 -0.03912743
-0.00851184 -0.17102963 -0.058669716 -0.100596406 -0.044328053 -0.08356297 0.04280142 0.14173138
0.03063501 0.07475653 0.06491522 0.009715541 0.07845761 -0.024162803 -0.06418787 0.06827261
-0.1037417 -0.08467378 -0.0988465 -0.08433519 0.0062687155 -0.06589456 -0.03151532 -0.027875775
-0.0250848 -0.14763682 0.011640183 0.033440113 0.10942998 0.05864232 0.104536615 -0.057134278
-0.014041675 0.052978154 0.00026695698 -0.09252281 0.00675792 -0.04687459 -0.041805286 0.008376664
-0.074681096 0.018639043 -0.024271667 -0.10500142 -0.09112958 -0.09916813 -0.13150027 0.04824053
0.013760894 0.106173635 0.022220144 0.05523444 -0.08295804 0.0065076137 0.07359312 -0.06304777
-0.019682927 -0.069267966 -0.05493258 -0.06753885 -0.0411474 0.010595975 -0.07483908 -0.08393795
-0.09343687 -0.0504763 -0.1637846 -0.005717164 -0.0123355035 0.0031554129 0.0446242 0.010799521
0.14770184 0.03958024 -0.055563085 -0.053716417 -0.10576696 -0.10467816 -0.07405259 -0.052760698
-0.018387958 -0.08862777 -0.07101731 -0.059969682 -0.039086778 -0.0689633 -0.12380134 -0.06215646
-0.010201829 -0.06178678 0.012305287 0.027170213 0.020671932 0.074533455 -0.02098887 0.047280766
0.00573083 0.04722256 0.006025408 0.015909186 0.015743976 -0.037403267 -0.11069492 -0.07882227
-0.05506426 -0.06210214 -0.028574979 -0.05502152 -0.115069196 0.037875824 -0.004368722 0.00017865277
0.046190444 0.045611598 -0.01402378 0.017267862 -0.097918116 0.01095929 -0.039903767 0.07034193
-0.007274764 0.017750232 -0.08679855 0.0032786308 -0.027687825 -0.0772356 -0.08282379 -0.05205287
-0.022136156 -0.09477661 -0.07014811 -0.054630835 0.07109962 0.03064848 -0.041322768 0.006994655
-0.04495498 0.004075316 0.07218493 0.036275003 -0.05838494 -0.082159296 -0.07310667 -0.03651681
-0.029233076 -0.083857596 -0.06437356 -0.10816328 -0.08851396 -0.10647446 -0.072086245 -0.100073874
-0.030645162 -0.027968563 0.075793 0.026948636 -0.05146955 0.012786588 -0.0022917981 0.009080871
-0.008629754 0.06476485 -0.00047073545 -0.13738567 -0.031078584 -0.03597311 -0.03153553 -0.062855706
-0.06645934 -0.07810105 -0.05006482 -0.10824007 -0.08375379 0.022699144 0.011548423 0.07996195
0.1097789 0.08283561 0.07377136 -0.028338948 -0.09054725 -0.086115524 0.08356876 -0.036039382
-0.08089421 -0.051332787 -0.031515308 -0.057381768 -0.033673547 -0.05398243 -0.049291912 -0.08532521
-0.022757694 -0.04116442 0.011719449 -0.08371558 0.11696192 0.11058421 0.08285808 0.048537266
00000000: 7385 333a dc2c 863d 9891 bf3d 48a3 b03d
00000010: 7094 d33d baa0 0c3e 466f f13d 4e1c 1a3d
00000020: 5c6d e03d 6185 1e3d c208 b43d 1e39 c93c
00000030: 1cf9 8a3d 1ff0 a0bd c948 c2bd 2fcb cebd
00000040: 4bb7 adbd d639 9ebd 2249 20be 747c ac3d
00000050: 0bd2 aabd 9844 843d 4166 e03c c1e1 dd3d
00000060: 30bf aebb a3eb 843b 7892 dd3d a698 2dbd
00000070: 7d2d c7bd 137a bd3d 581a c0bc a5df 04be
00000080: 70ce 26bd 6893 26be 7002 0bbe d7e5 9ebd
00000090: 782c 15be b80f 58bd e5e9 1ebd c3f8 573d
000000a0: 856f b83c 16df 36bd 4777 083e 6e07 973d
000000b0: 68ea aa3d 915c 693d 643a 5a3d 64bd 4abb
000000c0: c8aa 87bb 3beb ce3d 238a 6fbd e82b 5bbd
000000d0: 2d0f 84bd 8deb 35bd 23d4 c5bd 1644 20bd
000000e0: 3f75 0bbc 6422 2fbe a84f 70bd 7d05 cebd
000000f0: 5591 35bd 1023 abbd 8b50 2f3d 0822 113e
00000100: 46f6 fa3c f419 993d 45f2 843d ef2d 1f3c
00000110: 62ae a03d 12f1 c5bc ee74 83bd 83d2 8b3d
00000120: 8776 d4bd 7269 adbd 0970 cabd eeb7 acbd
00000130: cc69 cd3b baf3 86bd 3516 01bd bd5b e4bc
00000140: a37e cdbc 1b2e 17be 77b6 3e3c 80f8 083d
00000150: d31c e03d ee32 703d 4b17 d63d a205 6abd
00000160: 0e0f 66bc 9fff 583d 5cf6 8b39 997c bdbd
00000170: 8b71 dd3b 92ff 3fbd 053c 2bbd 463e 093c
00000180: 67f2 98bd e8b0 983c 60d5 c6bc fc0a d7bd
00000190: 25a2 babd a918 cbbd 02a8 06be dd97 453d
000001a0: 5f75 613c 9071 d93d 0507 b63c 823d 623d
000001b0: e8e5 a9bd d23d d53b fdb7 963d 301f 81bd
000001c0: 173e a1bc 5ddc 8dbd fc00 61bd cf51 8abd
000001d0: 2d8a 28bd be9a 2d3c 3b45 99bd a9e7 abbd
000001e0: d45b bfbd 3dc0 4ebd 26b7 27be 0c57 bbbb
000001f0: da1a 4abc 0bcb 4e3b ddc7 363d 79f0 303c
00000200: 273f 173e e41e 223d 1e96 63bd bf05 5cbd
00000210: 599c d8bd 8161 d6bd e2a8 97bd 9a1b 58bd
00000220: 58a2 96bc 7a82 b5bd 8671 91bd c5a2 75bd
00000230: 7519 20bd a13c 8dbd 8f8b fdbd c697 7ebd
00000240: 9225 27bc 2214 7dbd 1d9c 493c 1194 de3c
00000250: 2f58 a93c ffa4 983d daf0 abbc 7aa9 413d
00000260: b0c9 bb3b 716c 413d c970 c53b fb53 823c
00000270: 83f9 803c 2b34 19bd 05b4 e2bd 926d a1bd
00000280: 108b 61bd d05e 7ebd 1316 eabc 3f5e 61bd
00000290: 66a9 ebbd ae23 1b3d 7f27 8fbb bd54 3b39
000002a0: 3132 3d3d 3ad3 3a3d ffc3 65bc 5575 8d3c
000002b0: 4b89 c8bd 988e 333c 2272 23bd 6e0f 903d
000002c0: 2561 eebb ef68 913c 70c3 b1bd 4cde 563b
000002d0: 94d1 e2bc b32d 9ebd 859f a9bd 6435 55bd
000002e0: e256 b5bc 3d1a c2bd d0a9 8fbd 95c4 5fbd
000002f0: ad9c 913d 8512 fb3c 1042 29bd 6b33 e53b
00000300: b722 38bd 3a8a 853b b1d5 933d 1995 143d
00000310: 0c25 6fbd 2243 a8bd f3b8 95bd a792 15bd
00000320: 347a efbc 88bd abbd 49d6 83bd b684 ddbd
00000330: cf46 b5bd 480f dabd f4a1 93bd 88f3 ccbd
00000340: 900b fbbc 541e e5bc 5c39 9b3d 63c3 dc3c
00000350: bcd1 52bd d67e 513c fe31 16bb efc7 143c
00000360: d063 0dbc 6fa3 843d 0bcd f6b9 d4ae 0cbe
00000370: 8498 febc 8a58 13bd 662b 01bd 7eba 80bd
00000380: d61b 88bd 71f3 9fbd c510 4dbd f8ac ddbd
00000390: 1b87 abbd 8ef3 b93c 9935 3d3c 17c3 a33d
000003a0: c3d3 e03d b7a5 a93d 7015 973d 1527 e8bc
000003b0: d670 b9bd 565d b0bd 1926 ab3d 089e 13bd
000003c0: ddab a5bd 5442 52bd 3216 01bd 2509 6bbd
000003d0: 46ed 09bd ae1c 5dbd 51e6 49bd fcbe aebd
000003e0: 586e babc 069c 28bd ef02 403c 1373 abbd
000003f0: bb89 ef3d f979 e23d 7fb1 a93d 03cf 463d

bias f4 [5]
-0.07700324 -0.00515999 0.006214803 0.06140804 0.033322416
00000000: e0b3 9dbd 2215 a9bb 8ca5 cb3b ff86 7b3d
00000010: 167d 083d
