archived_data/old/b1_r0_m10_s100--2019-01-09--142900.815233/episode_0.model (torch_old, 70087 bytes, 8 tensors)

weight f4 [6, 6, 3, 3]
00000000: 4ae1 073e ec72 63bd 60c6 09bd 96d2 043e
00000010: 17e2 f4bd 8418 fd3d 4a2d ac3d f0f8 9fbd
00000020: c72d 82bd d04b d33d 601e 1f3c cbd0 9ebd
00000030: 007d 41bb 8024 56bb d07d a2bd 7412 593d
00000040: 1493 283d e4f0 253d 907f e7bc 4e01 56bd
00000050: 143b 0abe 00c1 fa3d becd cdbd 942a 6fbd
00000060: c015 813d dba5 d3bd 8228 bbbd d035 863c
00000070: 4494 ddbd 80ac 383c 608a 8abb 78f7 7ebd
00000080: daa3 40bd 1aab d0bd 803c 0ebd 5496 64bd
00000090: 5488 a1bc 261c e63d ac79 493d 58c5 b83d
000000a0: 0a0b bfbd 02b2 9b3d 3025 563d 65a8 f0bd
000000b0: 6071 1ebc 6cdc 00be fa03 e8bd eccd c1bd
000000c0: 04e9 6c3d 085e c73d 184c b1bc 5830 56bd
000000d0: c662 64bd c040 c43c bc14 8e3d b613 afbd
000000e0: 5f0a 97bd 575c edbd d064 083e c8e5 323d
000000f0: f506 f6bd 7288 ebbd 72fe 96bd 108b 6abc
00000100: 3dc3 85bd 4068 003c da2b 09be fc05 cabc
00000110: 00cd 2a3b 3eee 873d 2f91 f3bd b04f e53d
00000120: 32ea 74bd e2c1 d53d 6891 d03c c039 7bbb
00000130: 1ad5 50bd 1d57 9dbd 5649 d73d 9082 da3c
00000140: 5adb 8bbd 8719 9dbd a4a5 913d ddd0 04be
00000150: 7fcf d6bd e00d 003d c8e0 f73c a87e 003e
00000160: 0c87 f9bd b28b 84bd 405e b53d 6083 aabc
00000170: 6aa0 d0bd 4c9e 113d da19 00bd 14de 09be
00000180: 2401 b63d 1e97 00bd 6488 ec3d 3035 c93c
00000190: f2c4 b7bd 38ab 043e ee7b 9abd 9eeb a23d
000001a0: 6e0b 32bd 16d6 f9bd c0cd 4f3b f8a4 003d
000001b0: afb2 dbbd acae e93d 5e05 e43d c001 a83d
000001c0: 90ca 3c3d c807 df3d cebd d0bd b68f d0bd
000001d0: c470 973d c64e 83bd 92c6 89bd 7889 673d
000001e0: da54 973d 30cc 623c b464 823d c6a2 953d
000001f0: a06c e93b 1036 453d 54a1 da3d 28e3 8f3c
00000200: 7cf5 623d a836 af3c 5840 693d 0029 c63d
00000210: 506b 093e 103e b9bc 1c51 b2bd 449f 85bc
00000220: e044 0a3c 78ad 0cbd 7050 85bd d6be 8c3d
00000230: b068 c4bd 71b8 abbd 28e4 1f3d 9c9b fe3d
00000240: 718f ffbd 181a 41bc ba8b 083e 1015 013e
00000250: 82ac 9fbd e2da 0a3e 8878 b83d 886c c43c
00000260: 4c89 c43d 4a9f 52bd e412 fa3d 4c06 ee3d
00000270: 801b 30bc 50ba 0bbc d85b c03d b067 1a3c
00000280: a029 aa3d 1612 883d a0be f1bb 70bc 4f3c
00000290: 2865 e33d 0c92 0f3d 2238 063e 6b5f dfbd
000002a0: b0c5 fa3d 908f c4bd a05f 093c 1231 823d
000002b0: 9a73 e8bd fcd2 f43d 7c53 17bd d1de b4bd
000002c0: e743 9cbd 6479 c0bc 1e98 3abd 8ce5 fbbc
000002d0: 103c e43d 3ad6 53bd 40fd cc3c 2e7f 05bd
000002e0: 3814 1c3d 7e34 c23d a2ae 58bd 24f7 b53d
000002f0: e819 0b3e 30d0 133c 8296 d83d 88a6 393d
00000300: 4ec8 913d f433 673d d8fd b6bd 507f c63d
00000310: 1afa 053e 66f1 d1bd 2cdb eabd 9648 9e3d
00000320: f428 89bd 3457 6f3d 0839 1f3d f833 f5bd
00000330: 54c5 edbd faaa 40bd 000c 913d e8be 143d
00000340: 78ac fcbd fa27 04bd b855 ee3c 7073 51bd
00000350: 7062 2bbc 584a 02be c01a 08bc d0c1 a03d
00000360: 8435 413d 2c93 e63d 0038 01bc 3cbd fa3d
00000370: f6eb ce3d f0f0 6e3d f4f7 8b3d 202a 3f3d
00000380: 3ecf 67bd 9cb7 babc e34d c1bd 50db 9cbd
00000390: a020 6e3d 00cd 6eba 3c08 15bd 1851 69bd
000003a0: bcc5 143d d834 1dbd 80a0 c0bb fc23 e1bd
000003b0: b0bf e93c b01b f93c f6d9 d5bd 104c 9f3c
000003c0: a459 d4bd 943f 07be d4cb ce3d 175e 96bd
000003d0: 3c8e d3bd a888 3c3d 439e d0bd 8821 823d
000003e0: 7de3 a4bd 40e2 35bd 40a9 e3bb 38f1 923c
000003f0: 9e8f 92bd 244a 503d 1a7b 9a3d 6aee cf3d
0.13269535 -0.05552952 -0.03363645 0.12970957 -0.11957186 0.123581916 0.08407076 -0.07811153
-0.063563876 0.103171945 0.009711832 -0.07754668 -0.0029523969 -0.0032675564 -0.07934153 0.052996114
0.04115589 0.040512934 -0.028259069 -0.052247338 -0.13499099 0.12243843 -0.10049008 -0.058390215
0.063029766 -0.10334369 -0.091385856 0.016383082 -0.10819295 0.011271596 -0.0042279214 -0.062247723
-0.04703126 -0.10188885 -0.034725666 -0.055807427 -0.019718327 0.11235838 0.0491883 0.09022015
-0.093282774 0.07602312 0.05228156 -0.11750869 -0.009670585 -0.12584084 -0.113288835 -0.094631046
0.05783941 0.09734732 -0.02164273 -0.052292198 -0.05575826 0.023956656 0.069375485 -0.085486814
-0.07375025 -0.11589878 0.13319707 0.043676168 -0.12013046 -0.11500634 -0.0737275 -0.014315382
-0.06531379 0.007837355 -0.13395634 -0.024661057 0.002606213 0.06637238 -0.11892926 0.1119684
-0.05979366 0.10437371 0.02545996 -0.0038333982 -0.05098448 -0.07682631 0.105120346 0.026673585
-0.06828947 -0.076708846 0.071116716 -0.129703 -0.104887955 0.031263232 0.030258551 0.12548316
-0.12183961 -0.06471957 0.088558674 -0.020814598 -0.101868466 0.035551354 -0.031274654 -0.13463622
0.08886936 -0.031394117 0.11549452 0.024561495 -0.08973111 0.1295594 -0.07543169 0.07955097
-0.04346793 -0.12199037 0.003170833 0.031407326 -0.107274406 0.11410269 0.11133836 0.08203459
0.046091616 0.10890156 -0.10192452 -0.10183661 0.07394555 -0.06411509 -0.067273274 0.056527585
0.07389231 0.013842627 0.06366864 0.07306437 0.007123545 0.04814726 0.10675302 0.017564371
0.055409893 0.021388367 0.05694613 0.09675789 0.13419843 -0.022612602 -0.08706877 -0.016311295
0.008439273 -0.03434512 -0.06509483 0.068723366 -0.0959028 -0.08384789 0.039035946 0.12432024
-0.12478531 -0.011786006 0.13334551 0.12605691 -0.07796575 0.1356006 0.090073645 0.023977533
0.095965 -0.05142144 0.12210634 0.11622295 -0.010748744 -0.008528307 0.09392518 0.009424135
0.083087206 0.066440746 -0.0073774606 0.012679204 0.111032784 0.03505139 0.1310735 -0.109068714
0.12244737 -0.09597695 0.008384615 0.06357016 -0.11350174 0.119543046 -0.03694485 -0.08831561
-0.07630139 -0.023495384 -0.045555227 -0.030749105 0.111442685 -0.051717974 0.025023103 -0.03259199
0.03810522 0.09482668 -0.052900918 0.08885029 0.13584101 0.009021804 0.10575582 0.045324832
0.07118283 0.05644603 -0.089351356 0.09692252 0.13083687 -0.10251121 -0.11467585 0.077286884
-0.06697264 0.058432773 0.03887275 -0.11972803 -0.11609903 -0.047038056 0.07082367 0.036314875
-0.12337583 -0.032264687 0.029093608 -0.05113548 -0.010460481 -0.12723672 -0.008307159 0.07849467
0.047170177 0.112585396 -0.007886887 0.12243125 0.101036 0.058335245 0.06834403 0.046671033
-0.056594126 -0.02279263 -0.09438684 -0.07659018 0.058136582 -0.0009109527 -0.036384806 -0.056962103
0.036321387 -0.038380474 -0.005878508 -0.109931916 0.028533787 0.03040871 -0.104419634 0.01944545
-0.1036866 -0.13207847 0.10097471 -0.07342165 -0.103298634 0.046028763 -0.10186436 0.06354052
-0.080512024 -0.044405222 -0.0069476664 0.017937288 -0.07156299 0.050851956 0.07543011 0.10152896

bias f4 [6]
00000000: a01b 11bc 6acc 073e 546e 543d 1ebf d3bd
00000010: d638 e83d 6ad9 d73d
-0.008856684 0.13261572 0.05186303 -0.10339187 0.113389656 0.10539515

weight f4 [6, 6, 3, 3]
00000000: 200c 913d 524e 69bd 1004 07be 9a08 05bd
00000010: 3cc1 073e 8e35 63bd 304d 953d dec3 c83d
00000020: ca40 d1bd c415 583d 1093 6b3d e2bf a23d
00000030: a826 ac3d e09a b0bb e7e1 f5bd e0ec 2c3d
00000040: 64ce 993d 2023 6ebd 1e5c dbbd 4db9 aebd
00000050: ea9a be3d 7c9a 09bd 00b8 5dbd 20cd c6bd
00000060: 4c36 c4bc a40b a1bc ee6d 35bd 24a0 ddbc
00000070: a0c3 fabb 40a7 83bb fe2e 2fbd 463a 9dbd
00000080: e003 cbbc 3456 3c3d 0c30 9e3d f0eb 2b3d
00000090: 789a f63d 4611 c03d 9037 f63c f8da fd3c
000000a0: ca5c babd 30ee 583d 0056 003e 96bf d53d
000000b0: 01d1 f1bd 4833 263d 70ea 6d3c ce0c bc3d
000000c0: 045f c93d dcaf 4e3d 2616 e73d 9658 a93d
000000d0: e86a 3f3d 7088 273c c2c0 20bd 76a5 e33d
000000e0: 34d2 db3d dcfe d1bd e033 8bbb 7041 a73c
000000f0: 9617 e13d 0055 f23c c071 903c 34fb efbd
00000100: 1896 703d 50fe fb3d 0068 e03c c492 7f3d
00000110: 5a34 8e3d b7c5 81bd 006f 223d 68d4 f53c
00000120: c00f a2bd e6bd 06be 62d1 03be defd 1cbd
00000130: dc73 9dbd 06ff cdbd a206 e13d d0fb a73d
00000140: 8c9d 053d 80ff 743b 70e4 473d e813 823c
00000150: 7051 7f3c 9afc e4bd b8eb 9a3d 9624 003e
00000160: 84ef 91bd 18e6 c0bc f893 8c3d 6d49 a7bd
00000170: a332 8dbd 5098 033e 99bd 00be a41e 613d
00000180: cc6c dc3d 1282 d93d f4da f4bd 34a3 e03d
00000190: d803 b13d c692 9e3d b0d3 3d3c a42a 7c3d
000001a0: 1caf a8bd da10 073e d4e2 e5bc 2045 37bc
000001b0: 5c39 b43d 0056 febd e2b9 ce3d 3815 e2bd
000001c0: 0049 c53a 6a5e 99bd 5eb8 c8bd 4c5a 9d3d
000001d0: 60a3 8f3d 9056 64bc dad0 083e a060 99bb
000001e0: 1812 d0bc d2c8 f7bd 9643 e63d 8fa4 80bd
000001f0: e420 e6bd 982d efbc 3070 5e3d 34e1 7a3d
00000200: 50e8 b23c d19a 90bd a882 bb3c 98a4 a63d
00000210: 8858 9c3c 0db2 d7bd 0a58 32bd 70bf 163c
00000220: 64ab a33d 70d5 443d cf91 cabd 001a d4bd
00000230: 6493 fe3d cf8e 02be 1cff 0d3d def1 d9bd
00000240: f0e3 80bd 84d3 0abd f8fa 753d 8418 c7bc
00000250: f482 b1bd 721b bcbd a3f1 dfbd e63f 0bbe
00000260: 687e ba3c e877 a03d a234 e83d c4e8 b2bd
00000270: c094 173c 84fa 623d 7627 ae3d 76a6 30bd
00000280: 0cd1 193d 04a1 e3bd c347 8bbd f508 d8bd
00000290: 6224 d43d b07d f23c 464f f5bd a4fe 213d
000002a0: 8849 96bd 707e 583c 70c7 31bd 8c92 f0bd
000002b0: 5468 a6bd f288 acbd f6fb efbd b6ef b53d
000002c0: d3b6 81bd a2b5 81bd 40aa cc3d 1c4e 88bc
000002d0: 1fa8 d8bd e8e2 e1bc 84f1 9a3d 7029 043d
000002e0: 8093 2cbc 2c90 3d3d d03b c53d 185f 4a3d
000002f0: f045 c93d 0ca0 d13d d2ff dbbd 3035 f23d
00000300: c09d 703b 1b44 93bd 64ea 1e3d 400c 35bc
00000310: e287 99bd 602c fbbd f629 7abd 8ed0 9f3d
00000320: ace4 f9bd 40a5 7e3b e0ae 663c 0053 e0bc
00000330: f2e4 63bd 5cf2 8a3d 3562 80bd 0032 913a
00000340: 6c2a bebd 6624 e53d 7089 02bc 10cf aebc
00000350: 1043 c63c da30 0cbd de51 943d 7ebb af3d
00000360: 683e 533d 5c26 89bd 08d6 e5bc d8d1 9cbc
00000370: 725c 00be 8a69 083e 12de 68bd 0ada aa3d
00000380: d45d 003d fc32 f43d a45a 0e3d cc49 0b3e
00000390: 864a c33d 0691 98bd 80c4 c8ba a61d 50bd
000003a0: dc77 09be 6186 84bd d29e 033e 981e 033e
000003b0: 5266 57bd a0f0 b53d 584b 033e 7489 603d
000003c0: d0e0 02be aa39 c2bd 1809 123d bc5a efbd
000003d0: fc48 edbd 5e13 73bd 8ce9 643d 024c 55bd
000003e0: 5c5f cabc 4a5a 8d3d 5aa8 ffbd cc34 3d3d
000003f0: 4085 82bc ae46 bc3d 3a27 cc3d a22d 70bd
0.07082391 -0.056959458 -0.13185143 -0.032478906 0.13257307 -0.055470996 0.07290113 0.09802984
-0.10217436 0.052755132 0.057513297 0.07946755 0.084058106 -0.0053895563 -0.12005978 0.04221809
0.07510069 -0.058138967 -0.10710929 -0.08531437 0.09306891 -0.033594593 -0.054130554 -0.09707093
-0.023951672 -0.019658871 -0.04429429 -0.0270539 -0.007652715 -0.0040177405 -0.042769425 -0.076771304
-0.024782121 0.045980647 0.07724008 0.041973054 0.12041181 0.09378295 0.030055791 0.030988201
-0.09099729 0.05296153 0.12532806 0.10436933 -0.118074425 0.04057625 0.014521226 0.0918213
0.09832576 0.05046068 0.11283521 0.082688496 0.046732813 0.0102254 -0.03924633 0.111155435
0.107334524 -0.10253689 -0.0042481273 0.020416945 0.10990827 0.029581547 0.017632365 -0.11717835
0.05873689 0.12304366 0.027393341 0.062395826 0.06943579 -0.06336539 0.03965664 0.03000851
-0.0791316 -0.13158378 -0.12872842 -0.038328044 -0.07688114 -0.100584075 0.10987593 0.08202326
0.03262095 0.0037383735 0.04880184 0.015878633 0.015583381 -0.111809924 0.07564491 0.12513956
-0.07125762 -0.023547217 0.0686416 -0.08168302 -0.06894424 0.12851071 -0.12572326 0.05496086
0.10762939 0.10620512 -0.119558245 0.109686285 0.08643311 0.077428386 0.011586115 0.061564103
-0.082365245 0.13190022 -0.028062262 -0.011185914 0.08800003 -0.12418747 0.10094048 -0.110392034
0.0015051663 -0.07488711 -0.0980079 0.076832384 0.07013583 -0.013936654 0.1336092 -0.004680708
-0.025399253 -0.1209885 0.1124336 -0.06281387 -0.11236742 -0.029196545 0.05430621 0.061249927
0.02183929 -0.07060779 0.02288945 0.081368625 0.019085184 -0.10532007 -0.04354099 0.009200916
0.079916745 0.048055112 -0.09891092 -0.103565216 0.12430456 -0.1274979 0.03466712 -0.10641836
-0.06293476 -0.033893123 0.060053796 -0.024303682 -0.086675555 -0.09184922 -0.109347604 -0.13598594
0.022765353 0.0783537 0.11338164 -0.08735803 0.009251773 0.05541469 0.0850362 -0.0431275
0.03755288 -0.11114696 -0.06800797 -0.105485834 0.10358502 0.029600948 -0.11978011 0.039549485
-0.07338244 0.013213739 -0.04340309 -0.117467016 -0.08125368 -0.08424558 -0.117179796 0.08883612
-0.06333699 -0.06333472 0.0999341 -0.016638808 -0.105789416 -0.027574018 0.07565597 0.03226608
-0.010533214 0.04628007 0.09630549 0.049407095 0.09827793 0.10235605 -0.10742153 0.11826551
0.003671512 -0.071907245 0.03879775 -0.011050284 -0.07496621 -0.12264323 -0.061075173 0.078034505
-0.12201819 0.003885582 0.014079779 -0.027383327 -0.05563826 0.06784508 -0.062687315 0.0011077523
-0.09285435 0.11188583 -0.007967338 -0.02133897 0.0242019 -0.034226276 0.072421774 0.08580683
0.051573187 -0.066967696 -0.02805616 -0.01914303 -0.12535265 0.1332151 -0.056852408 0.08342369
0.03133948 0.11923787 0.03475441 0.1360237 0.095356986 -0.07449536 -0.0015317351 -0.050809525
-0.13424629 -0.06470943 0.12853554 0.1280464 -0.052587815 0.08883786 0.1282171 0.054818586
-0.12781072 -0.09483655 0.035653204 -0.11687228 -0.11586186 -0.059344642 0.05588679 -0.05207444
-0.024703674 0.06901987 -0.124832824 0.04619293 -0.01593268 0.091931686 0.099684194 -0.05863727

bias f4 [6]
00000000: b090 33bc ec65 3b3d e060 7e3d 744e ec3d
00000010: 70ee fb3d 3862 963c
-0.010959789 0.045751497 0.062104106 0.11538401 0.12301338 0.018357381

weight f4 [6, 6, 3, 3]
00000000: 38d0 ebbc bcb8 b53d 7ea8 52bd 24f9 983d
00000010: d11d f4bd a45f 073e c606 45bd a050 bebb
00000020: afac f2bd 650c 97bd bc09 fcbc 0410 133d
00000030: 210f 90bd da92 92bd 6416 52bd 0011 b83d
00000040: 860d bc3d 78e9 e1bc e0e8 a5bb 0ee4 d63d
00000050: 0d3b d2bd 005c 1bb9 b81e d7bc c0b6 363b
00000060: 4cb4 f73d b60c a43d 3ac9 0ebd b4dc d23d
00000070: 6f86 bcbd 35cb 8cbd 9287 db3d 060c 9cbd
00000080: acd2 573d 6cbe 9cbc 98ac eb3c 9ed3 903d
00000090: e8d4 b73d c491 ecbc 16ce 4cbd d493 dc3d
000000a0: dc13 fe3d 206c f0bc a0c2 eabd 6884 053d
000000b0: 04c9 c03d 64ca 08be e6ad 9d3d 1a78 843d
000000c0: 6672 b5bd a4ca 623d a2a3 d13d 5216 a3bd
000000d0: d0fb 2e3c 6416 3dbd 9c6d e93d 40cc fc3c
000000e0: ca61 c93d 1cb8 bdbc 342a a53d a013 303d
000000f0: f29b bc3d 6605 58bd dc18 163d dcdf 043d
00000100: 2452 27bd 3848 a93d 7664 42bd eccd fc3d
00000110: d865 f93d 96d5 48bd f46c b33d f038 273d
00000120: 2cc5 58bd 0840 083d 8ada 983d 2ea0 083e
00000130: 5c43 5c3d f644 57bd 3cb2 aabd 809e 873c
00000140: 001a 51ba 5003 92bc 109c 733d 2cc0 b53d
00000150: 22e9 83bd 601a fb3d f471 82bd a49d ba3d
00000160: 6f42 ccbd 6e33 ebbd 362d 18bd 985a e8bc
00000170: 86bd cdbd 3043 213c 98b7 f43c 4078 c53c
00000180: 408a 1bbb 7613 92bd 6011 e23c 2c28 febd
00000190: 42dd a6bd fafe 8b3d e62f 24bd e0f8 d83c
000001a0: 494d d2bd 7698 41bd a8ab fdbc 6ecf c03d
000001b0: 802c 403d 40cc 2bbd 08b5 95bd 001b f53d
000001c0: 60ec e33b 80d7 9c3d 7056 943c 5497 493d
000001d0: 88ec b83d 102d a3bc a8d1 dc3d e051 03be
000001e0: 90a2 1c3d d2ad 89bd 2069 c33d 422b 9abd
000001f0: 5c31 6a3d 184b 8ebd 80c9 95bc a889 033e
00000200: 8813 ad3c fad2 04be 58c1 9cbc b05f a33c
00000210: 465e 82bd c0fc 883d 4cc0 283d 6a9a 47bd
00000220: 78eb d73c 6291 3ebd b0a5 c9bd d41f e03d
00000230: 6001 9fbb 9ee2 e2bd 5ee5 bf3d 0b08 c4bd
00000240: 9453 f03d b899 953d 1e1b 97bd c8f2 b03d
00000250: 58aa d7bc ca0c 09bd c4f0 b7bd 20b5 90bc
00000260: 85af eebd a057 99bb c624 dc3d 8e2a d43d
00000270: 485e 8cbd 1816 8f3d a478 1bbd 08cb c13d
00000280: 0cf7 4a3d 50f9 0bbc 0656 a03d 84c8 fa3d
00000290: 40cf 53bd 4022 17bc 66ff a53d c65c 993d
000002a0: bb39 e2bd 4039 05bd 00be f33a 4e67 b1bd
000002b0: 3027 fb3c 8094 623b d27c 003e 7c53 c33d
000002c0: 802f c5bc a0cd 1f3d 0b71 05be 5eb7 85bd
000002d0: badd 00bd c0cc 573b 7070 be3c d0e6 383c
000002e0: 3048 2c3d da24 bb3d 203a 9bbb 7c8a 99bd
000002f0: c0d3 e73d 3b2b 83bd 5894 b43c 58ed 9ebd
00000300: 968e 8a3d 8a06 053e c6cb 873d e003 10bc
00000310: fcbb 82bc 70b9 6e3d 527f bd3d 58c5 db3c
00000320: 1038 44bd fc09 42bd bcd8 8d3d 189d 6a3d
00000330: dedc bc3d deb4 c93d b0ea e83c 70cc 72bd
00000340: f8a2 283d a252 e3bd 7a8a d7bd 6a34 df3d
00000350: 502e eabd ccaf a63d 9eec 6cbd 9432 2f3d
00000360: 1790 9abd 76e6 84bd 7e7d 66bd 7e5e f6bd
00000370: f630 3dbd 0a1c 083e 8c99 d63d 505b b6bd
00000380: 4cb4 cbbd 1806 01bd 373c babd fc68 ebbd
00000390: 2afc d23d 0ced 02bd 7036 cabd a063 e03d
000003a0: 4401 a8bd 9b76 06be 0ced 953d d43a a9bc
000003b0: a4fa 2bbd 134b eebd a0a1 1a3d eee1 c0bd
000003c0: 320b b53d ba27 04bd ec0c 173d 6262 033e
000003d0: b054 d73d ca34 abbd 265a a3bd a80b 87bd
000003e0: 6e44 3bbd 6053 333d 7ca9 31bd c015 ce3d
000003f0: 78d3 883d 2813 cabd fd27 99bd f685 c8bd
-0.02878581 0.08873126 -0.051430218 0.07469395 -0.119197495 0.13220078 -0.048102163 -0.005807951
-0.11849343 -0.07375411 -0.03076636 0.035903946 -0.070341356 -0.07156916 -0.051290885 0.089876175
0.09182267 -0.027577147 -0.0050631613 0.10492717 -0.10265169 -0.00014816225 -0.026259765 0.0027879924
0.12094936 0.08010237 -0.034859873 0.10296002 -0.09205329 -0.06874696 0.10719217 -0.07619481
0.052691147 -0.019133769 0.028768823 0.07071613 0.089761555 -0.0288781 -0.050001226 0.107703835
0.124061316 -0.029348433 -0.11462903 0.032596976 0.09413341 -0.13358456 0.07699184 0.0646822
-0.088597104 0.055369034 0.102362886 -0.07963242 0.010680154 -0.04616393 0.113978595 0.030859113
0.09833105 -0.02315908 0.0806469 0.042987466 0.09209432 -0.052739523 0.0366448 0.03244005
-0.04084982 0.08265728 -0.04745909 0.12343964 0.12177628 -0.049031816 0.087610155 0.040825784
-0.052922413 0.03326419 0.07463558 0.13342354 0.053775176 -0.052556 -0.08334777 0.01655507
-0.00079765916 -0.017823845 0.059475005 0.088745445 -0.06440951 0.1226089 -0.06369391 0.09112099
-0.09973609 -0.11484419 -0.03715249 -0.028363511 -0.10045914 0.009842679 0.0298727 0.024105191
-0.0023733526 -0.07132618 0.027596176 -0.12410006 -0.0814767 0.06835742 -0.040084742 0.02648586
-0.10268647 -0.04726454 -0.030965641 0.09414564 0.04691744 -0.041942835 -0.073099196 0.119680405
0.0069556683 0.07658291 0.018107623 0.049216583 0.0902949 -0.019918948 0.10782176 -0.12824202
0.03824097 -0.06722607 0.095415354 -0.07527782 0.05717598 -0.06947917 -0.01828456 0.1284548
0.021127477 -0.12971106 -0.019135162 0.019943088 -0.063656375 0.06688833 0.041199014 -0.048731245
0.026357397 -0.046525367 -0.098460555 0.10943571 -0.004852459 -0.1107838 0.0936992 -0.095718466
0.11734691 0.0730471 -0.07378219 0.08640057 -0.026326343 -0.033459462 -0.08981469 -0.017664492
-0.116545714 -0.004679635 0.107492015 0.10359679 -0.0685392 0.06986636 -0.03795685 0.09462553
0.04955201 -0.008543327 0.07828908 0.122452766 -0.05171132 -0.009224474 0.08105354 0.07488398
-0.110461675 -0.0325253 0.0018596053 -0.08662282 0.030658334 0.0034573376 0.12547615 0.09537408
-0.024070501 0.03901446 -0.13031404 -0.06529115 -0.031461455 0.0032928437 0.023246974 0.011285499
0.04206103 0.09137888 -0.0047371536 -0.07497117 0.11319685 -0.0640473 0.022043392 -0.077601135
0.06765477 0.12990776 0.066306636 -0.008789986 -0.015958779 0.058282316 0.092528 0.0268275
-0.047905028 -0.047372803 0.069261044 0.057278723 0.092218146 0.09848951 0.02843222 -0.059276998
0.041171044 -0.11099745 -0.10524459 0.10898669 -0.11434615 0.08138999 -0.057842843 0.042772844
-0.07547014 -0.064892694 -0.056272022 -0.12029742 -0.04618927 0.13291946 0.104785055 -0.08904135
-0.09946498 -0.031499952 -0.09093516 -0.114946336 0.10302003 -0.031964347 -0.098736644 0.10956502
-0.082033664 -0.13131182 0.07320604 -0.020657934 -0.041987076 -0.11635413 0.037751794 -0.09418093
0.08840026 -0.03226445 0.036877558 0.12830499 0.105142 -0.08359678 -0.07976179 -0.0659402
-0.045719557 0.043780684 -0.043374524 0.10062742 0.066809595 -0.09866935 -0.0747833 -0.09791176

bias f4 [6]
00000000: 40ef f6bc 7ac4 72bd 86f5 f2bd 409b 91bb
00000010: 203f eb3d bcc6 ecbd
-0.03014338 -0.059269406 -0.11863236 -0.004443556 0.114866495 -0.11561343

weight f4 [5, 2646]
00000000: f04c 76bb 8cf4 9a3c 4765 2abc ca37 cabb
00000010: e4c3 4d3c 0805 943c c834 46bb b0f2 153c
00000020: 9011 9d3c 5888 0abb 00dc 7c3c 804c 0f3a
00000030: 0069 803a 24ab 6c3c 7422 38bc d077 cb3b
00000040: 5826 a13b 801e 293b 68a9 59bc 8034 b83b
00000050: dc5c 92bc dc6c 9ebc e0b7 b13b 257d 09bc
00000060: 84b2 8f3c b012 8b3b f476 af3b f818 9dbb
00000070: f22f 973c 2c83 d83b 28fb 343b 5037 3f3c
00000080: b4ac 6b3c 20ce 143a b2a1 6bbc 3c45 ac3b
00000090: 78a1 903c ab7b 2dbc 789c 523c f2c2 51bc
000000a0: 505c 23bc 4f7e 9abc 9a77 90bc c007 493c
000000b0: a274 02bc 9c86 11bc 409b ceb9 1a2a 1f3c
000000c0: 60e6 373c c8cd aa3b c886 27bb 845c 52bc
000000d0: 61ed 96bc 6005 47bb fc24 0e3c 8294 57bc
000000e0: 9232 e5bb 14f5 86bb 38c1 163b a0a4 063b
000000f0: d032 783c 00e8 7739 964a 8e3c d360 28bc
00000100: cefc 90bc 22e9 61bc b2e0 33bc cacc 91bc
00000110: 23ae 26bc 9069 caba b4b3 6a3c 2090 7abb
00000120: 40cf 9bba 3a4d 383c 822c c6bb 80f1 98b9
00000130: 0cf3 333c d3c6 0abc e30d 0abc 006a f3ba
00000140: 1246 44bc cec1 cfbb 80ce 1d39 dc90 a5bb
00000150: af0c 3bbc 40e8 913c d6da 69bc 9ce3 323c
00000160: 20d0 3e3a 6823 dcbb 6235 77bc f038 543c
00000170: 12b4 823c 8b9c 5ebc 30b0 2c3b 42c0 1a3c
00000180: d028 623b bc3e 923c 1a5f 943c 4022 2a3a
00000190: a052 a6bb 1eec 9e3c 5da0 3dbc ed57 3abc
000001a0: 2c3d 823b 1eb3 273c f058 bbba 361f 333c
000001b0: 141d 7f3c e083 4fbb 0c91 483c 5c25 4b3c
000001c0: e1e4 9bbc a8ac 41bc 3050 29bb 582b 43bb
000001d0: 22d3 84bb a061 2a3c 56c1 78bc d05a a53a
000001e0: 0e75 063c ce14 b3bb 9864 a5bb d8df 5f3c
000001f0: 4169 85bc c0a4 b1b9 c2b1 143c 3f86 25bc
00000200: d88f b3bb f818 2bbb 0cdb a93b 1728 07bc
00000210: 54c6 b4bb 268e b8bb 16b2 873c 004c ae37
00000220: 9859 cebb 4032 60ba a013 d4ba d05a 86ba
00000230: 3808 93bc 5079 6d3c 08c0 893c 8172 8bbc
00000240: 60b0 4dbc d85b 9cbc 303f d43a bc63 5e3c
00000250: 59e6 9cbc 3cc3 9b3b 9621 833c e03c 163c
00000260: 4a5a 883c d24d 63bc 1a1b a6bb 4203 933c
00000270: aad5 2c3c c077 193a 0817 833c c0c0 243c
00000280: 302a 9b3c fc45 ce3b 8219 eebb 1241 f2bb
00000290: d89c 74bb 80c0 743c d621 0a3c d0b8 29bc
000002a0: 5875 9a3c 58af bbbb e0dd f5bb a8ea 8f3c
000002b0: 2c7d a93b afae 25bc 208d 8eba c046 823a
000002c0: 3009 5d3c 98cc 19bb e68a f1bb e0b3 bfba
000002d0: a063 253a 1024 1a3c 2094 e73a 98ae 60bc
000002e0: cc9c b93b 8476 f03b 2409 993c 8201 123c
000002f0: 1cb6 88bc 800a 9d39 5068 363c 34dc 02bc
00000300: b2c7 96bc e4de 303c e09c dfba 301c 1ebb
00000310: 7120 11bc 8602 2abc b84c d73b 1001 873c
00000320: 7a6f 07bc 4cd7 bfbb 58bb df3b 4091 483a
00000330: 24bb 6b3c 2c15 fe3b 8c29 6c3c 24fc 2dbc
00000340: e033 0bbb 5117 45bc 398e 83bc 9cb6 90bb
00000350: 649b 6d3c f4a5 ca3b 7aae d0bb b053 d3ba
00000360: b8df 65bb 8ac8 993c 1c89 7bbb d287 6abc
00000370: 6043 753c 1f36 00bc 87c9 3bbc 8278 d0bb
00000380: 7aca 43bc cc35 7abc e268 03bc c47d 783c
00000390: 5656 8ebb 740c 933c b4cd 743c 540e 8e3c
000003a0: 4cca 9b3b 36b9 9d3c ac74 9b3c 5c8e 413c
000003b0: 5046 363b dc02 9f3c 9c90 5f3c c0c5 b539
000003c0: d29e 8fbc 640c 89bb dec3 acbb d2b9 3c3c
000003d0: f409 393c 48a4 d73b 3c52 483c b105 8dbc
000003e0: e49c 083c 92da 90bb d00f 01bb 1dcd 8cbc
000003f0: b0f5 72bb 8cac edbb d20d 0dbc c8de 39bb
-0.003758248 0.018915437 -0.010400123 -0.0061712014 0.012558911 0.018068805 -0.0030243862 0.0091520995
0.019173414 -0.0021138396 0.015433311 0.00054664165 0.0009796917 0.0144451 -0.011238683 0.006209351
0.004917901 0.0025805533 -0.0132850185 0.005621493 -0.017866544 -0.019339018 0.005423531 -0.008391653
0.017541178 0.004244171 0.0053547565 -0.0047942363 0.01845548 0.006607434 0.002761552 0.011670902
0.014384437 0.0005676467 -0.014381813 0.005257277 0.01765512 -0.010588567 0.012854688 -0.012802826
-0.0099707395 -0.018859057 -0.017635155 0.012269914 -0.007962378 -0.008882191 -0.00039407052 0.009714628
0.011224359 0.0052125193 -0.0025562514 -0.01283944 -0.018423738 -0.0030368194 0.00867581 -0.013157966
-0.006994554 -0.004118571 0.002300335 0.0020544901 0.015148833 0.00023642182 0.01736955 -0.010276991
-0.017698672 -0.013788493 -0.0109788645 -0.017797846 -0.010173353 -0.0015442837 0.014325071 -0.0038232878
-0.0011887327 0.011248881 -0.006047786 -0.0002917163 0.01098324 -0.008470255 -0.008426162 -0.0018571019
-0.011979597 -0.006340242 0.00015049614 -0.005052669 -0.011416598 0.01781094 -0.014273366 0.010918524
0.0007278938 -0.006718088 -0.015088411 0.012953028 0.015955005 -0.013587127 0.0026350133 0.009445252
0.003450919 0.01785218 0.018111754 0.0006490089 -0.0050757676 0.019399699 -0.011573878 -0.011373502
0.0039745774 0.010235576 -0.0014293473 0.010932734 0.015570898 -0.0031664297 0.012241613 0.012399044
-0.019030036 -0.01182095 -0.002583515 -0.0029780474 -0.0040534893 0.010399252 -0.015182814 0.0012615565
0.008206619 -0.0054651266 -0.005047392 0.013664208 -0.01628554 -0.0003388282 0.009075584 -0.010102808
-0.005479794 -0.0026107412 0.005183583 -0.008249304 -0.0055168066 -0.00563218 0.01656441 2.0777807e-05
-0.0062973015 -0.00085524097 -0.0016180165 -0.0010250453 -0.017948255 0.014494255 0.0168152 -0.017022373
-0.012554258 -0.019086763 0.0016193148 0.013573583 -0.019152807 0.0047534984 0.016007226 0.009169787
0.016644616 -0.013873534 -0.0050691487 0.01794589 0.010548988 0.0005854331 0.016002193 0.010055721
0.018941015 0.006294964 -0.0072662244 -0.007393011 -0.0037324931 0.014938474 0.008430919 -0.010359004
0.018854782 -0.0057276897 -0.007503256 0.017567948 0.0051723924 -0.010112449 -0.0010875799 0.0009939298
0.01349096 -0.0023467895 -0.0073712943 -0.001462575 0.0006309096 0.009408012 0.0017668046 -0.013713501
0.0056644436 0.007338347 0.018681116 0.008911492 -0.016688399 0.00029953197 0.0111332685 -0.007987071
-0.018405769 0.010795329 -0.0017060302 -0.0024125688 -0.008857832 -0.010376578 0.006570425 0.016479999
-0.008266324 -0.005854523 0.006827753 0.00076510385 0.0143878795 0.0077539887 0.014414202 -0.010619197
-0.0021240637 -0.012029485 -0.016059028 -0.0044163 0.01450238 0.006184334 -0.0063684555 -0.0016122963
-0.0035075974 0.018772382 -0.0038381284 -0.014314609 0.014969677 -0.0078254035 -0.011461622 -0.006362022
-0.01195013 -0.015271615 -0.0080206115 0.015166704 -0.004343788 0.017950274 0.014941622 0.017340817
0.0047543403 0.019253355 0.018976532 0.011813726 0.0027812906 0.019410543 0.013645317 0.00034670345
-0.017531786 -0.0041823853 -0.0052723726 0.011518912 0.011293877 0.006580863 0.012226637 -0.017214628
0.008338187 -0.004420587 -0.0019693263 -0.01718765 -0.003707271 -0.007253235 -0.008609252 -0.0028361548

bias f4 [5]
00000000: 8c1f 3e3c 7843 453c b0d5 c7ba 2826 023b
00000010: 9120 6fbc
0.011604201 0.012040012 -0.0015246179 0.0019859169 -0.014595167
