algorithms/cap-v0/data/b4_r0--2019-01-04--111654.322682/episode_18500.model (torch_old, 70109 bytes, 8 tensors)

weight f4 [6, 6, 3, 3]
0	0x3c164520	0.009171754
1	0x3cd7fbc0	0.026365161
2	0x3d0102f8	0.03149697
3	0xbd71e304	-0.05905439
4	0xbdf9dbb7	-0.122001104
5	0xbd313388	-0.043262035
6	0xbc07b3f0	-0.008282647
7	0x3cf342c0	0.029694915
8	0x3dda6af6	0.106649324
9	0x3e0a8007	0.13525401
10	0xbe6f1bcb	-0.23350446
11	0x3d0451b2	0.032304473
12	0xbe2d5347	-0.16926299
13	0xbe65bd77	-0.22435556
14	0x3de842bb	0.11340853
15	0xbe79f3fd	-0.2440948
16	0x3def1bb2	0.11675204
17	0xbcf03894	-0.029323854
18	0xbd4d3a4b	-0.05010442
19	0x3d7fb259	0.062425945
20	0x3d212dae	0.039350204
21	0xbc5a6f5b	-0.013332213
22	0xbd84ce06	-0.06484608
23	0xbd79f95d	-0.061028827
24	0xbe396bbb	-0.18107502
25	0x3d300ba3	0.042979848
26	0x3d0119a5	0.031518597
27	0x3be19060	0.006883666
28	0xbd8fce97	-0.07021826
29	0xbd91644c	-0.07099208
30	0xbd450b02	-0.0481062
31	0x3dd1bbe4	0.102409154
32	0xbdc18635	-0.09449426
33	0x3dc9df3e	0.09857033
34	0x3e07fa30	0.13279033
35	0xbc24caa0	-0.010058075
36	0xbf29bf2d	-0.66307336
37	0x3ca038d1	0.019558342
38	0x3f6a1a01	0.9144593
39	0xbe7b6bd7	-0.24552856
40	0x3ec551f3	0.38539085
41	0x3dfba69f	0.1228764
42	0x3e2cbae9	0.16868176
43	0x3f2ff3aa	0.68731177
44	0xbed713b4	-0.4200722
45	0x3ea6c4db	0.32572064
46	0xbeb91975	-0.36152235
47	0xbda03ce1	-0.07824112
48	0x3ddae67e	0.10688494
49	0xbe35eebf	-0.17766856
50	0x3da572d2	0.08078541
51	0xbdbf9b98	-0.09355849
52	0x3e06a366	0.13148269
53	0x3dc2d0f0	0.09512508
54	0x3c834538	0.016024217
55	0x3da48722	0.08033587
56	0xbdd60ca2	-0.10451628
57	0xbdacff6a	-0.08447154
58	0xbd701b7c	-0.05861996
59	0x3df46868	0.119339764
60	0x3d111770	0.035422742
61	0xbd85bcbb	-0.06530138
62	0x3e05b938	0.13058937
63	0x3db95f71	0.09051407
64	0x3d7efccb	0.0622528
65	0xbd026995	-0.031838972
66	0xbdbffc58	-0.093743026
67	0xbd38af53	-0.045089077
68	0x3d5d54df	0.054036018
69	0xbd4746f1	-0.04865164
70	0x3d32f057	0.043686237
71	0x3c363efc	0.011123415
72	0x3e43d747	0.1912509
73	0x3ec8d0dd	0.3922185
74	0x3ea07db2	0.31345898
75	0x3e90d39c	0.28286445
76	0x3e6216ba	0.22078982
77	0x3ec8a3f7	0.39187595
78	0x3cef7fe5	0.02923579
79	0x3eb5b486	0.3548929
80	0x3e487e18	0.19579351
81	0xb9bea000	-0.00036358833
82	0x3d318ed8	0.043349117
83	0xbdd04312	-0.10169043
84	0xbd88398c	-0.06651601
85	0x3d9c91d0	0.07644999
86	0x3c2b2aa0	0.010447174
87	0x3d5d1d94	0.053983286
88	0xbd91e31e	-0.07123397
89	0x3e07b920	0.13254213
90	0xbf5b8484	-0.8574908
91	0xbf831bce	-1.024286
92	0xbf4fc77b	-0.8116376
93	0x3f19324b	0.59842366
94	0xbe85e2a3	-0.26149473
95	0xbecec74e	-0.40386432
96	0x3e150577	0.14552866
97	0xbf91f0c4	-1.1401601
98	0xbf8c451f	-1.0958594
99	0xbc83eb01	-0.01610327
100	0x3dffd7a9	0.12492306
101	0xbda044d8	-0.07825631
102	0xbd16cb72	-0.036815114
103	0xbc84abf9	-0.016195284
104	0x3e56277a	0.20913497
105	0xbdaa7815	-0.08323685
106	0xbdbd9b49	-0.09258134
107	0xbb70f41e	-0.00367666
108	0x3cc03a50	0.023465306
109	0xbdf622e6	-0.12018375
110	0x3d1fb844	0.03899409
111	0xbd8e5150	-0.06949103
112	0xbdb27b94	-0.08714977
113	0x3db3a04e	0.0877081
114	0x3d76779c	0.060172662
115	0x3e0962ac	0.13416547
116	0x3d85053e	0.064951405
117	0xbd7f1634	-0.062277034
118	0xbcfa7e72	-0.030577872
119	0x3c4bf672	0.012448894
120	0xbe7893b3	-0.24275093
121	0xbe36c174	-0.17847234
122	0x3c9a3ff1	0.018829318
123	0x3dc2833c	0.09497687
124	0x3cd8de38	0.02647315
125	0x3daeea34	0.085407645
126	0x3c8962b8	0.016770706
127	0x3e5df90a	0.21677032
128	0x3e864a2f	0.26228473
129	0x3e42c126	0.19018993
130	0x3e94a0eb	0.2902902
131	0x3e874e16	0.26426762
132	0x3e1a6ad7	0.15079819
133	0x3de4e69f	0.111768
134	0x3e40b6e4	0.18819767
135	0x3c145240	0.009052813
136	0xbdab7fe6	-0.08374004
137	0x3d52d488	0.051472217
138	0x3d88dbe8	0.06682569
139	0xbdd4284f	-0.10359251
140	0x3c3e74d0	0.01162453
141	0x3e01469e	0.12624595
142	0x3e08c9be	0.13358209
143	0xbd89fd05	-0.06737713
144	0x3eaa78dd	0.33295336
145	0x3e95763a	0.29191762
146	0x3ec9b893	0.3939863
147	0x3edfb279	0.4369085
148	0x3e88afac	0.26696527
149	0x3e63fa5b	0.22263472
150	0x3f1b86bb	0.6075246
151	0x3f4fee47	0.8122296
152	0x3f0c7b13	0.54875296
153	0xbe6fded9	-0.23424853
154	0xbd5ee43f	-0.05441689
155	0x3d04649f	0.032322522
156	0xbe492a04	-0.19644934
157	0x3e1756b5	0.1477917
158	0x3de0d8ca	0.10978849
159	0xbbd822fd	-0.006595968
160	0xbd6a2665	-0.057165522
161	0xbd15dfb9	-0.03659031
162	0xbd4ff656	-0.050772034
163	0x3db7232a	0.08942254
164	0x3d856960	0.06514239
165	0xbd9d1691	-0.0767032
166	0xbde59008	-0.112091124
167	0xbd1f120a	-0.038835563
168	0xbdc8b975	-0.09800998
169	0xbd2c3ef4	-0.042052224
170	0x3d86e062	0.065857664
171	0x3cd450bf	0.025917409
172	0xbd16ebd6	-0.036846004
173	0x3cc2e242	0.023789529
174	0xbd85e798	-0.065383136
175	0xbdb6475f	-0.08900332
176	0x3e4ea652	0.20180634
177	0xbd587f59	-0.052855823
178	0x3d0303c2	0.031986006
179	0x3e31d6d5	0.17367108
180	0x3c47439b	0.0121621145
181	0x3d5a6196	0.05331572
182	0x3d456db8	0.04820034
183	0xbc7b8a0b	-0.015352736
184	0xbb70aaf4	-0.003672299
185	0x3e007891	0.12545992
186	0xbc2ff680	-0.0107399225
187	0x3b867c89	0.004104201
188	0x3e677fd0	0.2260735
189	0xbd9f3b50	-0.07774985
190	0x3d970cba	0.07375474
191	0xbd5b8282	-0.05359126
192	0xbc6c72f8	-0.014431708
193	0xbd82a4c1	-0.063790806
194	0x3d7e24d0	0.062046826
195	0x3d9aee94	0.075650364
196	0xbe0a82d2	-0.13526466
197	0x3ca19170	0.01972267
198	0xbe2427b4	-0.1603077
199	0xbe883c08	-0.266083
200	0x3ed3dd26	0.4137966
201	0xbf3a4df4	-0.727752
202	0xbf31de5b	-0.6947991
203	0xbf8beca4	-1.0931592
204	0x3f59d4df	0.8509044
205	0x3e68b518	0.22725332
206	0xbe8c90ce	-0.27454227
207	0x3cb3a331	0.021928402
208	0xbdc77825	-0.097397126
209	0x3da153a6	0.07877283
210	0xbfa3af75	-1.278792
211	0xbe3f5111	-0.18683268
212	0x3cb11202	0.021615032
213	0xbe50495f	-0.20340489
214	0xbd0ddbac	-0.034633324
215	0xbde3ee30	-0.11129415
216	0x3d9cc900	0.07655525
217	0x3d81271e	0.06306289
218	0xbdd4f232	-0.103977576
219	0x3d931964	0.07182577
220	0xbddeafa0	-0.108733416
221	0xbd9cb058	-0.076508224
222	0x3c131020	0.0089760125
223	0xbded2d7f	-0.11580943
224	0x3d6eefb0	0.058334053
225	0xbc30d6c1	-0.010793389
226	0xbd8f42cf	-0.069951646
227	0x3dc646e8	0.09681493
228	0xbe8fa1aa	-0.28053027
229	0x3d429ae2	0.04751099
230	0x3cc87387	0.02446915
231	0xbd5eebbf	-0.054424044
232	0x3d8ccf4f	0.068754785
233	0xbdd9a5db	-0.106273375
234	0xbd1d2ffc	-0.03837584
235	0x3ce6cd54	0.02817408
236	0x3d47c828	0.04877487
237	0x3c901c9a	0.017591763
238	0x3de0fdbe	0.109858975
239	0x3de763cf	0.11298334
240	0xbc80e511	-0.015734227
241	0x3cc1cb52	0.023656521
242	0xbd2f4aa6	-0.0427958
243	0xb9941a00	-0.0002824813
244	0x3cfbab58	0.030721352
245	0xbdb87634	-0.090069205
246	0xbdee49ce	-0.11635171
247	0x3c4bc250	0.012436464
248	0xba66e200	-0.00088074803
249	0x3cae8dd0	0.021307856
250	0xbe06a2bb	-0.13148014
251	0x3e01d708	0.12679684
252	0x3e1a9a86	0.15098009
253	0xbd1c9836	-0.038231097
254	0x3f2af573	0.66780776
255	0xbed71348	-0.42006898

bias f4 [6]
0	0xbd036aab	-0.03208415
1	0xbe152687	-0.14565478
2	0xbe066b1e	-0.131268
3	0xbe2b2314	-0.167126
4	0xbde16a69	-0.11006624
5	0xbe0306dd	-0.12795587

weight f4 [6, 6, 3, 3]
0	0x3de3475c	0.11097595
1	0x3e473049	0.19452013
2	0x3eb204a3	0.34769163
3	0xbcab0da3	-0.020880526
4	0x3e930cab	0.28720602
5	0xbe338b49	-0.17533602
6	0x3e502b01	0.20328905
7	0x3e258536	0.16164097
8	0xbf3d21f3	-0.7387993
9	0xbc57ca39	-0.013170772
10	0x3e4df7e9	0.20114101
11	0x3cda0a4f	0.026616244
12	0x3d0b71f2	0.034044214
13	0x3eb50107	0.35352346
14	0x3d4a9abd	0.049463976
15	0xbdeaa609	-0.1145745
16	0xbd8be805	-0.068313636
17	0x3cc433fd	0.023950571
18	0xbd8c5ff9	-0.06854243
19	0xbe8ff29a	-0.28114778
20	0x3d256f45	0.040389318
21	0x3ca74058	0.020416424
22	0xbd670533	-0.056401443
23	0x3e9b91c8	0.3038466
24	0x3e4e5e49	0.20153154
25	0xbd1d9a25	-0.03847708
26	0x3e75d8d3	0.24008493
27	0x3e2a1eb9	0.16613282
28	0xbecdf028	-0.40222287
29	0xbd15ed9b	-0.03660355
30	0x3e5f7f2a	0.21825853
31	0xbf78b94f	-0.9715776
32	0xbf1c5551	-0.6106768
33	0xbd29e2c5	-0.04147603
34	0x3eddd0e9	0.43323448
35	0xbdc8fae2	-0.09813477
36	0xbe5f2e95	-0.21795113
37	0xbe7b4326	-0.24537334
38	0x3e42ed86	0.1903592
39	0x3e7a17f1	0.24423195
40	0xbec9a1e0	-0.39381313
41	0x3e2ea5aa	0.17055383
42	0x3ea11cfe	0.31467432
43	0xbfcee65c	-1.616405
44	0x3ccda0e8	0.02510114
45	0xbcab46c6	-0.02090777
46	0xbb6c6f1a	-0.0036076964
47	0xbe81e486	-0.25369662
48	0xbdb74560	-0.08948779
49	0xbd43daf5	-0.047816236
50	0xbe4475c3	-0.19185548
51	0xbe2de18d	-0.16980572
52	0x3e015d12	0.1263316
53	0xbe61ba37	-0.22043692
54	0xbdb9b333	-0.09067383
55	0x3d358311	0.044314448
56	0xbdb7349d	-0.08945582
57	0x3bafd3f1	0.0053658416
58	0xbd69fe3d	-0.057127226
59	0x3c6f91bf	0.014622151
60	0x3e1183c1	0.14210416
61	0xbc5b0063	-0.013366791
62	0x3ecc1ae1	0.39864257
63	0x3bed6c72	0.0072455937
64	0xbd651593	-0.055928778
65	0xbda830c2	-0.08212425
66	0x3dc7a74e	0.09748708
67	0x3dc3faf9	0.095693536
68	0x3e35f009	0.17767347
69	0xbdaddce4	-0.08489397
70	0xbdc6be3c	-0.09704253
71	0x3df40696	0.11915319
72	0x3d3b4a4e	0.04572516
73	0xbc8a8a18	-0.016911551
74	0x3e281d4f	0.1641743
75	0xbe3233b5	-0.17402537
76	0x3dfa1f5d	0.12213013
77	0x3d0c3c92	0.03423745
78	0xbe897af6	-0.26851624
79	0xbd9e336a	-0.0772465
80	0xbe885da5	-0.26633945
81	0x3cb98272	0.022645209
82	0xbeaa154c	-0.33219373
83	0xbed2882d	-0.4111952
84	0x3e5da0c9	0.21643366
85	0xbe479aad	-0.19492598
86	0xbe5f6eb2	-0.2181957
87	0x3e6ce920	0.23135805
88	0x3c478e83	0.012179974
89	0xbe8d7ce2	-0.2763434
90	0xbe4dbfa3	-0.20092635
91	0x3b2c92ab	0.0026332538
92	0x3f205024	0.62622285
93	0xbe9ffe03	-0.31248483
94	0xbd8d1ee6	-0.06890659
95	0x3d8556ca	0.06510694
96	0x3d43cfa3	0.04780544
97	0xbe2e5e73	-0.17028217
98	0x3dd7b465	0.105324544
99	0x3e1bb1b1	0.15204503
100	0x3dab648d	0.08368788
101	0xbd809488	-0.0627833
102	0x3dfc5a07	0.12321859
103	0xbd75bdb7	-0.05999538
104	0xbe0ead5d	-0.1393332
105	0x3e8c0afc	0.2735213
106	0x3e129c53	0.14317445
107	0x3e1b3a67	0.15158997
108	0xbef4aae3	-0.47786626
109	0xbf58ad02	-0.8463899
110	0xbd8c2db0	-0.06844652
111	0xbf14e351	-0.5815936
112	0xbeea0719	-0.4570854
113	0x3e5c72ba	0.2152814
114	0xbe384c5c	-0.17997879
115	0xbec18f4c	-0.3780464
116	0x3dce6d36	0.10079424
117	0x3e2801fa	0.16407004
118	0x3e9b948d	0.30386773
119	0x3e651815	0.22372468
120	0xbe2be4bb	-0.16786472
121	0xbee561d3	-0.44801196
122	0xbedb364f	-0.42814872
123	0x3f07e617	0.53085464
124	0x3e994b69	0.29940346
125	0x3e9cc2e1	0.3061743
126	0x3de018bb	0.10942217
127	0xbdc0f1e8	-0.0942114
128	0xbea9f1b8	-0.3319223
129	0x3d8b2d00	0.067956924
130	0xbeaf6e23	-0.34263715
131	0x3d002045	0.031280775
132	0xbcde01c6	-0.027100455
133	0xbf8a4342	-1.0801775
134	0x3e202fe3	0.15643267
135	0xbd40056c	-0.04688017
136	0xbd47b31f	-0.048754808
137	0xbeb1313d	-0.34607878
138	0x3e93f1b0	0.2889533
139	0x3eaf7ad9	0.34273413
140	0x3e7a225e	0.24427173
141	0x3e7a60e9	0.24451031
142	0xbdcb7951	-0.09935249
143	0xbddc19e2	-0.10747124
144	0xbd813be4	-0.06310251
145	0x3db88f2d	0.090116836
146	0xbe962adc	-0.29329574
147	0x3e34fdea	0.17674986
148	0x3e57a1ad	0.21057768
149	0x3ec50afe	0.3848495
150	0xbdc68f2f	-0.09695279
151	0xbecb6e39	-0.3973253
152	0xbebd4494	-0.36966383
153	0xbe4bd8a3	-0.19906859
154	0xbed9c370	-0.4253192
155	0xbd67a6b2	-0.056555457
156	0xbe9ad2e8	-0.30239034
157	0xbf874ced	-1.0570351
158	0xbea688d0	-0.32526255
159	0xbe2e045d	-0.16993852
160	0xbe832803	-0.25616464
161	0xbef594c0	-0.4796505
162	0xbd92b4eb	-0.071634136
163	0xbcb2a8e6	-0.021809053
164	0xbcf6bbf5	-0.030118922
165	0x3cb07b94	0.021543302
166	0xbd3d8835	-0.046272475
167	0x3ef288b2	0.47369915
168	0xbe3e69d4	-0.18595058
169	0xbbeb84d1	-0.007187464
170	0x3e2fda0a	0.17173019
171	0xbe4c33c5	-0.19941624
172	0x3df0b0e8	0.11752492
173	0x3e0261cf	0.12732624
174	0x3a087660	0.00052056275
175	0xbcec3808	-0.028835312
176	0x3ec7dc07	0.39035055
177	0xbe0e97b6	-0.1392506
178	0xbd2df727	-0.04247203
179	0x3ef2fbdb	0.47457775
180	0xbd255cb3	-0.040371608
181	0xbdb2e24d	-0.0873457
182	0x3e8d987a	0.27655393
183	0xbd9dcb7c	-0.07704827
184	0xbe8c61f5	-0.27418485
185	0xbf47a5f6	-0.7798761
186	0xbdaf37d5	-0.08555571
187	0xbd8e2c90	-0.06942093
188	0xbf208f01	-0.62718207
189	0x3e92be8b	0.28660998
190	0x3d256c29	0.040386353
191	0x3e99582f	0.2995009
192	0x3e08c648	0.13356888
193	0x3d46f5fb	0.04857443
194	0x3d3c4062	0.045959838
195	0x3ef302f5	0.47463194
196	0x3e3b76e4	0.18307072
197	0x3e29e97a	0.1659297
198	0xbd742f6a	-0.05961553
199	0x3b32fa4a	0.0027309828
200	0x3d3444e9	0.04401103
201	0x3e7e5d33	0.2484024
202	0xbdccccfb	-0.100000344
203	0x3dfde61b	0.12397405
204	0x3d951d97	0.072810344
205	0x3e28d405	0.16487129
206	0x3e0a65ec	0.13515443
207	0x3e8417c0	0.2579937
208	0xbbcfeb19	-0.0063451645
209	0xbc3ebf70	-0.011642322
210	0x3c46057c	0.0120862685
211	0x3dc3cc55	0.095604576
212	0x3c96181d	0.018322045
213	0x3e4b996b	0.19882743
214	0xbd2144cf	-0.03937226
215	0x3d4dce56	0.050245605
216	0xbf08b292	-0.53397477
217	0xbe1642d1	-0.14673926
218	0xbe46bf07	-0.19408809
219	0xbe51e80c	-0.20498675
220	0x3e8deb7f	0.27718732
221	0xbea64e3f	-0.32481572
222	0x3e777c14	0.24168426
223	0x3e33b6d6	0.17550215
224	0xbe88d517	-0.26725075
225	0xbed98b02	-0.42488867
226	0xbfcecb25	-1.6155745
227	0xbf927967	-1.1443299
228	0xbd15a2b2	-0.03653211
229	0xbf107d9a	-0.5644165
230	0xbe21ede6	-0.15813407
231	0x3e4caded	0.19988222
232	0xbf5cb58e	-0.8621453
233	0xbe969519	-0.29410627
234	0xbdf47819	-0.11936969
235	0x3d81bf96	0.0633537
236	0xbd8911d8	-0.066928566
237	0x3dc6d062	0.097077146
238	0x3c1db24d	0.00962503
239	0xbed0f2cc	-0.4081024
240	0xbe04a831	-0.12954785
241	0xbf003659	-0.5008293
242	0xbcc1839b	-0.023622325
243	0x3e29ffed	0.16601534
244	0x3e8ebe7c	0.27879703
245	0x3e5496b5	0.20760615
246	0x3e896b41	0.2683964
247	0xbe10d088	-0.14142048
248	0xbeabb00b	-0.33532748
249	0xbf172075	-0.590339
250	0xbe73ce61	-0.23809196
251	0x3d27b4e8	0.04094401
252	0xbc24a3bf	-0.010048806
253	0xbea1e96f	-0.31623408
254	0x3e6d5a70	0.2317903
255	0xbdca380c	-0.09873971

bias f4 [6]
0	0xbe134d3a	-0.14384928
1	0xbc9a742f	-0.018854229
2	0xbb501173	-0.0031748682
3	0xbf02f516	-0.5115522
4	0xbd048a73	-0.032358598
5	0xbda15556	-0.07877605

weight f4 [6, 6, 3, 3]
0	0x3ce01783	0.027354961
1	0x3e210edc	0.15728325
2	0x3e4e889d	0.20169301
3	0x3e87448c	0.26419485
4	0x3da9c015	0.0828859
5	0x3c56e078	0.013115041
6	0x3e321659	0.17391337
7	0x3eb8353c	0.35978115
8	0xbf167c4d	-0.5878342
9	0x3db7778e	0.0895835
10	0x3d71ed0e	0.059063964
11	0xbe88cc85	-0.26718536
12	0x3d61f49a	0.05516491
13	0xbdcff8bd	-0.10154865
14	0x3e1fd450	0.15608335
15	0xbdb0fa84	-0.08641532
16	0x3e9327a5	0.28741184
17	0xbea3284e	-0.31866688
18	0x3e45a209	0.19300093
19	0xbec91dd2	-0.39280564
20	0x3bb1c004	0.0054245014
21	0x3d192c72	0.037395902
22	0xbe09d086	-0.13458452
23	0xbd585394	-0.05281408
24	0xbd6417b5	-0.05568667
25	0xbe2694fc	-0.1626777
26	0xbd5ec71f	-0.054389115
27	0x3e227b11	0.15867259
28	0x3d9d6e7d	0.076870896
29	0x3daa13e6	0.083045766
30	0x3e4a91bb	0.19782154
31	0xbc9287a9	-0.017886953
32	0x3dbb1eb5	0.09136716
33	0x3dca0e2d	0.09865985
34	0x3de3f549	0.11130769
35	0xbda7273a	-0.08161779
36	0x3e49c82f	0.1970527
37	0x3d4d49d0	0.05011922
38	0xbd1e4e9b	-0.038649183
39	0xbeb31e10	-0.34983873
40	0x3eaf64c4	0.34256566
41	0x3dd1477f	0.10218715
42	0xbe1068d1	-0.14102484
43	0x3e774174	0.24146062
44	0x3d705c76	0.058681928
45	0x3d0d5e42	0.03451372
46	0xbe186a59	-0.14884318
47	0x3e3d0673	0.18459491
48	0x3d58eb64	0.05295886
49	0x3e17bdb8	0.14818466
50	0x3e6ba69b	0.23012774
51	0xbcaa7308	-0.020806804
52	0x3e793352	0.24335983
53	0xbe204fc6	-0.15655431
54	0x3e814793	0.2524992
55	0x3eb3ae43	0.3509389
56	0x3ed0425f	0.40675637
57	0x3e872cc5	0.26401344
58	0x3e5268fe	0.20547864
59	0x3e40e408	0.18836987
60	0x3e214411	0.15748622
61	0x3eaecc64	0.34140313
62	0x3e93c185	0.2885858
63	0x3dfc7b1c	0.12328169
64	0xbd71a69a	-0.058996774
65	0x3d9ec39f	0.077521555
66	0x3def1e8d	0.11675749
67	0x3dcd1d91	0.10015405
68	0xbe1a99c6	-0.15097722
69	0xbc9fbb57	-0.01949851
70	0x3ddf3395	0.1089851
71	0xbe036a96	-0.12833628
72	0x3cdfe601	0.027331354
73	0xbcf68d95	-0.030096808
74	0xbdc3c8cf	-0.095597856
75	0x3ba30d52	0.004975953
76	0xbd5db883	-0.054131042
77	0xbdce03e3	-0.10059335
78	0xbc4473a7	-0.011990464
79	0xbcc573ec	-0.024103127
80	0xbc14bd7b	-0.009078379
81	0x3ecc870b	0.3994678
82	0x3e47fc69	0.1952988
83	0x3ea518e7	0.3224556
84	0x3e084f04	0.13311392
85	0x3e7fe829	0.24990906
86	0x3e8f180c	0.27948034
87	0xbe3b7c59	-0.18309154
88	0xbe3b86ae	-0.18313095
89	0x3e26a8dc	0.16275352
90	0xbec7128b	-0.38881335
91	0xbee896ba	-0.45427495
92	0x3e1bb9c0	0.15207577
93	0xbe2cd537	-0.1687821
94	0xbe81d2b9	-0.2535608
95	0x3ed89e13	0.423081
96	0xbe1c5aec	-0.15269059
97	0xbecb75b2	-0.39738232
98	0x3e87bb0e	0.265099
99	0x3dbab1a9	0.09115917
100	0x3ef481bf	0.47755238
101	0x3e98ce55	0.2984492
102	0x3e263a96	0.16233286
103	0x3eaa3428	0.33242917
104	0x3e69bfeb	0.22827117
105	0xbdb09ae0	-0.0862329
106	0x3e8f45bd	0.27982894
107	0x3ee898a1	0.45428947
108	0xbe1f2315	-0.15540726
109	0x3dd2c1a9	0.10290844
110	0xbe84ff3a	-0.25975972
111	0xbe55c53c	-0.2087602
112	0xbd895a72	-0.06706704
113	0xbed06d09	-0.40708187
114	0x3c3bad0a	0.01145483
115	0x3e334439	0.17506494
116	0xbdb98d45	-0.09060148
117	0x3e2f057e	0.17091939
118	0x3dcbec37	0.09957164
119	0x3e084a8a	0.13309684
120	0x3dccecca	0.100061014
121	0x3d142148	0.036164552
122	0x3e53c72b	0.20681445
123	0x3de8390a	0.11339004
124	0x3e1f9e48	0.15587723
125	0xbcb0c5e5	-0.021578738
126	0xbe15711e	-0.14593932
127	0x3e603747	0.21896087
128	0x3eab5117	0.33460304
129	0xbeaca60f	-0.33720443
130	0xbe8ce8ce	-0.27521366
131	0xbe1a4c35	-0.15068133
132	0xbeabc57e	-0.33549112
133	0x3df2e0d4	0.11859289
134	0x3eb1bbba	0.34713537
135	0xbf5f08f7	-0.87123054
136	0xbf053800	-0.52038574
137	0xbf25123d	-0.64480954
138	0xbf32ffbd	-0.69921476
139	0xbee5ea37	-0.44905254
140	0xbe34ae84	-0.17644697
141	0xbf1f12fa	-0.6213833
142	0xbf23247a	-0.63727534
143	0xbee8cb5f	-0.4546766
144	0xbeb345c7	-0.35014173
145	0xbe9541a3	-0.2915164
146	0xbe44df79	-0.19225873
147	0x3d2ae7b4	0.041724876
148	0xbf9ddd1d	-1.2333103
149	0xbf2660b7	-0.64991325
150	0x3e4a7072	0.19769457
151	0xbefe5056	-0.49670666
152	0xbde7b38b	-0.11313542
153	0x3c39ab81	0.011332394
154	0xbe086424	-0.1331945
155	0xbeb9fb82	-0.36324698
156	0x3e8a4ad7	0.27010223
157	0xbd0f987c	-0.03505753
158	0xbf761b5b	-0.9613549
159	0x3e473b94	0.19456321
160	0xbda71fba	-0.08160348
161	0x3e113119	0.14178886
162	0x3ec5ff9d	0.3867158
163	0x3f033729	0.5125604
164	0xbdd88f77	-0.10574239
165	0x3e312037	0.17297445
166	0xbf91f8fb	-1.1404108
167	0x3e329a3b	0.17441647
168	0xbd80c135	-0.06286851
169	0xbee1940d	-0.44058266
170	0x3dd20089	0.10254008
171	0xbe6453b7	-0.2229756
172	0x3e1c3ded	0.15257998
173	0x3bc499b4	0.005999768
174	0xbd2e147b	-0.0425
175	0xbe4fe05c	-0.2030043
176	0x3e8460fd	0.25855246
177	0xbd360a0b	-0.04444317
178	0xbe396d58	-0.18108118
179	0x3c41c8c9	0.011827656
180	0xbcbc35c1	-0.02297485
181	0x3d667e2d	0.056272674
182	0x3e887a9a	0.26656038
183	0x3ce2c56a	0.027682025
184	0xbcd853d2	-0.026407156
185	0xbe86958f	-0.2628598
186	0xbdd326fb	-0.10310169
187	0x3c3b8cd6	0.011447152
188	0x3ea62878	0.3245275
189	0xbe7a98c5	-0.2447234
190	0xbec95eaa	-0.39330035
191	0xbee78131	-0.45215753
192	0xbf15aee2	-0.58469975
193	0xbee736ee	-0.45159096
194	0xbe19d1b7	-0.15021406
195	0xbf1c6acd	-0.61100465
196	0xbebeab59	-0.37240103
197	0xbe8379bc	-0.25678813
198	0x3dcfb6e7	0.10142308
199	0xbe0ba874	-0.13638479
200	0xbc325578	-0.010884635
201	0x3edb1101	0.4278641
202	0x3f020723	0.5079214
203	0x3e2709db	0.16312353
204	0x3ed76c98	0.42075038
205	0xbe396e26	-0.18108425
206	0x3d4b828f	0.049685057
207	0xbf5a1bfc	-0.8519895
208	0x3ccea637	0.025225742
209	0xbe2a3bdb	-0.16624396
210	0x3e5b5cfd	0.21422191
211	0x3e40588d	0.1878378
212	0xbedbf6e7	-0.4296181
213	0x3e635c69	0.2220322
214	0x3e5a9b87	0.21348391
215	0x3efc811b	0.4931725
216	0x3e07e153	0.13269548
217	0x3db0767f	0.08616351
218	0x3e7ff15f	0.2499442
219	0xbc7f2826	-0.015573537
220	0x3e82126b	0.25404677
221	0xbe94f054	-0.29089606
222	0x3e44936a	0.19196859
223	0x3df3c51f	0.11902832
224	0xbd8cf715	-0.06883065
225	0x3dd4d7fc	0.10392758
226	0xbe56e7f1	-0.20986916
227	0x3e1aed86	0.1512967
228	0xbc021cf1	-0.0079414705
229	0x3e811cd9	0.25217322
230	0xbe347d40	-0.17625904
231	0xbda62c47	-0.08113914
232	0x3e1de011	0.15417506
233	0xbddb2606	-0.10700612
234	0xbe15bdfa	-0.14623252
235	0xbec8a485	-0.39188018
236	0x3d7074b0	0.058705032
237	0x3e4fb26b	0.20282905
238	0xbd138314	-0.036013678
239	0x3c9259ac	0.017865025
240	0x3e3d64c6	0.18495473
241	0x3de92a1b	0.11384984
242	0xbd3a71a8	-0.045518547
243	0x3dd08eee	0.10183512
244	0xbe9a5bde	-0.30148214
245	0xbe24173c	-0.16024488
246	0xbdc6a42a	-0.096992806
247	0x3cdc61cc	0.026902102
248	0xbdc9ccd0	-0.09853518
249	0x3db72887	0.08943277
250	0x3e4b2672	0.19838884
251	0xbde9a8ef	-0.11409175
252	0x3d0505a0	0.032476068
253	0x3e64a895	0.22329934
254	0x3e927fe3	0.28613195
255	0x3d174262	0.036928542

bias f4 [6]
0	0xbd5281be	-0.051393263
1	0xbcf2c871	-0.029636594
2	0x3c55cf48	0.013049908
3	0xbd36f2e1	-0.04466522
4	0xbce48c10	-0.027898818
5	0xbc3bfda1	-0.011474044

weight f4 [5, 2646]
0	0xbe8c76a8	-0.27434278
1	0xbd4db81d	-0.050224412
2	0x3ced9d2d	0.029005611
3	0xbca8aefb	-0.02059125
4	0x3e92f904	0.2870561
5	0xbdd014a2	-0.101601854
6	0x3ec55cbd	0.38547316
7	0x3b0e1272	0.0021678475
8	0x3df3565a	0.11881705
9	0xbe166d23	-0.1469007
10	0xbd3e0af0	-0.04639715
11	0xbe990180	-0.29883957
12	0xbecd8193	-0.4013792
13	0xbf2de0ac	-0.6792095
14	0xbebc116a	-0.36732036
15	0xbed4c556	-0.41556805
16	0xbe8b5608	-0.27214074
17	0xbf17fdff	-0.5937194
18	0xbf0ff10d	-0.5622719
19	0xbf2551ff	-0.6457824
20	0xbecd1575	-0.40055433
21	0x3eabf794	0.33587325
22	0x3e297c7b	0.16551392
23	0x3d035f69	0.032073412
24	0x3e0461dd	0.12927957
25	0x3da89035	0.0823063
26	0x3c78854f	0.015168502
27	0xbe197c88	-0.14988911
28	0x3e84846d	0.25882283
29	0xbdbb30b1	-0.091401465
30	0x3b8edc22	0.004359738
31	0x3d9700c8	0.07373196
32	0x3dc655af	0.096843116
33	0xbdc1cd89	-0.09463031
34	0xbd82999a	-0.063769534
35	0xbdc6b5c6	-0.09702639
36	0xbf0e1f69	-0.5551668
37	0xbdeccfbe	-0.11563061
38	0x3c99257d	0.018694634
39	0x3de6660b	0.11249932
40	0xbf0aa73b	-0.54161423
41	0xbe7c35a8	-0.24629843
42	0x3da82b51	0.08211387
43	0xbddb6f00	-0.10714531
44	0x3e269d4d	0.16270943
45	0x3dd01a02	0.101612106
46	0x3dda5f95	0.10662762
47	0x3e86c6a3	0.26323423
48	0xbceeaa77	-0.029134018
49	0x3e446f74	0.19183141
50	0x3e200f27	0.1563078
51	0x3d6b7a7e	0.057489865
52	0x3db81ce1	0.08989883
53	0xbd5a25c0	-0.053258657
54	0xbd990631	-0.07471884
55	0xbe295131	-0.16534878
56	0xbec4c6c9	-0.3843291
57	0xbde5694f	-0.11201727
58	0xbeaea56c	-0.34110582
59	0x3da96bfc	0.082725495
60	0xbe2b5521	-0.16731693
61	0xbeb1f169	-0.34754494
62	0xbed0e5a6	-0.40800208
63	0xbd098734	-0.033576205
64	0x3da49af2	0.08037366
65	0xbe2796c9	-0.16366114
66	0x3cc34406	0.023836147
67	0x3d0e0f2a	0.03468243
68	0x3e447376	0.1918467
69	0x3de24346	0.11047988
70	0x3df458a4	0.11930969
71	0x3e1a3154	0.1505788
72	0x3c992c4c	0.01869788
73	0xbd2dff4f	-0.04247981
74	0x3dad43a8	0.0846017
75	0xbb111b15	-0.0022141386
76	0xbd6993c9	-0.057025705
77	0xbead175b	-0.3380688
78	0x3dd559b9	0.10417504
79	0xbb8be781	-0.004269541
80	0xbe25a3d2	-0.16175774
81	0xbc48352f	-0.012219711
82	0xbe058217	-0.13037907
83	0xbea746b6	-0.32671136
84	0xbdef41e3	-0.11682489
85	0x3e35ec3b	0.17765896
86	0xbe4526e2	-0.19253114
87	0x3d98ccca	0.074609354
88	0x3ded70eb	0.11593803
89	0x3e4a784a	0.19772449
90	0x3dcf56e5	0.10123996
91	0x3d98d518	0.074625194
92	0x3d6bafaa	0.057540573
93	0x3e17d43c	0.14827055
94	0xbe03fcf7	-0.12889467
95	0xbe8b7b1b	-0.2724236
96	0xbe62cd7a	-0.22148696
97	0xbf092cf2	-0.53584206
98	0xbeee6cd1	-0.46567395
99	0xbec74051	-0.38916257
100	0xbe69394d	-0.22775765
101	0xbe7684cd	-0.24074097
102	0xbebb0f5a	-0.3653515
103	0xbedd73a5	-0.43252292
104	0xbf21edc1	-0.6325341
105	0xbe80643f	-0.25076482
106	0x3e409ab9	0.18809022
107	0xbe31d39e	-0.17365882
108	0x3db165d6	0.08662002
109	0x3dad870d	0.084730245
110	0xbd250f68	-0.040297896
111	0x3e27f140	0.16400623
112	0x3d2a4a66	0.041574858
113	0x3d0e6b22	0.03477014
114	0x3d56f2d7	0.052477684
115	0xbd5ea7f1	-0.05435938
116	0x3cc2a571	0.02376053
117	0x3c7054fd	0.0146687
118	0xbe24b409	-0.16084303
119	0xbeb17ad4	-0.34664023
120	0xbd1cc03b	-0.038269263
121	0xbe450c39	-0.19242944
122	0xbc972498	-0.018450066
123	0xbeca5374	-0.39516795
124	0xbe9fbc9b	-0.31198582
125	0xbeed323b	-0.46327385
126	0x3c819018	0.01581578
127	0x3cb65f29	0.022262173
128	0xbe662817	-0.2247623
129	0xbdfbc384	-0.12293151
130	0xbd18a087	-0.037262466
131	0x3e0dc04c	0.13842887
132	0xbc965862	-0.018352691
133	0x3cf4ffca	0.029907126
134	0x3c17220a	0.009224424
135	0xbdb79b1a	-0.0896513
136	0x3cb58ae2	0.022160951
137	0xbe33d715	-0.17562516
138	0xbda8d8f1	-0.08244503
139	0xbd2fff1d	-0.042967904
140	0x3cd3c4cd	0.025850678
141	0xbe6b20f3	-0.22961788
142	0xbe123a4d	-0.14280052
143	0xbdbd1a8a	-0.092335775
144	0xbe5aa9b5	-0.213538
145	0xbf429a58	-0.7601676
146	0xbd907533	-0.07053604
147	0x3e7c7aba	0.24656191
148	0xbd2b83f4	-0.041873887
149	0xbe168edb	-0.14702933
150	0x3d84e121	0.064882524
151	0x3db119d1	0.08647502
152	0x3ccfb808	0.025356308
153	0x3decde2d	0.11565814
154	0x3e35ecb7	0.17766081
155	0x3ddde59e	0.10834812
156	0xbe40be52	-0.18822601
157	0x3d842ee5	0.06454257
158	0xbd73bbcf	-0.05950528
159	0xbdfc64b9	-0.12323899
160	0xbe211cd6	-0.15733656
161	0xbea4512b	-0.32093176
162	0xbce012e7	-0.027352763
163	0x3d6a8581	0.057256225
164	0xbe4f5f9e	-0.20251319
165	0xbec99d74	-0.3937794
166	0xbed0ee02	-0.40806586
167	0xbf032a29	-0.51236206
168	0xbe2d5eb8	-0.16930664
169	0x3dcc2a6f	0.09969031
170	0xbc1eb889	-0.009687551
171	0xbddae6e4	-0.1068857
172	0xbdb7a639	-0.08967251
173	0x3e3684ed	0.17824145
174	0xbd328fd4	-0.043594196
175	0x3d991bc0	0.07475996
176	0x3df84b09	0.12123687
177	0x3e3acbfc	0.18241876
178	0x3dc8f022	0.09811427
179	0xbe8c85d0	-0.2744584
180	0x3cef6b78	0.02922605
181	0xbe2da19a	-0.16956177
182	0xbd304cc8	-0.043041974
183	0xbe37e810	-0.17959619
184	0xbd59e553	-0.053197216
185	0xbdcdff83	-0.100585006
186	0xbeae20f1	-0.34009507
187	0xbe84f39c	-0.2596711
188	0xbe91747b	-0.2840918
189	0xbe5d306f	-0.21600507
190	0x3d033307	0.032031085
191	0xbe13e5df	-0.14443158
192	0xbd6908a7	-0.056893017
193	0x3b258ff5	0.0025262807
194	0x3e9a7906	0.3017046
195	0xbcba74e9	-0.022760825
196	0x3e0239f8	0.12717426
197	0x3d93ea76	0.07222454
198	0x3dffa9c4	0.12483552
199	0xbcc2a43d	-0.023759956
200	0xbea0f37e	-0.3143577
201	0x3be7b30b	0.007070904
202	0xbe8271f4	-0.25477564
203	0xbe1ffd9f	-0.15624093
204	0xbe8c171c	-0.2736138
205	0xbcae0e0b	-0.02124693
206	0xbe35ba8c	-0.17746943
207	0xbecb16b9	-0.39665774
208	0xbe572434	-0.21009904
209	0xbe19bf0a	-0.15014282
210	0xbebc010f	-0.36719558
211	0x3dc6d616	0.097088024
212	0xbd510956	-0.051034294
213	0x3e00438a	0.12525764
214	0xbe155f2f	-0.14587091
215	0x3dc24952	0.09486641
216	0x3b2d5b8c	0.0026452271
217	0x3e330049	0.17480578
218	0x3d077a34	0.033075526
219	0xbebea9b1	-0.3723884
220	0x3db15c2f	0.08660161
221	0x3c443b2e	0.011977
222	0xbc9cbe68	-0.019133762
223	0xbdef46bc	-0.116834134
224	0xbe26d51f	-0.16292237
225	0xbc3ab00a	-0.01139451
226	0xbeb935d2	-0.36173874
227	0x3d712961	0.058877353
228	0xbe599733	-0.21249084
229	0x3d3b0437	0.045658316
230	0xbdfc0646	-0.12305884
231	0xbe0047c1	-0.12527372
232	0xbe56d42b	-0.20979373
233	0x3e930c6a	0.2872041
234	0x3dcff22e	0.10153614
235	0xbd0ffc74	-0.035152867
236	0xbdb5bf5b	-0.08874389
237	0xbd374d40	-0.044751406
238	0x3e16ec6f	0.1473863
239	0xbcb62814	-0.022235908
240	0xbdd379f4	-0.10325995
241	0xbb023b82	-0.0019871895
242	0x3dc3257e	0.095286354
243	0x3e423722	0.18966344
244	0xbe249679	-0.16073026
245	0x3dbc3791	0.09190286
246	0xbcf5865c	-0.029971294
247	0xbdce9c01	-0.10088349
248	0xbe29dc57	-0.16587959
249	0xbeace99f	-0.3377199
250	0xbe04a674	-0.12954122
251	0xbd366a29	-0.044534836
252	0x3d7216b8	0.059103698
253	0x3ddc97a5	0.107711114
254	0x3e45fd96	0.19335017
255	0x3d85c591	0.065318234

bias f4 [5]
0	0x3ca649d7	0.020298881
1	0xbd1a068b	-0.037603896
2	0xbd442d11	-0.04789454
3	0xbd2ed176	-0.042680226
4	0xbd000a2e	-0.031259708
