algorithms/cap-v0/data/old/fail/dqn_episode_55000.model (torch_old, 14760 bytes, 5 tensors)

weight f4 [1, 1, 3, 3]
000000 57 8c 00 bf c3 6e 9c 3e 71 a6 05 3e 11 f8 ba 3d
       -0.5021414 0.30553254 0.13051774 0.09129346
000010 58 57 13 be 5f ff 30 3f 37 76 ac bd d4 f1 d6 be
       -0.14388788 0.69139665 -0.08420985 -0.41981375
000020 fc e7 cc 3e
       0.4002074

weight f4 [1, 1, 3, 3]
000000 4a 7e c4 bf d7 7d eb bf 78 ee f4 bf 9a 56 48 c0
       -1.535104 -1.8397778 -1.9135275 -3.1302857
000010 5c bf 3e c0 93 94 4a c0 82 bd 04 bf bb 14 e3 3d
       -2.9804296 -3.1653183 -0.51851666 0.110879384
000020 4a 81 40 3f
       0.7519728

weight f4 [1, 1, 3, 3]
000000 ca 91 62 bf 96 e7 67 be 9c e1 c3 3e 09 2e 59 bf
       -0.88503706 -0.22646937 0.38258064 -0.8483587
000010 e7 72 43 be a0 fd 75 3e e4 a5 f0 bf 33 77 74 3e
       -0.190868 0.24022532 -1.8800626 0.23873596
000020 90 45 2d 3f
       0.6768427

weight f4 [5, 100]
000000 3b 1d ae bf 96 9a 86 bf 74 b2 7f bf 09 fc 92 bf
       -1.360267 -1.0515926 -0.9988167 -1.1483165
000010 9d 70 a2 bf 44 fd 92 bf bd 86 a2 bf c2 8e 9b bf
       -1.2690617 -1.148354 -1.2697369 -1.2152941
000020 64 04 9c bf 38 ee b1 bf e3 86 9a bf 12 47 8f bf
       -1.218884 -1.3900824 -1.2072414 -1.1193564
000030 de 9c 88 bf e6 de 9a bf cf a6 a2 bf 69 92 a3 bf
       -1.0672872 -1.2099273 -1.2707156 -1.2779056
000040 68 4d 86 bf de 30 9d bf d1 c7 9d bf 17 f8 9b bf
       -1.0492373 -1.2280538 -1.2326604 -1.2185086
000050 c7 ef a6 bf ad 77 85 bf ec 63 80 bf 75 b3 6f bf
       -1.3041924 -1.0427147 -1.0030494 -0.93633205
000060 ae 0c 8b bf cd 08 91 bf 9a ad 95 bf 29 41 8a bf
       -1.0863245 -1.1330811 -1.1693604 -1.0801135
000070 b8 03 9e bf 02 0c 90 bf 0e fb 75 bf ae f1 94 bf
       -1.2344885 -1.1253664 -0.96086204 -1.1636255
000080 64 55 a2 bf 66 ad 84 bf 56 46 8b bf 43 c5 85 bf
       -1.2682309 -1.0365417 -1.088084 -1.0450824
000090 dd 9b 8e bf 70 df 93 bf c8 2f 9f bf c3 4a a1 bf
       -1.1141316 -1.1552563 -1.2436457 -1.260094
0000a0 77 2b 91 bf e0 5b 96 bf 4f 26 8e bf 64 e5 8f bf
       -1.134139 -1.1746788 -1.1105441 -1.124188
0000b0 5a 8e 82 bf 9a da 84 bf 63 b2 8f bf c8 87 94 bf
       -1.0199692 -1.0379212 -1.1226314 -1.1603937
0000c0 35 60 8f bf 2f 72 95 bf d2 ff 5e bf e2 7b 96 bf
       -1.1201235 -1.1675471 -0.871091 -1.1756556
0000d0 df 47 ab bf e1 29 a1 bf cb cf 9c bf 1f cb 8c bf
       -1.3381308 -1.2590905 -1.2250913 -1.0999488
0000e0 1b 38 8f bf 03 99 88 bf 93 d2 87 bf eb e5 97 bf
       -1.1188997 -1.0671695 -1.0611137 -1.186704
0000f0 45 27 64 bf 09 61 b4 bf 09 e4 c7 bf ec 3a b0 bf
       -0.8912242 -1.4092113 -1.5616466 -1.3767982
000100 a8 de 93 bf 0e 70 8c bf c9 8d 86 bf 30 15 92 bf
       -1.1552324 -1.0971696 -1.0512019 -1.1412716
000110 25 e5 8a bf 0e 5c 99 bf 20 a0 8e bf 9b 6a a2 bf
       -1.0851179 -1.1981218 -1.1142616 -1.2688783
000120 33 94 b9 bf 60 09 84 bf f6 0e 83 bf b2 d5 83 bf
       -1.4498352 -1.0315361 -1.0238941 -1.029959
000130 dd 1e 91 bf 69 5f 8c bf bd ab 8c bf aa 92 9a bf
       -1.1337544 -1.0966617 -1.098991 -1.2076008
000140 71 06 85 bf 58 af a0 bf a7 f6 a1 bf eb 8c 71 bf
       -1.0392591 -1.2553511 -1.2653397 -0.9435565
000150 c4 ea 7c bf 8b 44 8e bf 62 b8 8b bf a7 6c 9c bf
       -0.98795724 -1.1114668 -1.0915644 -1.2220658
000160 97 8f 8a bf 62 3f aa bf 0c 70 a2 bf 7b 20 98 bf
       -1.082507 -1.3300593 -1.2690444 -1.1884912
000170 6a 7a 8c bf e0 98 90 bf b2 50 9a bf 99 94 9d bf
       -1.0974858 -1.1296654 -1.2055876 -1.2310973
000180 84 24 96 bf 8c f5 97 bf c4 7b a1 bf a4 2d bc bf
       -1.1729894 -1.187181 -1.2615895 -1.4701428
000190 89 74 a9 bf 28 a9 76 bf 22 35 80 bf 63 28 8d bf
       -1.3238689 -0.9635186 -1.0016215 -1.102795
0001a0 f9 30 9f bf 3e 49 9d bf b4 c8 88 bf 45 33 90 bf
       -1.243682 -1.2287977 -1.068625 -1.1265646
0001b0 aa 02 9f bf 10 bc a0 bf f2 9b 90 bf b7 ea 82 bf
       -1.2422688 -1.2557392 -1.1297591 -1.0227879
0001c0 ac 28 83 bf e8 7e 86 bf e3 72 94 bf 2a fe 8d bf
       -1.0246787 -1.0507479 -1.1597561 -1.109319
0001d0 d8 da 90 bf c0 14 95 bf f7 e0 97 bf ad c4 88 bf
       -1.1316786 -1.1646957 -1.1865529 -1.0685021
0001e0 f6 30 9d bf 2f da 7e bf 56 21 59 bf b9 7c 71 bf
       -1.2280567 -0.9955167 -0.8481649 -0.94330937
0001f0 3a 27 7f bf 7a a1 82 bf 7f c6 94 bf 87 29 8e bf
       -0.9966923 -1.0205529 -1.1623076 -1.1106423
000200 42 ce 89 bf a0 91 9c bf d4 e6 81 bf 89 f5 8b bf
       -1.076607 -1.2231941 -1.0148568 -1.0934306
000210 0a bd 96 bf 75 69 81 bf af d6 8d bf 9b bd 79 bf
       -1.177644 -1.0110308 -1.1081141 -0.9755494
000220 99 33 85 bf af 5d 79 bf 8a eb 94 bf a0 d0 94 bf
       -1.0406371 -0.97408575 -1.1634381 -1.1626167
000230 28 23 84 bf b4 d1 87 bf 84 d9 86 bf 1a 1e 77 bf
       -1.0323229 -1.0610871 -1.053513 -0.96530306
000240 79 dc 72 bf a6 61 7f bf 1a e3 8b bf 2c cb 8e bf
       -0.94867665 -0.99758375 -1.0928681 -1.1155753
000250 75 4a 98 bf b2 6d 92 bf b6 b5 63 bf 5f dc 96 bf
       -1.1897722 -1.1439726 -0.88949144 -1.1786002
000260 dd 4b a7 bf 06 3e 9b bf af 82 8d bf a5 00 7f bf
       -1.3070027 -1.2128303 -1.1055506 -0.9961036
000270 8f b4 7d bf 5c 73 7f bf ed 35 89 bf 4b 6b 93 bf
       -0.99103636 -0.997854 -1.0719582 -1.1517118
000280 25 c9 5f bf 90 2b b0 bf dc b5 bb bf 06 4c ac bf
       -0.874163 -1.3763294 -1.4664874 -1.34607
000290 1f 01 7c bf c0 5c 6f bf 3d ec 8f bf 4a 45 8e bf
       -0.9843921 -0.935009 -1.1243969 -1.1114895
0002a0 84 1c 8c bf b1 3e 9c bf 4f 48 84 bf 3b 4b 9e bf
       -1.0946202 -1.2206632 -1.0334567 -1.2366709
0002b0 8c 93 ac bf b5 bf 7b bf 5a 0c 7b bf fa 90 82 bf
       -1.3482528 -0.98339397 -0.9806572 -1.0200493
0002c0 f5 16 8e bf 1d 89 85 bf 0f b1 86 bf e4 37 99 bf
       -1.1100756 -1.0432469 -1.0522784 -1.1970181
0002d0 21 14 75 bf 24 1e 90 bf 03 74 a4 bf 0a 21 53 bf
       -0.9573384 -1.1259198 -1.2847904 -0.8247229
0002e0 4f f9 6b bf 2f c9 89 bf 5d f4 83 bf 71 a6 8c bf
       -0.9217729 -1.0764521 -1.0308949 -1.0988294
0002f0 28 49 86 bf a9 39 8c bf 03 7e a3 bf 6b 60 8b bf
       -1.0491076 -1.0955096 -1.2772831 -1.08888
000300 36 35 90 bf 8c ed 89 bf 7e 73 8d bf 28 de 95 bf
       -1.1266239 -1.0775619 -1.105087 -1.1708422
000310 5f 95 9b bf 68 55 90 bf 4b c2 a0 bf 50 11 9e bf
       -1.215496 -1.1276064 -1.2559294 -1.2349033
000320 ab 95 99 bf 20 f3 4e bf 49 f1 5b bf 00 b8 6c bf
       -1.19988 -0.8083973 -0.85915047 -0.9246826
000330 60 44 7f bf 0c 6f 82 bf b2 1b 6a bf 5b a0 84 bf
       -0.99713707 -1.0190139 -0.9144851 -1.0361437
000340 73 80 88 bf 4d fd 93 bf c0 8a 78 bf c4 8f 6c bf
       -1.06642 -1.1561676 -0.97086716 -0.9240687
000350 5a 60 71 bf 0c 9a 71 bf cb 40 90 bf 1c 4d 66 bf
       -0.94287646 -0.9437568 -1.1269773 -0.8996141
000360 30 66 62 bf 6f 3b 7b bf d4 89 82 bf 3d 8c 88 bf
       -0.88437176 -0.98137563 -1.0198312 -1.0667797
000370 cc 53 94 bf 71 6b 5a bf 77 34 3d bf b9 8f 51 bf
       -1.1588073 -0.8532019 -0.7390818 -0.8185993
000380 fb ed 6b bf 4b 97 7d bf 0c 9b 74 bf 2b 1b 51 bf
       -0.92160004 -0.9905898 -0.9554908 -0.8168208
000390 09 56 7b bf 54 f8 7d bf ae 0f 41 bf 23 fd 6b bf
       -0.98178154 -0.99207044 -0.7541455 -0.9218313
0003a0 b8 bb 80 bf 56 ce 46 bf 85 d9 5a bf 6a 9e 4e bf
       -1.0057287 -0.77658594 -0.8548816 -0.8071047
0003b0 0a c4 62 bf 97 27 70 bf 4d d9 5c bf c5 3f 85 bf
       -0.8858038 -0.9381041 -0.86269075 -1.0410086
0003c0 44 e4 6d bf 02 3b 79 bf 2d f7 66 bf a8 0d 68 bf
       -0.9292643 -0.97355664 -0.9022091 -0.9064584
0003d0 74 0d 57 bf c7 72 44 bf b1 59 5b bf ac e8 73 bf
       -0.840049 -0.76737636 -0.85683733 -0.95276904
0003e0 da fd 7b bf 99 c0 5b bf cd 78 0e bf de 36 66 bf
       -0.9843422 -0.85840756 -0.5565308 -0.8992747
0003f0 21 6a 83 bf 97 6b 7b bf 1e 85 7f bf ac 4c 66 bf
       -1.0266763 -0.98211044 -0.99812496 -0.8996074

bias f4 [5]
000000 9f af 13 c1 d6 80 4f c1 ec f8 a5 c1 05 30 e1 c1
       -9.230376 -12.968954 -20.746544 -28.148447
000010 1f 1b 9b c1
       -19.388243
