data/b4_r0_m20_s200--2019-01-09--215705.861725/episode_12000.model (torch_old, 70087 bytes, 8 tensors)

weight f4 [6, 6, 3, 3]
00000000: 69c2 95bd 5e01 e73d 1815 9f3c f8c6 c93c
00000010: 2f9b 81bd 4023 cf3c 0bac a1bd f0b8 9a3d
00000020: c8dd 4bbd bda3 a43b 8261 70bd 37f8 363d
00000030: e003 083e 3794 823d 34f0 dfba 5e89 b43b
00000040: 2068 dbbc 54f9 10bb b97f dbbe 9369 91bf
00000050: 580b 68bf d930 81be 2921 95bf 0ede 30bf
00000060: af38 79be cdfc 18bf 9cae 83bf 5a21 dabd
00000070: 8096 0b3d 9686 45bd 9029 643c 942b 483d
00000080: 92f1 9f3d deba 64bd 8ca3 e33d db21 f7bd
00000090: f322 d83d f58d 6cbf bcb4 b4be a84a 06bf
000000a0: a4b7 b9be 4eb2 41bf 6c0a d1be 28e6 5dbf
000000b0: 3048 58be d111 243e fbfd 1dbe e658 9ebc
000000c0: e647 db3d 5b03 08bd 8cbb 3b3b 366c 3f3d
000000d0: 192e 24bb c42f 0bbd 748b 953d 74cd cb3d
000000e0: 10ed ea3d d87b 493d 8411 e0bd a93d 86bd
000000f0: f8f7 093d 3c52 f83d 1cf9 94bd 1c36 23be
00000100: d06d 03bf d1c1 97bb 3e1f 893d c61f 873c
00000110: 3fe0 cdbc f0a9 82be 1eaf b7be affb b93c
00000120: 4540 d8bc 2a0e c1bd c8a9 56bc af17 663d
00000130: 2f2b ef3d dd2f bd3d 2dab 263d d42f a93d
00000140: 512b b43d 2e0f d93d 6a7e b03d 00ee 06ba
00000150: 8825 893d fc9d 043d e474 89bc b606 a2bd
00000160: 88b4 283d 00f6 013a a2a1 b63e dcf9 773e
00000170: b513 673e 3b39 833d 6f4d a23e 5f2a 323f
00000180: c4c8 003e b692 e33d 5f2d 4d3e 1b6f 91bd
00000190: 7b61 ffbd 79c7 ad3e 3c6d 98bc 7070 cebe
000001a0: 5dd1 473e ab24 c23d 5332 31bd 6f0d 39bd
000001b0: c5ea a1bd 080a d1bd 285d ea3d 35e3 a7bd
000001c0: 5269 edbd 3c67 06be 7c42 913d 1807 9dbc
000001d0: 98aa 0abe a70f d13d 5c09 7bbd f630 9bbd
000001e0: 610f 2dbd 0a0d 88bd 37c5 8cbd a21a 303d
000001f0: 8416 663b 4008 283d 0885 343d cce6 fabc
00000200: 9c65 403c ff2c 123b f723 d13b 2407 8a3d
00000210: e2d5 3e3d fbc2 2b3d f5cb b13d 1855 6a3d
00000220: 808b 6a3d a861 95bd 462b a4bd 6c69 173d
00000230: 3c2d 08be eb49 c0bd 74de ee3d 74ac 2abd
00000240: 9a18 9f3e e386 343e ea28 22bf 6440 35bf
00000250: 84b7 31bf 84ae 30bf 633e 08bf 553e 1d3f
00000260: 4392 f4be bb96 453d bc73 1abd d614 ec3c
00000270: 6e38 60be 27a6 3abe af3a 8bbe e5e7 003d
00000280: dfd1 dd3d c1e2 1e3e 94be 61bd 349f 9cbd
00000290: 2c3f 083e 44ec b7bc c4d3 403d a8e9 933d
000002a0: b421 543d 5c80 043e fa52 a5bd e840 ecbd
000002b0: 19b4 c7bd 8ba5 1a3e 63d8 93bc ce07 50bd
000002c0: f91d fb3d 2373 053b 8760 4a3c 4d2d ee3d
000002d0: c089 b83c d551 f43b ae61 d5bd a916 cd3d
000002e0: 1e0d 243c f390 b13d d64d 7c3d d28e 5c3d
000002f0: 16af db3d 9a43 043e 4028 4a3c a8ee 9e3d
00000300: b468 993d b36d f3bd 8c79 b43d fe80 aabd
00000310: 508a edbd 1b61 88bd c375 fbbd 95d1 08bf
00000320: 46ec 06bf b873 69bd f5c1 453e 89b4 ae3e
00000330: 3393 31bf 16e6 59bf 66fe 88bf 8cf9 a1be
00000340: 51e0 18bd 38d2 083e cbb0 fcbd 2b03 c6bd
00000350: 3475 d03c 7804 cebd ec6b a5bc df5f 803d
00000360: 40fc b53c d196 8bbd 3048 273d 50d6 473c
00000370: 8c44 bfbd e04f 8c3d 08d0 32bd 58b8 e6bd
00000380: b879 033e c2a2 9bbd 07ca 2fbe 534f 11be
00000390: 3d81 c83d 6c58 803d 733f 67bd b4e6 153e
000003a0: 8c62 953d 2509 913d 9d8f 263e 85ff 9e3e
000003b0: 5fcc 5f3e dbcf 623e 4a51 913e 3f94 7a3e
000003c0: e4bd 5e3e 19cf db3e 927c 8a3e 102d 0abd
000003d0: e86b 933c 5855 503d c016 a73b 0867 a63d
000003e0: 3b23 94bd 383d 4ebd b081 b43d 008e 8fbb
000003f0: 0e15 183e f738 2d3e d7a5 823d 52b7 943e
-0.073124714 0.11279558 0.019419238 0.024631009 -0.06328427 0.025285363 -0.07894143 0.07554805
-0.049772054 0.005024402 -0.05868674 0.04467031 0.13282728 0.06375926 -0.0017085136 0.0055095395
-0.02678305 -0.0022121267 -0.42870882 -1.1360344 -0.9064231 -0.2523258 -1.1650745 -0.6908883
-0.2433803 -0.59760743 -1.0287662 -0.106508926 0.034079075 -0.048224054 0.013925925 0.048869684
0.07809748 -0.055842273 0.111151785 -0.12067004 0.10553541 -0.9240411 -0.3529414 -0.52457666
-0.3627292 -0.75662696 -0.40828264 -0.86679316 -0.21121287 0.16022421 -0.15428917 -0.0193295
0.10707073 -0.033206325 0.0028645722 0.046734057 -0.002505189 -0.0339811 0.07301989 0.099512964
0.11470997 0.049190372 -0.10940841 -0.065547295 0.033683747 0.1212506 -0.07274076 -0.1593861
-0.51339436 -0.004631259 0.06695412 0.016494643 -0.025131343 -0.25520277 -0.3587579 0.02270302
-0.026397834 -0.0942653 -0.013102002 0.05617493 0.116781585 0.09237645 0.04069059 0.082610756
0.087973244 0.105985984 0.086178616 -0.0005147159 0.06696612 0.03237723 -0.01677937 -0.07911436
0.041187793 0.00049576163 0.3567019 0.24216408 0.22566111 0.064074 0.31699702 0.69595903
0.12576586 0.11111967 0.20036839 -0.0710127 -0.12469765 0.33941248 -0.018606775 -0.40320158
0.1951346 0.0947965 -0.043260884 -0.045178827 -0.07906107 -0.102069914 0.114435494 -0.08197633
-0.11592354 -0.13125318 0.07092759 -0.019168422 -0.13541639 0.102080636 -0.061288223 -0.07577698
-0.042250995 -0.06643112 -0.06873553 0.04299415 0.0035108635 0.041023493 0.04407218 -0.03062763
0.011742976 0.0022304652 0.006382461 0.06739643 0.046590693 0.041933995 0.0868148 0.057210058
0.057261944 -0.07294017 -0.08016066 0.036965773 -0.13298506 -0.09389099 0.11663523 -0.04166837
0.31073457 0.1762958 -0.6334368 -0.7080138 -0.6942065 -0.6901629 -0.53220195 0.61423236
-0.4776784 0.04823945 -0.03770803 0.02881853 -0.21896526 -0.18227445 -0.2719321 0.03147115
0.10831045 0.15516187 -0.05511339 -0.07647553 0.13305348 -0.022451527 0.047076955 0.07222301
0.051789954 0.1293959 -0.08072467 -0.115358174 -0.09751148 0.15102212 -0.018047517 -0.050788693
0.12261576 0.0020362816 0.0123521155 0.11629734 0.022526622 0.007456044 -0.104190215 0.10014088
0.010012893 0.08670225 0.061597668 0.05384714 0.10726754 0.12916413 0.012338698 0.07760364
0.07490674 -0.11886158 0.08812246 -0.083253846 -0.11598647 -0.066591464 -0.12278321 -0.53444797
-0.52704275 -0.056995124 0.1931227 0.34122112 -0.69365233 -0.8511671 -1.0702636 -0.31635702
-0.0373233 0.13361442 -0.12338408 -0.09668573 0.025446512 -0.10059446 -0.020193063 0.06268286
0.022215009 -0.06815875 0.040840328 0.012197092 -0.09339246 0.068511724 -0.043655425 -0.112656295
0.12839401 -0.07599403 -0.17166911 -0.14190416 0.09790275 0.06266865 -0.056456994 0.14638788
0.07294187 0.07081822 0.16265722 0.3105432 0.21855305 0.22149603 0.2838233 0.24470614
0.21752125 0.4293144 0.27048165 -0.03373438 0.01799579 0.05086264 0.0050991476 0.081251204
-0.07233282 -0.05035135 0.088137984 -0.0043809414 0.14851782 0.16916262 0.06379288 0.29046112

bias f4 [6]
00000000: 4874 7b3d b643 1c3d 53d9 94bd 2863 10bc
00000010: d1cf f7bd cc16 d63b
0.06139019 0.03815051 -0.07268014 -0.008812703 -0.12100185 0.0065334793

weight f4 [6, 6, 3, 3]
00000000: 0d16 e3bd 1990 1fbe a4e1 1fbe 0e9a 90be
00000010: 13d3 34be 38fb c0bd cf39 73be abe7 3ebe
00000020: 0531 8dbe 2e27 d03c d8b7 313e e5fa e03d
00000030: 97f9 1d3e 6fa9 0b3e aa9f bd3d 8a43 74bb
00000040: 9afa 573e 90e9 2a3e 9179 53be c3e9 2b3d
00000050: 4633 323e b506 663d 3af9 76bb 56e5 19be
00000060: 5b59 55bd dfa6 d13c 55a4 393d 9ea9 a03e
00000070: 4050 483e ccf3 7dbb d887 093e 2a75 d73c
00000080: 14dd d13d 7eb0 3fbb 99af d93d 0505 873d
00000090: 206a 583d 6014 933b b0cd 993d 2a8f ae3d
000000a0: d380 91bc 2805 ab3d c48b 5d3e e6a6 e23c
000000b0: b507 3f3e 2447 a3be 63dd 2dbe f0fe 013e
000000c0: 4b7e 88be 067c 26be 7c20 8abc e97e b7be
000000d0: 6656 de3c 947b 163c 306e 15be 9067 213c
000000e0: 9bb6 8ebd ed1c 02be fcf5 9fbe 73fd 8ebd
000000f0: 615d 37be 75bf 99bd 05ff 60be 99c6 743e
00000100: 58df acbc d856 25bf 39aa 753e f49a c3bc
00000110: be85 aabe a9b3 273e 4e20 babd 0da0 5dbe
00000120: 7eca d83d 7c44 27bd 96e1 923e 7f78 013c
00000130: 2d57 a23e aa45 443e 3295 383c 0089 133e
00000140: 0ef5 bcbc f69a d43d 25bb b43c d127 693e
00000150: 77a5 203e d758 4fbe 587c 47be 3480 3e3e
00000160: 6322 9c3e 828f d63e 98f5 583e 8e9d b6bd
00000170: 50fa ba3d 07ff c13d d792 a33d 6295 fabb
00000180: 6983 613d 328d f2bd f245 34bd 57a5 f2bd
00000190: 2ceb 87bd 1d49 5d3e cfaa 85be 3ff5 993e
000001a0: 86ae 433e 9da0 0e3d a09c 91bd 1b7f d23c
000001b0: 6e1f 1abe 8aa4 203d 480a b8bc e1d5 1cbe
000001c0: 8d9a b5be f328 43be ad86 31bd 843b d6bd
000001d0: 18d5 13be d4fd 033c d0cb 2bbd 2c0f 90bd
000001e0: c8ec 75bc 66b0 a2bd 042a 44be 5e72 05be
000001f0: c241 c5be f812 92be fc86 71be cd3f f5bd
00000200: f2fc 833e ee9b 93be 9ee5 953e 54de 193e
00000210: 6977 b03d 7be4 783e a6c6 423e 6c93 803d
00000220: 4643 be3d c2d3 ac3d 992f d33d 6eae e83d
00000230: 1600 0f3e bee8 7ebd 2e03 a33d d0bb b13d
00000240: 13f2 353d de60 a43d 731c 98bc ef3b 323c
00000250: 6dd7 8abd 212c c9ba 5240 513d f7ac 103d
00000260: 7b20 1d3d 838d 1fbe 04ca a5be b5db 363d
00000270: 1ad5 1ebe 46f2 8b3e cc27 9fbb a49f 5fbe
00000280: 7e30 c2bd ede4 983a 0752 7cbd 9ec2 083e
00000290: 7b94 fa3d ad09 b7bd 9278 d73d ccce a2bd
000002a0: aa74 3cbb 68ce 8bbc 0086 4ebe e084 9cbd
000002b0: c11b 81be 0091 3dbe def5 aabd 0e0a 3fbd
000002c0: 16b7 e5bd 993a aebe 3a29 cbbd f2ee 843e
000002d0: 727f e93c b99c ba3e 4048 a13e 6a34 4d3e
000002e0: 9aca 523e 2d54 cb3e 3e39 27be 9baa 82bd
000002f0: 3a81 4e3e 9906 3cbc 00dd 843e 47a7 d03d
00000300: f8a1 87be 6dcd d7ba 0d9a 56be 99d2 a23e
00000310: 49b0 043f fea0 5c3e 0641 3fbc 6639 bf3c
00000320: 6244 49be c3c0 823b fbdf c5bd c362 74bc
00000330: 0ab6 38bd d8b6 703c 326e b3be f3f3 fc3c
00000340: c46d 913d db67 143d 0c46 163e 674f 813d
00000350: c06c 473e 132f 9fbe ef50 ecbe a50e e0bd
00000360: 6694 dc3d 11c6 01be 77b8 803d 3ff1 203e
00000370: 3665 b3bd ffc6 b1bd e591 a0bc b9be b5bd
00000380: af54 ba3d 2cbe 5ebd 6210 843e 35b3 ef3e
00000390: 3c54 63be 7599 c2bc 4042 d53d d92b 62be
000003a0: c767 64be 8de2 85bd 48f9 8ebf 18b4 25be
000003b0: 35c0 b5bd c4fb ecbe 2cb8 913e b68c 973e
000003c0: 7587 f1be 19c0 4e3e cb11 b03e 5544 0c3d
000003d0: 4a78 d0be 6838 76be cd22 0ebb da62 18be
000003e0: df41 5bbc cac8 1dbd 318d 7fbe 6ed4 2dbf
000003f0: cffc 063d 7117 d5bd 3f48 8cbd 59f6 0e3e
-0.1108819 -0.15582313 -0.15613419 -0.28242534 -0.17658643 -0.09422916 -0.23752521 -0.18643062
-0.2757646 0.025409307 0.17355287 0.10985354 0.15427242 0.13638853 0.09258969 -0.0037271702
0.2109169 0.1669066 -0.20651843 0.04197098 0.17402372 0.05615874 -0.0037685172 -0.15028891
-0.05208717 0.025592266 0.045322735 0.31379408 0.19561863 -0.003875005 0.13430727 0.026300985
0.102472454 -0.0029249485 0.10629196 0.06592754 0.052835584 0.004488513 0.07509935 0.085234
-0.017761623 0.08350593 0.21635348 0.027667474 0.18655284 -0.31890213 -0.16978984 0.12694907
-0.26658854 -0.16258249 -0.016861193 -0.35839012 0.027140807 0.009184737 -0.14592814 0.009851351
-0.06968423 -0.12706347 -0.3124236 -0.06981935 -0.17906715 -0.07507221 -0.21972282 0.23903884
-0.021102592 -0.6458564 0.23990716 -0.023877598 -0.33305162 0.16377129 -0.09088193 -0.21643086
0.10585497 -0.040836796 0.28687733 0.007902264 0.31707135 0.191672 0.01126604 0.1440773
-0.02306607 0.10381119 0.022061894 0.22769095 0.1568812 -0.20248733 -0.19481027 0.18603593
0.30494985 0.41906363 0.21187437 -0.0891677 0.091297746 0.09472471 0.07986992 -0.0076472024
0.055056963 -0.11843337 -0.044012018 -0.11847942 -0.06636652 0.21609922 -0.2610688 0.3006992
0.19109544 0.03482114 -0.07109952 0.025695374 -0.15051052 0.039219417 -0.02246584 -0.15315963
-0.35469475 -0.1905859 -0.043341327 -0.104605705 -0.14436758 0.008056123 -0.041942418 -0.07034144
-0.015010066 -0.079438016 -0.19156653 -0.13031909 -0.38526732 -0.28530097 -0.23586649 -0.1197506
0.2577892 -0.28829902 0.29276747 0.15026218 0.08616526 0.24305908 0.19021091 0.062781185
0.09290175 0.08438827 0.10311813 0.11361395 0.13964877 -0.06223368 0.07959591 0.086784005
0.044420313 0.080262884 -0.018568253 0.010878547 -0.067793705 -0.0015348234 0.05108673 0.035321202
0.038361054 -0.15581326 -0.32380688 0.044643123 -0.1551098 0.27333277 -0.004857039 -0.21838242
-0.094819054 0.0011664905 -0.061601665 0.1335549 0.12235352 -0.089373924 0.10521044 -0.079495996
-0.002875606 -0.017066196 -0.20168304 -0.076425314 -0.25216487 -0.18512344 -0.08347677 -0.04664045
-0.112165615 -0.3402908 -0.09919973 0.2596355 0.028503153 0.36447695 0.31500435 0.20039526
0.20585099 0.3971266 -0.1633043 -0.06380197 0.20166484 -0.011476182 0.2594986 0.101881556
-0.2649076 -0.001646442 -0.20957203 0.31801298 0.5183149 0.21545789 -0.011673218 0.0233428
-0.19654992 0.003990264 -0.096618615 -0.014916125 -0.04509548 0.014692031 -0.3504501 0.030878043
0.07101014 0.036231857 0.14675158 0.06313973 0.19475079 -0.31090602 -0.46155497 -0.10940293
0.10770492 -0.12673213 0.06285184 0.15717028 -0.08759539 -0.086805336 -0.019600818 -0.08874268
0.09098183 -0.05438058 0.2579375 0.46816412 -0.22200102 -0.023754815 0.10413027 -0.22087039
-0.22305213 -0.06537352 -1.1169825 -0.16181982 -0.08874551 -0.46285832 0.28460824 0.2959954
-0.47173658 0.20190467 0.34388575 0.034244854 -0.40716773 -0.24044955 -0.0021688223 -0.14881459
-0.013382404 -0.038521565 -0.24956204 -0.67902267 0.03295594 -0.10404862 -0.06849717 0.13961162

bias f4 [6]
00000000: 6cdd 893d 5f19 44be d979 c53d 74d6 2bbd
00000010: ad91 1fbd baf9 cebd
0.06731686 -0.19150303 0.09642381 -0.041952565 -0.038957287 -0.10106225

weight f4 [6, 6, 3, 3]
00000000: 6369 79bb 9f90 a6bd ef41 0ebd 77f0 a9bc
00000010: 4058 09be dea6 edbd ae0f bdbd 7d52 edbd
00000020: c870 dabe 3b74 c9be 64c3 7d3d 43b5 d9bd
00000030: 4631 89be 5137 113d 29a7 183e 2813 09be
00000040: 2db6 303e ed70 483e da7d 37be 31eb c0bd
00000050: 5fac fabd 8146 e6ba 9789 21be 53fa aabe
00000060: c91d 3cbe 86a8 6fbe afa0 22be 0224 bfbe
00000070: 18b0 393d f575 863d 5f8c 86be e7d8 073d
00000080: 876e d03c 20a3 333d 0037 4b3e 5196 57bd
00000090: ed4b 373e 50ee 073e c34b 9b3e a154 91bd
000000a0: 2b06 dd3d 0e79 a13e 22b0 d33d 7c49 8d3e
000000b0: d523 f73e 5d95 2fbe 4bf0 25be 4014 12be
000000c0: d45d 933e 9321 ac3d 7931 4ebe 3c2c 463e
000000d0: 29d3 9dbe a391 73be 8b8e cfbc a651 50bd
000000e0: 3fac 7d3d 2871 1e3e 7a70 283c 40a0 1b3d
000000f0: e688 003e a21f c23c e8f9 833d 1e3e bb3e
00000100: 8dae 1dbd ebed e5be 156f 603e 7be4 19be
00000110: 7286 8bbd b74f bdbc 5636 9c3e 81c9 f8be
00000120: a652 a83e b585 1a3d 4c9b 873d eed7 ba3d
00000130: 6a63 133d b005 d539 ddae 0a3e 6441 06bd
00000140: 6d8f 60bd 102b a2bd abe5 cebe b9a0 2ebe
00000150: d870 febd 0447 d0be bf7a b5bc cbf5 b8bd
00000160: b46d 9ebd df3f 11bd 045d f5bd 3b2a 5cbd
00000170: ebfa 50be f1e8 13bd 5a4d 823e 742b 113d
00000180: 24db 1cbb 616d 76be ceac 88be e008 b73c
00000190: 6f91 6c3e d2dd 8f3e 61ab f43d 180d 0b3e
000001a0: 59ca d53d d586 d63d 0c82 143d 5fe8 be3d
000001b0: 2572 24be 20a5 03bd be1f 3a3d 948a 743e
000001c0: fc3a 2cbd a107 7b3d d86b bdbc bd81 5cbe
000001d0: 6e4a b1bd 3adc 0cbe 5c96 41be 595f 42bd
000001e0: 93a2 6dbc 57a9 82bd 3595 6cbe cdb8 babc
000001f0: 7973 64bd b1c8 94be 7775 033e d69f c43d
00000200: a202 593e 55a0 dabe 4de3 ffbc 7caf c0bd
00000210: b02b 91bc 5e86 293e cf61 d03d 5cf3 70bd
00000220: f0f0 383d a231 023e dfd1 4e3e 8b1a 933d
00000230: da4a 20be 6f05 963d f2aa 223c a36d e23b
00000240: 7645 9cbe 8a15 2a3e 536f 82be 0e4d dabd
00000250: f5e1 9f3d 56cd f8bd 2390 063d b4e9 80be
00000260: 9b00 3fbe f849 0c3e 8755 eebd 08e6 453e
00000270: 3cc4 c9bd 50d5 5fbe 2480 7e3d b69a aa3d
00000280: 6b8a dbbd d642 dd3d 82af 15bd 3cb2 533d
00000290: a6e9 76be 65f2 6ebb 4f5b 6c3e c85f e9be
000002a0: 6de6 063e 0b18 00be fe96 d4be 4122 24bf
000002b0: 2a28 23bf 9789 83be 5506 25bf 8f4c a0be
000002c0: 97de 95bd 431e f9be 0f14 8abe 10a3 033e
000002d0: 1857 3bbf 56c3 2bbd 57c8 d8be 3b92 6bbf
000002e0: 1537 4cbe e70e 9bbe 520e 33bf 2d38 d2be
000002f0: ebd2 1abf 5157 1dbe 7bad c53e b06a 8f3e
00000300: 5684 69be 05af 173e 4887 963e de7c 04bc
00000310: 2a00 913e f4d9 6f3e 428d c3bd f72b 9b3e
00000320: dc29 bb3d 2e99 5cbe fa61 9f3e e458 8d3e
00000330: f4d0 f93d 82ea da3e c7e8 193e c68d 1f3e
00000340: f527 95be c34c ae3d 7e44 fe3c 3ed0 2c3e
00000350: eab2 513e 070f ea3d 159d 0b3e fbe7 f93d
00000360: 17ba f2bd bcff f3bd aa20 b5bd fe69 97bd
00000370: 31d2 163d 92b2 133d 425b 1fbd 8425 97be
00000380: 522e d0bd f369 263e b44f 3e3e 0385 b43e
00000390: ffca fa3d 996f a33e 77ac af3e 5cd0 90be
000003a0: 2866 05bd a094 85bd af23 7f3e 6085 1abd
000003b0: 5295 f23c 24f6 0b3e c369 2c3e 5902 0bbe
000003c0: 006f f13d cdb2 493e 541c cebe 8572 4f3d
000003d0: ab8e 2abd 1f66 203e 1dee 553e ec58 abbc
000003e0: 7efb 133d 226d 0bbe 03c4 1ebe c972 363d
000003f0: 3f97 d23c d200 f83d 3dbb 1e3e b821 2d3d
-0.00380572 -0.08133053 -0.034730848 -0.020744545 -0.13412571 -0.11604093 -0.09231506 -0.11587999
-0.4266417 -0.3934649 0.061953917 -0.10630276 -0.26795405 0.035453144 0.14907517 -0.13386214
0.17256995 0.19574328 -0.17919102 -0.09419859 -0.122399084 -0.0017568619 -0.15775143 -0.33394107
-0.18370737 -0.2340413 -0.15881608 -0.3733216 0.04533395 0.06565467 -0.2627897 0.03316584
0.025443329 0.04385674 0.198452 -0.052633587 0.17900057 0.13274503 0.3033124 -0.0709622
0.10792192 0.3153767 0.10336329 0.27595127 0.48269525 -0.17146821 -0.16204946 -0.14265537
0.28782523 0.08404841 -0.2013606 0.19352812 -0.30825165 -0.23786025 -0.025336524 -0.050859116
0.061931845 0.15472853 0.010280723 0.037994623 0.12552223 0.023696724 0.0644415 0.3657083
-0.038496543 -0.4490808 0.21917374 -0.15028565 -0.06812753 -0.0231093 0.30510205 -0.48591235
0.32875556 0.03772517 0.066214174 0.091232166 0.03598348 0.00040630763 0.13543268 -0.032777205
-0.05482428 -0.0791837 -0.40409598 -0.17053498 -0.12423867 -0.4067918 -0.022153256 -0.09031256
-0.07735768 -0.035461303 -0.11980632 -0.05375121 -0.20408218 -0.036110822 0.2544964 0.03544183
-0.002393433 -0.24065162 -0.2669434 0.0223431 0.23102354 0.28098923 0.119467504 0.13579214
0.104389854 0.10474936 0.036256835 0.09321665 -0.16059168 -0.032139897 0.045440428 0.23880988
-0.04204844 0.061286572 -0.023122713 -0.21533866 -0.086567745 -0.13755885 -0.18905014 -0.04745421
-0.014504093 -0.06379955 -0.23103793 -0.022793198 -0.055774186 -0.29059365 0.12837778 0.09600799
0.2119241 -0.4270045 -0.031236315 -0.09408471 -0.017721027 0.16555163 0.101749055 -0.058825836
0.04515165 0.12714246 0.20197247 0.07182797 -0.15653554 0.07325255 0.009928452 0.0069100424
-0.30521744 0.16609779 -0.2547556 -0.10659228 0.0780677 -0.1214854 0.032852303 -0.251783
-0.18652575 0.13700092 -0.11637407 0.19326031 -0.09851882 -0.21858716 0.062133923 0.0833029
-0.107197605 0.108037636 -0.03654433 0.05168365 -0.24112567 -0.0036460396 0.23081706 -0.45580888
0.13173838 -0.12509172 -0.41521448 -0.6411477 -0.6373316 -0.2569091 -0.64462787 -0.3130841
-0.07317846 -0.486559 -0.26968428 0.12855172 -0.7317977 -0.041934334 -0.42340347 -0.92020005
-0.19942887 -0.30284807 -0.69943726 -0.41058484 -0.60478085 -0.1536534 0.38608918 0.28011084
-0.22804388 0.14812858 0.29400086 -0.008086411 0.28320438 0.23422986 -0.09548427 0.3030698
0.091388434 -0.21542808 0.31129438 0.2760688 0.12198058 0.4275704 0.15030204 0.15581426
-0.29132047 0.08510735 0.031038519 0.16876313 0.20478407 0.114286475 0.13634141 0.1220245
-0.118519 -0.11914012 -0.08844121 -0.07393263 0.036821548 0.03605897 -0.03890539 -0.2952081
-0.10165085 0.16251354 0.18585092 0.3525773 0.1224575 0.3192108 0.34311268 -0.28283966
-0.032568127 -0.065224886 0.24915956 -0.037724853 0.029612217 0.13668114 0.1683722 -0.13575114
0.1178875 0.19697113 -0.40255988 0.050646324 -0.041639965 0.15663956 0.20891614 -0.020916425
0.036128514 -0.1361585 -0.1550446 0.04454306 0.025706885 0.121095315 0.15501113 0.042268485

bias f4 [6]
00000000: 022d d93b 34bb 283c 7f93 a73c 83ea b3bc
00000010: aa7d 05bc dd26 15bc
0.00662768 0.010298539 0.020456074 -0.02196241 -0.008147636 -0.009103504

weight f4 [5, 2646]
00000000: e8f5 eabd 77bf 27be ab23 b6bd 23a1 18bd
00000010: 37d0 a33d 7df8 453e 96b6 5e3d 7a29 a03c
00000020: ed63 0dbe 1788 f43d 276b e5bd 2486 1b3e
00000030: 52fb e73d aab8 3ebc 4217 1abd ac51 6ebe
00000040: 9b5d f5bd ae86 34be 59ea 8abe 1330 0fbe
00000050: e60e a9bd 11f9 0fbd dbba 3c3d e64f 903d
00000060: e752 3ebd d43f 8d3b 71c3 833d 6c3a be3d
00000070: cc07 1bbe 47f6 663d 73f9 053e c25c ec3d
00000080: cf00 a23d 403d b6bd 13d2 9cbd 63b1 a43d
00000090: c9b9 eebd 8712 dcbd 3864 b1bd 2aa4 35be
000000a0: 263b 88be afaf 8ebe 6b66 4bba 2fc8 bdbd
000000b0: 8bcb ee3d 6d85 8cbc d506 bf3c b44e d03d
000000c0: 9725 07be ac41 42bd 653e 743c 95b8 4dbe
000000d0: 0b73 f33d d6da 33be 8414 92bc 1763 f4bc
000000e0: a60f 7bbe 41bf 08bd 407f 09bd 703a c3bd
000000f0: cb4d 73be cf3e b7bd 7bee bebe 4bc5 fb3c
00000100: 9044 10bd c796 093e 03e0 bcbc 4751 e93d
00000110: 88d0 d53a 8a6f 92bc 5f58 8a3c a727 5a3a
00000120: d5aa 533d d20b 503d 4c45 8f3d 40b6 af3d
00000130: 37b4 c4bd 4ae2 a3bd 33ed 92bc 7c2f b3bc
00000140: 9364 0b3e 7444 3abd e829 a9be 1fd7 b0bd
00000150: 20e2 f83d d8cb c2bd 84f5 a33d 2eb0 e93d
00000160: faf3 ef3d f382 19be 507d d73d eda4 d43d
00000170: b4e6 3cbd 674a e83d a2e0 e23d 4c3a 9f3d
00000180: 7aa6 b73d 9281 453d 5d4b c1bd b978 0a3d
00000190: aed1 4fbd 9b8d b8bb 83a2 56bd 3d4f 33be
000001a0: b54f 5fbe 6e19 5c3e 7b36 bd3c 46af 353c
000001b0: 3607 883d 1ca8 853d e61b c13b 3e1f 5d3c
000001c0: 0e70 923d ccd9 093d 3341 893c c2dd 463e
000001d0: c7ae 3d3e d656 963d 8611 a63d a393 783d
000001e0: 3987 6e3d f9de 5b3d 3d21 d43d a35c 833d
000001f0: cea3 a5be 9f55 ebbe 917c 97bc cbb1 bb3d
00000200: d737 313d caac 28bd 8d4d 84bd da12 fd3d
00000210: 4f26 ed3d c94e e63d d3a5 af3d a082 9ebd
00000220: c5e1 323e c12d cb3d 7311 a43e 44fa 803e
00000230: 6bba c73d 4f68 8a3c 020d a23d cedc ed3c
00000240: 46b9 35be 3840 59bd 6373 19be a187 e53d
00000250: a16f 3bbd 80ad 503e a339 043e d485 f03c
00000260: e462 70bd 2ea4 073e e842 cc3d f896 453a
00000270: e4db 72bd f9ff b63d a25a 093e bc4d be3d
00000280: 70f1 1cbb 764b b23d 1aec 863d dfa6 b03c
00000290: 7370 c9bb 3be7 3a3e 7d3f f7bd c148 54be
000002a0: 12d8 1bbc d075 fa3d 31ed ff3d 711f 323d
000002b0: 1498 df3d fe48 143e b8e0 813d 3033 a43d
000002c0: aa38 1ebd 332e 8dbc b05b d53d 300e 023e
000002d0: a80e b9bd 5ed0 5dbb cbe5 c53d e561 8e3d
000002e0: 345c 2a3d e1c1 1a3e 785f 0d3e 89ac 1dbe
000002f0: 31f5 85be becb 053b 73c3 303e 0150 353c
00000300: 3f0f c53a 6cc8 8c3c 3ae7 3b3d ec71 bb3d
00000310: 4705 903e f8cd 85bb 8e90 f03d 12fe 77bc
00000320: 9f12 363d a66e 6fbd 603f 8dbd 9634 8a3e
00000330: d09a ff3d 59ff ffbc 7e22 b1bc ffef ecbd
00000340: 4cec 00be 4b16 87be 0ac3 e63c 1451 84bd
00000350: b26b 443e 655c 323e ea01 003e e6b3 503e
00000360: 7204 fabc 72fb 4e3c 01a2 753e f9bd 88bd
00000370: ced8 633e c99a 34bd 5590 1c3e 87db 8d3d
00000380: 83ff a23d dbe7 4b3c 7eaa 603e d408 a4bd
00000390: 303a 74bc dc82 eb3b 32bf ebbc f432 18be
000003a0: 920e d73b 85e2 41bd a0a1 233d 046d 073e
000003b0: 9a61 f43d bb9b 22bc c800 eabc e3e3 f63c
000003c0: 0cbe 033e 74af 693e 2a6c 41be 576c 3d3c
000003d0: 1b86 513e 368c c93c d986 393e e122 a43b
000003e0: cfe4 693d 6e49 f23d fefa 8abe 9ece 10be
000003f0: b7ef 133d 1c32 e8bd f2ea 143e b590 f83d
-0.11472684 -0.16381632 -0.08893522 -0.037263047 0.07998698 0.19333072 0.054373346 0.019551028
-0.1380765 0.119400196 -0.11202078 0.1518789 0.113272324 -0.011640707 -0.037619837 -0.23273343
-0.119807445 -0.17629501 -0.27131918 -0.13983183 -0.08254795 -0.035149638 0.046076637 0.070464894
-0.04646578 0.0043105874 0.06433762 0.09288487 -0.15139693 0.056387212 0.13083439 0.1154113
0.079103105 -0.08898401 -0.07657256 0.08041646 -0.116565295 -0.10745721 -0.08661693 -0.17738405
-0.26607627 -0.2786841 -0.0007759097 -0.092666976 0.116599165 -0.017153466 0.023318687 0.101712614
-0.13197933 -0.04742591 0.014907454 -0.20089944 0.11887177 -0.17563948 -0.017832048 -0.029832406
-0.24517688 -0.03338552 -0.03356862 -0.095326304 -0.23760144 -0.08947527 -0.3729132 0.030733725
-0.035221636 0.13436423 -0.023056036 0.113924555 0.0016312758 -0.017875452 0.016887842 0.00083219487
0.05167659 0.050792523 0.06995639 0.08579683 -0.09604686 -0.080021456 -0.017935371 -0.021873228
0.13612585 -0.04547544 -0.33039784 -0.08634781 0.12152505 -0.09511536 0.08005813 0.11410557
0.11716457 -0.1499136 0.10521948 0.103830196 -0.046118453 0.11342316 0.110780016 0.07774791
0.089673 0.04821927 -0.094382025 0.033806536 -0.050737076 -0.005632115 -0.052401077 -0.17510696
-0.2180775 0.21494076 0.023097267 0.011089152 0.066420004 0.06526205 0.0058932183 0.013496218
0.07150279 0.033654973 0.016754722 0.19420531 0.18523704 0.073407814 0.08108811 0.060687672
0.058234427 0.05367944 0.10357902 0.064141534 -0.32351536 -0.4596376 -0.018492015 0.09164771
0.043266144 -0.04118041 -0.06460104 0.12357111 0.115795724 0.11245496 0.0857655 -0.077397585
0.17468937 0.09920836 0.32044563 0.25190938 0.09752353 0.016895441 0.07912637 0.029035952
-0.17746457 -0.05303976 -0.14985423 0.1120751 -0.045760754 0.20378685 0.12912612 0.02936069
-0.05868806 0.13246223 0.09973699 0.000753745 -0.059291735 0.08935542 0.1341348 0.092921704
-0.002394762 0.08705799 0.065880015 0.021563945 -0.006147438 0.1825227 -0.12072656 -0.20730878
-0.009511964 0.12229502 0.124964125 0.043487016 0.109176785 0.1448097 0.0634169 0.08017576
-0.038628258 -0.017233944 0.10417879 0.12700725 -0.090359986 -0.003384612 0.0966297 0.06952266
0.041591838 0.15113021 0.1380595 -0.15397848 -0.2616363 0.002041563 0.17262058 0.011066438
0.0015034451 0.017185412 0.04587481 0.09152588 0.28129026 -0.0040833913 0.117463216 -0.015136259
0.044451352 -0.058455132 -0.068968534 0.26993245 0.124807 -0.031249689 -0.021622892 -0.11569213
-0.1259014 -0.26384196 0.028169174 -0.06460777 0.19181708 0.17418058 0.1250073 0.20381126
-0.030519698 0.012633191 0.23987581 -0.066768594 0.22250673 -0.044092927 0.15289433 0.06926637
0.07958891 0.012445415 0.21940038 -0.08009496 -0.014906451 0.0071872305 -0.028777692 -0.14863187
0.006563016 -0.047335166 0.03994906 0.1322518 0.119326785 -0.009924824 -0.028564826 0.030137962
0.12865466 0.22820836 -0.18888918 0.011561475 0.20461313 0.02460299 0.18117847 0.0050090407
0.057102975 0.11830412 -0.27144617 -0.14141318 0.03611728 -0.113376826 0.1454275 0.12136976

bias f4 [5]
00000000: 2021 4bbd bbc6 7fbd 3e78 88bd 4dc1 cfbd
00000010: c1a9 87bd
-0.049592137 -0.062445384 -0.066635594 -0.10144291 -0.06624175
