data/b4_r0_m20_s200--2019-01-09--215705.861725/episode_3750.model (torch_old, 70087 bytes, 8 tensors)

weight f4 [6, 6, 3, 3]
-0.073124714 0.11279558 0.019419238 0.024631009 -0.06328427 0.025285363 -0.07894143 0.07554805
-0.049772054 0.023087788 -0.032737907 0.052931912 0.111601815 0.04341397 -0.043240376 0.057743426
0.022086425 0.008993169 -0.2767883 -0.62542117 -0.7478582 -0.39090198 -0.8170076 -0.6655647
-0.12256057 -0.6187015 -0.79197747 -0.106508926 0.034079075 -0.048224054 0.013925925 0.048869684
0.07809748 -0.055842273 0.111151785 -0.12067004 -0.17312317 -0.62420326 -0.09692317 0.36982143
-0.23553862 -0.39598486 0.22615139 -0.53387713 -0.26936612 0.15538841 -0.11557151 0.07927088
0.07395626 -0.029083602 0.031391483 0.0946461 0.03742266 -0.056483902 0.07301989 0.099512964
0.11470997 0.049190372 -0.10940841 -0.065547295 0.033683747 0.1212506 -0.07274076 0.05602155
-0.17855348 -0.07682873 0.06715381 -0.07617369 -0.07769264 -0.0057742125 -0.055047818 -0.07748664
0.09986779 0.1752705 0.10954542 0.2127218 0.17978674 0.06308652 0.12023563 0.121836886
0.14810885 0.105985984 0.086178616 -0.0005147159 0.06696612 0.03237723 -0.01677937 -0.07911436
0.041187793 0.00049576163 0.15630399 0.23816867 0.3612714 -0.05354653 0.5666965 0.33668593
-0.09434229 0.20736317 0.13976191 -0.013467259 -0.18349385 0.18519714 0.01617662 -0.15799643
0.20165956 0.07516195 -0.07044007 -0.045120433 -0.07906107 -0.102069914 0.114435494 -0.08197633
-0.11592354 -0.13125318 0.07092759 -0.019168422 -0.13541639 0.029672805 -0.032071862 -0.20083678
-0.07846716 -0.014048322 -0.11551356 -0.10031718 0.02607942 0.107451096 0.00087184604 0.015254142
0.03253987 0.12077123 0.025959006 -0.02205444 -0.07116944 0.1344536 -0.025689593 0.057210058
0.057261944 -0.07294017 -0.08016066 0.036965773 -0.13298506 -0.09389099 0.11663523 -0.04166837
0.21901801 0.095185876 -0.63998836 -0.43860438 -0.5172762 -0.6617546 -0.6747267 0.26010704
-0.12224686 0.039053608 -0.14450075 0.012431064 -0.0833173 -0.02658786 -0.11661874 -0.065251336
0.11862945 0.036311515 -0.05511339 -0.07647553 0.13305348 -0.022451527 0.047076955 0.07222301
0.051789954 0.1293959 -0.08072467 -0.13462679 0.02127119 0.09195882 -0.017229276 -0.006074656
0.046455234 0.039672118 -0.023580784 -0.03780756 0.050783753 0.11101328 0.018224921 0.090181276
0.16844726 0.1253395 0.13689117 0.13037284 0.10253536 0.12916413 0.012338698 0.07760364
0.07490674 -0.11886158 0.08812246 -0.083253846 -0.11598647 -0.066591464 0.026546216 -0.32440814
-0.46000597 -0.047627036 0.15152343 0.3460164 -0.37919757 -0.73936814 -0.8577126 0.0559152
0.016115386 0.06661552 -0.075902455 0.00027051845 0.061996177 -0.1339758 -0.037252583 0.015812173
0.022215009 -0.06815875 0.040840328 0.012197092 -0.09339246 0.068511724 -0.043655425 -0.112656295
0.12839401 -0.020233143 -0.079795904 -0.004824939 0.0692628 0.007152341 -0.07642482 0.022834346
0.080675766 0.07193078 0.18128364 0.23547739 0.22121409 0.14439347 0.25004348 0.24433033
0.1799562 0.33569103 0.23264422 -0.03373438 0.01799579 0.05086264 0.0050991476 0.081251204
-0.07233282 -0.05035135 0.088137984 -0.0043809414 -0.106748864 0.3063717 0.00873403 0.04228754
00000000: 69c2 95bd 5e01 e73d 1815 9f3c f8c6 c93c
00000010: 2f9b 81bd 4023 cf3c 0bac a1bd f0b8 9a3d
00000020: c8dd 4bbd 9a22 bd3c 2f18 06bd 22cf 583d
00000030: 7e8f e43d d9d2 313d d21c 31bd 5f84 6c3d
00000040: 97ee b43c 1658 133c 32b7 8dbe 9a1b 20bf
00000050: a373 3fbf 4e24 c8be 6927 51bf 7362 2abf
00000060: 0901 fbbd 3963 1ebf 09bf 4abf 5a21 dabd
00000070: 8096 0b3d 9686 45bd 9029 643c 942b 483d
00000080: 92f1 9f3d deba 64bd 8ca3 e33d db21 f7bd
00000090: 3347 31be c9cb 1fbf a87f c6bd 3c59 bd3e
000000a0: 0931 71be 87be cabe 3b94 673e 2cac 08bf
000000b0: 5bea 89be 241e 1f3e c1b0 ecbd c558 a23d
000000c0: 6176 973d bc40 eebc 5b94 003d d1d5 c13d
000000d0: 8148 193d aa5b 67bd 748b 953d 74cd cb3d
000000e0: 10ed ea3d d87b 493d 8411 e0bd a93d 86bd
000000f0: f8f7 093d 3c52 f83d 1cf9 94bd da76 653d
00000100: b9d6 36be 6258 9dbd f087 893d f400 9cbd
00000110: 521d 9fbd 9b35 bdbb d279 61bd 51b1 9ebd
00000120: 7c87 cc3d 1c7a 333e 5959 e03d bed3 593e
00000130: 041a 383e 8133 813d 193e f63d 9e85 f93d
00000140: d9a9 173e 2e0f d93d 6a7e b03d 00ee 06ba
00000150: 8825 893d fc9d 043d e474 89bc b606 a2bd
00000160: 88b4 283d 00f6 013a 270e 203e 7de2 733e
00000170: 91f8 b83e 9b53 5bbd 0613 113f 1962 ac3e
00000180: 8836 c1bd 0357 543e bf1d 0f3e c7a5 5cbc
00000190: d0e5 3bbe 52a4 3d3e d584 843c d1c9 21be
000001a0: d87f 4e3e 82ee 993d e242 90bd 34d0 38bd
000001b0: c5ea a1bd 080a d1bd 285d ea3d 35e3 a7bd
000001c0: 5269 edbd 3c67 06be 7c42 913d 1807 9dbc
000001d0: 98aa 0abe 6214 f33c c95d 03bd 28a8 4dbe
000001e0: 64b3 a0bd ef2a 66bc 6092 ecbd 1873 cdbd
000001f0: 82a4 d53c 520f dc3d 998c 643a 82ec 793c
00000200: 8748 053d e856 f73d fba7 d43c 83ab b4bc
00000210: 49c1 91bd 34ae 093e fb72 d2bc 1855 6a3d
00000220: 808b 6a3d a861 95bd 462b a4bd 6c69 173d
00000230: 3c2d 08be eb49 c0bd 74de ee3d 74ac 2abd
00000240: 4246 603e d0f0 c23d 47d6 23bf c190 e0be
00000250: 376c 04bf c068 29bf e4ba 2cbf c02c 853e
00000260: 905c fabd adf6 1f3d 01f8 13be a9ab 4b3c
00000270: 43a2 aabd c9ce d9bc ced5 eebd 7ea2 85bd
00000280: fff3 f23d 62bb 143d 94be 61bd 349f 9cbd
00000290: 2c3f 083e 44ec b7bc c4d3 403d a8e9 933d
000002a0: b421 543d 5c80 043e fa52 a5bd 9bdb 09be
000002b0: eb40 ae3c e854 bc3d 6924 8dbc e80d c7bb
000002c0: d847 3e3d 3b7f 223d 7d2c c1bc 1adc 1abd
000002d0: a002 503d ee5a e33d 6e4c 953c f6b0 b83d
000002e0: 707d 2c3e ff58 003e 332d 0c3e 7580 053e
000002f0: 0ffe d13d 9a43 043e 4028 4a3c a8ee 9e3d
00000300: b468 993d b36d f3bd 8c79 b43d fe80 aabd
00000310: 508a edbd 1b61 88bd 7377 d93c d318 a6be
00000320: e785 ebbe 9114 43bd f528 1b3e 1029 b13e
00000330: 2f26 c2be 3b47 3dbf 0e93 5bbf 5607 653d
00000340: 6a04 843c b86d 883d bf72 9bbd 5fd4 8d39
00000350: b4ef 7d3d f430 09be 2a96 18bd 8888 813c
00000360: 40fc b53c d196 8bbd 3048 273d 50d6 473c
00000370: 8c44 bfbd e04f 8c3d 08d0 32bd 58b8 e6bd
00000380: b879 033e fabf a5bc 096c a3bd 861a 9ebb
00000390: a8d9 8d3d 2f5e ea3b 9e84 9cbd 180f bb3c
000003a0: 5639 a53d 7250 933d 6ba2 393e fc20 713e
000003b0: f285 623e e2db 133e b305 803e bb31 7a3e
000003c0: 7046 383e b2df ab3e 493a 6e3e 102d 0abd
000003d0: e86b 933c 5855 503d c016 a73b 0867 a63d
000003e0: 3b23 94bd 383d 4ebd b081 b43d 008e 8fbb
000003f0: 269f dabd c0dc 9c3e 2d19 0f3c b335 2d3d

bias f4 [6]
0.07836448 0.09223332 0.06526829 -0.021590302 -0.08380066 -0.0011981805
00000000: 8e7d a03d d3e4 bc3d 62ab 853d 25de b0bc
00000010: ae9f abbd 440c 9dba

weight f4 [6, 6, 3, 3]
-0.25399816 -0.18973367 -0.10711263 -0.2956941 -0.21456887 0.01893578 -0.21014985 -0.17448388
-0.15974987 0.0021310737 0.18983158 0.1704116 0.110643394 0.10241965 0.05196769 0.019525517
0.1625904 0.15460387 -0.06609701 0.060627285 0.15499727 -0.024266532 -0.04697892 -0.0969
0.038619403 0.10385304 0.01678455 0.2209695 0.055144932 0.053958666 0.10263709 -0.06506319
0.13598277 -0.045507066 0.12025024 -0.0141614545 0.10712859 0.025453662 0.07685929 0.009219291
-0.016171256 0.17428572 0.11062235 0.15945554 0.12860723 -0.00062344363 -0.0835322 0.05003706
-0.12650019 -0.042959 0.10744455 -0.10974615 0.02525378 -0.08205451 -0.17082547 -0.070151374
-0.017331451 -0.09363058 -0.28467914 0.027451836 -0.11648456 0.036006615 -0.09377205 0.11318351
-0.008676421 -0.3232873 0.047379367 -0.023423016 -0.119193666 -0.021636091 -0.10067406 0.0744367
-0.107708596 0.0026585804 0.33308125 0.07240295 0.27258086 0.15461819 -0.05506425 -0.03460571
-0.106700025 0.05769185 -0.018863723 0.3075333 0.034518603 -0.23488297 0.011813694 0.16657005
0.32980016 0.2766141 0.16668674 -0.020569263 0.11324581 0.09482009 0.07190198 0.09505432
-0.12793133 -0.06421893 -0.11178236 -0.15460517 -0.07897107 0.26058537 -0.16962337 0.23339313
0.18553096 0.2570407 -0.029412877 0.012021603 -0.21363123 0.038372 -0.04720942 -0.10170552
-0.26245582 0.0006644824 -0.072923936 -0.0997467 -0.08738799 0.10174955 -0.0015183827 -0.09617562
0.0777741 0.022751573 -0.026894744 0.042220134 -0.19155793 -0.19048129 0.00020005403 -0.14605615
0.029580362 -0.13713175 0.13452394 0.10864855 0.039121237 0.07980447 0.16998334 0.07793725
0.119832695 0.20561138 0.01939197 0.15448752 0.17960474 0.070826896 0.18260668 0.1432202
-0.033792447 -0.080045074 -0.1695089 0.10686019 -0.072332226 -0.08026065 0.00932725 0.028919639
0.11081384 0.08865083 -0.22568814 -0.17616478 0.0071522156 0.16041234 -0.16428807 -0.14481916
-0.180501 -0.05590372 -0.040344615 0.13682933 0.14975193 -0.120416395 0.0921463 -0.09040207
-0.034643255 0.06534993 -0.11945799 -0.1759524 -0.040851116 -0.042177875 -0.05608043 -0.117687926
-0.08650691 -0.16903332 -0.038877457 0.15134668 -0.07244798 0.17779475 0.3048814 -0.021754779
0.25089687 0.34088233 -0.050086208 -0.02194489 0.21223058 -0.10884008 0.23713802 0.17804204
-0.104909204 -0.06898113 -0.12320184 0.20195533 0.2807643 -0.03839044 -0.04859886 -0.052763376
-0.22424094 0.012277761 -0.05953246 0.057544492 -0.23793438 -0.121436946 -0.28035784 0.069866545
0.11690312 0.10621753 0.12834083 0.18616174 0.12124216 -0.078010045 -0.09609572 -0.0666923
0.11266687 -0.07884571 0.09624729 0.10691698 -0.06806083 -0.14774612 -0.12318608 -0.07027697
0.071454234 -0.018155942 0.12012703 0.26110786 0.0005327214 0.021835607 0.041890305 -0.112477265
-0.15782014 -0.07395397 -0.35952097 -0.132731 -0.19125463 -0.35710844 0.091444686 0.084411986
-0.25382045 0.26283303 0.29275995 0.065818764 -0.29662567 -0.11581812 -0.2545952 -0.1374205
0.03975771 0.032855447 -0.13559902 -0.32500142 0.13918695 -0.23568785 -0.04328847 0.14367104
00000000: 0c0c 82be 8b49 42be de5d dbbd 3865 97be
00000010: f1b7 5bbe 351f 9b3c 8631 57be e7ab 32be
00000020: 7895 23be 7ca9 0b3b 3663 423e 6180 2e3e
00000030: 0199 e23d 65c1 d13d 13dc 543d faf3 9f3c
00000040: 197e 263e 7a50 1e3e df5d 87bd 5154 783d
00000050: 9bb7 1e3e 9bca c6bc f86c 40bd 8273 c6bd
00000060: 612f 1e3d e7b0 d43d c17f 893c d445 623e
00000070: a7df 613d c303 5d3d 6533 d23d da3f 85bd
00000080: 113f 0b3e 9e65 3abd c245 f63d 7205 68bc
00000090: 3c66 db3d 3384 d03c 6768 9d3d 820c 173c
000000a0: 9579 84bc f577 323e f88d e23d 5048 233e
000000b0: 9db1 033e 986e 23ba ee12 abbd a9f3 4c3d
000000c0: 4489 01be c7f5 2fbd e30b dc3d 97c2 e0bd
000000d0: 04e1 ce3c 320c a8bd dfec 2ebe 86ab 8fbd
000000e0: b0fa 8dbc 64c1 bfbd 77c1 91be ace2 e03c
000000f0: 758f eebd ac7b 133d 900b c0bd c2cc e73d
00000100: 8c27 0ebc ea85 a5be de10 423d a0e1 bfbc
00000110: cf1b f4bd 2c3e b1bc 342e cebd 4572 983d
00000120: 5396 dcbd 943b 2e3b a089 aa3e ff47 943d
00000130: b88f 8b3e 3b54 1e3e 0d8b 61bd b8be 0dbd
00000140: 8b85 dabd 4a4e 6c3d 1888 9abc 0175 9d3e
00000150: 6163 0d3d 2985 70be 398e 413c 5791 2a3e
00000160: 91db a83e 5da0 8d3e eeaf 2a3e df80 a8bc
00000170: 6bed e73d 0931 c23d 5841 933d d7ab c23d
00000180: 6e00 03be 3785 83bd 26ee e4bd d150 1ebe
00000190: 96bb a1bd 726b 853e c0b1 2dbe 9cfe 6e3e
000001a0: d4fb 3d3e d79a 833e 46f3 f0bc 42f6 443c
000001b0: 25c2 5abe f52b 1d3d aa5e 41bd fc4a d0bd
000001c0: 9c60 86be a930 2e3a 2559 95bd ff47 ccbd
000001d0: 79f8 b2bd 1162 d03d 7804 c7ba b9f7 c4bd
000001e0: 0748 9f3d 8261 ba3c 5e52 dcbc 05ef 2c3d
000001f0: c327 44be 870d 43be 98c5 5139 be8f 15be
00000200: 8452 f23c 446c 0cbe a5c0 093e 2283 de3d
00000210: 973d 203d 8770 a33d 1d10 2e3e 919d 9f3d
00000220: d86a f53d ca8b 523e e9db 9e3c fa31 1e3e
00000230: 4eea 373e b10d 913d 3ffd 3a3e 51a8 123e
00000240: f369 0abd acee a3bd be93 2dbe 84d9 da3d
00000250: eb22 94bd b25f a4bd 52d1 183c e1e8 ec3c
00000260: 5ef2 e23d 918e b53d cb1a 67be 8a64 34be
00000270: 225d ea3b 2243 243e 223b 28be 794b 14be
00000280: 41d5 38be 4dfb 64bd 6540 25bd fd1c 0c3e
00000290: 9258 193e df9c f6bd 33b7 bc3d b824 b9bd
000002a0: 16e6 0dbd 2fd6 853d 64a6 f4bd de2c 34be
000002b0: 8053 27bd b5c2 2cbd 98b4 65bd 5e06 f1bd
000002c0: 892a b1bd 1217 2dbe f83d 1fbd a0fa 1a3e
000002d0: 9b5f 94bd d40f 363e 6a19 9c3e 1437 b2bc
000002e0: 8e75 803e 2188 ae3e 3227 4dbd c5c5 b3bc
000002f0: f952 593e 8ce7 debd 4fd4 723e a750 363e
00000300: a3da d6bd fb45 8dbd 3f51 fcbd 61cd 4e3e
00000310: 57c0 8f3e 4b3f 1dbd 990f 47bd 691e 58bd
00000320: 6b9f 65be a928 493c 4fd8 73bd c6b3 6b3d
00000330: 12a5 73be efb3 f8bd 108b 8fbe 3116 8f3d
00000340: e76a ef3d 9488 d93d c76b 033e 2fa1 3e3e
00000350: cf4d f83d bbc3 9fbd d5cd c4bd f995 88bd
00000360: e3bd e63d dc79 a1bd 4d1d c53d 4af7 da3d
00000370: 7a63 8bbd c24a 17be fc48 fcbd 5fed 8fbd
00000380: 9956 923d c5bb 94bc 2905 f63d eeaf 853e
00000390: 54a6 0b3a 96e0 b23c 2b95 2b3d 7b5a e6bd
000003a0: 9a9b 21be 2e75 97bd 2213 b8be a3ea 07be
000003b0: 41d8 43be ebd6 b6be 5a47 bb3d 31e0 ac3d
000003c0: c1f4 81be 0d92 863e a2e4 953e fdcb 863d
000003d0: 52df 97be 0d32 edbd 4d5a 82be f6b7 0cbe
000003e0: fbd8 223d 6f93 063d 78da 0abe 9666 a6be
000003f0: 0687 0e3e 2858 71be 404f 31bd 801e 133e

bias f4 [6]
0.060653232 -0.17026424 0.096799746 0.048460033 0.028425097 -0.073318236
00000000: 866f 783d c059 2ebe f23e c63d 077e 463d
00000010: c0db e83c df27 96bd

weight f4 [6, 6, 3, 3]
0.007317525 -0.057174552 -0.274675 -0.08908903 -0.15928447 -0.22134764 -0.09737601 -0.0068970416
-0.31453702 -0.26133046 0.10776745 -0.014152916 -0.31750998 -0.13258718 0.071101315 -0.0016243063
0.23229887 0.26837865 -0.19483654 0.07161912 0.112064585 -0.0036652577 0.009576997 -0.20603468
-0.088674076 -0.048873324 -0.19397426 -0.30432338 0.023927324 0.23697074 -0.23676012 -0.08118451
0.12137891 -0.05587435 0.16443235 0.020092268 0.32253483 0.090326995 0.103809364 0.046883814
-0.057344995 0.017354673 0.05818559 0.12547816 0.33062628 -0.024914645 0.21469715 -0.30875307
0.0778437 0.17495899 -0.31991488 0.27808312 0.021862766 -0.23878013 -0.03776431 -0.053627003
0.064537875 0.17305775 0.06650242 0.09152822 0.060994882 0.013649669 0.10078789 0.17819808
-0.082557164 -0.06123745 0.005016212 -0.10447501 -0.004980419 0.006923202 0.07693329 -0.21993665
0.1815898 -0.027464615 -0.0047768634 -0.017336864 0.06832859 0.020767573 0.18956801 0.043647494
-0.022531869 -0.090434805 -0.18610282 -0.109020025 -0.03896135 -0.21654427 -0.070148006 -0.11654578
-0.10413654 -0.18351659 -0.036265194 -0.08397952 -0.13459995 0.07755144 0.07189096 -0.00587745
0.059401102 -0.22033761 -0.11998629 0.100167364 0.31818092 0.28862786 0.080382966 0.18753435
0.17120844 0.16039948 0.20561825 0.2059719 -0.13913491 0.024615852 0.031523496 0.1578381
-0.1362895 -0.014790983 0.11737542 0.011677273 -0.17846398 -0.10986476 -0.13336912 -0.21747057
-0.13301288 -0.24724075 -0.25315958 -0.12671167 -0.16610405 -0.28258616 -0.00029248945 -0.03156717
0.0876767 -0.10829707 0.10555161 -0.031765692 0.020227335 0.13365592 -0.020935802 -0.10295892
0.11546713 0.21322124 0.20207074 0.24280576 0.025441471 -0.040991616 0.062125362 0.22518347
-0.1472374 0.2701592 0.010434977 -0.050415065 0.26850355 0.06461427 0.20774813 -0.32134458
-0.07827329 0.31505534 0.0065031247 0.0065089646 0.113125086 -0.008452867 -0.14720511 0.15337141
0.1323465 -0.06987328 0.015805846 -0.06330573 -0.08394994 0.0834203 0.12507382 -0.2397011
0.19002761 -0.039230324 -0.2838798 -0.18858916 -0.45759353 -0.21744828 -0.13461426 -0.15216735
-0.019756896 0.010045802 -0.22947171 -0.1077588 -0.16687946 -0.032661952 -0.15749156 -0.13664903
-0.1753727 -0.2477431 -0.08662333 -0.3454949 -0.4574633 -0.049629163 0.33255464 0.08543194
-0.102425925 0.13055858 0.06885633 0.031502575 0.15185475 -0.12444075 0.04836771 0.30561483
-0.11524651 -0.02283143 0.13395138 0.13791287 0.27893654 0.29669994 0.06066638 -0.028334225
-0.050466795 0.25382367 -0.009433073 0.21808255 0.22643991 0.007861963 0.17284465 0.20168006
0.04439316 -0.119109005 -0.13913661 0.027742317 0.019749334 -0.19179618 -0.03234043 -0.22365418
-0.15535483 0.19902357 0.22844712 0.38148192 0.21476707 0.4512336 0.50899297 0.06753101
0.33883306 0.13181064 0.027549313 -0.17860459 0.03850273 0.06112759 0.09469806 -0.104250714
0.10301612 0.2509921 -0.16923587 -0.04242579 -0.11830465 0.13366725 0.16644192 0.041310154
0.124835536 -0.22876354 -0.21616003 0.00955571 -0.045408722 -0.14099193 -0.1885144 0.075212546
00000000: d9c7 ef3b dd2f 6abd 34a2 8cbe 4f74 b6bd
00000010: 781b 23be f5a8 62be 136d c7bd 9400 e2bb
00000020: ff0a a1be 1bcd 85be 2eb5 dc3d a2e1 67bc
00000030: ab90 a2be efc4 07be 919d 913d ade6 d4ba
00000040: c1df 6d3e ed68 893e 3b83 47be 0cad 923d
00000050: 1e82 e53d d234 70bb d6e8 1c3c c1fa 52be
00000060: c19a b5bd 652f 48bd 30a1 46be 46d0 9bbe
00000070: 3c03 c43c 75a8 723e 3f71 72be 1044 a6bd
00000080: 8295 f83d 81dc 64bd f460 283e 8a98 a43c
00000090: 4923 a53e 5cfd b83d 019a d43d 3e09 403d
000000a0: 96e2 6abd 632b 8e3c 0354 6e3d 597d 003e
000000b0: d947 a93e cc19 ccbc 92d9 5b3e e214 9ebe
000000c0: 856c 9f3d 7328 333e e2cb a3be e960 8e3e
000000d0: 8b19 b33c c782 74be c0ae 1abd fda7 5bbd
000000e0: 6f2c 843d 0d36 313e 6c32 883d 2673 bb3d
000000f0: c5d5 793d dca2 5f3c e269 ce3d 8f79 363e
00000100: bb13 a9bd 1fd4 7abd 095f a43b fef6 d5bd
00000110: c832 a3bb 07dc e23b 338f 9d3d 1337 61be
00000120: adf2 393e 79fd e0bc 3c87 9cbb 0a06 8ebc
00000130: dcef 8b3d c220 aa3c 1e1e 423e b7c7 323d
00000140: c194 b8bc e235 b9bd bd91 3ebe e445 dfbd
00000150: f095 1fbd c8bd 5dbe c2a9 8fbd 8eaf eebd
00000160: 8a45 d5bd c6eb 3bbe d08a 14bd 74fd abbd
00000170: 92d4 09be 4ad3 9e3d 913b 933d a097 c0bb
00000180: 924e 733d 2fa0 61be 5fbb f5bd 8c24 cd3d
00000190: 9ce8 a23e 08c7 933e d39f a43d 0109 403e
000001a0: 4451 2f3e c33f 243e 978d 523e 4cea 523e
000001b0: 6279 0ebe 2fa7 c93c c81e 013d 50a0 213e
000001c0: 7a8f 0bbe e155 72bc 8662 f03d 0852 3f3c
000001d0: 43bf 36be c600 e1bd ea91 08be 9bb0 5ebe
000001e0: 8734 08be ae2c 7dbe 229e 81be b4c0 01be
000001f0: 2e17 2abe 22af 90be 4559 99b9 944c 01bd
00000200: d78f b33d dbca ddbd 712b d83d be1c 02bd
00000210: ccb3 a53c 19dd 083e 8f81 abbc 20dc d2bd
00000220: 087a ec3d ab56 5a3e a2eb 4e3e 13a2 783e
00000230: a26a d03c d3e6 27bd 2a77 7e3d 7f96 663e
00000240: 67c5 16be 4f52 8a3e 77f7 2a3c 0780 4ebd
00000250: 4c79 893e 7d54 843d edbb 543e 4787 a4be
00000260: bf4d a0bd ef4e a13e 2a18 d53b 2749 d53b
00000270: 20ae e73d e57d 0abc f0bc 16be 650d 1d3e
00000280: d785 073e b919 8fbd 437b 813c 6fa6 81bd
00000290: f2ed abbd 43d8 aa3d 5a13 003e 3574 75be
000002a0: 9996 423e faaf 20bd b158 91be 841d 41be
000002b0: b349 eabe c3aa 5ebe 52d8 09be c2d1 1bbe
000002c0: 37d9 a1bc 2697 243c a2fa 6abe a5b0 dcbd
000002d0: 73e2 2abe 8ac8 05bd 7845 21be b9ed 0bbe
000002e0: e794 33be 5eb0 7dbe 9367 b1bd b5e4 b0be
000002f0: a138 eabe f347 4bbd 9a44 aa3e f1f6 ae3d
00000300: afc4 d1bd 26b1 053e 8c04 8d3d d808 013d
00000310: d07f 1b3e cbda febd 381d 463d 8c79 9c3e
00000320: 5d06 ecbd fb08 bbbc 8d2a 093e 0839 0d3e
00000330: c5d0 8e3e 0ee9 973e 4f7d 783d 2d1d e8bc
00000340: 45b6 4ebd 2df5 813e 2d8d 1abc 0851 5f3e
00000350: dddf 673e 76cf 003c 30fe 303e 3885 4e3e
00000360: 9ad5 353d 6cef f3bd d479 0ebe db43 e33c
00000370: 5bc9 a13c 3866 44be 6677 04bd 9a05 65be
00000380: 5615 1fbe d6cc 4b3e 0bee 693e 9951 c33e
00000390: e6eb 5b3e 1708 e73e 5d4d 023f b34d 8a3d
000003a0: 877b ad3e 5ef9 063e 19af e13c 1fe4 36be
000003b0: 0ab5 1d3d ec60 7a3d 0ef1 c13d 6681 d5bd
000003c0: 1efa d23d 0982 803e 2b4c 2dbe aac6 2dbd
000003d0: b549 f2bd 11e0 083e c06f 2a3e d634 293d
000003e0: c6a9 ff3d fd40 6abe 0e59 5dbe 8d8f 1c3c
000003f0: 7ffe 39bd 3060 10be eb09 41be 0909 9a3d

bias f4 [6]
-0.0031655384 0.015741311 -0.067618735 -0.012068138 -0.00512874 -0.0034240133
00000000: ec74 4fbb ecf3 803c b17b 8abd 71b9 45bc
00000010: fd0e a8bb 6965 60bb

weight f4 [5, 2646]
-0.07390344 -0.05147033 -0.029519547 -0.07156838 -0.11463949 0.040788658 -0.16280708 -0.21961677
-0.20771572 -0.011348164 -0.20491658 0.16558333 0.032822642 -0.046885964 -0.12816086 -0.08161872
-0.033120427 0.054899786 -0.09259115 0.024270276 0.046867076 0.022502769 0.19013818 -0.021839984
-0.061863907 -0.08818709 0.049875937 0.08711848 -0.10958595 -0.023342356 0.1420971 -0.11906621
0.07692338 0.019543815 0.11542144 0.012658798 -0.069316775 0.036096577 -0.005659597 -0.054755576
-0.060036276 0.08251363 0.03551139 0.0002113456 0.08368706 0.008918628 -0.062018737 -0.012435938
-0.037014253 -0.065567985 0.109071374 -0.0060887346 0.02562856 -0.078828275 -0.13625108 0.09815466
-0.08834967 0.069126256 -0.0140690105 -0.027645482 -0.075662166 0.050803557 -0.09532131 0.047736567
-0.016903622 0.07618975 -0.03800959 -0.03163961 0.053507145 -0.082042135 0.0002810123 0.09204765
0.018948693 -0.004771285 0.05010358 -0.07110037 0.07691337 0.02683355 0.0033141975 0.0017599972
0.1077555 -0.039956875 -0.03128582 0.11402202 0.010498033 -0.007121906 0.101959385 0.08701172
0.037911817 0.053891685 0.04228446 0.09191454 9.036013e-05 -0.051570483 -0.06488764 0.08719264
-0.06298216 0.058547948 0.049504038 0.08064584 -0.009485099 0.040667035 0.058743007 0.050005764
0.012286694 0.06352101 0.007271168 0.012066782 -0.027882382 0.060401578 0.08668409 -0.080396324
0.05209661 -0.006757591 -0.029473566 0.0030614412 0.18435454 0.07359694 0.13463268 0.13254559
0.1020429 -0.026643619 0.055916514 0.08975034 0.03744388 -0.13379554 0.07933218 -0.053461257
-0.047588117 -0.0067457254 0.039819606 0.14127314 -0.08276113 -0.009520757 0.00041112822 0.06628007
0.050710484 -0.06859568 0.12793277 0.13941135 0.087924145 -0.028794056 -0.027006887 0.06469865
0.012039722 0.022259535 -0.01918645 -0.016985081 0.06505344 0.032011785 0.063794784 0.13551636
0.008750854 0.061380774 0.113760285 0.04699964 0.04765191 -0.10326296 -0.034552645 0.13857213
0.06900228 0.076266155 0.03108409 -0.018241702 -0.020675097 0.07948101 -0.031316165 0.052906338
-0.062192544 0.006446007 -0.072506145 0.08030359 0.1286044 0.122633845 -0.0063879807 0.047395483
0.036229294 0.059439775 0.020512028 0.040733486 -0.0616054 0.05230245 0.015717521 0.028785612
-0.06354866 0.08398152 0.05811101 0.00036346138 0.02880194 0.018279001 0.016236287 -0.06822016
0.08320478 0.07669064 -0.09266762 -0.047687475 0.15650332 0.1710198 0.08603946 0.09198183
0.22595815 0.17916812 0.10798979 0.041941054 0.063957356 0.002050254 -0.077601045 0.022727724
-0.14961794 -0.12414239 0.06336689 -0.13970767 0.046763703 0.18078944 0.04448311 0.0033052254
-0.06634652 0.19755563 0.24486946 0.13691027 0.18134373 0.1747854 0.119887434 0.03151975
-0.03117932 -0.002489345 0.06592345 0.1360275 0.06287405 -0.13760398 -0.18171667 0.074650854
-0.06788603 -0.0007840346 -0.001266292 0.045489736 0.046350937 -0.10018413 -0.014074656 0.07909822
0.2853304 0.081003815 0.025943113 0.09690622 0.15014668 0.08730145 0.2621021 0.07138641
-0.033359736 -0.092662156 -0.042614475 -0.09090072 0.06248529 -0.04132895 0.027183022 0.03958794
00000000: b05a 97bd 8ed2 52bd fad2 f1bc 7192 92bd
00000010: 1cc8 eabd 0212 273d e6b6 26be 38e3 60be
00000020: 6eb3 54be a6ed 39bc a7d5 51be ad8e 293e
00000030: 0971 063d 7f0b 40bd 9a3c 03be b727 a7bd
00000040: 49a9 07bd 99de 603d 6ea0 bdbd 75d2 c63c
00000050: b1f7 3f3d ba57 b83c 95b3 423e c4e9 b2bc
00000060: 0265 7dbd 6f9b b4bd b64a 4c3d 2c6b b23d
00000070: 996e e0bd 7838 bfbc e781 113e fcd8 f3bd
00000080: 018a 9d3d 5a1a a03c 1362 ec3d d966 4f3c
00000090: f4f5 8dbd 01da 133d 2474 b9bb 6247 60bd
000000a0: 99e8 75bd e8fc a83d 6474 113d a79c 5d39
000000b0: 1f64 ab3d 701f 123c 5c07 7ebd 1bc0 4bbc
000000c0: 429c 17bd 8248 86bd d060 df3d 0284 c7bb
000000d0: fcf2 d13c b870 a1bd 6785 0bbe 4f05 c93d
000000e0: acf0 b4bd 1192 8d3d b581 66bc c778 e2bc
000000f0: c4f4 9abd 6417 503d d237 c3bd 6b87 433d
00000100: 7779 8abc 5f09 9c3d f2af 1bbd 8998 01bd
00000110: 4f2a 5b3d b505 a8bd d554 9339 7a83 bc3d
00000120: 4a3a 9b3c 7158 9cbb 6939 4d3d 129d 91bd
00000130: c284 9d3d 08d2 db3c 0233 593b b5af e63a
00000140: eaae dc3d d2a9 23bd 8f25 00bd 6084 e93d
00000150: f1ff 2b3c e15e e9bb 15d0 d03d 3333 b23d
00000160: 6c49 1b3d 87bd 5c3d 7832 2d3d b13d bc3d
00000170: ba7f bd38 923b 53bd d0e3 84bd 0e92 b23d
00000180: cafc 80bd f9cf 6f3d bfc4 4a3d a529 a53d
00000190: 6467 1bbc 7a92 263d 829c 703d d8d2 4c3d
000001a0: 214e 493c 4e17 823d fa42 ee3b c1b3 453c
000001b0: 9869 e4bc a567 773d 6e87 b13d d4a6 a4bd
000001c0: 4163 553d c86e ddbb 8c72 f1bc 76a2 483b
000001d0: 70c7 3c3e feb9 963d 26dd 093e 08ba 073e
000001e0: defb d03d b843 dabc b708 653d 07cf b73d
000001f0: c15e 193d b301 09be e978 a23d 31fa 5abd
00000200: c2eb 42bd 3f0b ddbb e219 233d e8a9 103e
00000210: ab7e a9bd f3fc 1bbc b28c d739 d8bd 873d
00000220: ccb5 4f3d e47b 8cbd cf00 033e d9c1 0e3e
00000230: 9311 b43d 83e1 ebbc 8c3d ddbc ba80 843d
00000240: 4142 453c a159 b63c e72c 9dbc 4c24 8bbc
00000250: bd3a 853d ca1e 033d d7a6 823d cdc4 0a3e
00000260: be5f 0f3c 686a 7b3d 27fb e83d b282 403d
00000270: a62e 433d 887b d3bd 1387 0dbd dae5 0d3e
00000280: 1151 8d3d 6e31 9c3d 10a4 fe3c 9f6f 95bc
00000290: d25e a9bc f1c6 a23d 6145 00bd 51b4 583d
000002a0: 9cbd 7ebd 0739 d33b 1a7e 94bd 3576 a43d
000002b0: dfb0 033e 7427 fb3d 4452 d1bb c421 423d
000002c0: 2b65 143d 1f77 733d d708 a83c 28d8 263d
000002d0: f255 7cbd 183b 563d 08c2 803c cecf eb3c
000002e0: cd25 82bd 81fe ab3d cf05 6e3d f68e be39
000002f0: 0cf2 eb3c d8bd 953c f601 853c 03b7 8bbd
00000300: 4567 aa3d fb0f 9d3d 85c8 bdbd f153 43bd
00000310: 6842 203e d01f 2f3e 7535 b03d f860 bc3d
00000320: 9361 673e d977 373e c029 dd3d 62ca 2b3d
00000330: 13fc 823d 8e5d 063b 4ced 9ebd 7e2f ba3c
00000340: 7235 19be 5e3e febd 80c6 813d 870f 0fbe
00000350: 4c8b 3f3d de20 393e ec33 363d 7b9c 583b
00000360: afe0 87bd 064c 4a3e 0fbf 7a3e 3532 0c3e
00000370: 2cb2 393e f2fa 323e 8b87 f53d da1a 013d
00000380: c66b ffbc 4724 23bb e002 873d cb4a 0b3e
00000390: 1cc4 803d 0fe8 0cbe ef13 3abe 8ce2 983d
000003a0: d507 8bbd ac87 4dba b5f9 a5ba 7253 3a3d
000003b0: 7bda 3d3d 562d cdbd 6399 66bc 3ffe a13d
000003c0: d416 923e 54e5 a53d a786 d43c c576 c63d
000003d0: 0dc0 193e 1acb b23d 3f32 863e 0a33 923d
000003e0: 38a4 08bd a8c5 bdbd 848c 2ebd 282a babd
000003f0: 93f0 7f3d 8c48 29bd eeae de3c f726 223d

bias f4 [5]
-0.011373976 0.000999294 -0.03178984 -0.032498725 -0.012915291
00000000: ea59 3abc befa 823a 1036 02bd 621d 05bd
00000010: a89a 53bc
