algorithms/cap-v0/data/checkpoints_2/dqn_episode_42500.model (torch_old, 14760 bytes, 5 tensors)

weight f4 [1, 1, 3, 3]
000000 2d d5 6e bf a1 6d 55 bf 0f d4 fb be a3 80 c7 bb
       -0.9329403 -0.83370405 -0.49185225 -0.0060883327
000010 86 d5 ba 3e 49 0f 1a 3e 02 b0 90 be 66 5a 63 bd
       0.3649103 0.15044893 -0.28259283 -0.055506133
000020 0b 93 a4 be
       -0.32143435

weight f4 [1, 1, 3, 3]
000000 9c 31 8d be dc fe f6 be f5 6b 2a be 04 cf 1f bf
       -0.2757691 -0.48241317 -0.16642745 -0.62425256
000010 c8 80 cd be e2 ce 13 bf 0e 07 50 be 03 7e 93 be
       -0.40137315 -0.57737553 -0.20315191 -0.28807077
000020 4a 8d ae bd
       -0.085230425

weight f4 [1, 1, 3, 3]
000000 da 4b 81 be b3 d7 4b 3d c8 12 bf 3e 74 6e 38 be
       -0.25253183 0.049766254 0.37319016 -0.18010885
000010 10 3a 66 3d 9e 50 33 3e 7c 27 d5 be ba 48 31 bd
       0.056207716 0.17511222 -0.41631687 -0.043282248
000020 23 fc 0b 3e
       0.13670401

weight f4 [5, 100]
000000 c3 f7 a8 bf a6 09 a7 bf ce cc 98 bf 4b 68 99 bf
       -1.3200611 -1.304982 -1.1937501 -1.1984953
000010 65 be 95 bf 02 27 86 bf c5 c2 95 bf 8e 1f 8e bf
       -1.1698729 -1.0480654 -1.1700064 -1.110338
000020 05 ee 8c bf f6 c8 c7 bf 04 96 9e bf 95 a0 a7 bf
       -1.1010138 -1.5608203 -1.2389531 -1.3095881
000030 4c 6f 9d bf 97 68 8b bf e2 30 82 bf 70 f7 91 bf
       -1.229959 -1.0891293 -1.0171168 -1.1403637
000040 64 70 6e bf e1 32 8a bf eb d1 91 bf f3 2f a7 bf
       -0.93140244 -1.0796777 -1.1392187 -1.3061508
000050 73 fe a2 bf 7f 61 9c bf c3 0d 82 bf cd e2 87 bf
       -1.2733902 -1.2217253 -1.016045 -1.0616089
000060 79 fd 90 bf 23 70 86 bf c9 21 88 bf 1b 98 74 bf
       -1.1327354 -1.0502971 -1.063531 -0.95544595
000070 71 a4 8a bf e7 88 86 bf 2c 43 9c bf 96 75 85 bf
       -1.0831434 -1.0510529 -1.2207999 -1.0426509
000080 49 aa 86 bf f4 46 8b bf cf c5 82 bf 89 2b 79 bf
       -1.0520717 -1.0881028 -1.0216616 -0.97332054
000090 e1 d2 78 bf 5d d0 84 bf ea 74 88 bf af 5b a1 bf
       -0.97196776 -1.0376087 -1.0660679 -1.2606105
0000a0 df 0b 94 bf 34 02 86 bf 25 05 8a bf 8b ff 76 bf
       -1.1566123 -1.0469422 -1.078282 -0.9648368
0000b0 98 2e 7d bf 34 9f 7e bf 4b 62 7a bf a5 cf 93 bf
       -0.9889922 -0.99461675 -0.97806233 -1.1547743
0000c0 23 92 74 bf 79 19 86 bf fd 94 8f bf 70 0e 80 bf
       -0.95535487 -1.0476524 -1.1217343 -1.0004406
0000d0 be 4a 7b bf 90 dc 6c bf ed 7b 80 bf 56 db 79 bf
       -0.9816092 -0.9252405 -1.0037819 -0.97600305
0000e0 44 97 7d bf 81 64 77 bf 80 90 67 bf 4e 4c 8d bf
       -0.9905894 -0.9663773 -0.90454865 -1.1038911
0000f0 49 24 84 bf 29 ee 70 bf 77 36 7b bf 05 9a 6d bf
       -1.0323573 -0.94113404 -0.9812998 -0.9281314
000100 01 ce 8b bf 96 18 81 bf ec 2e 81 bf 60 5d 7e bf
       -1.0922242 -1.0085628 -1.0092444 -0.9936123
000110 5b 12 76 bf 5e c9 85 bf 70 63 97 bf 15 63 80 bf
       -0.9612176 -1.0452077 -1.1827221 -1.0030237
000120 61 54 80 bf 18 35 81 bf 0b 10 77 bf 42 75 85 bf
       -1.002575 -1.0094328 -0.96508855 -1.0426409
000130 63 b7 82 bf 57 37 72 bf 77 1c 82 bf 3b 42 8a bf
       -1.0212215 -0.9461569 -1.0164937 -1.0801462
000140 52 2a a0 bf 0c 73 90 bf 2d bf 82 bf 85 3d 8c bf
       -1.2512915 -1.128511 -1.0214592 -1.0956274
000150 aa 79 8a bf 48 69 81 bf 77 9b 6a bf 49 b6 7a bf
       -1.0818379 -1.0110254 -0.9164347 -0.97934395
000160 c5 e3 78 bf ea 19 8d bf 33 67 a5 bf d2 72 85 bf
       -0.9722255 -1.1023533 -1.2922119 -1.0425665
000170 45 b0 8e bf 0c cf 89 bf f2 b3 98 bf f7 ef 92 bf
       -1.1147543 -1.0766311 -1.1929915 -1.1479481
000180 20 f0 86 bf 79 ff 67 bf 9d cc 95 bf 46 2c af bf
       -1.054203 -0.90624195 -1.1703068 -1.3685386
000190 c7 ed b0 bf 52 8f 95 bf d0 1d 97 bf c7 16 98 bf
       -1.3822564 -1.1684363 -1.1805973 -1.1881951
0001a0 7a 31 92 bf 6a eb 94 bf 49 b8 75 bf ea ee 84 bf
       -1.1421349 -1.1634343 -0.9598432 -1.0385411
0001b0 69 f4 92 bf c5 1c ad bf 29 85 a0 bf 32 d9 90 bf
       -1.1480838 -1.3524405 -1.2540637 -1.1316283
0001c0 97 ef 8f bf 70 33 91 bf 8a 06 83 bf 1b e0 84 bf
       -1.1244992 -1.1343822 -1.023637 -1.0380892
0001d0 2a 25 80 bf 47 68 8a bf c8 c3 8a bf d2 16 92 bf
       -1.0011342 -1.0813073 -1.0840998 -1.1413214
0001e0 2b a5 a4 bf 1f 2e 98 bf e5 c7 85 bf 84 e2 86 bf
       -1.2862905 -1.1889075 -1.0451628 -1.0537877
0001f0 07 31 7f bf a4 a4 79 bf b8 1e 83 bf 29 41 7a bf
       -0.99684185 -0.97516847 -1.024375 -0.97755677
000200 7c ca 6f bf 13 85 94 bf ac f4 95 bf 96 cf 84 bf
       -0.9366834 -1.1603111 -1.1715293 -1.037585
000210 b4 4a 91 bf 4c b2 7e bf 8e 73 8c bf 35 e5 63 bf
       -1.1350923 -0.9949081 -1.0972764 -0.8902162
000220 d3 06 6c bf c8 6e 5b bf 0b 7b 85 bf e5 67 8e bf
       -0.9219791 -0.85715914 -1.0428175 -1.1125456
000230 e1 8f 86 bf ed 11 80 bf 88 46 83 bf a0 d9 7a bf
       -1.0512658 -1.000547 -1.02559 -0.9798832
000240 bf fd 7e bf 31 6c 81 bf 4c db 7a bf db 97 82 bf
       -0.99605936 -1.0111142 -0.9799087 -1.0202593
000250 e2 23 85 bf c7 91 87 bf 91 8e 88 bf a4 86 6f bf
       -1.0401576 -1.0591363 -1.0668508 -0.9356482
000260 8b 15 70 bf 83 b9 6b bf a2 32 77 bf a0 ba 79 bf
       -0.9378287 -0.92079943 -0.96561635 -0.9755039
000270 1d de 71 bf 12 a2 6c bf 39 75 71 bf 41 49 7a bf
       -0.9447954 -0.924348 -0.9431949 -0.97768027
000280 a6 0d 91 bf ba e8 80 bf 38 f6 71 bf fa 24 82 bf
       -1.133229 -1.0071023 -0.94516325 -1.0167534
000290 b7 aa 7c bf dc d9 82 bf 29 fd 83 bf 4b 87 75 bf
       -0.9869799 -1.0222735 -1.0311633 -0.95909566
0002a0 ca b9 70 bf 3f 58 8e bf c2 e4 8d bf 06 0b 86 bf
       -0.9403349 -1.112068 -1.1085436 -1.0472114
0002b0 03 14 72 bf f2 97 7e bf 61 de 7e bf 49 85 7f bf
       -0.94561785 -0.994506 -0.99558073 -0.9981275
0002c0 a4 21 85 bf c0 e9 6b bf c0 0e 78 bf 64 a4 8e bf
       -1.0400891 -0.9215355 -0.96897507 -1.1143918
0002d0 1b 22 9f bf 1f 98 8c bf a5 d2 81 bf ec dd 7a bf
       -1.2432283 -1.0983924 -1.0142409 -0.97994876
0002e0 49 e0 81 bf e2 5b 88 bf 91 b7 62 bf dc 36 79 bf
       -1.0146571 -1.065304 -0.8856135 -0.97349334
0002f0 df bf 7b bf dc ff 8b bf 80 ea aa bf 97 97 8d bf
       -0.9833965 -1.0937457 -1.3352814 -1.1061887
000300 a8 7f 8c bf e1 0c 8e bf 92 6f 86 bf fc f3 83 bf
       -1.0976458 -1.109768 -1.0502799 -1.0308833
000310 92 49 81 bf 03 40 6e bf 86 9e 8a bf 3c e9 93 bf
       -1.0100577 -0.93066424 -1.0829628 -1.1555552
000320 6a df 9e bf 93 d0 8b bf ba 24 9f bf 8d 02 88 bf
       -1.241193 -1.0923027 -1.2433083 -1.0625778
000330 3c 13 8a bf 53 6e 88 bf 18 ab 64 bf 40 2d 82 bf
       -1.078712 -1.0658668 -0.8932357 -1.0170059
000340 99 22 8d bf aa ac 94 bf 2b ae 97 bf 73 b9 7f bf
       -1.1026183 -1.1615193 -1.1850027 -0.9989235
000350 b1 d4 8b bf cb 95 85 bf 71 07 84 bf ec f0 4e bf
       -1.0924283 -1.0436338 -1.0314771 -0.8083637
000360 da 2a 4f bf 2c 3f 7b bf 90 29 85 bf 58 5b 83 bf
       -0.8092476 -0.9814327 -1.0403309 -1.0262251
000370 5f aa 98 bf 31 3d 8d bf 5e d1 87 bf 24 2c 62 bf
       -1.1926993 -1.1034299 -1.0610769 -0.88348603
000380 ef d3 66 bf 27 2f 76 bf 06 a5 61 bf 5f 24 47 bf
       -0.90167135 -0.961657 -0.8814243 -0.7778987
000390 6c 72 7b bf eb 60 85 bf 32 cc 8e bf 66 62 77 bf
       -0.9822147 -1.0420202 -1.1156065 -0.9663452
0003a0 90 97 72 bf fd 88 5a bf f4 e0 62 bf 45 de 67 bf
       -0.94762516 -0.8536528 -0.886245 -0.9057353
0003b0 7b 8b 59 bf 89 69 5c bf b1 5a 5a bf 69 02 7b bf
       -0.84978455 -0.86098534 -0.85294634 -0.9805055
0003c0 47 85 87 bf 2c cf 6f bf 46 39 50 bf a1 f0 7f bf
       -1.0587548 -0.93675494 -0.8133739 -0.99976546
0003d0 2d 2d 65 bf a8 c9 59 bf 8d 87 58 bf ca 60 70 bf
       -0.8952206 -0.8507333 -0.84581834 -0.9389769
0003e0 54 c0 7c bf 5f 72 5c bf 54 18 63 bf 27 5d 54 bf
       -0.9873097 -0.86112016 -0.88708997 -0.8295464
0003f0 ac 86 67 bf 42 96 64 bf 0f f1 5d bf b9 c7 69 bf
       -0.9043987 -0.89291775 -0.8669595 -0.9132038

bias f4 [5]
000000 b1 5c 04 c1 85 18 25 c1 57 b3 78 c1 4a 9d a5 c1
       -8.27263 -10.318486 -15.543784 -20.701801
000010 63 b6 71 c1
       -15.107028
