algorithms/cap-v0/data/old/2018-12-24--185256.843035/episode_6000.model (torch_old, 60242 bytes, 8 tensors)

weight f4 [6, 6, 3, 3]
000000 f0 80 fa 3c 4c 00 79 3d 54 6e a2 bc 4e 06 76 bd
       0.03057906 0.0607913 -0.019828 -0.060064606
000010 64 0b 3a 3d 00 91 8f 3c c4 26 09 3e 60 92 e7 bb
       0.04542102 0.017525196 0.13393694 -0.00706701
000020 6e 3e d2 3d 08 cb d3 3d 51 65 1a bb f7 71 b6 3c
       0.10265814 0.103414595 -0.0023558924 0.02227114
000030 4c 2f 56 3d 76 31 ed bd ed e5 d0 bc d2 02 fa bd
       0.0522912 -0.115816996 -0.025500262 -0.12207569
000040 2f d6 da 3d fc 81 1a 3d 26 80 00 3e 47 cb 8b 3b
       0.106853835 0.03772162 0.12548885 0.004266176
000050 fc 80 de 3c f2 58 ae 3d a0 ed 38 bd 2f 56 9c 3d
       0.027161114 0.08513059 -0.04514849 0.07633626
000060 39 3d 22 be 5e 1d 60 3d 54 cb 06 3d c8 a3 d6 3c
       -0.15843667 0.054715507 0.032908753 0.026201144
000070 68 fa f8 3c 8d 30 94 bd 27 b9 a6 bd 00 ef 17 3c
       0.03039284 -0.07235823 -0.08140784 0.009273291
000080 5a 92 50 bd b0 15 87 3d 9c 51 f9 3d a4 1c 76 bd
       -0.05092082 0.065959334 0.12173769 -0.060085908
000090 6c 3c 0b 3e 39 c7 46 bd 6d 9a df be 3a 4e 54 3c
       0.13597268 -0.048529837 -0.43672505 0.012958104
0000a0 88 67 ee be 31 ee e5 be a2 c0 60 bb 96 f4 99 3d
       -0.46563363 -0.44908288 -0.0034294506 0.07517354
0000b0 c6 e3 6b 3c 4d bd 25 3e e6 2b 68 3b 14 42 17 be
       0.014397567 0.16185494 0.0035426556 -0.147713
0000c0 19 ee 90 b9 e6 8c 4b bd 64 a3 d1 bc 2f b0 1a 3e
       -0.00027643217 -0.049694918 -0.025590606 0.15106271
0000d0 c4 27 08 be 44 3c 20 3e a3 08 c4 bd c4 11 de bd
       -0.1329642 0.1564799 -0.0957196 -0.10843232
0000e0 70 5f 44 3c 00 02 44 bc 4a 61 c5 3d 18 97 0a 3e
       0.011985645 -0.011963367 0.09637697 0.135342
0000f0 60 a7 ef bb 22 39 20 bd b4 65 b5 bc ae 69 22 3d
       -0.007313654 -0.039116986 -0.022143222 0.039651565
000100 03 73 c3 bd 41 d3 35 be 82 1c 5c bd e6 2b 68 3d
       -0.09543421 -0.17756368 -0.053738125 0.05668249
000110 2c a3 bf bd b5 0b 36 3d d1 d1 09 3e 17 84 09 be
       -0.093572944 0.04444476 0.13458945 -0.13429295
000120 21 65 6b bc ac a6 2a be 6d 1e 26 bc 23 8f 2b bd
       -0.014367373 -0.16665143 -0.01013909 -0.041884553
000130 f7 43 9d bd da 93 11 bd 03 c1 56 3d bc d8 de bd
       -0.07678979 -0.035541393 0.052430164 -0.108811826
000140 cb 56 30 3c 40 25 90 3d 63 97 01 be 68 c2 cd 3c
       0.010762881 0.07038355 -0.12655406 0.025117114
000150 00 4c d4 3d 04 c8 de bc 8c 8c 40 bd 1c b1 f1 bd
       0.10366058 -0.027194984 -0.047009036 -0.11801359
000160 b8 8c bc bd f2 3b c2 3d 1e 56 c5 bd 77 22 a8 3d
       -0.092065275 0.0948409 -0.09635566 0.08209699
000170 31 5f b5 bd 22 5f b6 bd 7e bc 98 3d a1 93 a8 bd
       -0.08856047 -0.08904864 0.07457827 -0.08231283
000180 f7 79 4d bc 71 0d 31 be 89 54 94 bc 48 66 96 3d
       -0.012541286 -0.17290284 -0.018106716 0.07343727
000190 ec 7a 27 3e 52 83 40 3e 74 fd 83 bc 26 25 84 3d
       0.16355485 0.18800095 -0.016112067 0.06452398
0001a0 1c 30 24 bd e7 50 97 3b cb 9e 78 be fe d2 39 be
       -0.040084943 0.0046177986 -0.24279325 -0.18146893
0001b0 f0 1a 1f bc 9c 93 d5 bc c7 83 b7 bd 54 da af bc
       -0.009711012 -0.026071362 -0.089606814 -0.021466412
0001c0 a7 d0 a6 bd 84 e7 c6 bd 98 fc e1 bc f8 c2 89 3c
       -0.08145266 -0.09712127 -0.027586266 0.016816601
0001d0 94 67 ff 3d d2 d4 d8 bd ea e8 97 3a 9b 8d 07 bc
       0.12470928 -0.10587467 0.00115898 -0.0082735075
0001e0 f1 22 07 3d f3 45 bb 3d cc 51 b9 3d a7 0b f0 3d
       0.032992307 0.09144201 0.09048805 0.117209725
0001f0 9c ec 50 bd fe 04 93 ba 49 f7 9b 3d 02 de 43 3d
       -0.0510069 -0.0011216698 0.07615525 0.047819145
000200 e8 2c ca 3c ab 00 a2 3d 4e 06 a4 3d 69 e4 a2 3c
       0.024679616 0.07910284 0.08009015 0.019884305
000210 b0 f5 6c 3d 7a a4 ab 3c c8 11 17 3d 0a 6a 9a 3d
       0.057851493 0.020952452 0.036882192 0.075397566
000220 70 d2 b9 3d 18 84 f3 3c 60 43 3c 3c 40 32 4a 3b
       0.09073341 0.029726073 0.011490673 0.0030852705
000230 76 3f 88 bd a4 b4 16 bd 5e 1d cf bd b4 39 5a bd
       -0.06652729 -0.036793366 -0.10113023 -0.053277686
000240 e1 e2 ad be 94 5e 43 bd 10 c1 30 3e 2b db f0 be
       -0.33962157 -0.04769762 0.17261147 -0.47042212
000250 ec 9c f0 be 71 15 db be 09 a0 4f 3e 29 b1 76 be
       -0.46994722 -0.42789796 0.20275892 -0.24091019
000260 7b 04 9a be ef 7f 70 bc be d6 33 be 5d 62 54 bd
       -0.30081543 -0.014678939 -0.17562386 -0.05185162
000270 86 1b b1 3c 1c b3 32 3d 9f f4 f4 bc 15 9a 50 3d
       0.02161957 0.043627843 -0.0299018 0.050928194
000280 d5 17 96 bd a1 31 06 3d 30 59 ea 3c 68 c4 e5 bd
       -0.07328764 0.032762174 0.028606981 -0.11219102
000290 bc 39 cf 3d 60 3f 8b bb 4c 98 b2 3d e0 ec d4 3c
       0.10118434 -0.0042494982 0.087204546 0.025991857
0002a0 00 9a be 39 80 d4 10 3d 56 ed 07 3e 1b 05 5b 3c
       0.00036354363 0.035358906 0.1327413 0.013367916
0002b0 e6 56 8d ba ba dd 4a 3d 44 28 d9 3d 9a 04 d1 3d
       -0.0010783344 0.04952786 0.10603383 0.10205956
0002c0 e3 b4 6c 3d 4f c9 dd bc 20 4c f5 3d b4 4e 69 bd
       0.057789695 -0.02707353 0.1197741 -0.056959823
0002d0 5b 20 a6 bc 23 6e ed 3c b2 35 f9 3c 25 ef 12 3c
       -0.0202791 0.028983181 0.030421112 0.008968149
0002e0 be d8 3c 3e 64 58 10 3d c3 9c 29 3c cd 4a f9 3d
       0.18442056 0.035240546 0.010352316 0.1217247
0002f0 24 ab 36 3e 38 92 23 bd 04 89 f7 bd 7c 7f 49 3d
       0.17838722 -0.039934367 -0.120866805 0.049193844
000300 44 84 49 bd 28 17 d9 3d e4 a4 1c 3d fe d4 08 3e
       -0.049198404 0.1060012 0.03824319 0.133625
000310 f0 71 0f 3c 00 10 2f 3d 19 e5 a8 3e d4 d3 7c 3e
       0.008755192 0.04273987 0.32987288 0.24690181
000320 0e c6 dd 3d cd 47 25 3e 2d 05 15 3e 98 fc 96 3e
       0.108287916 0.16140671 0.14552756 0.2948959
000330 b7 99 40 3e 2e e5 b2 3e 12 c1 b9 3d 7b fa 11 ba
       0.18808638 0.34940475 0.09070028 -0.00055686355
000340 8b 05 04 3e 86 47 bb 3c 38 a9 da 3d 2a 1e ba 3d
       0.1289274 0.022861253 0.10676807 0.090877846
000350 b3 43 8e bd c5 c1 98 3d 16 3a 03 3e 1c 98 06 3e
       -0.06946506 0.074588336 0.12815127 0.13143963
000360 e8 28 97 3d b0 0e 75 3d 2c dc 53 3d 60 54 93 bb
       0.07380849 0.05982846 0.051723644 -0.0044961423
000370 86 3e 7f bd 40 c4 5b bb a8 0b bd bc 64 d3 f5 3d
       -0.062315486 -0.0033533722 -0.023076847 0.1200321
000380 66 a9 c8 3d 9e 8e 81 bd ac e6 8c 3d d1 12 15 3b
       0.09797935 -0.0632603 0.06879935 0.002274681
000390 3b e7 92 3d 90 ef 85 bd df 29 6d bd bd be 83 3d
       0.0717301 -0.065398335 -0.05790126 0.06432865
0003a0 26 e8 63 bd 27 31 ba 3c 6f af 5d bd bc dd fc ba
       -0.055641316 0.022728516 -0.054122385 -0.0019292156
0003b0 61 2d 3f 3d c3 c9 2d 39 c9 08 88 ba 22 8b 0a 3d
       0.046674136 0.00016573728 -0.0010378595 0.033824094
0003c0 a0 80 d2 3c 4f 76 1a 3d f9 07 0c bd 0a 13 02 3e
       0.025696099 0.037710484 -0.03418729 0.12702575
0003d0 74 19 aa 3d a0 8b c6 3d f0 0a 5b 3c 98 d8 7a bd
       0.08305636 0.096946 0.013369307 -0.061241716
0003e0 b6 e5 72 bd c0 66 ed bb c0 20 b8 bc f0 db 7e bc
       -0.0593011 -0.007244915 -0.022476554 -0.015555367
0003f0 f9 60 50 be 65 e2 f0 3e 23 5f b0 be 3d 45 c7 be
       -0.20349492 0.47047725 -0.34447584 -0.38920012

bias f4 [6]
000000 8c 11 af 3d ee 90 64 bc a2 16 85 bd 22 1c 94 3d
       0.08548269 -0.01395057 -0.064984575 0.072319284
000010 da e5 f8 3b 0b f2 a0 3d
       0.00759576 0.07858666

weight f4 [6, 6, 3, 3]
000000 83 d7 5d 3d be 4f 29 be f8 a8 a2 bc 04 93 87 bd
       0.054160606 -0.16534325 -0.019855961 -0.06619838
000010 fe a2 87 3c 2f 17 bf bd 59 e2 5f 3d 9a f5 67 3d
       0.016557213 -0.09330594 0.05465922 0.05663071
000020 9d 60 03 3b 21 93 2d 3d 46 b5 80 3e ed 42 7a 3c
       0.00200466 0.04237664 0.251383 0.015274745
000030 b2 32 29 bd 75 16 b6 3d 75 bc a9 3d d7 b1 4e 3d
       -0.041308112 0.08891002 0.082878985 0.05046257
000040 23 b0 8c 3d 56 c0 1f 3e 48 66 25 be 92 69 32 be
       0.06869533 0.15600714 -0.16152298 -0.17423084
000050 a9 c3 1d bd 4d 17 38 be cc dd a8 bd 9b 18 8a be
       -0.038516674 -0.17977639 -0.082454294 -0.26971897
000060 c2 e0 7d be 99 64 14 be c3 f0 81 be c3 4d 1a 3e
       -0.2479277 -0.144915 -0.25379 0.15068726
000070 49 8a d8 3d 02 d0 01 bd 8d cf 1f 3e 97 9a 2f 3e
       0.10573251 -0.031692512 0.15606518 0.17148815
000080 0a 08 fe 3d 11 aa 79 3d 93 d4 cb 3d 04 14 cd 3d
       0.12403877 0.060953204 0.09952655 0.10013583
000090 2e b3 6c 3d 32 b0 dc bd 95 5c 45 be 60 80 be bd
       0.057788067 -0.10775794 -0.19273598 -0.09301829
0000a0 40 ec b8 bd 78 9d 2d be be fb ef 3c 23 65 1f be
       -0.09029436 -0.16954601 0.029294845 -0.15565924
0000b0 7e 8c c0 3c e4 8d 02 be be 33 8c bd 31 fb df 3d
       0.023504492 -0.1274944 -0.068458065 0.10936583
0000c0 89 c0 2b be a1 33 48 be 6d 0b 29 bd 55 e7 2a be
       -0.16772665 -0.19550945 -0.041270662 -0.16689809
0000d0 8c d2 0d be 29 a8 12 bc e8 fd 9d bd c7 04 eb bd
       -0.13849849 -0.008951225 -0.077144444 -0.114755206
0000e0 7e 0d 24 3e ad 72 71 bd 1a 29 ed bd a3 55 a3 3c
       0.16020772 -0.058947254 -0.11580105 0.019938296
0000f0 53 a1 1c 3e c8 33 13 3e 82 bc 03 3e 58 ba 9c 3c
       0.15295915 0.14375222 0.12864879 0.019131824
000100 53 cd 33 bd c1 0f 36 be 40 81 a4 3e 17 ca 34 3e
       -0.043896984 -0.17779447 0.3212986 0.17655216
000110 78 cc b3 bd 5d b1 30 3e 65 53 4f 3d 34 8f 11 3e
       -0.08779234 0.17255159 0.05061664 0.14214784
000120 a0 f0 64 be 69 3a 24 be af 26 da bc 60 17 35 be
       -0.22357416 -0.16037907 -0.026629774 -0.17684698
000130 b5 0e 7f be a9 59 0f be 95 dc 73 bd b9 79 b4 bd
       -0.24907954 -0.13999046 -0.059536535 -0.08812279
000140 77 57 94 bc 0d 60 d0 3d d9 93 30 3e 52 58 14 3e
       -0.018108113 0.1017457 0.172439 0.14486817
000150 e0 ff 7e 3d d8 c3 9a 3d d0 7b d7 bd e5 0d cc bd
       0.06225574 0.075568855 -0.10521662 -0.09963588
000160 51 8c f6 3d 38 b9 37 bd 84 bb c9 bd 92 70 c4 bd
       0.12038482 -0.044854373 -0.09850219 -0.095917836
000170 23 dc ce bd 44 69 6b bd 0a 4c 85 be 14 81 0b be
       -0.101005815 -0.057473436 -0.26034576 -0.13623458
000180 ea c3 32 3e ab 51 3a be ae 0d 0a bd 9c be 10 3d
       0.17457548 -0.18195216 -0.033704452 0.03533803
000190 6f 5b 57 3d 1c 24 06 3d 82 d9 a0 bd 10 0a f1 bd
       0.052577432 0.03274928 -0.07853986 -0.117694974
0001a0 11 da fc bd 91 a1 34 bd 5f 1e 86 3d 5d 1b 15 3e
       -0.1234628 -0.044099394 0.065487616 0.1456122
0001b0 31 42 9e 3d 3e 1b 76 3c 9c a7 68 3d cd ce e0 3c
       0.07727469 0.0150211435 0.05680047 0.02744236
0001c0 e5 7f 9e ba a1 16 c8 bd 82 8c a4 bd 6c e4 08 3e
       -0.0012092559 -0.09769941 -0.08034612 0.13368386
0001d0 fb 04 4c bd 0e 52 eb bd 64 b6 11 bc 85 08 b0 bd
       -0.049809437 -0.1149026 -0.008893583 -0.08595375
0001e0 2a 9e 21 be 4c fb 32 be 4c fb 95 bb 04 e0 27 be
       -0.15782991 -0.17478675 -0.004577076 -0.16394049
0001f0 9b 57 21 be 04 50 0a 3e 42 5e e2 3d 80 e7 3e 3e
       -0.15756075 0.13507086 0.110531345 0.18642998
000200 56 72 ee 3c 37 63 59 3d 64 fa 81 3d e0 ae b4 3d
       0.029107254 0.053073134 0.06346586 0.08822417
000210 27 93 ac 3d f0 24 42 3e 0a 98 96 3d 97 bb ca bc
       0.084265046 0.18959403 0.07353218 -0.024747653
000220 af fe f0 3d 37 f5 3d 3c 4f 95 04 3c e5 90 5f bd
       0.11767327 0.011594108 0.008092239 -0.05458154
000230 9b 1d 19 bd dc 95 24 bd 31 c8 c2 bd 22 e4 c0 bc
       -0.03738175 -0.04018198 -0.0951084 -0.023546282
000240 4a 67 f2 3d d6 ad 9f 3d 42 95 0a 3e 47 53 37 3e
       0.11836107 0.077968284 0.135335 0.17902862
000250 6f f1 4d 3e 24 04 eb 3d 01 c9 40 3e 42 60 61 3e
       0.20111631 0.11475399 0.18826677 0.22009376
000260 19 8d bb 3d a1 aa e0 bc 9d 9c 88 bd 8d e0 95 3d
       0.091577716 -0.027425112 -0.066704966 0.0731822
000270 e2 24 bb bc 18 69 9d bd fc b4 03 3c 1c b7 e5 bd
       -0.022844736 -0.07686061 0.0080387555 -0.11216566
000280 b2 21 90 bd ea b8 64 bd 6b d6 7e 3b 68 40 0d bd
       -0.07037677 -0.05584041 0.0038885127 -0.03448525
000290 c5 6f 3f bd 16 4a 9d 3d 78 ad 3e 3e f9 2b ea bd
       -0.04673745 0.076801464 0.1862086 -0.11434168
0002a0 d6 7a 9b 3d 3b 70 35 3e a1 e9 16 3e 67 16 32 bc
       0.075917885 0.17718594 0.1473756 -0.010869599
0002b0 6e e7 f4 bd f1 9e 05 bd 61 eb 50 bd 28 9a 1e bd
       -0.11958204 -0.03262228 -0.051005725 -0.038721234
0002c0 6f e1 68 3c 05 47 72 3d 9f 53 b4 bd 23 c8 a4 bd
       0.014213904 0.05914976 -0.08805012 -0.080459855
0002d0 2e e8 f9 3d aa 7c 05 3e 17 0c d2 3d 80 ea 81 3e
       0.12202488 0.13035837 0.10256212 0.25374222
0002e0 4f 58 01 3e 47 fb da 3d f8 08 4d 3e 16 29 1f 3c
       0.12631343 0.106924586 0.20022953 0.0097143855
0002f0 d2 9d 12 3e 76 a6 10 3d b5 04 21 bd f4 9e b4 3b
       0.14318016 0.035315 -0.03931113 0.0055121128
000300 51 e7 0d be f3 d4 6b 3d 3e 85 10 be 12 ff 3f bd
       -0.13857771 0.05757613 -0.14113328 -0.046874113
000310 4d 87 1e be 5f c6 2e be d2 44 22 3e ac 79 37 3e
       -0.154813 -0.1706786 0.15846565 0.17917508
000320 29 a5 f8 bc 23 57 5e 3e b2 30 11 3e 56 4c 88 3e
       -0.030352192 0.21712928 0.14178732 0.2662074
000330 e3 fc 58 3e 3b 23 0a 3e 0a 0a a6 3e 54 af d6 3d
       0.21190219 0.13490002 0.32429534 0.1048266
000340 eb 7b d3 bd b9 a5 f7 bc 8e 41 c0 bc ba b5 c5 3c
       -0.1032637 -0.03023039 -0.023468759 0.024134506
000350 6f c5 f8 bb 11 37 86 3d 41 7b 6e bd 06 80 09 bd
       -0.0075918953 0.06553472 -0.058223013 -0.03356936
000360 92 3b 31 3e aa 80 87 3c 53 ff 1d 3e 4e 93 d9 bd
       0.1730788 0.016540844 0.1542943 -0.10623799
000370 8d 62 25 be 7e a0 ee 3d d4 f0 e0 bc b9 49 14 bc
       -0.16150875 0.11651705 -0.027458586 -0.00905078
000380 d5 7d 56 3e 06 2a cb bd 55 1f dc bb 4d 26 cd bd
       0.20946439 -0.09920125 -0.0067176023 -0.10017071
000390 eb 9f 11 3e ff 5b 80 3d 57 6d 19 be 7d eb 83 3d
       0.1422116 0.06267547 -0.14983116 0.064414
0003a0 27 85 16 3e 00 99 b3 3d e1 83 8f bd da 3d 12 3e
       0.14699231 0.08769417 -0.07007576 0.14281407
0003b0 e3 3f 1a 3e 21 5f ec bc d3 3b 08 3e c3 82 06 3e
       0.15063433 -0.028853955 0.13304071 0.13135819
0003c0 4d a6 fb 3d 68 3b e9 3c 5b c6 97 3e 6c 81 f5 3d
       0.12287579 0.02847071 0.2964352 0.11987576
0003d0 90 77 21 3e ff fc b9 3d ae be fc bd ba c7 e5 bd
       0.15768266 0.09081458 -0.12341057 -0.112197354
0003e0 c7 f5 d5 bd 29 93 98 bd 94 bf 16 3e 2c 53 bd bd
       -0.10447269 -0.074499436 0.14721519 -0.092443794
0003f0 dd a5 02 be 79 22 d2 bc 0d 60 94 bc ef ab 32 3e
       -0.12758584 -0.025651203 -0.018112207 0.174484

bias f4 [6]
000000 e7 c8 1e 3d e4 a4 e4 3d 3c e5 fd 3d b7 27 91 3d
       0.038765814 0.11164263 0.123972386 0.07087653
000010 9b 3d 27 bd 14 25 ce bd
       -0.040830236 -0.10065666

weight f4 [6, 6, 3, 3]
000000 87 60 1b be a7 8c df 3d 0e 55 93 bc f2 c7 86 3d
       -0.15173541 0.10915499 -0.017984893 0.06581105
000010 d7 ec 4b bd f6 ec 03 3e ea c4 f5 bc 02 03 bb 3c
       -0.049786415 0.12883362 -0.030001123 0.022828583
000020 ae 8b 73 3d ed 3c 1e bd 6f 28 de bc 79 4c ed 3d
       0.05945938 -0.038632322 -0.02711889 0.115868516
000030 09 df c5 3d 86 25 c5 3c 97 d3 0c bd 40 40 b2 bc
       0.09661681 0.024065744 -0.034381475 -0.021759152
000040 2a 93 a4 bd d6 f5 d5 bd 98 3c e7 3d f7 91 89 bb
       -0.08035882 -0.1044728 0.11290854 -0.0041983086
000050 1a 66 02 be 30 4b 60 bd d7 fa e3 3d d5 69 69 bd
       -0.12734261 -0.054759204 0.11131828 -0.056985695
000060 c6 cb dc 3d ad 4d 71 3d 9c d6 ed 3d 90 bd a7 bc
       0.10781054 0.058911968 0.11613199 -0.020476133
000070 fd f5 f6 bb ce 31 90 bb 6e a6 f0 3d f3 b1 f9 3d
       -0.0075366483 -0.0044004684 0.11750494 0.12192144
000080 78 0b 9d 3d 04 81 38 3e b6 a3 3f 3e f2 d9 31 3e
       0.07668203 0.18017966 0.18714795 0.17368296
000090 15 25 67 bc e0 e1 25 be 28 9a f2 bd c1 55 e3 bd
       -0.014107962 -0.16199446 -0.11845809 -0.11100341
0000a0 8d 0a e3 bd af a4 22 3e 51 18 1b be 0a 4a 59 bd
       -0.11085997 0.15883134 -0.15145995 -0.053049125
0000b0 7d b7 28 3d 5e 75 e9 bd 05 d1 35 3c 6a e2 63 3b
       0.041190613 -0.11399339 0.011097197 0.0034772404
0000c0 7d ba 9f 3d c8 5f 10 be 6e db 52 3d c7 5b d2 bd
       0.07799242 -0.14099038 0.051478796 -0.102714114
0000d0 90 10 73 3d 45 2f 13 bc f6 77 7b 3d 67 23 f3 bd
       0.059341967 -0.008983438 0.0613937 -0.11871987
0000e0 a7 39 e1 bd 6a e9 a6 bd 8d 79 e7 3b d1 62 05 be
       -0.109973244 -0.08149989 0.0070640505 -0.13025977
0000f0 a6 7c 16 3d dd ce aa bd 07 51 22 bd cb fb 04 3e
       0.036739968 -0.08340237 -0.039628055 0.12986676
000100 ff 3e b9 bd 0a ba 22 be 95 a7 35 3e ff e1 09 3e
       -0.09045219 -0.15891281 0.17739709 0.13465117
000110 dd 4a 26 be 3f ad 8e bd 0c 1f 42 bd 8a 1c 7d bc
       -0.16239496 -0.06966638 -0.04739289 -0.015448699
000120 e9 3c a3 3d 83 f4 10 3e 48 18 35 3e 56 83 85 3d
       0.07970602 0.14155774 0.17685044 0.06519191
000130 29 29 53 bd cc 57 ec 3d bb 03 70 ba 5f 10 ed 3d
       -0.051552925 0.115401834 -0.00091558293 0.11575388
000140 b3 56 67 3e 34 4e bf 3d a0 10 10 3e 66 12 0f 3e
       0.22591667 0.09341088 0.14068842 0.13971862
000150 fd 17 4c 3e 32 c2 ae 3c 49 53 62 3e 44 3f b5 bc
       0.19931026 0.021332834 0.22102083 -0.022124894
000160 8e d9 df 3c 03 12 63 3e ec 17 72 bd 58 a9 a0 3d
       0.027325418 0.2217484 -0.059104845 0.078448
000170 0a b6 9b 3d 2f 03 10 3e 36 c1 fe 3d 8d cd b3 3d
       0.076030806 0.14063714 0.12439196 0.0877944
000180 41 5d 0a be 8a ff fa 3d aa 75 d8 bc 53 92 35 3e
       -0.13512136 0.122557715 -0.026423294 0.177316
000190 e9 1d 17 3e 7a fa 0f 3d b7 b5 20 3e ce 56 20 bd
       0.14757504 0.035150982 0.15694319 -0.039145283
0001a0 59 1e 18 be 1b c1 f6 3d b5 93 41 3c 5d f4 bf bd
       -0.14855327 0.12048551 0.011815001 -0.093727805
0001b0 9b dd 02 be 39 99 13 3d 6f 73 96 3c 47 a0 82 bd
       -0.12779848 0.036034796 0.01836559 -0.06378227
0001c0 8e 90 cd bc db 7f 03 3e 41 e6 8c bd 90 7a c3 bd
       -0.025093343 0.12841742 -0.06879855 -0.09544861
0001d0 01 ed a4 3c 30 b9 7e 3a fc 42 05 3e 01 36 02 bd
       0.020132544 0.0009716926 0.13013834 -0.031789783
0001e0 57 e6 40 be bb 87 0d bd f6 1e 43 3e 8d 16 83 bd
       -0.18837868 -0.03455327 0.1905478 -0.064007856
0001f0 fa 2d 0b bc 3f e4 b5 3d 0e e2 92 3c 2f be 8a bc
       -0.008494848 0.08881425 0.017930057 -0.01693639
000200 2e 29 46 be d4 ec 68 3d 57 58 85 bd 64 9f be bc
       -0.19351646 0.056866482 -0.0651099 -0.023269363
000210 53 87 21 3e 76 56 bb 3d f6 09 39 be 91 ab 76 3e
       0.15774278 0.091473505 -0.18070206 0.24088885
000220 30 56 18 be 2c 8d 1d be 58 ca 07 3e e1 b9 37 be
       -0.14876628 -0.15385884 0.13260782 -0.17942001
000230 4e 99 9b be 74 f6 99 3d 3b 5b e7 3b c4 2d 66 bd
       -0.303904 0.0751771 0.007060436 -0.05619599
000240 6d ec 4b bd 09 53 13 3e 56 07 ec 3d 82 74 3f be
       -0.04978602 0.14387144 0.11524837 -0.18696788
000250 1f 13 b7 3d fd 63 ec bd 4e 6c d9 bd 62 cd 3c 3e
       0.08939194 -0.11542509 -0.106163606 0.18437722
000260 2f 5d 25 3a cb 63 0f 3e 45 a4 af bd ba f6 d1 3d
       0.0006308136 0.14002912 -0.08576254 0.102521375
000270 93 bc f8 3d df f5 a3 3b 40 eb 41 3d db fa ad 3b
       0.12145343 0.0050036754 0.047343493 0.0053094453
000280 a5 1d 4b 3d 0c d0 04 3e b8 bd c0 3c 48 98 45 bd
       0.049588818 0.12969989 0.023527965 -0.04824093
000290 b4 bf eb bd 49 ae c7 bd d3 8d 36 be d4 6a 22 be
       -0.11511174 -0.09750039 -0.17827539 -0.15861064
0002a0 fe 7c 10 be 2a 56 ec bc 26 6f 2f bd 50 71 80 3d
       -0.1411018 -0.02884968 -0.04283061 0.06271613
0002b0 99 c9 08 3e a1 03 97 3d 97 d2 87 3d 3b 3a 35 3c
       0.13358153 0.07373739 0.06631964 0.0110612465
0002c0 b8 e1 2f 3e fd 33 0a be 7e 13 5e bd 34 0b 6f 3d
       0.17175949 -0.13496394 -0.054217808 0.058360294
0002d0 e1 a6 c2 bd 2b a1 2b be 44 f2 0f be cf 70 ec bd
       -0.09504486 -0.167607 -0.14057261 -0.11544954
0002e0 5c 0f 06 be de 33 e4 3d 08 ff 7b 3d c7 5e cc bd
       -0.13091797 0.111427054 0.061522514 -0.09979015
0002f0 e5 65 c1 bd ac 59 cf bd 0d ac 08 be 79 5c 52 be
       -0.09443263 -0.101245254 -0.13346882 -0.20543088
000300 c1 51 5f 3e 45 e8 6d 39 3c 47 f0 3d af b0 9d bd
       0.2180853 0.00022688608 0.11732337 -0.07699715
000310 0f 21 af 3c 81 32 32 bd 80 f0 3f 3e ea 43 b5 3a
       0.021378068 -0.043505196 0.18744087 0.0013829444
000320 df 7f 8e 3c 73 c6 e3 bc bf 81 35 3e ef 95 15 3e
       0.017394958 -0.027804589 0.17725275 0.14607976
000330 a7 a5 d8 bd 4b c9 a0 3d 74 81 92 bd 9e 2e fb b9
       -0.10578471 0.078508936 -0.071535975 -0.00047909183
000340 cb 8b 44 3e cb 7e 87 bd 3d ce 20 3e 00 3e 33 3e
       0.19193952 -0.06615981 0.15703674 0.1750412
000350 81 0e 35 bd 25 61 2d 3e 7a ef aa bc 8c 8e fe bc
       -0.044203285 0.16931589 -0.020866144 -0.031073831
000360 a5 ee 5b bd 0d ba 13 be 76 70 08 3e 03 8e 1b 3d
       -0.053694386 -0.14426441 0.1332415 0.03797723
000370 4c bb 27 bd ab 62 32 bc 5c 99 e2 3d 30 ba 0e 3d
       -0.040950105 -0.010887782 0.11064407 0.03484553
000380 ce f3 33 bd 17 cd bc bd ff fa 0d be 26 b9 47 bc
       -0.043933682 -0.09218805 -0.13865279 -0.012190139
000390 5c 72 07 3e 64 b7 c8 bc b9 6f 00 3e e2 04 38 bc
       0.13227218 -0.02450151 0.12542619 -0.011231633
0003a0 8c 5f 79 bc 90 9d b5 3d 57 39 d3 3d 64 f8 8a 3d
       -0.015220534 0.08867943 0.10313671 0.06785658
0003b0 3b cb 2e 3d b7 18 06 3e 43 af 05 3c 68 2e d8 bc
       0.042674284 0.13095365 0.008159461 -0.026389316
0003c0 84 24 be bd 72 c3 20 bd 3e a7 43 ba b9 d5 c4 3c
       -0.092843086 -0.03924889 -0.00074635807 0.024027692
0003d0 8f 82 28 be 4c e2 d9 bd 24 5f cc bd e9 25 84 3c
       -0.16456054 -0.10638866 -0.09979084 0.016131358
0003e0 56 b7 9c bd 2d df 0d be ec e9 ba 3d d1 30 7b 3d
       -0.07652156 -0.13854666 0.09126648 0.06132585
0003f0 bd 9b 1c 3e 9d d2 93 bd 22 fa 94 bc fa 45 05 bd
       0.15293784 -0.07217906 -0.018185679 -0.032537438

bias f4 [6]
000000 65 fd 1e 3d 60 2a 96 3b 91 17 d5 bd 2c e5 36 3d
       0.038815875 0.004582688 -0.104048856 0.04465215
000010 94 19 0b bb 1b d1 f1 bd
       -0.0021224963 -0.11807462

weight f4 [5, 2166]
000000 29 3a 16 bd 33 94 f7 bb a3 1b fa bc 61 db 47 bb
       -0.03667656 -0.0075555085 -0.030530756 -0.003049575
000010 d7 cd 88 3b 2d c7 37 bc 0d 16 08 bd de f9 c2 bc
       0.0041749286 -0.011216921 -0.033224154 -0.023800787
000020 7e a9 f1 bc 5f b6 01 bb f9 c4 10 bd 3e fb 10 3a
       -0.029499765 -0.001979254 -0.035344098 0.0005530602
000030 e7 4e 17 bd 33 d6 07 bd 54 0e 86 bc 9e a8 b6 bc
       -0.03694048 -0.03316326 -0.016364254 -0.0222972
000040 e5 b3 f6 bc 8c c2 20 bc 20 57 bb bc 26 00 19 bd
       -0.030115077 -0.009812009 -0.022868693 -0.037353657
000050 a4 49 27 bc 80 7c 0f bd 84 ea e2 bb 42 53 2c bc
       -0.010210428 -0.03503084 -0.006924929 -0.010517897
000060 3b 98 a9 bb 2b 6f f3 bc 66 4c ae bb ec c5 99 bc
       -0.005175618 -0.029716095 -0.005319166 -0.018771134
000070 ae 36 b3 bc bf 14 4a 3b 69 7a d5 bc 37 43 46 bb
       -0.02187666 0.003083512 -0.026059346 -0.0030252466
000080 88 64 eb bc 1d cf d3 bc e3 8e 09 bd a1 77 98 ba
       -0.02873446 -0.025855595 -0.033583533 -0.0011632332
000090 da bf 8e 3a e8 8f 33 bd 34 59 27 bc 02 b2 0d bd
       0.0010890916 -0.04383841 -0.010214139 -0.03459359
0000a0 85 11 e9 bc e9 c9 b6 3c 80 84 19 3b b0 da 85 3c
       -0.028450737 0.022313075 0.0023424923 0.01633963
0000b0 a6 34 f6 bc 1f 1d 47 bc 13 77 e6 bb f6 85 40 bb
       -0.030054402 -0.012152939 -0.0070332377 -0.0029376722
0000c0 0b 50 21 bc de 9c 68 bc f8 ee 90 3c eb ab dd bc
       -0.009845744 -0.014197556 0.017692074 -0.027059516
0000d0 6b 27 25 3b f4 9e 20 bb 43 4b 00 bb 56 e6 47 bc
       0.0025200497 -0.0024508806 -0.001957611 -0.012200912
0000e0 61 cf 19 bb 48 42 b6 ba 97 f7 28 bb ba 80 98 3b
       -0.0023469555 -0.0013905251 -0.002578234 0.0046540173
0000f0 31 c0 00 bb cd b6 8b bc 41 3c 12 bc 75 95 94 bb
       -0.0019645805 -0.01705494 -0.008925498 -0.004534418
000100 a9 80 fd ba 77 aa 96 3a 82 69 c6 bc ae b4 9b bc
       -0.0019340712 0.0011494894 -0.024220232 -0.019007053
000110 83 9f 13 bc 24 97 ea 39 e2 76 29 bc 0a 3d 61 bc
       -0.0090101985 0.00044744567 -0.010343285 -0.013747463
000120 a3 7b 05 bd ec 11 ab bc b9 0a 92 bc 0f aa c7 bc
       -0.032588612 -0.02088257 -0.017827379 -0.024373082
000130 fd 02 17 bd 21 88 ed bc 79 2c f4 bc 5c a9 18 bc
       -0.036868084 -0.028995575 -0.029806362 -0.009317722
000140 c7 0d c9 bc 2b 05 01 bd f8 36 4f bc 82 e2 cb bc
       -0.024542702 -0.03149907 -0.012647383 -0.02488828
000150 d6 3e d2 bc 8c 14 5a bc 2b 8f e2 3b e5 10 5a bc
       -0.025664728 -0.013310563 0.0069140396 -0.013309692
000160 26 f2 87 bc 66 ea 99 bc 59 db 17 ba 2b 62 06 bd
       -0.016594958 -0.018788528 -0.0005792878 -0.032808464
000170 ed a9 57 bb cf 41 91 3c 89 51 4c bb c9 49 2f bb
       -0.003290768 0.017731575 -0.0031176528 -0.002674686
000180 10 85 91 bc d2 6f 27 bd 23 d5 b9 bc 8a 1c 9c bc
       -0.017763644 -0.040878125 -0.02268464 -0.019056577
000190 46 41 2c bd 5d 9b ed bc 75 4e ba 3b 37 b3 90 bc
       -0.042054437 -0.029004747 0.0056856223 -0.017663581
0001a0 4b 38 12 3c b3 c8 80 bc 01 ec 87 bb 04 a4 32 bd
       0.008924554 -0.0157207 -0.004148007 -0.04361345
0001b0 62 88 27 bd ca 0f 3b bd 13 cf 02 bd fa 5d 0c bd
       -0.04090155 -0.045669354 -0.031935763 -0.03426931
0001c0 2e 38 43 bc b3 73 e3 bc 09 26 08 bd 2c 6a 64 bc
       -0.01191525 -0.02776513 -0.0332394 -0.013941329
0001d0 49 2f 9c bc 67 de 08 bc a8 ba 81 bb de f7 f8 bb
       -0.019065516 -0.008353806 -0.0039590187 -0.0075979074
0001e0 d0 cf 9c ba 2c 73 b1 bc 59 37 05 bb 16 ed 01 bc
       -0.0011963788 -0.021661364 -0.002032718 -0.007930061
0001f0 fe fc f9 bb 74 fe eb 3b ed ca 0b bd d2 36 c6 bb
       -0.007629036 0.007201964 -0.034129072 -0.0060490156
000200 70 45 c0 bc 79 43 22 bd 77 59 d1 bb 4e 89 a9 bc
       -0.02347061 -0.03961513 -0.006388839 -0.020695355
000210 e9 0a 25 bc 00 0a 1b bc e5 78 59 bc 25 54 3b bd
       -0.010073402 -0.009462833 -0.013273452 -0.045734543
000220 e8 86 8e bc 4f 84 e0 bb 02 4b f5 3a ce 5a bb 3c
       -0.017398313 -0.00685171 0.0018714371 0.022870447
000230 a9 cb 85 bb 53 cd cc bb 80 1a 96 bc 11 0b a9 3c
       -0.004083116 -0.0062500625 -0.018323183 0.02063516
000240 6a af c2 3b 82 e4 8b bc ed 9c 3a 3b 54 d1 f3 bb
       0.005941321 -0.017076734 0.0028474883 -0.0074407253
000250 d5 3d 43 bc 0f 2e 31 bd e5 0f bf bc de c1 16 bc
       -0.011916597 -0.043256816 -0.023323009 -0.009201495
000260 5c ef d1 bc a7 07 bd bb db e2 35 bd 06 d3 f1 bc
       -0.02562683 -0.0057687345 -0.0444058 -0.02951957
000270 b8 d5 a3 bc 1c 5d 8f bc d7 1f a9 3c 76 04 b4 3c
       -0.01999937 -0.017500453 0.020645065 0.021974783
000280 45 bb af 3c a3 6c 73 3d 56 b5 c2 3c 50 b3 47 3c
       0.021451602 0.059429776 0.023768108 0.0121887475
000290 7d 65 b9 3c 1a 46 d0 bb e0 ca b0 bc 4d 03 c8 bc
       0.022631401 -0.006356013 -0.021581113 -0.024415636
0002a0 c8 c9 de bc 20 a4 86 bc 30 5f 92 bc db 16 2c bd
       -0.027195826 -0.016435683 -0.017867655 -0.042013984
0002b0 3a 01 52 3a 95 81 31 bd 3c f1 03 bd f1 7a 19 bb
       0.0008011047 -0.04333647 -0.03221248 -0.0023419226
0002c0 c8 f6 a8 bb a3 ac 81 3c b9 d3 af 3b 3e 60 1a 3d
       -0.0051563717 0.01582939 0.0053658155 0.03768944
0002d0 d6 70 41 3d b6 8c bb 3c 0e 89 27 3d 8c bd 14 3d
       0.04722675 0.022894245 0.04090219 0.03631358
0002e0 60 17 15 3a dc c9 99 bb 1c c2 82 bb 24 eb 03 bd
       0.0005687382 -0.004693253 -0.003990425 -0.03220667
0002f0 c6 07 07 bd 9a 55 47 3b 99 5c 26 bd c9 5d 2c bd
       -0.032966398 0.0030416013 -0.04061565 -0.042081628
000300 f3 86 05 bd 48 b5 91 bc cd 0a c6 bb 3a ad 03 3c
       -0.0325994 -0.017786637 -0.006043768 0.008036906
000310 88 6e 07 bc 1e 9a 07 3d 5f 07 8a 3b ab 98 12 3c
       -0.008266099 0.033105962 0.0042123045 0.008947532
000320 ad d5 16 3c 6c 31 b3 3c 37 fd cb bb b0 3d 3e ba
       0.009206218 0.021874152 -0.006225254 -0.0007257117
000330 37 ec 91 bc 6a 16 c4 bc 2a 51 dd bc 05 c9 0a bd
       -0.017812831 -0.02393647 -0.027016241 -0.033883113
000340 93 96 98 3c c1 b3 ec bc d5 ab 44 bc 00 af f1 bb
       0.018626487 -0.028894307 -0.012003859 -0.007375598
000350 af 27 b5 bc 2b a0 5a bc 51 e1 2a 3c ff 15 84 3c
       -0.02211365 -0.013343851 0.010429696 0.01612377
000360 cf 1d c9 3c 7e 15 ff bb 0e 47 77 3c c2 da 28 3d
       0.024550347 -0.0077845445 0.015092624 0.04122425
000370 05 63 b4 3b 3c 3b 6a 3b 1f ca b3 3b 37 ef b3 bc
       0.005504968 0.0035740873 0.005486741 -0.021964652
000380 08 45 44 bb 11 e3 00 3b 1a e7 93 bb ee 64 8e ba
       -0.0029948372 0.0019666592 -0.0045136334 -0.001086382
000390 9f 39 05 bd c6 94 81 bc e9 bc 7f 3c a1 cd c3 3c
       -0.032525655 -0.015818011 0.015609005 0.023901762
0003a0 fe 48 d5 3c 2b f3 03 bc 26 07 ad 3c 38 e0 73 3b
       0.026035782 -0.008053581 0.021121573 0.0037212502
0003b0 8f 83 f8 37 e2 1b 00 3d ac c0 2e 3d 10 70 37 3d
       2.9625166e-05 0.03127659 0.042664215 0.044784606
0003c0 81 33 a8 3c be b4 15 3c 49 29 a0 bc ec 55 d2 bc
       0.020532371 0.009137331 -0.019550936 -0.025675736
0003d0 8d d9 32 bd cd 9e 34 bd cf 26 0f bd 6a ac 20 bc
       -0.043664504 -0.044096757 -0.03494912 -0.009806732
0003e0 8e 94 0f bc e6 f4 4a bb f9 e5 18 3b f2 59 90 3c
       -0.008763446 -0.0030968725 0.0023330434 0.017621014
0003f0 ee a3 94 3b 52 f0 3d 3d 4a aa 22 bc 08 da f1 3b
       0.0045361435 0.046371765 -0.009928295 0.0073807277

bias f4 [5]
000000 6f 60 86 bc 2f e1 66 bc dc 6e e6 bc f1 70 4f 3b
       -0.016403405 -0.014091774 -0.028129034 0.0031653012
000010 05 05 da bc
       -0.026613722
