algorithms/cap-v0/data/old/2018-12-24--185256.843035/episode_14000.model (torch_old, 60242 bytes, 8 tensors)

weight f4 [6, 6, 3, 3]
0	0x3cfa80f0	0.03057906
1	0x3d79004c	0.0607913
2	0xbca26e54	-0.019828
3	0xbd76064e	-0.060064606
4	0x3d3a0b64	0.04542102
5	0x3c8f9100	0.017525196
6	0x3e0926c4	0.13393694
7	0xbbe79260	-0.00706701
8	0x3dd23e6e	0.10265814
9	0x3dbaa1aa	0.09112866
10	0xb9f0fdd7	-0.00045965493
11	0x3c86e30f	0.016465692
12	0x3d2e21ba	0.042512633
13	0xbde04a8e	-0.1095172
14	0xbcf179bb	-0.02947699
15	0xbde7aff7	-0.113128595
16	0x3dbf309b	0.09335443
17	0x3cc5047c	0.02404999
18	0x3e0f1da5	0.13976152
19	0x3d1c42e5	0.038149733
20	0x3d8663d0	0.065620065
21	0x3da8baa2	0.082387224
22	0x3bbc83b7	0.0057530063
23	0x3db13220	0.08652139
24	0xbe477d2c	-0.19481343
25	0x3df33f23	0.11877277
26	0x3d6e0e6e	0.05811923
27	0x3cd6a3c8	0.026201144
28	0x3cf8fa68	0.03039284
29	0xbd94308d	-0.07235823
30	0xbda6b927	-0.08140784
31	0x3c17ef00	0.009273291
32	0xbd50925a	-0.05092082
33	0x3d8715b0	0.065959334
34	0x3df9519c	0.12173769
35	0xbd761ca4	-0.060085908
36	0x3db78946	0.0896173
37	0xbd579f5e	-0.05264222
38	0xbedd5870	-0.43231535
39	0xbd85ff00	-0.06542778
40	0xbf045e21	-0.5170613
41	0xbef5602d	-0.4792494
42	0xbde8ad33	-0.1136116
43	0xbce33f41	-0.027740123
44	0x3d1611a1	0.036637906
45	0x3e1cf9f1	0.1532972
46	0xbb8844e9	-0.0041586054
47	0xbe1d2671	-0.15346695
48	0xbbea4115	-0.0071488717
49	0xbdc46268	-0.09589082
50	0xbd6eac2b	-0.05826966
51	0x3e21ba78	0.15793788
52	0xbddeb112	-0.10873617
53	0x3e5004c5	0.2031432
54	0xbdc408a3	-0.0957196
55	0xbdde11c4	-0.10843232
56	0x3c445f70	0.011985645
57	0xbc440200	-0.011963367
58	0x3dc5614a	0.09637697
59	0x3e0a9718	0.135342
60	0xbbefa760	-0.007313654
61	0xbd203922	-0.039116986
62	0xbcb565b4	-0.022143222
63	0x3c9b5ed1	0.01896611
64	0xbe2fe0b9	-0.17175569
65	0xbe649c1a	-0.22325173
66	0xbcc9cdde	-0.024634298
67	0x3d0de708	0.034644157
68	0xbd247fa2	-0.040160783
69	0x3c632297	0.013863227
70	0x3e085c94	0.13316566
71	0xbdf5539f	-0.1197884
72	0x3ca4fa2f	0.020138828
73	0xbe3c3f32	-0.18383482
74	0xbd270f51	-0.04078609
75	0xbd1a1376	-0.037616216
76	0xbc0581d2	-0.008148627
77	0xbc38b50f	-0.0112736365
78	0x3d9256aa	0.07145436
79	0xbd46ef88	-0.04856828
80	0x3c23e4bf	0.010003268
81	0x3d902540	0.07038355
82	0xbe019763	-0.12655406
83	0x3ccdc268	0.025117114
84	0x3dd44c00	0.10366058
85	0xbcdec804	-0.027194984
86	0xbd408c8c	-0.047009036
87	0xbdf1b11c	-0.11801359
88	0xbdbc8cb8	-0.092065275
89	0x3dc23bf2	0.0948409
90	0xbe111c2d	-0.14170904
91	0x3d22795a	0.03966651
92	0xbe4ae12c	-0.19812459
93	0xbda42db5	-0.080165304
94	0x3d1d4f61	0.03840578
95	0xbe428945	-0.18997677
96	0xbd887454	-0.06662813
97	0xbdea5166	-0.11441307
98	0x3d85c960	0.0653255
99	0x3ceb7ec3	0.028746968
100	0x3e46b0ec	0.19403428
101	0x3e418e77	0.18902002
102	0xbcb9bd3b	-0.02267324
103	0x3dbed09f	0.09317135
104	0xbce69d5c	-0.028151207
105	0x3c7024c6	0.014657205
106	0xbe81ac6d	-0.25326863
107	0xbe2f9113	-0.17145185
108	0xbc1f1af0	-0.009711012
109	0xbcd5939c	-0.026071362
110	0xbdb783c7	-0.089606814
111	0xbcafda54	-0.021466412
112	0xbda6d0a7	-0.08145266
113	0xbdc6e784	-0.09712127
114	0xbce1fc98	-0.027586266
115	0x3c89c2f8	0.016816601
116	0x3dff6794	0.12470928
117	0xbdb05173	-0.08609285
118	0x3ac71c24	0.0015190882
119	0xbbd0693f	-0.0063602026
120	0x3cd90298	0.026490495
121	0x3dba8131	0.091066726
122	0x3db1ccd2	0.086816445
123	0x3dc80c8b	0.097680174
124	0xbd5a1f8a	-0.053252734
125	0xbb33c28b	-0.002742919
126	0x3d92f0e1	0.0717485
127	0x3da49d8c	0.08037862
128	0x3d7480fc	0.05969332
129	0x3d5fde38	0.054655284
130	0x3daef366	0.08542518
131	0x3d374476	0.044743024
132	0x3d9af5b5	0.07566396
133	0x3c92108b	0.017830154
134	0x3d12f6f1	0.035880033
135	0x3d9a6a0a	0.075397566
136	0x3db9d270	0.09073341
137	0x3cf38418	0.029726073
138	0x3c3c4360	0.011490673
139	0x3b4a3240	0.0030852705
140	0xbd883f76	-0.06652729
141	0xbd16b4a4	-0.036793366
142	0xbdcf1d5e	-0.10113023
143	0xbd5a39b4	-0.053277686
144	0xbea16a2e	-0.3152632
145	0xbc1cda40	-0.009573519
146	0x3e371fae	0.17883179
147	0xbf0bc7e2	-0.5460187
148	0xbf0446cf	-0.51670545
149	0xbeee1905	-0.46503463
150	0x3deb8af3	0.11501112
151	0xbe746794	-0.23867637
152	0xbe9a7919	-0.30170515
153	0xbd059bb2	-0.032619186
154	0xbe2614d1	-0.16218878
155	0xbd0289e1	-0.031869773
156	0x3c774037	0.015090994
157	0x3cfab5e6	0.030604314
158	0x3b7cf1e9	0.0038596338
159	0x3d54ffac	0.05200164
160	0xbdbcc3f1	-0.0921706
161	0x3d308993	0.04309995
162	0x3cea5930	0.028606981
163	0xbde5c468	-0.11219102
164	0x3dcf39bc	0.10118434
165	0xbb8b3f60	-0.0042494982
166	0x3db2984c	0.087204546
167	0x3cd4ece0	0.025991857
168	0x39be9a00	0.00036354363
169	0x3d10d480	0.035358906
170	0x3e07ed56	0.1327413
171	0xbc66c4e8	-0.014085032
172	0xbc901da4	-0.017592259
173	0x3d2cea8f	0.04221588
174	0x3dae56ff	0.08512687
175	0x3dc160ca	0.09442289
176	0x3d455e1e	0.04818546
177	0xbcabdd1c	-0.020979457
178	0x3dfef098	0.12448233
179	0xbd6cb608	-0.057790786
180	0xbb58676a	-0.0033020624
181	0x3c468aa2	0.012118014
182	0xbd1571fd	-0.03648566
183	0x3b9e7df7	0.0048367935
184	0x3e0f89ad	0.14017363
185	0x3c8c1f65	0.017104814
186	0x3d101b21	0.035182122
187	0x3e300987	0.17191134
188	0x3e4bc3d8	0.19898927
189	0xbd239238	-0.039934367
190	0xbdf78904	-0.120866805
191	0x3d497f7c	0.049193844
192	0xbd498444	-0.049198404
193	0x3dd91728	0.1060012
194	0x3d1ca4e4	0.03824319
195	0x3e08d4fe	0.133625
196	0x3c0f71f0	0.008755192
197	0x3d2f1000	0.04273987
198	0x3e946793	0.2898527
199	0x3e839d0f	0.25705764
200	0x3e0cfec5	0.13769062
201	0x3dcdb560	0.1004436
202	0x3df818bb	0.12114092
203	0x3ea8f921	0.3300257
204	0x3e6d9451	0.2320111
205	0x3ea3632e	0.31911606
206	0x3e0f82ca	0.14014736
207	0x3ca99925	0.020702908
208	0x3e1e2f9b	0.15447848
209	0x3c3b5ed9	0.011436188
210	0x3df3692c	0.11885294
211	0x3de51bec	0.11186966
212	0xbd9e3343	-0.07724621
213	0x3d8ff55a	0.07029219
214	0x3e037b21	0.12839939
215	0x3de6fcb5	0.11278669
216	0x3d9728e8	0.07380849
217	0x3d750eb0	0.05982846
218	0x3d53dc2c	0.051723644
219	0xbb935460	-0.0044961423
220	0xbd7f3e86	-0.062315486
221	0xbb5bc440	-0.0033533722
222	0xbcbd0ba8	-0.023076847
223	0x3df5d364	0.1200321
224	0x3dc8a966	0.09797935
225	0xbd83f531	-0.06443251
226	0x3d0fa63b	0.03507064
227	0x3c22b7e4	0.009931538
228	0x3d85e8a6	0.06538515
229	0xbd3a33d3	-0.04545958
230	0xbd46ef89	-0.048568282
231	0x3d7f5ec7	0.062346246
232	0xbd569fe1	-0.052398566
233	0x3c68402c	0.014175456
234	0xbd3ad99b	-0.04561768
235	0x3bc2066e	0.0059211766
236	0x3d0938c8	0.033501416
237	0x3d0fdef7	0.035124745
238	0x3a3a4c9e	0.0007106754
239	0xbb7a6f13	-0.0038213178
240	0x3d5b199b	0.053491216
241	0x3d197ef2	0.03747458
242	0xbd28e941	-0.041238073
243	0x3e02130a	0.12702575
244	0x3daa1974	0.08305636
245	0x3dc68ba0	0.096946
246	0x3c5b0af0	0.013369307
247	0xbd7ad898	-0.061241716
248	0xbd72e5b6	-0.0593011
249	0xbbed66c0	-0.007244915
250	0xbcb820c0	-0.022476554
251	0xbc7edbf0	-0.015555367
252	0xbe42de27	-0.19030057
253	0x3f00a511	0.5025187
254	0xbeb2284b	-0.34796366
255	0xbedb9387	-0.42885992

bias f4 [6]
0	0x3dabe1be	0.08392666
1	0xbd48845c	-0.048954353
2	0xbd9ab82b	-0.075546585
3	0x3d7a5720	0.061118245
4	0xbb22db32	-0.002484989
5	0x3de7e058	0.11322087

weight f4 [6, 6, 3, 3]
0	0x3d324225	0.04352011
1	0xbe300b03	-0.171917
2	0xbd08e85b	-0.033424716
3	0xbd523988	-0.051324397
4	0x3c5984e2	0.013276311
5	0xbe039963	-0.12851481
6	0x3d550dc1	0.05201507
7	0x3d13c439	0.036075804
8	0x3aab4bf5	0.0013068902
9	0x3d9c1943	0.07622006
10	0x3e8fe22b	0.2810224
11	0x3d99f600	0.07517624
12	0xbd012ada	-0.031535007
13	0x3dc1da90	0.094655156
14	0x3e1c1723	0.15243201
15	0x3d9cbe6d	0.07653508
16	0x3db144ee	0.086557254
17	0x3e32fc0c	0.17478961
18	0xbe86a8da	-0.263007
19	0xbe7f6c79	-0.24943723
20	0xbda99c11	-0.082817204
21	0xbe545737	-0.20736395
22	0xbdb1b221	-0.086765535
23	0xbe8343a5	-0.25637546
24	0xbe76f4ff	-0.24116896
25	0xbde62409	-0.11237342
26	0xbe74ce57	-0.23906837
27	0x3e271f38	0.16320503
28	0x3de6187b	0.11235138
29	0xbd1ae9fc	-0.0378208
30	0x3e1a042e	0.15040657
31	0x3e3b5893	0.18295507
32	0x3de74b3f	0.11293649
33	0x3d3b10b4	0.045670226
34	0x3dd38008	0.103271544
35	0x3dacc2f3	0.08435621
36	0xbd06fb66	-0.032954596
37	0xbe85399a	-0.2602051
38	0xbe823b2f	-0.25435778
39	0xbde32c6d	-0.11092458
40	0xbdef3fe0	-0.11682105
41	0xbdf920ac	-0.12164435
42	0xbb532a2b	-0.003222118
43	0xbe37c217	-0.17945133
44	0x3d8c0dde	0.068385825
45	0xbdf7e589	-0.12104327
46	0xbd96bac1	-0.07359839
47	0x3e0db88c	0.1383993
48	0xbe4299ed	-0.1900403
49	0xbe4442a1	-0.19166042
50	0xbbae3178	-0.0053159557
51	0xbe0ff55a	-0.14058438
52	0xbde5460c	-0.11195001
53	0x3cc34949	0.023838656
54	0xbd98c40c	-0.07459268
55	0xbd9fe94c	-0.0780817
56	0x3e3e10d0	0.18561101
57	0xbdd2167e	-0.10258196
58	0xbe06bb91	-0.13157488
59	0x3d178bf4	0.036998704
60	0x3df380f1	0.11889828
61	0x3e0662db	0.13123648
62	0x3e0313fb	0.1280059
63	0xbd176908	-0.0369654
64	0xbde26a3c	-0.11055419
65	0xbe4d4dc5	-0.20049198
66	0x3eaf5fa6	0.3425266
67	0x3e62171b	0.22079127
68	0xbd195b85	-0.037440795
69	0x3e6f1e58	0.23351419
70	0x3d936b32	0.0719818
71	0x3e0a232a	0.13489977
72	0xbe375a93	-0.17905645
73	0xbe23a77e	-0.15981862
74	0xbd8497c8	-0.064742625
75	0xbe04654a	-0.12929264
76	0xbe48976f	-0.19589017
77	0xbe1b632a	-0.15174547
78	0xbde1df54	-0.110289246
79	0xbe011c9f	-0.12608574
80	0xbd08cdd8	-0.033399433
81	0x3db76249	0.08954293
82	0x3e4117b1	0.18856694
83	0x3e29697e	0.16544148
84	0x3d356fa1	0.04429591
85	0x3d9729f4	0.07381049
86	0xbddf4772	-0.10902299
87	0xbdb76302	-0.08954431
88	0x3e00404d	0.12524529
89	0xbd5edb51	-0.054408375
90	0xbe001602	-0.12508395
91	0xbd78970a	-0.060690917
92	0xbde25e09	-0.11053092
93	0xbd0a4b36	-0.033763133
94	0xbe3551e0	-0.17707014
95	0xbdd24ea1	-0.102689035
96	0x3e12ec68	0.14347994
97	0xbe3a577f	-0.1819744
98	0xbd130dbe	-0.035901777
99	0x3cd499f4	0.025952317
100	0xbae9a061	-0.0017824286
101	0x3c78320d	0.015148652
102	0xbcebf85b	-0.028804949
103	0xbe04b4bc	-0.1295957
104	0xbe00ea19	-0.12589301
105	0xbcfbd73a	-0.030742276
106	0x3d5ab447	0.053394582
107	0x3df0e3f1	0.117622264
108	0x3db47540	0.08811426
109	0x3c43b8e7	0.01194594
110	0x3d880d09	0.06643111
111	0x3d434f34	0.047682956
112	0x3b43c671	0.002987292
113	0xbdc70d79	-0.097193666
114	0xbda3bc3e	-0.07994889
115	0x3e0d9c28	0.138291
116	0xbd36ecbe	-0.04465937
117	0xbe1662ac	-0.14686078
118	0xbdcfc3d9	-0.10144777
119	0xbe3c7f67	-0.18407975
120	0xbe3e9099	-0.18609847
121	0xbe49d521	-0.19710208
122	0xbb05b18e	-0.002040002
123	0xbe1a2492	-0.15053013
124	0xbdf96dab	-0.12179121
125	0x3e236b43	0.15958886
126	0x3dce56a8	0.10075122
127	0x3e29275c	0.1651892
128	0x3bc95feb	0.0061454675
129	0x3d3daef6	0.046309434
130	0x3d234e2e	0.03986948
131	0x3d95d2a1	0.07315565
132	0x3debbce7	0.1151064
133	0x3e3ac22d	0.18238135
134	0x3d6e267b	0.058142167
135	0xbd19a568	-0.03751126
136	0x3dda4542	0.10657741
137	0x3be0b0ea	0.0068570273
138	0x3b8af456	0.004240553
139	0xbd51b0fa	-0.05119417
140	0xbce5c178	-0.028046355
141	0xbd34e1c2	-0.044160612
142	0xbdb10420	-0.08643365
143	0xbc87b2b2	-0.0165647
144	0x3dbc915d	0.09207413
145	0x3d242feb	0.04008476
146	0x3da91c4f	0.082573526
147	0x3e246b30	0.16056514
148	0x3e435c78	0.19078243
149	0x3dce28c0	0.10066366
150	0x3e59887f	0.21243475
151	0x3e6ba2e1	0.23011352
152	0x3d9e53c7	0.07730823
153	0xbce466c0	-0.027881026
154	0xbd9e7f6f	-0.0773915
155	0x3d4eba5b	0.05047069
156	0xbd256d41	-0.040387396
157	0xbdc36c21	-0.09542108
158	0xbbf1d9b8	-0.0073806904
159	0xbe066bbd	-0.13127036
160	0xbdc433a7	-0.095801644
161	0xbda072f0	-0.078344226
162	0x3c2c4fc9	0.010517069
163	0xbce942e7	-0.028474284
164	0xbd3ea010	-0.046539366
165	0x3d9c16fa	0.0762157
166	0x3e399677	0.18123804
167	0xbdd19b2f	-0.10234677
168	0x3d984c49	0.07436425
169	0x3e3c7497	0.1840385
170	0x3e26dc6a	0.16295019
171	0x3bac8dc1	0.005265922
172	0xbd9d2a9c	-0.07674143
173	0xbc1c55be	-0.009541927
174	0xbd19ae93	-0.037520003
175	0x3c8d67bc	0.017261378
176	0x3db5baa1	0.08873487
177	0x3d5ea668	0.054357916
178	0xbdfec959	-0.12440748
179	0xbd707b04	-0.058711067
180	0x3dd15206	0.10220723
181	0x3df4e8b3	0.11958446
182	0x3dce94e3	0.10086992
183	0x3e813bbb	0.25240883
184	0x3e0455bc	0.1292333
185	0x3ddb95f3	0.1072196
186	0x3e63d760	0.22250128
187	0x3c56585e	0.013082592
188	0x3e126d0a	0.14299408
189	0x3d15fc7d	0.036617745
190	0xbd31b45b	-0.04338489
191	0x3bb051c4	0.005380841
192	0xbe040041	-0.12890722
193	0x3d6bc78e	0.057563357
194	0xbe142524	-0.14467293
195	0xbd0d9d85	-0.03457405
196	0xbe12f08f	-0.14349578
197	0xbe2acb50	-0.1667912
198	0x3de0f086	0.10983376
199	0x3e177b50	0.14793134
200	0xbcfac29b	-0.030610373
201	0x3e4c7930	0.19968104
202	0x3e13bb41	0.144269
203	0x3e90b0f3	0.28260002
204	0x3e6832c7	0.2267562
205	0x3e16bf91	0.14721514
206	0x3eb2f03c	0.3494891
207	0x3dd8b5bc	0.10581538
208	0xbde5224b	-0.111881815
209	0xbd2216af	-0.039572414
210	0xbc342992	-0.010996239
211	0x3ceaab03	0.028645998
212	0xbc39204b	-0.011299203
213	0x3d9ceda1	0.076625116
214	0xbd83841e	-0.06421684
215	0xbd081181	-0.033219818
216	0x3e2006e7	0.15627633
217	0x3d258f20	0.040419698
218	0x3e497bfd	0.19676204
219	0xbe0624ae	-0.1309993
220	0xbe1e83a5	-0.15479906
221	0x3e234966	0.15945968
222	0xbcd6671d	-0.026172215
223	0x3d1193a4	0.03554119
224	0x3e800eba	0.25011235
225	0xbdaab611	-0.08335508
226	0xbc11e891	-0.008905546
227	0xbda97a26	-0.08275251
228	0x3e2fb019	0.1715702
229	0x3de37d31	0.11107863
230	0xbe4fddd7	-0.20299469
231	0x3dd04231	0.10168875
232	0x3e14a08e	0.14514372
233	0xbd743629	-0.059621964
234	0xbd27c9f9	-0.0409641
235	0x3dc9d667	0.09855347
236	0x3e1aee1f	0.15129898
237	0xbc18d45d	-0.009327975
238	0x3e056029	0.13024963
239	0x3e0c19f8	0.13681781
240	0x3e0274f9	0.12739934
241	0x3d100344	0.035159364
242	0x3e9e6ed4	0.3094393
243	0x3de973e9	0.11399061
244	0x3e30eb1d	0.17277189
245	0x3d993249	0.07480294
246	0xbdfa989a	-0.12236138
247	0xbdb460f9	-0.088075586
248	0xbdd0608c	-0.10174665
249	0xbd936348	-0.07196671
250	0x3e2eaab8	0.17057312
251	0xbdb32530	-0.08747327
252	0xbdd09d8d	-0.101863004
253	0xbd3e4732	-0.046454616
254	0xbd177695	-0.036978323
255	0x3e6cfb4c	0.23142737

bias f4 [6]
0	0x3cf71dd2	0.030165587
1	0x3ddcab30	0.10774839
2	0x3defdaf3	0.11711683
3	0x3d99f3b4	0.07517186
4	0xbd47558d	-0.048665572
5	0xbe09b42b	-0.13447635

weight f4 [6, 6, 3, 3]
0	0xbe359aff	-0.17734908
1	0x3dbcfd50	0.09228003
2	0xbd09930f	-0.03358751
3	0x3d55bbe0	0.052181125
4	0xbd8b2c3b	-0.06795546
5	0x3de7fdc4	0.11327699
6	0xbd0d299d	-0.034463514
7	0x3bddeb6d	0.0067724497
8	0x3d3c1ee6	0.045927905
9	0xbd5bdceb	-0.05367748
10	0xbd37857d	-0.04480504
11	0x3dc98fb5	0.09841863
12	0x3d88b195	0.06674496
13	0x3bb9dce8	0.005672086
14	0xbd23a83f	-0.039955374
15	0xbd5d1539	-0.053975318
16	0xbdc13471	-0.094338305
17	0xbdd116f9	-0.1020946
18	0x3d531685	0.05153515
19	0xbd7e5458	-0.062092155
20	0xbe050d42	-0.12993339
21	0xbdae3e05	-0.08507923
22	0x3dc960bc	0.09832904
23	0xbd4e52ad	-0.050371815
24	0x3ded0ad6	0.115743324
25	0x3d3e87eb	0.04651634
26	0x3dd7ad10	0.10531056
27	0xbd4aad58	-0.04948172
28	0x3b08c8ac	0.0020871563
29	0x3d8f474b	0.0699602
30	0x3df599d0	0.11992228
31	0x3e0180ed	0.12646838
32	0x3e03ad1b	0.12859003
33	0x3e435ff1	0.19079567
34	0x3e4e5c1d	0.20152326
35	0x3e70f3ff	0.23530577
36	0xbda60095	-0.0810558
37	0xbe5c8dd1	-0.21538474
38	0xbe151c07	-0.14561473
39	0xbe2e3eb4	-0.17016107
40	0xbdfa8b4a	-0.122335985
41	0x3e5915fb	0.21199791
42	0xbe4b4b2b	-0.19852893
43	0xbd7c6faa	-0.06162993
44	0x3d45cfd4	0.048293903
45	0xbe0c9ba0	-0.13731241
46	0x3bee1884	0.007266106
47	0x3c84a359	0.016191171
48	0x3d643929	0.055718575
49	0xbe21d905	-0.15805443
50	0x3d0de716	0.03464421
51	0xbdcd84d7	-0.10035103
52	0x3d6ff954	0.058587387
53	0xbc866cc8	-0.016409293
54	0x3d84bcc2	0.06481315
55	0xbe005574	-0.12532598
56	0xbe035594	-0.12825614
57	0xbdacadac	-0.08431563
58	0xbbb411ac	-0.0054952707
59	0xbe1b7705	-0.15182121
60	0x3d3a1ef4	0.045439675
61	0xbdb58312	-0.0886289
62	0xbd492653	-0.049108814
63	0x3dec6b9d	0.11543963
64	0xbdbad1f5	-0.091220774
65	0xbe30f929	-0.17282547
66	0x3e27c5cb	0.16384046
67	0x3df48fb7	0.11941474
68	0xbe2eb6b9	-0.1706189
69	0xbd9625ee	-0.07331453
70	0xbd8a4798	-0.06751937
71	0xbcd11602	-0.02552319
72	0x3d2b1f60	0.04177797
73	0x3def8efc	0.11697194
74	0x3e10dcfe	0.14146802
75	0x3d8252bf	0.06363439
76	0xbd74cd58	-0.059766144
77	0x3daad766	0.08341865
78	0x3c06319a	0.008190537
79	0x3dc8a149	0.09796388
80	0x3e4566b5	0.19277461
81	0x3dafe1c1	0.08587981
82	0x3e085509	0.13313688
83	0x3e0805b0	0.1328342
84	0x3e4c99ea	0.19980589
85	0x3c7e913b	0.015537555
86	0x3e578e9a	0.21050492
87	0xbcb77be4	-0.022397943
88	0x3c146c2f	0.009058996
89	0x3e49bb0b	0.19700257
90	0xbdab1c84	-0.08355048
91	0x3d9ea284	0.07745841
92	0x3d90ce4a	0.070705965
93	0x3e09ebe9	0.13468899
94	0x3de93109	0.11386306
95	0x3d913085	0.070893325
96	0xbe1d1bdc	-0.15342659
97	0x3dac426c	0.084111065
98	0xbd882629	-0.066479035
99	0x3e487235	0.19574817
100	0x3e2105d4	0.1572488
101	0x3d0c5a8a	0.034266032
102	0x3e3ada68	0.18247378
103	0xbc64afb1	-0.013957904
104	0xbe0592cd	-0.13044281
105	0x3e1cd3c3	0.15315156
106	0x3ce72ff2	0.028221104
107	0xbda082e3	-0.07837465
108	0xbe235642	-0.15950873
109	0x3d0bc334	0.034121707
110	0x3d3c8821	0.04602826
111	0xbda55279	-0.08072371
112	0xbd0a59a3	-0.03377689
113	0x3e0b2ad7	0.13590561
114	0xbda00c60	-0.0781486
115	0xbdd1ee28	-0.10250503
116	0x3c51d0fa	0.012806172
117	0xbc6216fc	-0.013799425
118	0x3e0fc0f4	0.1403845
119	0xbc3e2cb2	-0.011607336
120	0xbe47fc1f	-0.1952977
121	0xbbe165c8	-0.0068785883
122	0x3e669cee	0.22520801
123	0xbdc28cff	-0.09499549
124	0x3c8cc555	0.017183939
125	0x3dceaf7a	0.10092063
126	0x3d4094d0	0.04701692
127	0x3d0091ab	0.03138892
128	0xbe6d5c1f	-0.23179673
129	0x3d6a59cf	0.057214554
130	0xbd3c8dff	-0.046033856
131	0xbc05dea6	-0.008170759
132	0x3e2348f0	0.15945792
133	0x3daf9f52	0.0857531
134	0xbe774a06	-0.24149331
135	0x3e4a3ebc	0.19750494
136	0xbe357315	-0.17719682
137	0xbe82a5a9	-0.25517014
138	0x3df950fd	0.121736504
139	0xbe0ca94b	-0.13736455
140	0xbea53fc2	-0.32275206
141	0x3db8690b	0.0900441
142	0x3c9efeed	0.019408667
143	0xbd9cbcab	-0.07653173
144	0xbd6a9da3	-0.05727924
145	0x3e497af4	0.19675809
146	0x3df72d72	0.12069215
147	0xbe53b4ef	-0.2067449
148	0x3dea42a3	0.11438491
149	0xbd98b506	-0.074564025
150	0xbdef8ab8	-0.116963804
151	0x3e5ac0de	0.21362635
152	0x3c58b9ac	0.013227861
153	0x3dd1413b	0.1021752
154	0xbdd12328	-0.10211784
155	0x3dcc1c68	0.099663556
156	0x3ddc98be	0.10771321
157	0x3d02a437	0.03189489
158	0x3d8d85b8	0.069102705
159	0x3b1dc582	0.0024074023
160	0x3db97e95	0.09057347
161	0x3e2be846	0.16787824
162	0xba4d6bef	-0.0007836213
163	0xbd38bcf3	-0.04510207
164	0xbdd87c32	-0.105705634
165	0xbde68c4c	-0.11257228
166	0xbe39c3fc	-0.18141168
167	0xbe24dbf6	-0.16099533
168	0xbe012cdd	-0.1261477
169	0xbc990d9e	-0.018683251
170	0xbd1600d2	-0.036621876
171	0x3cf6db79	0.03013395
172	0x3df6feb8	0.120603025
173	0x3d833721	0.064069994
174	0x3d3de9e3	0.04636563
175	0x3b969338	0.0045951866
176	0x3e24cb92	0.16093281
177	0xbe077757	-0.13229118
178	0xbd96e89a	-0.07368584
179	0x3d26f705	0.04076292
180	0xbe42ed86	-0.1903592
181	0xbe6e3ef3	-0.232662
182	0xbe173a14	-0.14768249
183	0xbe28b4d8	-0.16475236
184	0xbe1cc564	-0.15309674
185	0x3e011ee5	0.12609442
186	0x3c4705d9	0.01214739
187	0xbe1429e8	-0.14469111
188	0xbda95e06	-0.08269887
189	0xbe2655f1	-0.16243722
190	0xbe14e49c	-0.14540333
191	0xbe4d7a87	-0.20066272
192	0x3e4911db	0.19635718
193	0xbbd06e71	-0.006360822
194	0x3e2072da	0.15668812
195	0xbdbeb055	-0.093109764
196	0x3cb34c31	0.021886917
197	0xbcaf206b	-0.021377763
198	0x3e39a2a2	0.18128446
199	0xbcd04e36	-0.025427919
200	0x3b7115c0	0.0036786646
201	0xbd128bb5	-0.035777766
202	0x3e2f2e4e	0.17107508
203	0x3e31079a	0.17288056
204	0xbdc66e2a	-0.09688981
205	0x3d85c72c	0.0653213
206	0xbda4d2c7	-0.08048015
207	0xbd10415f	-0.035218593
208	0x3e603bfd	0.21897884
209	0xbc740515	-0.01489379
210	0x3dea1247	0.114292674
211	0x3e3acc89	0.18242086
212	0xbcda378b	-0.026637813
213	0x3e2738f3	0.16330318
214	0xbb7236af	-0.0036958863
215	0xbc1150a0	-0.00886932
216	0xbd869e5f	-0.06573176
217	0xbe1aea94	-0.15128547
218	0x3e0345ab	0.12819545
219	0x3cf23159	0.029564546
220	0xbd342043	-0.04397608
221	0xbc2de283	-0.010613087
222	0x3ddce1d7	0.10785263
223	0x3d159219	0.036516283
224	0xbd278f31	-0.040908042
225	0xbdca48ca	-0.09877165
226	0xbe164341	-0.14674093
227	0xbcab7b41	-0.020932795
228	0x3e05bb1d	0.1305966
229	0xbcc9a389	-0.024614112
230	0x3e0723d5	0.13197263
231	0xbc65143c	-0.013981875
232	0xbc879a34	-0.016553022
233	0x3dcaacfb	0.09896275
234	0x3dd54285	0.10413078
235	0x3d9c0bfc	0.07619473
236	0x3d87c919	0.06630153
237	0x3e2293ae	0.15876648
238	0x3cc19b29	0.023633556
239	0xbc7fa673	-0.015603649
240	0xbd9cf541	-0.07663966
241	0xbd490e15	-0.049085695
242	0xbc9815cb	-0.01856508
243	0x3ace96b1	0.0015761462
244	0xbe610467	-0.21974336
245	0xbdf46471	-0.1193322
246	0xbdbdbf22	-0.09264971
247	0xbcf141cf	-0.029450325
248	0xbdd87023	-0.105682634
249	0xbdf4edcb	-0.11959418
250	0x3d399a96	0.04531344
251	0xbccdbe40	-0.025115132
252	0x3e1efcc4	0.1552611
253	0xbdaf7d61	-0.08568836
254	0xbcb0078e	-0.021487977
255	0xbd008961	-0.031381015

bias f4 [6]
0	0x3d26c255	0.040712673
1	0xbcb60728	-0.02222021
2	0xbdd7b2e2	-0.10532166
3	0x3d56e6ff	0.05246639
4	0x3ad01d34	0.0015877844
5	0xbdec2303	-0.115301155

weight f4 [5, 2166]
0	0xbd494eac	-0.049147293
1	0x3c473567	0.012158728
2	0xbbe06467	-0.0068479064
3	0x3c8eb3a4	0.017419644
4	0x3ce38f46	0.027778279
5	0xbadb40e8	-0.0016727718
6	0xbc1ecf6c	-0.009693008
7	0x3c9b413f	0.01895201
8	0x3cb58b2f	0.022161094
9	0x3d1c5dd0	0.038175404
10	0xbd4766b2	-0.048681922
11	0xbd3004e6	-0.04297342
12	0xbd6f154a	-0.058369912
13	0xbd5b32fc	-0.05351542
14	0xbd071516	-0.032979093
15	0xbd1c0dce	-0.038099103
16	0xbcd6470d	-0.026156927
17	0xbce4f727	-0.027949883
18	0xbcf9a1ed	-0.03047272
19	0xbd4a7e89	-0.04943708
20	0x3d57a50f	0.052647647
21	0xbbcf0c56	-0.006318609
22	0x3d092542	0.033482797
23	0x3d491cdc	0.049099788
24	0x3c269581	0.01016748
25	0x3c0f2c36	0.008738568
26	0x3ceab458	0.028650448
27	0x3c42da43	0.011892858
28	0x3caf25fd	0.021380419
29	0x3d9fa0af	0.0779432
30	0x3b2f5e50	0.0026759095
31	0x3c2493bd	0.010044989
32	0xbcee4428	-0.029085234
33	0xbd08fd42	-0.03344465
34	0xbd2b0751	-0.041755024
35	0x3c3144d3	0.010819632
36	0xbb9781c6	-0.0046236245
37	0xba44a841	-0.00075018784
38	0xbcda3356	-0.026635807
39	0x3ccd9f14	0.025100268
40	0xbc1623b8	-0.009163789
41	0x3c01432a	0.007889548
42	0x3d1fb571	0.038991395
43	0x3c537bbc	0.012907919
44	0xbc845745	-0.016154895
45	0x3c0974c1	0.008389653
46	0x3ad0fa11	0.0015943666
47	0x3cc2bd26	0.023771834
48	0x3d198143	0.03747679
49	0x3c00fb86	0.007872468
50	0x3d8a208d	0.0674449
51	0xbcc7ab7d	-0.024373764
52	0x3cc65371	0.02420971
53	0x3d4a99fb	0.049463253
54	0x3d058b48	0.032603532
55	0xbb3afe85	-0.0028533053
56	0x3d3e4383	0.046451103
57	0xbc1d9a90	-0.00961937
58	0x3d90f902	0.070787445
59	0x3cf6a568	0.030108169
60	0x3d18d514	0.037312582
61	0x3cbfeac7	0.02342738
62	0x3ccb4c7f	0.02481675
63	0x3da30ed5	0.07961813
64	0x3d545639	0.05184004
65	0x3d8cd446	0.068764254
66	0xbaf8bf43	-0.0018977899
67	0x3d016207	0.031587627
68	0xbcc9e251	-0.024644049
69	0x3c5350fd	0.012897727
70	0x3d17ef5c	0.037093505
71	0xbc4fc756	-0.012681803
72	0x3d0de5db	0.034643035
73	0xb9db9e2d	-0.00041888785
74	0x3bb8da48	0.0056412555
75	0x3cd632de	0.026147302
76	0xbd446007	-0.04794314
77	0xbc9d16c0	-0.019175887
78	0xbd4f65ba	-0.050634123
79	0xbc881a21	-0.016614022
80	0xbc0c0289	-0.008545526
81	0xbca38208	-0.019959465
82	0x3c1887a0	0.009309679
83	0x3aab18dc	0.0013053673
84	0xbd41cb26	-0.047312878
85	0xbd731df4	-0.059354737
86	0x3bc1b49e	0.005911424
87	0x3b529932	0.0032134769
88	0xbb05553f	-0.0020345
89	0x3b484312	0.0030557555
90	0xbd4760a3	-0.048676144
91	0xbca5d246	-0.020241868
92	0xbd213384	-0.03935577
93	0x3ce448f8	0.027866825
94	0x3cc311e3	0.02381224
95	0xbb16b16a	-0.002299393
96	0x3d24a15f	0.040192958
97	0xbdbd4c26	-0.0924304
98	0xbd272443	-0.040806066
99	0xbce38d85	-0.027777443
100	0xbdf0643d	-0.11737869
101	0xbc696fc6	-0.01424784
102	0x3cc48e07	0.023993505
103	0xbc09f2bd	-0.00841969
104	0x3cd7427a	0.026276816
105	0xbd690e1d	-0.056898225
106	0xbc2d43ba	-0.010575229
107	0xbd448b6e	-0.047984533
108	0xbc072244	-0.008247916
109	0xbd45873a	-0.048224665
110	0xbc02afa7	-0.007976449
111	0x3ccc2891	0.024921687
112	0xbd8a5b0e	-0.067556486
113	0x3d2f5df6	0.042814218
114	0xbd635544	-0.055501238
115	0xbd2f2c2d	-0.04276674
116	0xbd0a974f	-0.033835705
117	0xbc0ba40e	-0.008523
118	0xbb9d3377	-0.004797395
119	0xbd045751	-0.032309834
120	0x3cc40030	0.02392587
121	0xbd02a402	-0.03189469
122	0x3c5c62ef	0.013451322
123	0x3d220864	0.039558783
124	0x3b9d3833	0.0047979592
125	0x3c5cb2a9	0.01347033
126	0xbc922238	-0.017838582
127	0xbc2a3b97	-0.010390184
128	0xbcaf2b60	-0.021382987
129	0xbcbcb191	-0.023033889
130	0xbb64bd5c	-0.0034902906
131	0xbd21dde2	-0.039518245
132	0x3d636b0d	0.055522013
133	0xbd0b130d	-0.033953715
134	0xbca0bbf0	-0.019620866
135	0xbc6357a1	-0.013875873
136	0x3d0de0c7	0.034638193
137	0x3cbb8fa6	0.022895645
138	0x3d64f653	0.055898976
139	0x3da19581	0.07889844
140	0x3cb0a85d	0.021564657
141	0x3cab48c0	0.020908713
142	0xbcaceecc	-0.021109961
143	0x3c98442a	0.01858719
144	0xbcadf7ef	-0.021236388
145	0xbba9724c	-0.005171096
146	0x3d540578	0.051763028
147	0xbb80f831	-0.0039358367
148	0x3d2053f0	0.03914255
149	0xbc841e8e	-0.01612785
150	0xbd0b5446	-0.034015916
151	0x3da632bf	0.08115148
152	0xbd612865	-0.054970164
153	0xbcd1206f	-0.02552816
154	0xbcf08705	-0.029361257
155	0x3d043743	0.032279264
156	0x3d8f2446	0.069893405
157	0x3d655581	0.055989746
158	0x3d3d923f	0.04628205
159	0x3d4fae82	0.050703533
160	0x3d5a08a4	0.053230897
161	0x3daf3437	0.08554881
162	0x3d5287f9	0.051399205
163	0x3d44bc58	0.04803118
164	0x3d5ba15e	0.05362069
165	0x3c3f9fd6	0.011695823
166	0x3d444101	0.047913555
167	0x3d232ad0	0.03983575
168	0xba09406c	-0.0005235735
169	0xbbf86df2	-0.007581466
170	0xbc598201	-0.013275624
171	0xbd7a4d4f	-0.061108883
172	0xbc8827dd	-0.01662057
173	0x3ae51d93	0.0017480127
174	0xbce18431	-0.027528854
175	0x3da0901a	0.07839985
176	0x3d187c99	0.0372282
177	0x3c5e19e7	0.01355598
178	0xbcac200f	-0.02101138
179	0x3cddfe2b	0.027098736
180	0x3d1c6e95	0.038191397
181	0x3d202750	0.03909999
182	0x3daf4bb3	0.0855936
183	0x3da8a738	0.082350194
184	0x3d7bc09c	0.061462983
185	0x3d8782b9	0.0661673
186	0x3d89d5f7	0.06730264
187	0x3c308c79	0.010775679
188	0xbd1878fd	-0.03722476
189	0x3cb16e2d	0.021658981
190	0xbd223b0d	-0.039607096
191	0xbd2bb2cf	-0.041918572
192	0x3c3d6984	0.011560801
193	0xbc1502ab	-0.009094874
194	0x3c88f94e	0.01672044
195	0x3d59ea00	0.053201675
196	0xbd014cff	-0.03156757
197	0x3ce5e86b	0.028064927
198	0x3c544e03	0.012958053
199	0x3ca007c5	0.019534955
200	0x3d25dbeb	0.040492933
201	0x3d794440	0.060856104
202	0x3d4bebd8	0.049785465
203	0x3d56971e	0.05239021
204	0x3d4c0fda	0.049819805
205	0x3d8eff96	0.06982343
206	0xbcae21d6	-0.021256369
207	0xbc938099	-0.018005656
208	0xbd0a389e	-0.0337454
209	0xbcb2014d	-0.021729136
210	0xbc198c2f	-0.009371801
211	0xbc2b5e2c	-0.010459464
212	0xbd0091bb	-0.03138898
213	0x3cd9d78d	0.02659204
214	0x3d3fa0a6	0.046784066
215	0x3c0f5b90	0.008749858
216	0x3cc41446	0.023935448
217	0xbcebb2da	-0.028771807
218	0x3d409299	0.047014806
219	0x3ddc03d6	0.10742919
220	0x3d90b6f4	0.070661455
221	0x3d6a777c	0.057242855
222	0x3d60e592	0.054906435
223	0x3ccb7491	0.024835857
224	0x3d1c6a66	0.038187407
225	0x3d5b1262	0.053484328
226	0xbcb0257f	-0.021502255
227	0xbcc09664	-0.023509212
228	0xbcffd7e6	-0.031230878
229	0xbd002606	-0.031286262
230	0x3d375cb5	0.044766147
231	0x3d50e10b	0.050995868
232	0x3d2e3b1e	0.042536847
233	0xbcc30cb5	-0.02380977
234	0x3aaec632	0.0013334213
235	0xbb5676d3	-0.0032724633
236	0xbc346fbc	-0.011012968
237	0x3d09dd88	0.033658534
238	0x3d9ebb2f	0.07750546
239	0x3da9c274	0.08289042
240	0x3d28776a	0.041129507
241	0xbc633cf6	-0.013869515
242	0xbad97647	-0.0016591036
243	0x3c642162	0.013923975
244	0x3affbd39	0.0019511349
245	0xbc7aeb25	-0.015314852
246	0xbd129009	-0.035781894
247	0xbd00199c	-0.031274423
248	0xbcb07b45	-0.021543154
249	0x3be2f52d	0.0069262
250	0xbb4c4177	-0.003116695
251	0x3c3aa100	0.011390924
252	0x3b534a5a	0.0032240362
253	0xba62e938	-0.0008655968
254	0xbca16b8f	-0.019704608
255	0x3d8be0c7	0.06829982

bias f4 [5]
0	0xbd20caa8	-0.039255768
1	0xbcc11af9	-0.023572432
2	0xbd16fc8c	-0.03686194
3	0xbb49f94a	-0.0030818754
4	0xbd070668	-0.032965094
