archived_data/b4_r0_m20_s200--2019-01-21--162345.649052/episode_72750.model (torch_old, 88994 bytes, 8 tensors)

weight f4 [6, 6, 3, 3]
000000 38 6e f1 bd 10 5d 64 3d 28 56 f6 3d 3c 71 94 3d
       -0.11788601 0.055752814 0.12028152 0.0724816
000010 5a 8e ff bd 28 f4 fb 3c e4 72 49 3d 49 47 a9 bd
       -0.12478323 0.030756071 0.049181834 -0.0826555
000020 38 3b 82 3c a5 26 44 be 6f 26 cb be 67 17 b6 be
       0.015897378 -0.19155367 -0.3967776 -0.3556473
000030 4d f9 a3 bd 2f 1d 3c bd be 13 3b be b7 a7 ef bd
       -0.08006535 -0.04592627 -0.1826925 -0.11701911
000040 3b 01 67 bd 54 ef 36 be 04 78 02 be 36 7d c8 be
       -0.056397658 -0.17864734 -0.12741095 -0.39158028
000050 9f 80 bc be ab 03 50 be 82 c7 d1 be b0 ca 16 be
       -0.3681688 -0.20313899 -0.40972525 -0.14725757
000060 b0 c6 fd bd 9d fa a7 be 21 32 b0 be 28 61 b5 bd
       -0.12391412 -0.3280839 -0.34413245 -0.08856422
000070 6a 71 96 3d 5c 10 f3 3d 5a 53 88 bd 06 11 68 bd
       0.07345851 0.11868355 -0.06656523 -0.05665686
000080 51 d7 07 be 70 30 00 be 82 ba 99 3d 40 f3 a4 bb
       -0.1326573 -0.12518477 0.07506277 -0.0050338805
000090 fc 1a 7a 3d 0b f9 44 be 21 53 2a be b2 01 52 be
       0.06106089 -0.19235627 -0.16633274 -0.20508459
0000a0 c5 c8 97 bc 95 4c 7a bf 58 9e 89 3d 16 40 9e 3b
       -0.018528352 -0.97773105 0.06719655 0.004829417
0000b0 ca 13 5a bd 4c 60 f2 bc 40 e8 93 be d6 a5 8b be
       -0.05324153 -0.029586934 -0.2888813 -0.2727496
0000c0 71 e5 89 3a 83 1d ee bd 65 b2 72 be d3 74 2e 3d
       0.0010520649 -0.11626723 -0.23700865 0.04259188
0000d0 b2 56 c5 bd 1d b3 b1 bd e0 7e 7a 3c 87 b8 c3 bd
       -0.096356764 -0.08676741 0.015289038 -0.0955668
0000e0 08 35 6a 3d 54 ab cc 3d 3c 05 ca 3d 7d 13 ce bd
       0.05717948 0.09993616 0.0986428 -0.10062311
0000f0 90 2c e0 3c f8 80 19 3d b4 dd 20 3d 8f 59 44 be
       0.027364999 0.03747651 0.039273933 -0.19174789
000100 0e f3 df be ff 6c b3 be 80 07 32 be 9c 33 e1 be
       -0.43740124 -0.35044095 -0.17385674 -0.43984687
000110 9b 38 1e bd b6 3b 35 bd 61 49 88 be 5e 1c 3d 3e
       -0.038628202 -0.044246398 -0.26618484 0.18467852
000120 6f 1d d1 3c 3f 83 9b bd 64 05 9c bd 2f 7b 09 3d
       0.02552673 -0.075933926 -0.07618216 0.033564743
000130 f8 71 4f bb eb 19 9a bd f9 ab d2 3c b2 cf 93 3c
       -0.0031653624 -0.07524475 0.025716769 0.018043373
000140 70 ff 73 3e 22 af 8e 3d 10 6f 68 3c fc 6f 05 3d
       0.2382791 0.06966998 0.014186636 0.0325775
000150 0c f7 86 3d 44 02 ef bd 14 2c 90 3d 80 a8 0d 3c
       0.06590089 -0.11670354 0.07039657 0.008646131
000160 30 88 15 bd f0 ad 1f 3d 3f 9c 0a 3e 54 82 95 be
       -0.03650683 0.03898424 0.13536166 -0.29200995
000170 4b e8 67 bf 31 31 0a be d5 21 12 3e 30 a4 66 be
       -0.90588826 -0.13495328 0.14270718 -0.2252357
000180 91 bc 4d 3c 67 9f 0a bd d5 1a e5 3d 17 ce 20 3c
       0.012557165 -0.033843424 0.111867584 0.009814761
000190 10 82 3f bf 07 68 b6 be cb 25 04 be d8 a0 d3 be
       -0.74807835 -0.35626242 -0.12905042 -0.41333652
0001a0 ed ba 33 be ac 97 3e bd e3 e6 2b 3d e8 dd 0a 3e
       -0.17551775 -0.046531364 0.041968238 0.13561213
0001b0 06 9d b1 3d f0 7d db bc 26 88 a4 3d 00 94 e4 bc
       0.08672528 -0.02679345 0.08033781 -0.027902603
0001c0 00 56 09 3a bc d5 0d 3d fc 3d 2c bd 0e e0 d4 3d
       0.000523895 0.03462766 -0.0420513 0.103942975
0001d0 ec 01 72 3d 02 c2 d0 bc 8d 27 ea bd c9 5b 35 be
       0.059083864 -0.025483135 -0.11433325 -0.17710795
0001e0 ec 73 35 be 2e 3a 26 be 27 b3 e9 bd 3e bf 4e be
       -0.17720002 -0.16233131 -0.11411124 -0.2019014
0001f0 71 c5 fc bd ad 0b 85 be 92 ea d1 bd a9 da 82 bd
       -0.123423465 -0.2598547 -0.10249819 -0.06389362
000200 e8 c9 b1 bd 4e aa a9 bd 4d 67 b0 bd 69 bd ba bd
       -0.08681089 -0.08284436 -0.08613453 -0.09118158
000210 c4 e4 1c bd ee 32 5c bd ca c6 14 3d 2a 36 04 be
       -0.038304105 -0.053759508 0.036322393 -0.12911287
000220 d0 d0 fa 3d a0 6c 58 3d b6 ff 7c bd 55 3d 95 bd
       0.12246859 0.052837968 -0.061767302 -0.07287089
000230 60 2a 5b 3d a8 71 01 3d c4 f5 f4 bd 32 47 03 3e
       0.05350721 0.03160253 -0.119609386 0.12820128
000240 5a 0b c8 3e 56 6f 38 bd 72 a2 2b 3c b1 fc b2 3e
       0.3907116 -0.045028053 0.010475742 0.34958413
000250 91 08 c5 3e 91 c5 a6 3e 39 38 ce 3d d2 b1 52 bd
       0.38483098 0.32572606 0.10069317 -0.051439114
000260 fd 69 c8 3e 47 83 a5 3d ae f2 5e be da 24 45 be
       0.39143363 0.0808168 -0.21772262 -0.19252339
000270 6e ac 59 be be 31 19 be 93 77 b2 bd 99 7b f8 3c
       -0.21257183 -0.14960381 -0.08714213 0.030332373
000280 2b d9 2f be 18 d7 93 bd 16 9d cb bd 40 7d 89 3d
       -0.17172687 -0.0721876 -0.09942071 0.06713343
000290 b0 68 87 bd 00 78 d4 3c bc 63 a7 3d 81 af 06 be
       -0.066117644 0.025936127 0.0817332 -0.13152887
0002a0 d0 81 0a bc 90 b6 f9 bd f8 d3 ab 3c a3 3c 00 3c
       -0.008453801 -0.12193024 0.020975098 0.007826957
0002b0 57 af bf bc 89 ff 94 3d 8b 27 c5 3c 61 fe 5e bc
       -0.023399038 0.07275302 0.024066707 -0.013610453
0002c0 9c d8 6e bd 6c 72 a7 3c 8e 9b 29 3d 52 b1 fc 3c
       -0.058312044 0.020440303 0.041408114 0.030846272
0002d0 41 7b 72 3d 72 b4 d1 3c a0 a5 e0 3d d9 50 c1 3d
       0.059199575 0.025598738 0.109690905 0.094392486
0002e0 93 a4 8b 3d 0d b7 f6 3c 69 3f f1 3d a2 46 a0 3e
       0.068184994 0.030116582 0.11779673 0.3130389
0002f0 d0 e8 d5 3c 80 03 e5 3c bc 6f 05 3e d2 b1 c4 3d
       0.02611199 0.02795577 0.13030905 0.09604229
000300 85 4d 0b be d6 ed 03 3e 6e 61 d7 bd 98 1d 0e 3d
       -0.1360379 0.12883696 -0.1051663 0.03469619
000310 e0 88 55 3c ba 17 a4 3d 7a 4e c5 3a b3 45 0c be
       0.013033122 0.08012338 0.0015053295 -0.13698463
000320 ec a1 05 be 79 c9 14 bd 9e e6 2f bf b4 9c c5 bb
       -0.1305005 -0.03632495 -0.6871127 -0.0060306434
000330 63 c2 72 be 61 1b 4f bf f8 ba 95 bf c9 12 bc 3c
       -0.23706965 -0.8090115 -1.1697683 0.022958176
000340 c7 d5 4e bd 8e c7 3c 3d 90 4f 09 be 6c 56 6a bd
       -0.050496843 0.046088748 -0.13409257 -0.057211325
000350 9b 9e be 3b 73 7b 19 be 2d 98 ed 3d cf 27 11 3d
       0.005817247 -0.14988498 0.11601291 0.035438355
000360 20 b4 b5 bc 64 02 19 bd cc 99 2b bd 48 2a 97 bd
       -0.022180617 -0.037355796 -0.04189472 -0.073811114
000370 c0 05 26 bc 38 22 2b 3d 2e 82 06 bd ac 03 0c 3d
       -0.010133207 0.04178068 -0.032838993 0.03418319
000380 62 d3 dc bd e7 8b 4d bd d4 8c 13 be ea f7 68 be
       -0.107825056 -0.05018225 -0.1440919 -0.22750822
000390 38 9f ff 3c 80 7a 17 be 5e e2 9e be 82 7a ad bd
       0.031203851 -0.14792824 -0.3103208 -0.08470632
0003a0 f9 ee 05 be a3 3d 35 bd aa 03 09 bd 9d 18 0a be
       -0.13079442 -0.044248234 -0.03345076 -0.13485952
0003b0 1c 2d 28 bd 38 45 7d bd d4 2d f5 bd 3e cb 2d bd
       -0.041058645 -0.06183359 -0.11971632 -0.042430155
0003c0 b2 66 1c bd 80 2b 82 bd bf 21 59 38 0c ed 9a 3d
       -0.038183875 -0.06355953 5.176826e-05 0.07564744
0003d0 10 dd 67 3d 18 82 09 3e 02 61 9c bd c4 00 e4 3d
       0.056607306 0.13428533 -0.0763569 0.111329585
0003e0 2c 9e 04 3e 5e 12 dc 3d f0 8e 7a bc 04 2e a9 3d
       0.12950963 0.10745691 -0.015292868 0.0826073
0003f0 b5 e6 94 3e 1a ba f7 3e db 6e f4 3e d4 38 4f 3d
       0.29082265 0.48384172 0.47740826 0.050591305

bias f4 [6]
000000 7a 90 00 bf 01 b5 07 bf ce e1 00 bf 23 41 0e bf
       -0.50220454 -0.53010565 -0.5034455 -0.5556814
000010 0d 05 05 bf c2 b3 d6 be
       -0.5196083 -0.4193402

weight f4 [16, 6, 3, 3]
000000 f9 a2 ce be 38 c3 af be 74 e7 cd 3c 2a 2c 8b 3c
       -0.40358713 -0.34328628 0.02513478 0.016988833
000010 be 25 08 be ef a6 a9 3e 14 e5 55 be 87 2b 69 3e
       -0.13295648 0.33135173 -0.20888168 0.2277051
000020 b3 6f ad 3e d2 d8 60 be 64 c1 51 3d e6 9a 7f bd
       0.33874282 -0.2195771 0.051209822 -0.062403582
000030 25 4a ae 3d 48 f5 e4 be 78 56 c0 3c d2 0a 2f bd
       0.08510236 -0.44718385 0.023478732 -0.04273493
000040 94 e0 53 bc 02 3a f7 3d c1 d8 59 be de 9e 89 be
       -0.012931962 0.12071611 -0.21274091 -0.2687902
000050 7e 98 6f 3d 73 cd 45 3d 1e 37 ba bd 49 76 66 3e
       0.058495037 0.048291635 -0.09092544 0.2250606
000060 07 0f 0c bf 0d 05 a5 3e f3 d7 de 3e 8d 9c 6b 3e
       -0.5471043 0.32230416 0.4352413 0.23008938
000070 8a b6 e2 3c 89 72 05 3e aa f9 c6 be cf 12 08 3e
       0.027674932 0.13031973 -0.38862354 0.13288425
000080 2b 4d ee 3e 48 3b f8 3d f1 01 62 3e 34 22 8b 3e
       0.4654325 0.12120682 0.22071053 0.27174532
000090 7c ef fd be d4 85 ca bd cf c6 60 3d c7 9d 20 bf
       -0.49596775 -0.09888807 0.0548771 -0.6274075
0000a0 b7 08 bd be 02 82 81 bf 74 5a c4 bd a9 e8 f2 be
       -0.3692071 -1.01178 -0.09587565 -0.4744313
0000b0 ca 1b b7 3e 31 e9 b0 3d 05 75 12 3e ab 5b 6b 3d
       0.3576339 0.08638228 0.14302452 0.05746047
0000c0 63 61 2e be d9 27 a3 3d ad 8f 04 3c 83 2c 60 bc
       -0.17029338 0.07966585 0.008090896 -0.013682487
0000d0 53 fb 18 3c ed f6 8c 3e 0b 5e 0d 3e 86 22 e1 bd
       0.009337264 0.2753214 0.13805406 -0.10992913
0000e0 fd e6 a4 3e 0b 8b ab bd ab a4 e7 3d cf ec 62 bc
       0.3220748 -0.0837613 0.11310705 -0.013850405
0000f0 89 a1 9b 3d 52 8d 27 bd 19 0e 01 3d 13 94 68 bf
       0.0759917 -0.040906258 0.031507585 -0.90850943
000100 fe ed 77 bb 79 e7 4a 3d 44 59 12 bf 81 45 e6 bd
       -0.0037831063 0.049537156 -0.5716746 -0.112437256
000110 e3 5c 7b be ea fc 38 bd 40 e5 cc 3d 10 99 1c be
       -0.24547152 -0.045163073 0.100046635 -0.15292764
000120 fb ef dd 3d e2 47 ca 3e 7a 49 2d bd b2 8c d1 3d
       0.10836788 0.39507967 -0.0423064 0.102319136
000130 8b e5 5f 3e 60 c1 4b 3e d8 da a9 bd 39 26 ae 3d
       0.21864907 0.19897985 -0.08293694 0.08503384
000140 6c 09 e4 be 08 50 1b bd 4e ee 9d bd d1 65 8b bd
       -0.44538438 -0.03791812 -0.07711469 -0.06806529
000150 24 57 81 3d e6 15 7d be 86 61 2b bf f2 cf 72 3b
       0.06315449 -0.24715385 -0.66945684 0.0037050215
000160 5c a2 cb bd b5 aa 10 bf f6 e5 10 be 5c 19 e4 be
       -0.09943077 -0.5651048 -0.14150223 -0.44550598
000170 58 10 a0 3e 0f 3d 98 be ff 1b 89 bf cf c2 07 bf
       0.3126247 -0.29734084 -1.0711669 -0.5303163
000180 f9 a4 c6 be ee 78 0d bf e4 ea 44 be 82 e3 81 3d
       -0.3879774 -0.5526265 -0.19230229 0.06342222
000190 07 fb 56 be 98 5f 39 be 41 73 bb bd 3c 30 b6 3c
       -0.20994197 -0.18102872 -0.09152842 0.022239797
0001a0 93 00 a3 be 17 1a 0d 3b 0d b6 de bc 60 29 1e bc
       -0.31836376 0.0021530443 -0.027186418 -0.009653419
0001b0 7f f0 28 3e 25 d6 05 be ff 04 15 be fe 9d c0 3d
       0.16497992 -0.13069971 -0.14552687 0.094051346
0001c0 b9 03 f9 bc 5d 9f 08 bf 35 70 9e be a8 e1 60 be
       -0.030397283 -0.5336817 -0.30944982 -0.21961081
0001d0 42 59 68 be f5 ce a9 be 4b f5 5b bc aa 99 4f 3e
       -0.22690299 -0.33165708 -0.013425182 0.20273462
0001e0 5f fd 37 bd 31 d9 63 bc c8 32 30 bf 37 83 87 3d
       -0.044919368 -0.013906763 -0.68827486 0.06616824
0001f0 d5 5a 5f bd 94 c5 50 be c4 6d d8 bc 23 73 26 3e
       -0.054529984 -0.2038787 -0.026419528 0.16254859
000200 e9 f6 b3 be f4 91 25 bd 60 03 8f 3e 1a 2a 17 be
       -0.35149315 -0.040422395 0.27932262 -0.14762154
000210 43 ac b2 bd 2f 94 05 be 78 9c 1f bd 04 cc a6 be
       -0.087242626 -0.13044809 -0.03896758 -0.32577527
000220 20 7e ed bc 21 63 83 be 99 69 45 bf e7 eb 89 3e
       -0.028990805 -0.25661567 -0.77114254 0.26937792
000230 c7 cf d9 bd 3d fd 8b bd 7c 87 71 bd dc a3 94 be
       -0.106353335 -0.06835411 -0.0589671 -0.29031265
000240 e5 c4 47 3e 77 84 b9 3b b6 34 4f 3d c4 61 dc bd
       0.19508703 0.005661543 0.05058738 -0.10760835
000250 3d 0c 14 3d 4e 72 de bd 6f d8 0a be ba 07 3d be
       0.036144484 -0.10861646 -0.13559125 -0.18459979
000260 4f 93 3b 3d 32 58 0f be 8f 60 71 be a5 b0 64 be
       0.04579478 -0.13998488 -0.2357199 -0.2233301
000270 71 6a 27 bf 86 a8 f3 bd 86 96 87 b9 2e 43 fa ba
       -0.6539679 -0.11897378 -0.00025861355 -0.0019093507
000280 7d e4 ae 38 82 a9 7a bd 3a b2 c1 3e b3 88 c4 bd
       8.339526e-05 -0.06119681 0.3783129 -0.09596386
000290 b9 07 77 3e b7 e5 4d be 2b 4f 24 bf df c8 32 be
       0.2412404 -0.2010716 -0.641833 -0.17459439
0002a0 fc 4f 21 3e 6e 63 05 3e f4 77 c4 3e c5 8d d9 be
       0.15753168 0.1302621 0.38372767 -0.42490974
0002b0 36 14 bb bb 11 f4 0c 3e 6c f5 e5 be 62 b0 35 be
       -0.0057091964 0.13764979 -0.44913805 -0.17743066
0002c0 71 6f 37 3d 25 b9 60 be b1 b3 8c be 37 cd c3 be
       0.044784013 -0.21945627 -0.27480844 -0.38242504
0002d0 0b 4e 31 be f4 10 8f 3d 9a a8 0f 3c e1 6f 54 be
       -0.17314927 0.069856554 0.008768225 -0.20745803
0002e0 a5 ef 81 be 63 55 7a 3c df cc f0 3d 24 7a 5d 3e
       -0.25378147 0.015279147 0.11757826 0.21628624
0002f0 c1 ab 0b 3c 01 1d 69 be c3 4a c9 be 6b b0 4d bf
       0.008524836 -0.2276497 -0.3931485 -0.8034732
000300 5c 1b 1c 3e 03 05 3f be 00 8a e5 be 1c fa 09 3c
       0.15244812 -0.18654256 -0.44831848 0.008421447
000310 d4 1b a2 bf c9 ad bf be 19 4f 4f be ce 5c de bd
       -1.2664742 -0.37437275 -0.20245017 -0.10857545
000320 45 f4 c7 be 09 76 8d 3d fc 98 0a 3e e3 10 b2 be
       -0.3905355 0.06907279 0.13534921 -0.3477851
000330 5b dc 54 bf f9 cd a3 3d 96 71 98 3e 05 bd ca 3d
       -0.83148736 0.079982705 0.2977416 0.09899334
000340 d7 ef 09 be 3a b9 a4 3e f2 40 a0 bc 5e 09 92 bd
       -0.13470398 0.32172567 -0.019562218 -0.07130693
000350 ee d2 08 be c9 ae 50 be cb 32 d1 3e e5 64 1c bd
       -0.13361713 -0.20379175 0.40859064 -0.038182158
000360 9b 28 1b 3e ea e1 2c 3e 54 16 bd be 1e 36 5a be
       0.15152209 0.16883054 -0.36931098 -0.21309707
000370 1a ce d8 3d 15 1e 9f bd 0a 04 8c be 71 92 e4 be
       0.10586186 -0.077694096 -0.27346832 -0.44642976
000380 a2 e4 e6 be 4d 68 4e be 1a 34 33 bf 17 eb 1c bf
       -0.45096308 -0.20156975 -0.70001376 -0.6129622
000390 e8 88 30 bf 2d a2 ef be b1 52 36 bf 91 82 f8 3d
       -0.689589 -0.46803418 -0.7121993 0.121342786
0003a0 de d9 a1 bf ab d0 ff 3d 3f 97 1e bf d5 2e 01 bf
       -1.2644613 0.12490972 -0.61949533 -0.50462085
0003b0 23 e5 8e 3e 54 46 7c bc 74 26 b6 bd 92 f7 82 3d
       0.27909192 -0.015397627 -0.08894053 0.063948765
0003c0 aa e4 fa be f8 f5 b5 3e c8 63 97 be e2 5a f6 3c
       -0.49002582 0.35539222 -0.29568315 0.030072633
0003d0 c7 42 ca be a9 04 9b bf 77 28 14 be 74 82 b3 be
       -0.39504072 -1.2110797 -0.14468561 -0.35060465
0003e0 42 2a 6f 3d dc f7 df 3d 2a e8 39 3c e1 13 21 3d
       0.05838991 0.10935947 0.011346856 0.0393256
0003f0 45 88 47 3e 9f c7 a7 be d2 d1 30 3e da 1f 7b bf
       0.19485576 -0.32769486 0.1726754 -0.98095477

bias f4 [16]
000000 b0 21 18 be d7 0d 85 be 49 57 5b be 7c 7c 46 be
       -0.14856601 -0.2598712 -0.21420015 -0.19383425
000010 a1 0b 19 be 85 db 8b be a6 1c ae be 58 26 2f be
       -0.14945842 -0.27315918 -0.34006232 -0.1710447
000020 10 1f ab be 8c 3c 3e be 5a fd 4d be ae d3 82 3c
       -0.33422136 -0.18577784 -0.20116177 0.015970077
000030 26 45 d9 be a5 aa fd bd c0 39 7a be b9 27 64 be
       -0.4243557 -0.123860635 -0.24436092 -0.22280778

weight f4 [32, 16, 3, 3]
000000 b7 f4 28 be a8 31 60 be af 2d ad be 20 d3 f2 3d
       -0.16499601 -0.21893942 -0.33823916 0.11856675
000010 98 3c 42 be 9d 18 ea be d0 0d 01 bf c9 e3 e3 3c
       -0.18968427 -0.45721903 -0.504117 0.027818577
000020 07 13 29 bd 67 77 3d 3b 3f 60 ed be 3b 27 44 be
       -0.04127791 0.002891028 -0.46362492 -0.1915559
000030 ef 49 8c 3e 66 da 49 be 06 f1 47 3d b8 98 e5 bd
       0.27400157 -0.19712219 0.048813842 -0.112107694
000040 4a e9 04 be 8b 16 9b bd 75 60 ff be 8c 64 02 be
       -0.12979618 -0.07572659 -0.49878278 -0.12733668
000050 bd eb b4 be 18 0c 91 bd fb cc b5 be b8 4a 74 be
       -0.35336104 -0.07082385 -0.3550795 -0.23856628
000060 09 80 e5 be d7 1e 23 bf b3 76 02 be f2 54 9c be
       -0.44824246 -0.6371893 -0.12740593 -0.30533558
000070 10 0a 93 be 09 8e 8b 3d fc 33 a5 3d 39 67 54 bd
       -0.28718615 0.068142004 0.08066556 -0.051856253
000080 00 7e 48 bc dd 3b 45 be f4 75 ee be 94 f6 4d bf
       -0.012237072 -0.19261117 -0.46574366 -0.80454373
000090 21 5b dc 3e ae 0f 0d bf e5 d1 95 be 20 9d 57 3e
       0.43038276 -0.5510205 -0.292617 0.21056032
0000a0 d0 ff 87 3d 72 b2 b5 be 53 7d b2 3c 97 46 2a be
       0.06640589 -0.35487705 0.021788275 -0.1662849
0000b0 6d 94 57 bf 0e 61 09 be 71 69 ce 3e e5 df 19 3e
       -0.84210855 -0.1341593 0.4031482 0.15026815
0000c0 00 4a 48 3d 1d 26 6c 3e 32 c8 4f be c6 20 82 be
       0.048898697 0.23061414 -0.20291212 -0.2541563
0000d0 09 2e d9 bd cb 5d c3 be b6 08 02 bf 67 aa 8c 3d
       -0.10604484 -0.38157496 -0.5079454 0.06868439
0000e0 a6 1a 79 be 47 5c 95 be 7f 22 92 3d 0d 00 c8 bd
       -0.24326572 -0.29171965 0.07135486 -0.09765635
0000f0 21 2f c0 bd 5d b9 dd be 3b a2 f2 3e d1 10 81 be
       -0.09383989 -0.43305483 0.47389397 -0.25208142
000100 58 09 42 bd b7 12 a7 bd 2c 56 87 be 10 db 68 be
       -0.047372192 -0.081578664 -0.2643293 -0.22739816
000110 84 7c 3b be a8 00 e8 ba de 2c 96 bf 71 5f 5c be
       -0.18309218 -0.0017700391 -1.1732442 -0.21520783
000120 48 a3 89 be 8c 53 32 bd 62 30 b5 3d 8b c2 52 be
       -0.26882386 -0.043536708 0.08847119 -0.20582025
000130 84 e0 36 bd 32 81 52 be 9d d1 c8 bc f5 d4 42 be
       -0.04464771 -0.20557097 -0.024514014 -0.19026549
000140 b9 ab 57 3b d0 09 98 be 34 31 ac bd 77 79 7d 3e
       0.003290875 -0.29694986 -0.08407822 0.24753366
000150 b3 d2 a8 bd e7 34 85 be 65 00 00 be d6 4a 91 3e
       -0.08243313 -0.26016924 -0.1250015 0.28377408
000160 1d af 43 3c 99 05 80 3e 19 bf 83 3c f1 0f d4 bd
       0.011943606 0.2500427 0.016082333 -0.10354603
000170 72 04 4b be f5 da 56 3c 40 12 d5 3e 49 cb 0d bf
       -0.19825915 0.013113727 0.41615486 -0.55388314
000180 9a 06 a7 bc 35 e1 fc bd 33 60 95 3e 96 b1 20 bf
       -0.02038889 -0.12347642 0.29174957 -0.62770975
000190 03 1d ea be 9f c2 a3 be 95 cf 0c 3e 97 fb ee 3d
       -0.4572526 -0.31984422 0.13751061 0.11669081
0001a0 f9 5c 0d 3e d0 b5 04 bf f9 55 a3 bd 74 9a f5 bd
       0.13804998 -0.51839924 -0.07975382 -0.1199235
0001b0 5c a0 38 bf 6b 2d ce be fc 48 6e be 74 6c 1a bf
       -0.7211969 -0.40269026 -0.23270029 -0.60321736
0001c0 08 08 29 bf 74 0f 23 bf 6e f0 b0 be cb 50 b5 be
       -0.6602788 -0.63695455 -0.34558433 -0.35413203
0001d0 02 3a ec be 2f a8 60 3e 39 81 14 3e 0f 65 6b be
       -0.46138006 0.21939157 0.1450242 -0.2298777
0001e0 2f e0 1c bf df 81 20 3e b8 9b f4 3d c5 d1 74 bd
       -0.61279577 0.15674542 0.119437635 -0.059770364
0001f0 06 b8 f6 3c 04 43 d3 3e db 17 91 be 2c c2 08 bc
       0.030117046 0.41262066 -0.28338513 -0.008347075
000200 a4 f7 46 bc cf 50 25 bf f8 f8 9b be 0e e2 68 3d
       -0.012144003 -0.6457643 -0.30463386 0.056856208
000210 4c 39 00 be 37 f5 8e be d5 47 a6 be e8 aa 12 be
       -0.12521857 -0.2792146 -0.32476678 -0.14323008
000220 9a 4b 86 3e fc df 0c bf b4 c8 24 be f9 98 bc bc
       0.26229554 -0.55029273 -0.16092187 -0.023022162
000230 48 df b8 bd 2a 7c 72 be 02 86 34 be f6 b2 e3 3e
       -0.090269625 -0.23680177 -0.17629245 0.44472474
000240 35 14 9c 3e 21 03 d8 be 02 c4 98 3e b0 60 f2 3e
       0.30484167 -0.42189887 0.29837042 0.47339392
000250 cf 9a 47 3e 26 12 1e 3e 70 5b 10 bf 1c 3b 5a 3d
       0.19492649 0.1543661 -0.5638952 0.053279027
000260 f6 9f 8d be f5 05 26 3e d3 7c 0b 3f bd a1 30 be
       -0.27661103 0.1621321 0.5448734 -0.17249198
000270 b2 79 91 3d e8 72 aa 3e 88 fe 08 3f 3e 90 b1 be
       0.0710329 0.33290792 0.53513384 -0.3468036
000280 3f ba c8 be 9d 69 fe be fa fb 17 bf 40 2a 57 be
       -0.39204594 -0.49689952 -0.5936886 -0.21012211
000290 a0 77 60 3e f1 93 b5 be 12 19 d5 3d de c8 11 bc
       0.21920633 -0.35464433 0.104051724 -0.008897988
0002a0 80 2c 3a be b9 18 23 bf 3f e5 3d bc 6a 0a 15 be
       -0.18181038 -0.637096 -0.011590301 -0.14554754
0002b0 2c 0d fc be 00 8c 38 bf ae 87 07 bf a6 1d d2 be
       -0.492288 -0.72088623 -0.52941406 -0.41038245
0002c0 1c 96 1f be d4 69 69 bf a3 c3 91 3d ea 07 29 bf
       -0.15584606 -0.91177106 0.07117393 -0.660277
0002d0 bb 82 f3 be da dd cc bc 94 e2 e1 be c4 72 6c 3e
       -0.47560677 -0.02500813 -0.44118178 0.23090655
0002e0 9d d7 a4 bc 3b 8c 34 3e f8 d2 14 bf 68 3d d0 be
       -0.020122344 0.17631619 -0.5813441 -0.4067185
0002f0 31 fc 08 bf 90 97 d2 bd d8 aa b4 3e 67 28 06 be
       -0.53509814 -0.102828145 0.35286593 -0.1310135
000300 c6 e6 3c 3e d4 72 84 bc a7 af 80 be 07 d4 25 be
       0.18447408 -0.016168036 -0.25134012 -0.16194163
000310 02 96 02 be c3 93 92 be c1 ed b2 be 84 b1 59 bf
       -0.12752536 -0.28628358 -0.34947017 -0.8503649
000320 a0 7f 64 3d 72 c0 3e be da 8f a0 3e 14 fb 19 3d
       0.055785775 -0.186281 0.3135975 0.037592962
000330 3a 5e c3 be 8b ba 0b bf 54 1b 14 3e 5a f6 8f 3e
       -0.38157827 -0.54581517 0.1446355 0.2811764
000340 7a bb 37 3e 0a f0 d3 3e 8c a3 e1 bd a3 bd 5c 3e
       0.1794261 0.41394073 -0.11017522 0.21556716
000350 b6 86 09 3d ad ba fc be 6b f6 09 bf c1 33 12 be
       0.033575736 -0.49361172 -0.5389163 -0.14277555
000360 ad 7b 9c be 57 a7 1f be 64 42 10 bf a4 2e 5b be
       -0.30563107 -0.15591179 -0.56351304 -0.2140451
000370 80 7f ce 3d b0 ac a5 be 4e 5e 0d bf 1f c0 48 be
       0.100829124 -0.32358313 -0.5522202 -0.19604538
000380 c6 e6 6f bd b7 f9 7b be 0b f9 85 be fd bb f6 be
       -0.058569692 -0.24606977 -0.26166567 -0.481903
000390 b3 43 0f 3e c0 fa 14 be 9d de c3 be e2 ae 00 bf
       0.13990669 -0.14548779 -0.38255778 -0.5026685
0003a0 c8 77 29 be f8 a3 c7 bd 5a 68 88 3d c3 81 4a be
       -0.16549599 -0.097480714 0.066605285 -0.19776063
0003b0 59 40 ec 3d 29 c0 08 be 3d 56 70 3e 0e bf e1 3e
       0.11535711 -0.13354553 0.23470397 0.44091076
0003c0 54 6f dd bd 53 f3 00 bf 3d ed 17 be c8 dd 1c bd
       -0.1081225 -0.50371283 -0.14836593 -0.038297445
0003d0 f6 77 46 be a5 ed 42 bf dc 3a d2 be 93 d3 26 bf
       -0.19381699 -0.76143867 -0.4106053 -0.65166587
0003e0 6f 48 fc be 9f e3 8f 3d ef b6 4a be 93 aa a5 3d
       -0.49274012 0.07025837 -0.19796346 0.08089175
0003f0 9d 62 e1 be 98 46 ad bd a4 51 02 3d 46 d2 1e bf
       -0.44020548 -0.0846073 0.03181614 -0.620396

bias f4 [32]
000000 f1 7f 95 be fc dc 6b be ae d6 47 be bd 1c 34 3c
       -0.29199174 -0.23033518 -0.19515488 0.01099318
000010 25 fd b2 bd b7 5f 05 3b 7d b1 f2 bd 2b e8 97 be
       -0.0873969 0.002035124 -0.118502595 -0.29669318
000020 ae ee 12 be 3c 29 47 be 38 b0 87 be 86 a1 35 3c
       -0.14348862 -0.19449323 -0.26501632 0.0110858735
000030 48 e8 ba 3c a5 00 88 be 87 fe 08 be db ca ca bd
       0.022815838 -0.26562992 -0.13378344 -0.09901973
000040 0e ac 6a be 6e 8c 27 be 47 74 0b be 07 aa ea bd
       -0.22917196 -0.16362163 -0.13618575 -0.114582114
000050 9d 60 3a be 61 47 4a be 7f 8f 0f be fb ea 08 be
       -0.18200918 -0.19753791 -0.14019583 -0.13370888
000060 f1 47 62 be d1 78 e7 bb ac 67 72 be 83 e0 99 be
       -0.22097756 -0.007063963 -0.2367236 -0.300541
000070 d8 38 1f be 61 0e 03 be db cd bf be a3 02 5a be
       -0.15549028 -0.12798454 -0.37461743 -0.21290068

weight f4 [5, 2592]
000000 5f 8e b9 bd 51 b7 69 be 1f cb c2 be 2c 84 04 bf
       -0.09060358 -0.22823836 -0.38045594 -0.5176418
000010 75 9b d9 3d b5 f6 01 be ef d6 9b be 44 af b4 be
       0.10625354 -0.12691768 -0.3043742 -0.35289967
000020 73 1d a5 bd 94 11 64 be 88 bf 84 be 3d b4 81 be
       -0.080622576 -0.2227233 -0.25927377 -0.25332823
000030 56 6c db be 8b da 77 be 7b 26 00 bf 17 e5 c7 bd
       -0.4285609 -0.24204461 -0.50058717 -0.09760492
000040 26 ec d1 be b6 a0 2d be 59 16 35 3c dc 35 df be
       -0.4100048 -0.16955838 0.011052691 -0.4359578
000050 1d 46 dd be 92 95 04 bf 2c 21 e8 be 75 a2 cd be
       -0.43217555 -0.51790726 -0.45337808 -0.40163007
000060 af 45 b2 be ff 4e 96 be 1c 4e 86 be 47 ca a6 be
       -0.3481879 -0.29357144 -0.26231468 -0.325762
000070 8a 00 0c bf 44 c9 34 bf f8 67 2a bf b7 f9 1b bf
       -0.5468832 -0.70619607 -0.66564894 -0.6092791
000080 e4 2a 0c bf 9d 9f ed be 85 b1 b5 be 13 59 d9 bd
       -0.54752946 -0.46410838 -0.35487 -0.10612693
000090 a5 0e 3c bd 45 98 24 bf 8e 20 0d bf 5f 03 ff be
       -0.045912404 -0.64294845 -0.551278 -0.4980726
0000a0 87 5f 0d bf 26 cc f0 be fd 1a c9 be 15 fd 24 bf
       -0.5522389 -0.47030753 -0.39278403 -0.6444867
0000b0 8c c9 9e be e8 5b 1a bf 8b 3a bb be 4d cc 46 bf
       -0.31013143 -0.6029649 -0.36568102 -0.7765549
0000c0 26 a4 38 bf 59 81 e5 be 66 9f 61 bf e2 b5 9e be
       -0.7212547 -0.44825247 -0.8813385 -0.3099814
0000d0 6d a8 b3 be 71 13 0d be cd 9d 52 be 8d 49 ed be
       -0.35089436 -0.13776948 -0.20568009 -0.46345177
0000e0 5c dc da be 87 45 37 bf bf 23 b1 be ed 25 47 bf
       -0.42746246 -0.71590465 -0.34597585 -0.77792245
0000f0 b7 5b 02 bf 76 df cb be f3 09 c8 be 6d e6 1b be
       -0.50921196 -0.39818925 -0.3907009 -0.15224619
000100 16 c0 df be 27 24 42 be 93 73 ae be af 1a b3 be
       -0.43701237 -0.18959104 -0.3407255 -0.34981295
000110 e3 ae 0e be 6b fc bf be bc 0a a6 be aa 4b c6 3d
       -0.13933901 -0.37497267 -0.32430065 0.096824005
000120 80 bc 21 be b5 72 e7 be 33 6a e9 be 2a a1 27 bf
       -0.15794563 -0.45204702 -0.45588836 -0.6548029
000130 b7 12 52 be 63 19 2b 3e 36 6e 21 be 31 7f eb be
       -0.20514952 0.16708903 -0.15764698 -0.45995477
000140 e8 fa 61 3d 0e 0a 82 bd 12 16 a1 bd f2 68 cf be
       0.055170923 -0.06349574 -0.07865538 -0.40509754
000150 38 9e a0 be cf e6 a9 3c 55 08 9a be cd d0 ce be
       -0.3137071 0.02073994 -0.30084482 -0.40393677
000160 0c 54 bb be ff d8 2c 3e 98 8a 17 be 24 59 ce bd
       -0.3658756 0.16879652 -0.14798963 -0.10075596
000170 85 cc 05 bf f3 2e d7 be 86 da dd be 7b 24 ad be
       -0.522652 -0.42028007 -0.43330783 -0.33816895
000180 ba e6 02 be e6 7b ad be ca fd 89 be 9d ea 02 3e
       -0.12783328 -0.3388359 -0.26951438 0.1278481
000190 9a b4 c7 be e8 e6 17 bf 69 75 2f bf 13 87 d5 be
       -0.39004976 -0.5933671 -0.6853853 -0.41704616
0001a0 8d 36 04 bf ba 14 a2 be 85 6a f0 bd d2 61 14 3d
       -0.5164574 -0.31656438 -0.11739067 0.0362261
0001b0 76 10 50 ba 29 ae 62 bd 96 2b 06 bf 7a 15 01 bf
       -0.0007937023 -0.055341873 -0.52410257 -0.50423396
0001c0 ae ca 76 be fb a0 0c bf b6 e5 18 be 3a 78 43 3e
       -0.24100754 -0.54933137 -0.14931378 0.19088832
0001d0 2a 6d 15 bd 26 11 1e 3e c2 4c d4 be 91 31 23 bf
       -0.03648106 0.15436229 -0.41464812 -0.6374751
0001e0 5b cc 3f bf da f4 12 bf da dc 13 bf 89 87 6a be
       -0.74921197 -0.57404864 -0.5775887 -0.22903265
0001f0 0c 59 8e be 55 d9 50 3d de 2b d0 be db 2e 11 be
       -0.27802312 0.050988514 -0.40658468 -0.1417803
000200 97 0e 9c be 1c bd e3 be 8c db 12 bf 76 36 df be
       -0.3047988 -0.44480217 -0.5736625 -0.43596238
000210 f9 14 5e 3d 5d 70 6c 3e 76 9c 83 be cd b7 67 be
       0.05421922 0.23089738 -0.25705308 -0.22628708
000220 3a c8 1f bf 36 6a d6 be 3a b4 0d bf 38 53 0f bf
       -0.62414896 -0.41877908 -0.5535313 -0.55986357
000230 4b 8e 01 bf b2 97 a0 be 34 d2 94 be 5a a2 a7 bd
       -0.50607747 -0.31365734 -0.29066622 -0.08185263
000240 8f ff d7 bd 71 6c 5c be de 4e 9d be c3 bc e2 be
       -0.10546791 -0.21525742 -0.30724233 -0.4428464
000250 d4 1a f0 be 47 85 e6 be f2 64 0f be 18 3f 99 bd
       -0.46895468 -0.45023558 -0.14003351 -0.07482737
000260 eb af 08 3e b2 f5 80 be 3d 56 7c be 2f c4 ee bc
       0.13348357 -0.2518745 -0.24642272 -0.029146282
000270 08 9e f1 bc a4 4e e4 be f6 5c 02 bf 3c b5 0d bf
       -0.0294943 -0.44591248 -0.509231 -0.55354667
000280 c9 71 14 bd 6e 37 d0 be d9 55 aa 3d 3b fa be 3d
       -0.036241326 -0.4066729 0.083171554 0.093250714
000290 57 91 00 bf b0 db 01 bf 03 c9 c0 be 4c 34 cd be
       -0.5022177 -0.5072584 -0.3765336 -0.40078962
0002a0 c4 7b 92 be 02 11 34 be ad 87 8c be 82 0b ca be
       -0.2861005 -0.17584613 -0.27447262 -0.39461905
0002b0 b5 1b 8a bd cd 12 04 be 8d b7 d8 be 37 fa be be
       -0.06743566 -0.12897797 -0.42327538 -0.37300274
0002c0 93 5a a3 be c3 a5 2c be 1b 1e 8a be f1 7e 67 3d
       -0.3190504 -0.16860108 -0.26976094 0.056517545
0002d0 4b c4 d1 bd a3 44 94 be 2d 9b 5a be f7 a8 84 be
       -0.10242518 -0.28958616 -0.21348257 -0.2591016
0002e0 63 9e b8 be 4b e1 c6 be 48 05 ed be b0 96 a1 be
       -0.3605834 -0.3884376 -0.46293092 -0.31560278
0002f0 c2 74 d7 be b8 52 fb bd f8 28 7b be cc c9 34 be
       -0.42081267 -0.12271637 -0.24527347 -0.17655104
000300 43 15 36 bf e1 f4 1d bf a0 f8 0e bf c6 f4 c3 be
       -0.7112619 -0.6170178 -0.5584812 -0.38272685
000310 73 15 0e bf 8b 75 37 be 65 c8 e1 be 60 7d 6c be
       -0.5550148 -0.17915933 -0.440982 -0.23094702
000320 79 0e 56 be bc 6f 15 bf 36 db 59 bf 25 4d 1d bf
       -0.20903958 -0.5837362 -0.85100114 -0.6144584
000330 ce ad 35 bf af c6 2e be dc c7 bd be 4d 1e c2 bd
       -0.7096833 -0.1706798 -0.37066543 -0.09478436
000340 7f 4b 1f be 0e 2d 72 be 45 23 91 be 83 16 24 bf
       -0.15556143 -0.2365 -0.2834722 -0.6409685
000350 91 cf f5 be 40 85 92 be 8d ff e0 3c 97 41 3a be
       -0.48009923 -0.28617287 0.027465606 -0.18189083
000360 05 b5 e8 bd 48 08 5e 3d 0d 24 67 be 0e 3f 0f bf
       -0.11362652 0.054207116 -0.22572346 -0.5595559
000370 30 6e 2b bf 6f 7f 59 bf d2 29 01 bf f4 da f3 be
       -0.6696501 -0.84960073 -0.5045444 -0.47627985
000380 90 6e e5 be b5 f5 4d 3e fb 66 fe 3d e0 2d ec 3d
       -0.44810915 0.20113261 0.12421986 0.115321875
000390 46 08 ad be f7 59 fb be 67 d1 99 bd 86 45 5a be
       -0.33795375 -0.49092075 -0.075106435 -0.21315584
0003a0 88 04 28 be 40 eb 8c be 56 c4 19 3d 33 9d a0 3e
       -0.16407979 -0.27523232 0.037540756 0.31369933
0003b0 92 b9 e8 3e 6b 46 8e 3c 39 b0 f0 be ce bc dd be
       0.4545408 0.017367562 -0.47009447 -0.4330811
0003c0 5a 88 49 3d f7 df be bd 74 a8 81 bd da b6 b1 be
       0.0492023 -0.09320062 -0.06330958 -0.34709817
0003d0 d1 cf bf bc a4 c8 f8 3c 99 0e 9c 3d a9 ca e1 bb
       -0.023414524 0.03036911 0.07619972 -0.006890614
0003e0 fe b5 84 3d f6 6d 51 3d 21 3c 6f be 70 74 30 be
       0.06480025 0.051130258 -0.23362781 -0.17231917
0003f0 60 a6 e0 be fd 5c d5 bd 9a 86 a7 3d 71 b9 64 3e
       -0.43876934 -0.10418127 0.0817997 0.22336365

bias f4 [5]
000000 03 9e 21 3e 8d 93 19 3e e5 7c 16 3e 51 d8 14 3e
       0.15782933 0.14997692 0.14696081 0.14535643
000010 60 01 25 3e
       0.16113806
