archived_data/b4_r0_m20_s200--2019-01-21--162345.649052/episode_8000.model (torch_old, 88994 bytes, 8 tensors)

weight f4 [6, 6, 3, 3]
000000 38 6e f1 bd 10 5d 64 3d 28 56 f6 3d 3c 71 94 3d
       -0.11788601 0.055752814 0.12028152 0.0724816
000010 5a 8e ff bd 28 f4 fb 3c e4 72 49 3d 49 47 a9 bd
       -0.12478323 0.030756071 0.049181834 -0.0826555
000020 38 3b 82 3c 79 e9 ab bd 30 85 55 be 6d 21 4e be
       0.015897378 -0.08394141 -0.20851588 -0.20129938
000030 42 7a cd bd a9 b8 40 be b3 6a c3 bd b1 e2 54 bd
       -0.100330845 -0.18820442 -0.09541836 -0.051974002
000040 46 08 82 3d 5d 20 33 bd 76 97 0a 3b 02 65 55 3c
       0.06349234 -0.043732036 0.0021147407 0.01302457
000050 b2 5a b0 3c 23 78 ca bc c5 ec 28 bd aa 47 93 bc
       0.021527622 -0.024715489 -0.041241426 -0.017978508
000060 ec 52 e2 3b 95 f0 8e bc 5a e4 12 bc 28 61 b5 bd
       0.0069068577 -0.017448703 -0.008965576 -0.08856422
000070 6a 71 96 3d 5c 10 f3 3d 5a 53 88 bd 06 11 68 bd
       0.07345851 0.11868355 -0.06656523 -0.05665686
000080 51 d7 07 be 70 30 00 be 82 ba 99 3d 40 f3 a4 bb
       -0.1326573 -0.12518477 0.07506277 -0.0050338805
000090 d1 49 85 3e 9b a9 63 3d ff 3a c9 3e 41 47 e7 be
       0.2603288 0.05558167 0.39302823 -0.4517155
0000a0 49 2d 31 3e 46 b9 21 bf ed 96 99 bd 31 48 3b 3e
       0.17302431 -0.6317333 -0.0749949 0.18289258
0000b0 5f 99 8f be 7c 06 9c 3b 1d 60 1e bd 80 58 06 be
       -0.280467 0.004761515 -0.03866588 -0.13119698
0000c0 1c 3e 70 be 48 44 e6 bd 30 27 35 bd 85 e1 e8 bb
       -0.23461193 -0.11243492 -0.044226825 -0.007106962
0000d0 09 99 4b 3b 2b f3 69 3e e0 7e 7a 3c 87 b8 c3 bd
       0.0031066558 0.22846667 0.015289038 -0.0955668
0000e0 08 35 6a 3d 54 ab cc 3d 3c 05 ca 3d 7d 13 ce bd
       0.05717948 0.09993616 0.0986428 -0.10062311
0000f0 90 2c e0 3c f8 80 19 3d b4 dd 20 3d 5a 73 a9 3d
       0.027364999 0.03747651 0.039273933 0.08273955
000100 00 e1 ea bd fe 24 74 be c5 73 7c 3d 0d 13 b2 bd
       -0.114686966 -0.23842236 0.061633844 -0.0869504
000110 3e 5e 23 be 20 b7 6f 3d 37 37 fd 3c 88 88 bb 3c
       -0.1595392 0.05852425 0.030910118 0.022892252
000120 27 4f 12 3c 90 22 b0 ba 32 a7 09 3d 92 1a f5 ba
       0.008930004 -0.0013438035 0.033606716 -0.0018699935
000130 b5 a1 0e 3d c1 d7 c5 3c c1 28 06 bd 39 4c 07 bd
       0.034822185 0.024150731 -0.03275371 -0.033031676
000140 5e 0f 3c bc 22 af 8e 3d 10 6f 68 3c fc 6f 05 3d
       -0.011478273 0.06966998 0.014186636 0.0325775
000150 0c f7 86 3d 44 02 ef bd 14 2c 90 3d 80 a8 0d 3c
       0.06590089 -0.11670354 0.07039657 0.008646131
000160 30 88 15 bd f0 ad 1f 3d bc 57 35 3d 6f ff e8 bd
       -0.03650683 0.03898424 0.044273123 -0.11376845
000170 2e 43 54 bf 73 71 cd bd de 7e 33 3e 54 3a dd be
       -0.8291501 -0.10031404 0.17528865 -0.43208563
000180 6f 60 f2 3c 44 8e c2 bd ce 62 c9 3d 9b 15 77 3d
       0.029586999 -0.09499791 0.098332986 0.06032334
000190 6e 3e 41 bf d2 69 7e be 54 89 99 3d cc c0 90 be
       -0.75485885 -0.24845055 0.074968964 -0.28272092
0001a0 fa d3 ec bd 7a e9 fa bd 01 28 3e 3e d5 de 0b 3e
       -0.11563869 -0.12251563 0.18569948 0.13659222
0001b0 06 9d b1 3d f0 7d db bc 26 88 a4 3d 00 94 e4 bc
       0.08672528 -0.02679345 0.08033781 -0.027902603
0001c0 00 56 09 3a bc d5 0d 3d fc 3d 2c bd 0e e0 d4 3d
       0.000523895 0.03462766 -0.0420513 0.103942975
0001d0 ec 01 72 3d c1 d5 82 3d 2e 58 d8 bd 5a d3 73 bd
       0.059083864 0.063884266 -0.10563694 -0.059527732
0001e0 e5 29 10 be 19 bf ca bc 1d a8 85 bd 86 80 56 be
       -0.14078481 -0.024749326 -0.06526206 -0.20947465
0001f0 0b 95 9a bd a3 a8 69 be cb e8 02 3d ea a3 03 3d
       -0.07547959 -0.22818236 0.03196029 0.032138743
000200 43 84 48 3d 3a 6a 04 3c 3e 56 7b 3c 12 09 3c 3d
       0.04895426 0.008081967 0.015340386 0.045907088
000210 82 66 00 bd e3 d1 ba bc f6 58 7a bb 2a 36 04 be
       -0.03134776 -0.02280516 -0.0038199998 -0.12911287
000220 d0 d0 fa 3d a0 6c 58 3d b6 ff 7c bd 55 3d 95 bd
       0.12246859 0.052837968 -0.061767302 -0.07287089
000230 60 2a 5b 3d a8 71 01 3d c4 f5 f4 bd 32 47 03 3e
       0.05350721 0.03160253 -0.119609386 0.12820128
000240 2e 51 40 3e 77 2f 0f be 18 e0 8c 3d 60 36 c2 bc
       0.18780968 -0.1398295 0.0687868 -0.023707569
000250 6c 79 8d 3e 93 a6 b3 3e 02 b2 2c 3e 68 f5 be bd
       0.276317 0.35088024 0.1686478 -0.09324151
000260 c8 2a b1 3e 63 fb 50 3d d1 e4 d3 bd 08 50 57 3e
       0.34602952 0.05102099 -0.10346378 0.21026623
000270 9c b5 ec bd 46 7d b7 be a2 95 cd 3d 39 84 e1 3d
       -0.11558077 -0.35837764 0.10038306 0.110115476
000280 5c 9d d3 bc 73 be a3 3a 16 9d cb bd 40 7d 89 3d
       -0.02583187 0.0012492671 -0.09942071 0.06713343
000290 b0 68 87 bd 00 78 d4 3c bc 63 a7 3d 81 af 06 be
       -0.066117644 0.025936127 0.0817332 -0.13152887
0002a0 d0 81 0a bc 90 b6 f9 bd f8 d3 ab 3c 54 fc 82 3d
       -0.008453801 -0.12193024 0.020975098 0.06395784
0002b0 a4 9a 20 bc 00 94 20 be dc dd 91 bc ee 2f 3a bd
       -0.009802494 -0.15681458 -0.017805986 -0.045455866
0002c0 b0 6e 0e 3c 36 58 a8 3d 58 ea d2 bd 35 2f c2 bd
       0.008693382 0.0821995 -0.10298604 -0.0948166
0002d0 ea 8a 3a bb fe bc 53 3d 0f 63 de 3c 0d 81 0a 3b
       -0.0028464147 0.05169391 0.027146844 0.002113405
0002e0 d6 7b b0 39 03 2d 4e 3d 01 fe 28 bd 0c a3 04 3c
       0.000336616 0.050335895 -0.041257862 0.008095514
0002f0 f8 ee 03 3d 80 03 e5 3c bc 6f 05 3e d2 b1 c4 3d
       0.03221032 0.02795577 0.13030905 0.09604229
000300 85 4d 0b be d6 ed 03 3e 6e 61 d7 bd 98 1d 0e 3d
       -0.1360379 0.12883696 -0.1051663 0.03469619
000310 e0 88 55 3c ba 17 a4 3d cf d9 9b 3d 3b fb 9b 3e
       0.013033122 0.08012338 0.07609903 0.3046511
000320 60 6a 56 3d fd b8 8e 3e 78 5b 28 bf 55 9e 23 3e
       0.05234754 0.2787551 -0.6576457 0.15978368
000330 e1 11 85 3e 0d 94 d2 be 99 e7 35 bf 55 fb 13 3d
       0.25990203 -0.4112858 -0.71056515 0.03612836
000340 d9 ca 59 bd dc 84 b1 bd ea 81 a3 3d 13 81 9a be
       -0.053171966 -0.08667919 0.079837635 -0.301766
000350 90 45 81 bd e3 e3 55 3b b6 dc ca be 88 ac 18 bd
       -0.06312096 0.0032637052 -0.39621514 -0.037273914
000360 20 b4 b5 bc 64 02 19 bd cc 99 2b bd 48 2a 97 bd
       -0.022180617 -0.037355796 -0.04189472 -0.073811114
000370 c0 05 26 bc 38 22 2b 3d 2e 82 06 bd ac 03 0c 3d
       -0.010133207 0.04178068 -0.032838993 0.03418319
000380 62 d3 dc bd b1 a7 de 3b 62 3e 91 3d 44 38 41 bc
       -0.107825056 0.0067948927 0.07091977 -0.0117932
000390 4a 21 4f 3d 79 b0 87 3d 49 a6 85 bd a0 75 82 bc
       0.050568856 0.06625456 -0.06525857 -0.015925229
0003a0 9e 02 4c 3d 93 81 c0 3d 8c 81 64 3b 2c 6e 99 3c
       0.049807183 0.09399714 0.0034867255 0.018729292
0003b0 81 b8 ce 3c 3c 76 3f 3d cc 3e 87 3d 03 14 78 3d
       0.025234463 0.046743616 0.066037744 0.06056596
0003c0 56 2e 9a 3b 4f ab 52 3d 54 c3 1c 3d 0c ed 9a 3d
       0.0047052307 0.051432904 0.038272217 0.07564744
0003d0 10 dd 67 3d 18 82 09 3e 02 61 9c bd c4 00 e4 3d
       0.056607306 0.13428533 -0.0763569 0.111329585
0003e0 2c 9e 04 3e 5e 12 dc 3d f0 8e 7a bc 04 2e a9 3d
       0.12950963 0.10745691 -0.015292868 0.0826073
0003f0 14 2c c5 3d e7 58 05 3e c3 51 d9 3e 9a 2f 9f 3e
       0.09627548 0.13022195 0.42445192 0.31091005

bias f4 [6]
000000 eb dc 79 bc 57 d2 20 be 1a 9f d3 bd ea 3a 8f 3d
       -0.015250425 -0.15705238 -0.103330806 0.06993659
000010 6d 55 01 be 03 bb 92 bd
       -0.12630244 -0.07164576

weight f4 [16, 6, 3, 3]
000000 7a 60 7d bd 10 12 81 bd a1 61 9e 3c f0 69 d5 bd
       -0.061859585 -0.06302273 0.019333662 -0.104205966
000010 b2 00 04 bd a3 d1 63 bc 79 29 53 be f5 96 01 be
       -0.032227226 -0.013904962 -0.2062129 -0.12655242
000020 cd 7f 8a 3d 23 79 50 bd 03 ff a4 bd 6c 39 23 3d
       0.06762657 -0.050896775 -0.08056452 0.039849684
000030 93 ec ec 3e 3f f9 16 bf af ca f5 bd ca e8 2c be
       0.46274242 -0.5897407 -0.120015495 -0.16885677
000040 6e 94 71 3d 10 f3 a2 bc 55 15 8d be ac a9 7a bd
       0.058979444 -0.019891292 -0.27555338 -0.061196968
000050 2e 0b c4 be 8f e9 fb 3d a3 88 05 3d 66 fc 4f 3d
       -0.3828978 0.12300407 0.03260101 0.050777815
000060 f2 22 06 be 89 23 07 3e 83 0e 50 3d a5 c5 60 3e
       -0.13099268 0.1319715 0.05079509 0.21950395
000070 2e 0f f7 3d e3 17 29 bd 18 3a 16 be ba df d7 3d
       0.12063442 -0.041282546 -0.14670599 0.10540719
000080 b5 ca 1a be 47 dd 22 be d0 47 07 be 84 52 54 be
       -0.15116389 -0.15904723 -0.13210988 -0.20734602
000090 ef b4 c3 be ea 1c 86 3e e2 e3 ca 3d b7 51 ed bc
       -0.3822398 0.26193935 0.099067464 -0.028969629
0000a0 59 09 5d be c3 c1 12 bf 23 7a b5 3b ec 12 b6 be
       -0.21585597 -0.57326907 0.0055382415 -0.3556131
0000b0 db ef 0b 3e 5e f2 19 be 8c 6b 79 bd 07 93 a9 bd
       0.13665716 -0.15033862 -0.06089358 -0.08279996
0000c0 fe 14 80 3d c2 f9 32 3d d1 17 0b bd 1d e1 25 3d
       0.06254004 0.04369522 -0.03395826 0.040497888
0000d0 07 d3 dc bd eb 7b ba be dd 87 27 3d c0 64 77 be
       -0.10782438 -0.36422667 0.040901054 -0.24159527
0000e0 67 fc 68 3e 7d 78 8f bd e7 b4 d2 3d a7 38 4a 3e
       0.22752534 -0.07005403 0.10288411 0.19748174
0000f0 a1 62 fb 3c 1c 46 77 3d a6 7f 21 3e 42 92 18 bf
       0.030686678 0.060369596 0.1577135 -0.5959817
000100 ec 63 16 3e d6 ab 11 3e 08 5a 5c be 9e ea f6 bd
       0.14686555 0.14225706 -0.21518719 -0.120564684
000110 cb 04 6a 3e 81 ee 89 3d 2d 43 65 3e dd 5f cb 3d
       0.22853391 0.06734944 0.22388907 0.09930394
000120 c6 c4 7d be ff 3a 06 3e f8 96 83 be 98 66 ee 3d
       -0.24782094 0.13108443 -0.25701118 0.11640662
000130 9a eb 2e 3e 19 4d 9b 3d 2b bb 14 3d fd 84 b8 bc
       0.17082062 0.075830646 0.03631131 -0.022524351
000140 ee c6 93 bd 7f 3b ed 3d 55 91 25 3d dc f0 fc 3d
       -0.07215677 0.115836136 0.040421803 0.12350628
000150 b4 54 00 3b 11 43 54 be 67 d6 38 be 63 d3 dd bd
       0.0019581737 -0.20728709 -0.18050538 -0.108313344
000160 a6 d5 c5 3d a4 b2 0b bd 2f 91 04 be c1 08 0f bf
       0.09659891 -0.03410591 -0.12946008 -0.5587273
000170 43 c7 ec bc 39 f9 33 be a3 34 27 bf fb 5c 67 bd
       -0.02890361 -0.1757554 -0.6531469 -0.056485157
000180 22 43 1d be 7c 0d bd be fa 65 a2 bd 83 5b de 3d
       -0.1535764 -0.3692435 -0.07929607 0.10857298
000190 a6 a4 e4 bd 65 85 e4 bd 8b 05 bf 3c c1 ab 21 3d
       -0.11164217 -0.111582555 0.023318073 0.039470438
0001a0 f6 f8 cc bd f1 23 8e 3e 02 00 c1 bd 2a f9 1b be
       -0.10008423 0.27761796 -0.094238296 -0.15231767
0001b0 1a 68 07 3d 7b 32 a4 3c 51 b1 96 be 57 27 86 3e
       0.033058263 0.020043602 -0.29432157 0.2620189
0001c0 82 92 2e bd de c2 83 be d4 3c 5c be 5e 75 46 be
       -0.04262019 -0.2573461 -0.21507579 -0.1938071
0001d0 d7 77 8e be 67 fa 14 bf 42 d3 13 3e 66 ae bc bc
       -0.27825806 -0.58194584 0.14436057 -0.023032378
0001e0 81 80 af 3c 4a e7 2f 3e b2 fe fb be d4 51 bd 3d
       0.02142358 0.17178074 -0.49217755 0.09244123
0001f0 f0 1c 0c 3d 6a cc 10 bd 5c 08 bd 3b 9c 52 57 3e
       0.034207284 -0.035351194 0.005768819 0.21027607
000200 60 dd 2d be 3d 2e 8d bd 93 0a 62 3e 38 dd a7 bd
       -0.16978979 -0.06893585 0.22074346 -0.08196491
000210 34 2f 88 bd 81 11 70 bd fb da 80 be 47 d9 aa be
       -0.06649628 -0.058610443 -0.2516707 -0.33368894
000220 3a a7 e1 3d ed 36 67 be 98 7a ea be c4 98 80 3e
       0.11018224 -0.22579546 -0.45796657 0.2511655
000230 05 a4 01 bd 2c d4 9d 3d 34 18 cb 3d 5b 85 73 bd
       -0.03165056 0.07706484 0.09916726 -0.05945335
000240 c1 1e 8e 3e de 6a 39 be 6c 17 fb 3d aa 08 fc 3c
       0.27757838 -0.18107173 0.12260327 0.03076585
000250 d3 a8 84 3d 80 d0 8c bc a6 85 8a bd 0d 3f b4 3d
       0.06477513 -0.017189264 -0.06763773 0.088010885
000260 e3 4f 88 bc 51 37 93 be f9 c7 9d be e4 fb 78 be
       -0.016639655 -0.2875314 -0.3081663 -0.24314839
000270 88 e0 26 bf d8 78 c9 be b6 f1 05 be 7e ed 4d 3c
       -0.6518636 -0.3935001 -0.13080487 0.01256883
000280 d8 f5 95 bd 7d ff 2b be 97 72 db 3d 35 79 4b bd
       -0.073222816 -0.1679668 0.10715216 -0.04967614
000290 54 dc 96 3d 9e f7 39 3e 9e 74 0f 3b a6 ba c7 bd
       0.07366243 0.18160865 0.0021889578 -0.09752397
0002a0 7c de 0c 3e 38 98 3b bd 04 1b 04 be 95 60 65 be
       0.13756746 -0.045799464 -0.1290093 -0.22400124
0002b0 39 5d 56 be e0 28 91 be f2 ad ac bd ec 92 2b 3e
       -0.20933999 -0.28351498 -0.08431615 0.16755265
0002c0 e8 67 6d 3c ed 2c a4 bd 7d 31 a5 3e 2b cd 39 be
       0.014490105 -0.080163814 0.3226432 -0.18144672
0002d0 b0 1c 86 be 34 3f 60 3e b0 ef 38 3e fa e0 86 be
       -0.26193762 0.2189911 0.18060184 -0.26343518
0002e0 79 40 52 bc 22 82 b4 bd 42 02 64 bd 18 7f 2d 3d
       -0.012832754 -0.08813883 -0.055666216 0.042357534
0002f0 63 54 d8 3d dc 3b e4 bd 83 94 91 bc 3f b5 80 be
       0.105629705 -0.1114423 -0.017771011 -0.2513828
000300 0d b1 9e 3d a5 06 df bd e9 f5 35 be ea 4c 31 3e
       0.077486135 -0.10889939 -0.17769589 0.17314497
000310 7d 97 7f bd b5 9b 8f bd c2 9e c6 3d c2 69 96 3c
       -0.06240033 -0.07012121 0.096982494 0.018360976
000320 a8 ec 96 be 3e 9f c0 bd a1 3d a6 bc 05 f3 88 bc
       -0.2947743 -0.09405373 -0.020293059 -0.016717443
000330 69 35 a9 be 59 1d 1d be dc 1c 1d bd c4 de 21 be
       -0.3304856 -0.15343226 -0.0383576 -0.15807635
000340 8c 96 a8 be 65 58 1f 3e cb 95 e0 be 28 a1 90 be
       -0.32927358 0.15561064 -0.43864283 -0.28247952
000350 df 7c 19 3d d2 02 3f be a5 14 39 be e5 80 a4 bd
       0.037472602 -0.1865342 -0.18074282 -0.08032397
000360 fd ea 06 be 2f 8d 0a 3e c8 d2 6e be 2f 51 2a be
       -0.13175578 0.1353042 -0.23322594 -0.16632532
000370 d3 17 7b be 77 93 19 be 71 77 0b be 9a a4 74 be
       -0.24520807 -0.1499766 -0.13619782 -0.23890916
000380 9d d2 7b be 64 cc 97 be b5 92 0e bf 05 80 82 be
       -0.24592061 -0.29648125 -0.5569261 -0.25488296
000390 fc e8 f4 be a0 1e 02 be 78 51 a8 be 8f aa fa bd
       -0.47834003 -0.12706995 -0.32874656 -0.12239563
0003a0 84 6f 17 bf c0 4d 05 be d3 e3 2c be 3b 55 cf 3d
       -0.59154534 -0.1301794 -0.16883783 0.10123678
0003b0 d7 8a a9 bd 49 36 32 3d f7 2d 6c 3d 2e 79 8c 3d
       -0.08278435 0.0435088 0.057661023 0.06859051
0003c0 31 ef 7e be 83 f0 2a 3d e3 21 c6 bd 7c e6 81 3d
       -0.24895932 0.041733276 -0.09674432 0.063427895
0003d0 48 ca 78 be 22 21 1f bf 8b 2f 0b 3e 6c 70 d8 bd
       -0.24295914 -0.6215993 0.13592355 -0.10568318
0003e0 d4 68 d9 be 1a 9d 0b 3d 2a 84 7a bd f7 cb 89 be
       -0.4246279 0.03408537 -0.061161198 -0.26913425
0003f0 8b 9d a8 bd 07 71 60 be 6f 86 52 bd 5f ab 3e bb
       -0.08233174 -0.21918117 -0.051397737 -0.0029093844

bias f4 [16]
000000 12 8a 79 3c d7 91 2a bc 55 f0 e7 bd f9 28 ee 3c
       0.015230672 -0.0104107475 -0.113251366 0.029072272
000010 b7 aa 83 3d 1d 47 4d be 1f f2 82 bd 92 ff ea 3c
       0.06429046 -0.20046659 -0.06393837 0.028686319
000020 69 03 a7 bc de be 6b 3c c9 18 2a 3c 13 be d0 3b
       -0.020387368 0.014388768 0.010381886 0.006370315
000030 8c 3e 43 be 25 b0 3d bd 85 32 26 bd 38 79 cf 3c
       -0.19066828 -0.046310563 -0.040575523 0.025326356

weight f4 [32, 16, 3, 3]
000000 e5 1e fb 3d 03 59 6b 3d f1 f0 53 be f4 6d 2a 3e
       0.12261752 0.057457935 -0.2069738 0.16643506
000010 e7 9b 95 be f1 3f 3f be 5c c0 34 3d 9f b7 60 3e
       -0.29220507 -0.18676735 0.04412876 0.21945046
000020 3f 77 46 be bf e4 84 3d e4 4c f3 bd cc 6f 08 be
       -0.19381426 0.06488942 -0.118799 -0.13323897
000030 7d 66 db 3d a7 37 39 be 1f 9e 33 be 32 8e 9f bd
       0.107129075 -0.18087636 -0.17540787 -0.077907935
000040 44 66 d1 bd a5 f1 25 bc eb c1 fb bd 4b c8 9b 3d
       -0.10224584 -0.010128413 -0.12292846 0.07606562
000050 2d 22 60 be a0 c7 a6 3d 00 7f e3 bd c0 ff 27 bc
       -0.21888037 0.08143544 -0.11108208 -0.010253847
000060 bb d0 8a be 65 63 c4 be 2f a6 4e be 9c 5d d2 3d
       -0.27112374 -0.38357082 -0.20180582 0.10271761
000070 5d 7e e1 bd 8b b8 48 be 55 14 f6 3d cc 03 71 3b
       -0.1101043 -0.19601648 0.12015597 0.0036775945
000080 d5 3e 08 3c 95 ae 7c 3d 63 9b 0f be 2c 0c 9d be
       0.008315762 0.061689932 -0.14024119 -0.3067335
000090 54 dd 99 3e 65 62 42 be 45 9c f5 3b 23 b4 b7 3d
       0.30051672 -0.18982847 0.0074954354 0.08969905
0000a0 e7 51 e4 bd 12 36 5a bc 0c b7 fd 3d 05 e6 37 3e
       -0.11148434 -0.013318555 0.12388429 0.17958839
0000b0 e0 bd 8e be d0 9b 8b 3d c8 f7 8d 3e 6c 9b 61 3e
       -0.27879238 0.06816828 0.27728105 0.22031945
0000c0 f5 2a 9e 3d ba c4 a9 3e 52 98 ad bc a0 e4 88 be
       0.07723037 0.33157903 -0.021190796 -0.26736927
0000d0 ef f1 32 be ca 15 07 be 0e 45 ec bd 2c 81 9e 3d
       -0.17475103 -0.13191906 -0.11536609 0.07739481
0000e0 a3 14 e3 bd 05 18 8c be 6e 09 53 bd 40 76 f8 bd
       -0.110879205 -0.27362075 -0.051522665 -0.121319294
0000f0 0d 46 27 bd 7c f8 63 bd 6c c6 2a 3e 44 b0 e1 3d
       -0.04083829 -0.055656895 0.16677254 0.11019948
000100 08 da 1a 3e c8 48 dc 3c 1c a0 4a bd da ba ae be
       0.15122235 0.026890174 -0.0494691 -0.3412693
000110 5a 37 94 be d3 45 30 3b 59 43 2f bf ef 3e d0 be
       -0.2894848 0.0026897087 -0.6846214 -0.40673015
000120 23 60 0a 3e e9 51 c6 bd 2f 8a 21 3e ea 6f 93 3e
       0.13513236 -0.09683592 0.15775369 0.2879632
000130 a3 ff ca bd 93 67 04 bc 35 97 10 3e 41 77 71 be
       -0.0991204 -0.008081335 0.14120181 -0.23580648
000140 fd e4 0b be 8d aa 64 be f0 b6 5a 3c 36 f6 0a 3e
       -0.13661571 -0.22330685 0.01334928 0.13570485
000150 2a b5 3b be 62 7d 5c 3e 5c 91 b0 3d 56 b4 43 3e
       -0.18330827 0.21532205 0.08621475 0.19111761
000160 2a 7a 3b 3d 21 24 d4 3e a8 a7 97 3c 70 a4 06 be
       0.0457708 0.41433814 0.018512562 -0.13148665
000170 e2 a9 3a be d6 3a 9c be 58 79 fb 3d 43 eb 24 bd
       -0.18228868 -0.30513638 0.12279004 -0.040263426
000180 3d cc a6 3d fa 1b 49 3d 54 ed b7 3e bc b7 ee ba
       0.08144424 0.049098946 0.35923254 -0.0018212716
000190 c1 92 4f 3e 66 fd d3 3b 35 33 14 3e dc 2f 3e 3e
       0.20270826 0.0064694164 0.14472659 0.18572944
0001a0 72 af 88 bd 6a f6 0b be 67 af 31 3b c8 b7 cc bd
       -0.066740885 -0.13668218 0.0027112605 -0.09995991
0001b0 d6 e7 f9 be 98 75 a4 be 41 e1 2c bd fb 3f 2d bd
       -0.4880969 -0.32120967 -0.042207006 -0.042297345
0001c0 76 64 98 be 93 dc 7e be 40 59 bb 3c a6 47 d6 bd
       -0.29764146 -0.2488883 0.022869706 -0.104628846
0001d0 37 c7 bb be e9 28 4e 3d d7 5f 0e 3e 5f 9d 0e bd
       -0.36675426 0.050331984 0.13903747 -0.03481805
0001e0 cd 30 f1 be 13 c9 ed 3d 1a 69 bc bd 20 44 2b be
       -0.47107545 0.116106175 -0.09199734 -0.16725206
0001f0 03 6f 51 3d eb 85 00 3e 30 c4 be 3d eb c4 2a 3d
       0.05113126 0.12551086 0.093147635 0.0416917
000200 2b ee 5b 3d 24 72 3d be 43 49 36 bd 76 ab 7e 3e
       0.05369393 -0.18500572 -0.04450346 0.24870095
000210 b2 7d 32 3e d4 7f 97 3c 29 75 9e bd 75 df 8c 3d
       0.17430761 0.01849357 -0.0773719 0.068785585
000220 b3 89 c5 3e 2a cf 69 be dc c0 13 3e 70 96 26 3e
       0.3858162 -0.22832933 0.14429039 0.16268325
000230 dc 9e 2a 3d f0 48 0a 3e 79 2e a3 3c c1 fa b8 3e
       0.041655406 0.13504386 0.01991962 0.3612881
000240 5b 06 ae 3e 53 b1 c8 3c 2e 4f 05 3e e7 6b c5 3e
       0.33989224 0.024498617 0.13018486 0.38558885
000250 9b b8 a8 3e fe ed 06 3e aa cb 10 be 10 80 a8 3d
       0.32953343 0.13176724 -0.14140192 0.08227551
000260 6a 93 06 bd 3f af 16 3e e3 85 1e 3c 96 a2 0f be
       -0.03285543 0.14715289 0.009675476 -0.14026865
000270 80 a6 d4 3d cd 44 0b 3e 76 b4 9e 3d 65 d0 90 be
       0.1038332 0.13600464 0.07749264 -0.28283992
000280 7d 44 3c be d9 94 a7 be 00 3f b9 be 88 70 0f be
       -0.18385501 -0.3273075 -0.36180878 -0.14007771
000290 d2 3c 28 3e 0d c0 85 be 25 1c b1 3e 6c 23 74 3b
       0.16429451 -0.26123086 0.34591785 0.0037252558
0002a0 ae 92 38 3d 38 1a f3 be 63 7d 2b 3d 25 bd 85 3c
       0.04506176 -0.4748094 0.041867625 0.016325543
0002b0 cb b9 c1 bc 78 fe 1e 3d ba 7c a4 be be 5e 93 bc
       -0.023648163 0.0388169 -0.3212641 -0.017989513
0002c0 99 80 de bc 0f d5 ee be 18 52 91 3d 91 82 90 be
       -0.02716093 -0.46646926 0.07095736 -0.28224614
0002d0 6e 4e 2e be 35 fd b6 ba ea 94 21 be 00 14 68 bd
       -0.17022106 -0.001396096 -0.15779462 -0.0566597
0002e0 8f cc fc bd ea 77 cf bd 71 29 64 be 7c 4d 8a bd
       -0.12343704 -0.10130294 -0.22281434 -0.0675306
0002f0 69 aa f3 bd 8f 44 a6 bd 8c 9b 01 3e 0d 10 0d bd
       -0.118977375 -0.08118545 0.12656993 -0.034439135
000300 e4 2f b6 3d 55 37 9f bd ac 23 03 be 0b bd 0a be
       0.08895853 -0.077742256 -0.12806576 -0.13548677
000310 74 a2 88 be 90 53 2c be c6 44 f8 bd 06 20 59 be
       -0.26686442 -0.16828752 -0.121224925 -0.21203622
000320 ec 38 16 be 34 6a fa b7 e9 34 c7 3d c2 d5 bb bb
       -0.14670151 -2.9851777e-05 0.09726889 -0.005732269
000330 52 3c 8d bd 6f 78 38 be 92 3d 7c 3c bc 6f 8b 3e
       -0.06896271 -0.18014692 0.015395539 0.27233684
000340 b2 5f 85 3e ac 3d fb 3d 2d 86 94 3e 0a 09 89 3e
       0.26049572 0.12267622 0.29008618 0.2676471
000350 71 61 3f 3e 86 b8 d9 bd 64 aa af be ef 22 a0 be
       0.18689515 -0.10630898 -0.34309685 -0.31276652
000360 93 e6 33 bc 7a de 09 be df 78 95 be c0 79 1f bd
       -0.010980266 -0.13463774 -0.2919378 -0.03893447
000370 2f 8d d2 bd 9a 19 10 3d 2f f0 20 be e8 e6 07 be
       -0.10280835 0.035180666 -0.15716623 -0.13271677
000380 d0 12 db bd 91 78 22 be 6c 73 8e 3d ff 58 39 be
       -0.106969476 -0.15866305 0.06955609 -0.18100356
000390 62 11 d5 3d 38 fa c5 3b 6d b9 87 bd d6 7f c8 bd
       0.10403706 0.0060417913 -0.06627164 -0.09790008
0003a0 a1 29 b0 3a 52 7f 32 3c 29 e0 72 3e b3 b8 1a 3e
       0.0013440141 0.010894613 0.23718323 0.1510952
0003b0 5c 6f 03 3d f3 e6 29 3e a5 b6 15 3e 41 c0 6c 3e
       0.032088622 0.16592006 0.14620455 0.23120214
0003c0 0d 34 29 be 02 26 3c 3d f3 7a 4a 3d 32 1d 47 be
       -0.16523762 0.045934685 0.04943366 -0.19444731
0003d0 a3 b3 33 be 3f 01 dd be 38 a0 18 3c 91 21 8f be
       -0.17548995 -0.43165013 0.009315543 -0.27955297
0003e0 8f d1 da be 20 f6 83 3e b9 3d 83 3d 00 47 2f 3e
       -0.42738006 0.25773716 0.06408257 0.17116928
0003f0 30 ef 20 be a0 0f 0b 3e 69 8e b8 3c 28 10 fa be
       -0.15716243 0.13580179 0.022528844 -0.4884045

bias f4 [32]
000000 29 0a 46 bd fb 52 7d bd a3 19 49 3b b4 4f c2 bd
       -0.048349533 -0.061846714 0.0030685447 -0.094878584
000010 97 e3 06 3d 2f a5 b1 bd 92 09 45 bd ad 7a 22 be
       0.03293189 -0.086740844 -0.04810483 -0.1586711
000020 3b bd b8 bd da 22 17 be b8 cd 2e be b4 ba e4 bd
       -0.09020468 -0.14759389 -0.17070663 -0.11168423
000030 42 4d c0 bc 48 cd d7 bc f5 61 c5 bd ec 12 ba bd
       -0.02347434 -0.026343003 -0.096378244 -0.0908564
000040 66 47 06 be d1 14 9f bb 89 aa d7 bc 01 82 a6 bc
       -0.13113174 -0.0048547764 -0.026326435 -0.020325663
000050 95 67 2e bd 2b 24 26 bc e9 91 b9 bd 27 ce 30 3c
       -0.042579252 -0.010140459 -0.09061033 0.010791338
000060 c0 51 08 be d3 bf a4 bd 27 10 7f bd 00 0c 04 be
       -0.13312435 -0.080444 -0.062271263 -0.12895203
000070 84 4b 80 3b f4 5b 06 bd 3c 1a 30 bc 78 2b 41 bd
       0.003915252 -0.032802537 -0.010748442 -0.047160596

weight f4 [5, 2592]
000000 d9 06 ea bc 2a 6d ac 3c 4f b0 02 be 7c 01 da be
       -0.028567718 0.021048147 -0.12762569 -0.42579257
000010 e8 ec 20 bd 59 75 8d 3b 80 a2 54 3e 76 7e ac be
       -0.03928843 0.0043169674 0.20765114 -0.33690232
000020 1f 0d 32 be 2b fc 7a be cf 56 fb be 21 b3 54 be
       -0.17387818 -0.24510257 -0.49089667 -0.20771457
000030 3c a9 1c be e2 92 c0 be f0 62 c8 be 10 54 8d be
       -0.15298933 -0.37612063 -0.39137983 -0.27603197
000040 5b ee 44 be 32 58 e8 bd 0f 3d 8b 3d 4f 87 79 be
       -0.1923155 -0.11344947 0.067987554 -0.24368022
000050 47 5d 90 be 40 8f 89 3d 48 d8 77 be b1 79 d8 be
       -0.28196165 0.06716776 -0.24203598 -0.42280343
000060 87 00 c0 be 90 8f a6 be af 73 50 be f6 e5 62 be
       -0.37500402 -0.32531404 -0.2035663 -0.22158036
000070 c5 85 77 be 1d ed 97 be 3a 29 ba be 91 06 9d 3c
       -0.24172123 -0.2967309 -0.36359578 0.01916817
000080 66 b5 c9 be 8c 05 c8 be 6e 83 d6 be d0 36 20 3e
       -0.3939621 -0.39066732 -0.41897148 0.1564591
000090 35 65 5c be 98 0e 94 3d 6e 58 dc be 1f 51 c6 be
       -0.21522982 0.07229346 -0.43036216 -0.38733765
0000a0 bf 78 6a bd e6 b4 5f 3d e1 08 74 be 8a d0 a6 be
       -0.05724406 0.054615878 -0.23831512 -0.32580978
0000b0 d8 c8 8f 3e 27 d9 de bd a3 df 79 3c a5 0b 9a be
       0.2808292 -0.10881262 0.015251073 -0.3008701
0000c0 f2 83 58 be fc 2c 41 be 13 af a7 be f8 7a 21 be
       -0.21144083 -0.18864816 -0.3275076 -0.15769565
0000d0 65 4a 79 be 86 2f 95 3d 9f c3 17 be 0e 6d d8 bd
       -0.24344786 0.07284455 -0.14820717 -0.105676755
0000e0 52 50 86 be c0 da f5 be f2 54 b6 be 65 14 8d be
       -0.26233155 -0.48018456 -0.35611683 -0.27554622
0000f0 4b 0b d0 bd bb 7e ea be b7 03 64 be 7d 93 53 3e
       -0.10158404 -0.45799813 -0.22267042 0.20661731
000100 c4 10 26 be c3 6e 4b bd b7 af ef be 04 38 d6 bd
       -0.16217333 -0.049666177 -0.46813747 -0.10459903
000110 9a ca f8 be 6f 80 73 be 72 28 7b be 11 3b 78 be
       -0.48592073 -0.23779462 -0.24527147 -0.24241282
000120 1a 9f e8 bc db 7b 82 bd 1a 35 7f bd b0 0c 10 be
       -0.028396178 -0.0637128 -0.0623065 -0.1406734
000130 e6 4b 26 be 3e 4e 4a 3e 5d 10 21 3e ce 52 81 be
       -0.1623989 0.1975641 0.15728898 -0.25258487
000140 18 86 35 bc e4 16 9a be 16 4c 45 ba 7a 2d b7 bd
       -0.011079334 -0.3009559 -0.00075262913 -0.08944221
000150 2d 37 73 3d 22 8f ff bd 5b 57 9e be 54 19 05 be
       0.05937879 -0.12478472 -0.30926022 -0.12997943
000160 c9 da 41 be 1c ca 91 3e 31 38 d2 3c 18 34 99 3e
       -0.18931116 0.2847451 0.02566156 0.29922557
000170 d1 30 95 bc 51 c3 00 be b9 c2 71 be b0 b8 2f be
       -0.018211754 -0.12574507 -0.23609437 -0.17160296
000180 2d c9 2e be ae 01 d9 bd ae ce b5 be e3 55 b7 bd
       -0.1706893 -0.105960235 -0.35509247 -0.089519285
000190 99 81 0b bf 8c 5d 03 bf 53 6b 10 bf 3c 16 fa be
       -0.54494625 -0.51314616 -0.56413764 -0.48845088
0001a0 61 c0 fb be 40 ef a2 be 93 a8 08 3d 5c e0 f0 bd
       -0.4917021 -0.31823158 0.03336389 -0.11761543
0001b0 e1 43 cf bd 4b 36 f3 be 21 69 c7 be 54 91 00 bf
       -0.10120369 -0.4750236 -0.38947394 -0.50221753
0001c0 51 0f 8a be 8a 85 93 be 22 ad 1c 3c 7f 6c 87 be
       -0.2696481 -0.2881282 0.009562762 -0.26449963
0001d0 37 dd 21 be d5 c9 f7 bd 3f 9c 17 bf f9 a7 f1 be
       -0.15807043 -0.12099043 -0.5922279 -0.47198465
0001e0 09 54 06 bf 52 e6 c2 be 43 81 96 be cb ac 0b be
       -0.5247198 -0.38066345 -0.29395494 -0.13640134
0001f0 3e 4d 81 be 6f fb 2b bd c0 1c 8e bd 5d a7 a8 be
       -0.25254244 -0.041987833 -0.069390774 -0.32940188
000200 ec e3 23 be 72 bd 5b be b6 21 f4 be 89 49 00 bf
       -0.16004914 -0.21458986 -0.4768197 -0.50112206
000210 81 7a 6d be f3 fb 0b bb d2 21 4b 3e bb f7 7b bd
       -0.23191263 -0.002135989 0.1983712 -0.06151555
000220 48 fb a7 be ea de 34 be e1 29 b2 be a2 1d 49 be
       -0.328089 -0.1766316 -0.34797576 -0.1964021
000230 b3 db c2 bd ce 2c 82 bd 60 12 4d be 15 0c f9 3c
       -0.095145606 -0.06356202 -0.20026541 0.030401269
000240 8e 7c 51 bd d1 a8 c0 be 37 e5 07 bd 33 87 71 be
       -0.051144175 -0.37628797 -0.03317758 -0.2358673
000250 52 44 ac bd 84 36 a0 be 78 3f f7 bd fa 65 a1 bd
       -0.084114686 -0.31291592 -0.120726526 -0.078807786
000260 23 02 73 3c dd c4 3c bc 4a 7e 24 be bf 07 01 be
       0.014832052 -0.011521545 -0.160638 -0.12600611
000270 fd 0e 11 bd e2 fe 62 be d5 55 c7 be 1e 51 ba be
       -0.035414685 -0.22167543 -0.38932672 -0.36390013
000280 76 b1 2a 3e 48 77 ab bd 76 8e fd 3d 38 44 2f 3d
       0.16669258 -0.083723605 0.12380688 0.042789668
000290 d8 b9 72 bd c8 80 75 be 79 5b ae be 3a 9d 14 be
       -0.059259266 -0.23974907 -0.34054163 -0.14513102
0002a0 f6 79 3c be 63 f0 54 be 95 75 87 3d 2a 1f 86 bd
       -0.184059 -0.20794825 0.06614224 -0.06548913
0002b0 bb 44 ea 3c 70 3c fc bd ef 0c 0b be 77 74 44 be
       0.028597226 -0.12316215 -0.13579153 -0.19185053
0002c0 3a 2a 7d be d8 e0 d9 be e6 f4 8b be a9 af 1b be
       -0.2472314 -0.42554355 -0.2733528 -0.15203728
0002d0 56 d1 01 be a6 fe f6 bd b1 36 dc bd 19 b5 bb be
       -0.12677512 -0.12060289 -0.10752619 -0.36661604
0002e0 d7 63 96 bd 42 31 7d be b1 4c ba be d9 ee b4 be
       -0.07343262 -0.24725822 -0.36386636 -0.35338476
0002f0 cb 03 e6 be fa 9e 8f bd 0f c3 62 be c8 84 bb be
       -0.4492477 -0.07012744 -0.22144721 -0.36624742
000300 81 15 6f be f9 e5 af be b9 6e b7 be 6b ce e1 be
       -0.23348047 -0.34355143 -0.35826662 -0.44102797
000310 87 02 98 be 45 50 73 be b3 1a 31 bc a4 85 72 be
       -0.29689428 -0.23761089 -0.010809588 -0.23683792
000320 91 d3 7e be e4 3f 16 be f5 4e 85 be 44 f2 05 bf
       -0.24885394 -0.1467281 -0.26036802 -0.52322793
000330 c4 f1 f7 be 06 d6 12 be ca bb 9a be 20 58 7a bd
       -0.4842664 -0.14339456 -0.30221397 -0.0611192
000340 4d 96 09 be a6 e4 7e be 6b 8f c8 3c 19 4f 39 be
       -0.13436241 -0.2489191 0.02448245 -0.1809658
000350 71 3b 9f be 89 3d 82 be 10 39 1d be 1a 25 e9 bd
       -0.31100038 -0.25437573 -0.15353799 -0.1138403
000360 bf 97 37 be 84 ee ca be 72 14 8a be 06 d1 85 be
       -0.1792898 -0.39635098 -0.26968724 -0.26136035
000370 19 dd d0 be 72 7f 2f be 99 0d da be bd 90 aa bc
       -0.40793684 -0.1713846 -0.425885 -0.02082097
000380 6b f4 d2 bd e4 e9 62 3e cf a5 67 be a0 93 35 be
       -0.10300525 0.22159535 -0.22621845 -0.17732096
000390 4e db 4d be 4d c1 66 be 9a 5f 81 be ff 7b 03 be
       -0.2010319 -0.22534676 -0.2526825 -0.1284027
0003a0 e5 8a d4 bc 3d 1f d4 3d 85 da 67 3e 53 94 b5 bc
       -0.025945136 0.10357521 0.22641952 -0.022165453
0003b0 e0 ab 3d 3e 8d 32 7f be 33 a8 de be bc 94 cc bd
       0.18522596 -0.24921627 -0.434877 -0.09989306
0003c0 ac 56 54 3e 29 2b 16 3e 15 3a c6 bc a2 8c 50 be
       0.20736188 0.14664902 -0.024197618 -0.20366147
0003d0 5c 5a ea 3c 46 59 17 3d 8f 6a bd 3d 85 32 0e bd
       0.02860754 0.036950372 0.0924884 -0.034716148
0003e0 a5 76 2e bd 3e 3d 1e be f9 d4 0e bf bd 17 37 be
       -0.042593617 -0.1545305 -0.5579372 -0.17880149
0003f0 f5 b4 63 be e4 f7 8f be 87 a3 13 be 55 29 9c bd
       -0.22236998 -0.28118813 -0.1441785 -0.07625071

bias f4 [5]
000000 f2 1b 53 3d e5 fc 4f 3d a8 09 64 3d 8f 09 fa 3c
       0.051540323 0.05077829 0.05567327 0.030522136
000010 72 b2 2f 3d
       0.042894788
