archived_data/b4_r0_m20_s200--2019-01-21--162345.649052/episode_53500.model (torch_old, 88994 bytes, 8 tensors)

weight f4 [6, 6, 3, 3]
-0.11788601 0.055752814 0.12028152 0.0724816 -0.12478323 0.030756071 0.049181834 -0.0826555
0.015897378 0.011662067 -0.1260313 -0.064915136 0.116354555 -0.040071905 -0.21431695 0.010447063
0.2632652 -0.035592888 -0.016251352 -0.114479184 -0.07415095 0.052372947 -0.1281333 -0.1399199
0.019851448 0.21606062 0.005193551 -0.08856422 0.07345851 0.11868355 -0.06656523 -0.05665686
-0.1326573 -0.12518477 0.07506277 -0.0050338805 0.085459314 -0.1324865 -0.14181317 -0.18600696
-0.030869905 -0.86282605 0.08216729 -0.013786081 -0.05324153 -0.1297578 0.046689913 0.020490972
-0.097428486 0.063396305 -0.24812073 0.030334009 0.22531396 0.17563525 0.015289038 -0.0955668
0.05717948 0.09993616 0.0986428 -0.10062311 0.027364999 0.03747651 0.039273933 -0.19512211
-0.28190267 -0.35044095 -0.13742658 -0.39542162 0.023222294 -0.058250736 -0.20794459 0.118424736
-0.0346947 -0.19835213 -0.043100644 0.008378614 -0.190405 -0.18276587 0.036625303 0.05054463
0.073379666 0.06966998 0.014186636 0.0325775 0.06590089 -0.11670354 0.07039657 0.008646131
-0.03650683 0.03898424 0.21500082 -0.35152277 -0.8522682 -0.14758582 0.03804215 -0.2651199
0.073209144 -0.067968756 0.111867584 -0.00042328966 -0.74807835 -0.35626242 -0.0020536182 -0.3291761
-0.08285278 -0.11527738 0.012012936 0.108588904 0.08672528 -0.02679345 0.08033781 -0.027902603
0.000523895 0.03462766 -0.0420513 0.103942975 0.059083864 -0.025483135 -0.11433325 -0.17710795
-0.17720002 -0.16233131 -0.11411124 -0.2019014 -0.123423465 -0.2598547 -0.10249819 -0.06389362
-0.08681089 -0.08284436 -0.08613453 -0.09118158 -0.038304105 -0.053759508 0.036322393 -0.12911287
0.12246859 0.052837968 -0.061767302 -0.07287089 0.05350721 0.03160253 -0.119609386 0.12820128
0.3907116 -0.045028053 0.010475742 0.34958413 0.38483098 0.32572606 0.10069317 -0.051439114
0.39143363 0.0808168 -0.21772262 -0.19252339 -0.21257183 -0.14960381 -0.08714213 0.030332373
-0.17172687 -0.0721876 -0.09942071 0.06713343 -0.066117644 0.025936127 0.0817332 -0.13152887
-0.008453801 -0.12193024 0.020975098 0.06512932 -0.0072915903 0.11406142 -0.002792573 -0.0027195292
-0.09206863 0.04909814 0.010266154 0.037077952 0.07871005 0.12435331 0.15964434 0.056863725
0.044229846 0.061570518 0.11533558 0.25245243 0.1569472 0.02795577 0.13030905 0.09604229
-0.1360379 0.12883696 -0.1051663 0.03469619 0.013033122 0.08012338 -0.105000734 -0.106397055
-0.004516185 -0.051216576 -0.7408239 -0.06348731 -0.2850514 -0.66667753 -1.1661315 -0.010401289
0.041792292 0.07736343 -0.04145091 -0.025647886 -0.09979531 -0.022175785 0.01162326 0.07404161
-0.022180617 -0.037355796 -0.04189472 -0.073811114 -0.010133207 0.04178068 -0.032838993 0.03418319
-0.107825056 -0.05018225 -0.1440919 -0.22750822 0.031203851 -0.14792824 -0.3103208 -0.08470632
-0.13079442 -0.044248234 -0.03345076 -0.13485952 -0.041058645 -0.06183359 -0.11971632 -0.042430155
-0.038183875 -0.06355953 5.176826e-05 0.07564744 0.056607306 0.13428533 -0.0763569 0.111329585
0.12950963 0.10745691 -0.015292868 0.0826073 0.29082265 0.48384172 0.47740826 0.050591305
00000000: 386e f1bd 105d 643d 2856 f63d 3c71 943d
00000010: 5a8e ffbd 28f4 fb3c e472 493d 4947 a9bd
00000020: 383b 823c 4112 3f3c 590e 01be 3af2 84bd
00000030: 4c4b ee3d 7022 24bd e775 5bbe 282a 2b3c
00000040: b2ca 863e d9c9 11bd 8e21 85bc 1074 eabd
00000050: 74dc 97bd 0485 563d 6035 03be 2a47 0fbe
00000060: 819f a23c ff3e 5d3e aa2e aa3b 2861 b5bd
00000070: 6a71 963d 5c10 f33d 5a53 88bd 0611 68bd
00000080: 51d7 07be 7030 00be 82ba 993d 40f3 a4bb
00000090: 4b05 af3d 8baa 07be 7937 11be 9c78 3ebe
000000a0: e2e2 fcbc 2be2 5cbf 5347 a83d 04df 61bc
000000b0: ca13 5abd 3bdf 04be ec3d 3f3d afdc a73c
000000c0: 9688 c7bd ecd5 813d 5c13 7ebe 077f f83c
000000d0: b4b8 663e bad9 333e e07e 7a3c 87b8 c3bd
000000e0: 0835 6a3d 54ab cc3d 3c05 ca3d 7d13 cebd
000000f0: 902c e03c f880 193d b4dd 203d 17ce 47be
00000100: 8c55 90be ff6c b3be 8eb9 0cbe b474 cabe
00000110: ae3c be3c 5398 6ebd 6def 54be ab88 f23d
00000120: 081c 0ebd d21c 4bbe 4d8a 30bd 7446 093c
00000130: 87f9 42be fa26 3bbe 6a04 163d e307 4f3d
00000140: 1448 963d 22af 8e3d 106f 683c fc6f 053d
00000150: 0cf7 863d 4402 efbd 142c 903d 80a8 0d3c
00000160: 3088 15bd f0ad 1f3d 2d29 5c3e cbfa b3be
00000170: 402e 5abf bd20 17be 16d2 1b3d ccbd 87be
00000180: adee 953d 3433 8bbd d51a e53d faec ddb9
00000190: 1082 3fbf 0768 b6be ff95 06bb c589 a8be
000001a0: b8ae a9bd 8c16 ecbd e8d1 443c dc63 de3d
000001b0: 069d b13d f07d dbbc 2688 a43d 0094 e4bc
000001c0: 0056 093a bcd5 0d3d fc3d 2cbd 0ee0 d43d
000001d0: ec01 723d 02c2 d0bc 8d27 eabd c95b 35be
000001e0: ec73 35be 2e3a 26be 27b3 e9bd 3ebf 4ebe
000001f0: 71c5 fcbd ad0b 85be 92ea d1bd a9da 82bd
00000200: e8c9 b1bd 4eaa a9bd 4d67 b0bd 69bd babd
00000210: c4e4 1cbd ee32 5cbd cac6 143d 2a36 04be
00000220: d0d0 fa3d a06c 583d b6ff 7cbd 553d 95bd
00000230: 602a 5b3d a871 013d c4f5 f4bd 3247 033e
00000240: 5a0b c83e 566f 38bd 72a2 2b3c b1fc b23e
00000250: 9108 c53e 91c5 a63e 3938 ce3d d2b1 52bd
00000260: fd69 c83e 4783 a53d aef2 5ebe da24 45be
00000270: 6eac 59be be31 19be 9377 b2bd 997b f83c
00000280: 2bd9 2fbe 18d7 93bd 169d cbbd 407d 893d
00000290: b068 87bd 0078 d43c bc63 a73d 81af 06be
000002a0: d081 0abc 90b6 f9bd f8d3 ab3c 8562 853d
000002b0: 4bee eebb 0999 e93d 9a03 37bb 213a 32bb
000002c0: 7a8e bcbd 221b 493d 5f33 283c 0ddf 173d
000002d0: bc32 a13d f3ac fe3d ce79 233e f0e9 683d
000002e0: 5b2a 353d 5e31 7c3d 1035 ec3d 7241 813e
000002f0: c4b6 203e 8003 e53c bc6f 053e d2b1 c43d
00000300: 854d 0bbe d6ed 033e 6e61 d7bd 981d 0e3d
00000310: e088 553c ba17 a43d a00a d7bd b3e6 d9bd
00000320: 81fc 93bb 79c8 51bd a3a6 3dbf a305 82bd
00000330: 42f2 91be 61ab 2abf cc43 95bf 2b6a 2abc
00000340: 652e 2b3d b870 9e3d 6ec8 29bd 841b d2bc
00000350: 7c61 ccbd fea9 b5bc 7c6f 3e3c 21a3 973d
00000360: 20b4 b5bc 6402 19bd cc99 2bbd 482a 97bd
00000370: c005 26bc 3822 2b3d 2e82 06bd ac03 0c3d
00000380: 62d3 dcbd e78b 4dbd d48c 13be eaf7 68be
00000390: 389f ff3c 807a 17be 5ee2 9ebe 827a adbd
000003a0: f9ee 05be a33d 35bd aa03 09bd 9d18 0abe
000003b0: 1c2d 28bd 3845 7dbd d42d f5bd 3ecb 2dbd
000003c0: b266 1cbd 802b 82bd bf21 5938 0ced 9a3d
000003d0: 10dd 673d 1882 093e 0261 9cbd c400 e43d
000003e0: 2c9e 043e 5e12 dc3d f08e 7abc 042e a93d
000003f0: b5e6 943e 1aba f73e db6e f43e d438 4f3d

bias f4 [6]
-0.5968663 -0.5782058 -0.5034455 -0.50533646 -0.5196083 -0.40232298
00000000: 3bcc 18bf 4c05 14bf cee1 00bf bb5d 01bf
00000010: 0d05 05bf 47fd cdbe

weight f4 [16, 6, 3, 3]
-0.3254786 -0.3821608 0.034391187 -0.16949041 0.054836087 0.2942269 -0.25426453 -0.11788008
-0.1299936 -0.101660565 0.055515803 -0.062403582 0.1717333 -0.48384032 0.027158529 -0.4353708
0.15335275 0.31805727 -0.21274091 -0.2687902 0.058495037 0.048291635 -0.09092544 0.2250606
-0.5471043 0.32230416 0.4352413 0.2609981 -0.028790751 0.13624834 -0.21246104 0.16556735
0.49852717 0.007781292 0.1988363 0.17843747 -0.49596775 -0.09888807 0.0548771 -0.6274075
-0.3692071 -1.01178 -0.09587565 -0.4744313 0.3576339 0.073258474 0.046485253 -0.057814483
-0.3254817 0.13575114 -0.03247293 -0.006285546 0.06717943 0.103990674 0.13805406 -0.10992913
0.3252512 -0.0837613 0.11310705 -0.013850405 0.0759917 -0.040906258 0.031507585 -0.90850943
-0.0037831063 0.049537156 -0.5716746 -0.112437256 -0.24547152 -0.045163073 0.100046635 -0.15292764
0.10836788 0.39507967 -0.0423064 0.102319136 0.21864907 0.19897985 -0.08293694 0.08503384
-0.44538438 -0.03791812 -0.07711469 -0.06806529 0.06315449 -0.24715385 -0.66945684 0.0037050215
-0.09943077 -0.5651048 -0.14150223 -0.44550598 0.3126247 -0.29734084 -1.0711669 -0.5303163
-0.3879774 -0.5526265 -0.19230229 0.06342222 -0.20994197 -0.18102872 -0.09152842 0.022239797
-0.31518745 0.0021530443 -0.027186418 -0.009653419 0.16497992 -0.13069971 -0.14552687 0.094051346
-0.030397283 -0.5336817 -0.30944982 -0.21961081 -0.22690299 -0.33165708 -0.013425182 0.20273462
-0.044919368 -0.013906763 -0.68827486 0.06616824 -0.054529984 -0.2038787 -0.026419528 0.16254859
-0.35149315 -0.040422395 0.27932262 -0.14762154 -0.087242626 -0.13044809 -0.03896758 -0.32577527
-0.028990805 -0.25661567 -0.77114254 0.26937792 -0.106353335 -0.06835411 -0.0589671 -0.29031265
0.19508703 0.005661543 0.05058738 -0.10760835 0.036144484 -0.10861646 -0.13559125 -0.18459979
0.04579478 -0.13998488 -0.2357199 -0.2233301 -0.6539679 -0.11897378 -0.00025861355 -0.0019093507
8.339526e-05 -0.06119681 0.27483055 -0.083000086 0.34125173 -0.09219324 -0.31308973 -0.15911677
0.045212388 0.15228672 0.3128682 -0.4242092 -0.4862438 -0.2537063 -0.31596196 -0.17602915
0.19752777 -0.2976113 -0.2590518 -0.38242504 -0.17314927 0.069856554 0.008768225 -0.20745803
-0.25378147 0.015279147 0.11757826 0.21628624 0.008524836 -0.2626889 -0.49771538 -0.8003933
0.3864896 0.018826319 -0.34390882 0.23710492 -0.47117627 -0.32385027 -0.20245017 -0.10857545
-0.3905355 0.06907279 0.13534921 -0.3477851 -0.83148736 0.079982705 0.2977416 0.028057024
-0.00154945 0.42983413 -0.15486838 0.03717763 -0.16828713 -0.11973533 0.38583884 0.24687383
0.15152209 0.16883054 -0.36931098 -0.21309707 0.10586186 -0.077694096 -0.27346832 -0.44642976
-0.45096308 -0.20156975 -0.70001376 -0.6129622 -0.689589 -0.46803418 -0.7121993 0.121342786
-1.2644613 0.12490972 -0.61949533 -0.50462085 0.27909192 -0.015397627 -0.08894053 0.063948765
-0.49002582 0.35539222 -0.29568315 0.030072633 -0.39504072 -1.2110797 -0.14468561 -0.35060465
0.05838991 0.10783128 0.01003512 0.03554282 0.19485576 -0.32769486 0.1726754 -0.98095477
00000000: 22a5 a6be 95aa c3be c6dd 0c3d e58e 2dbe
00000010: ce9b 603d e9a4 963e f62e 82be 1d6b f1bd
00000020: 0b1d 05be 6a33 d0bd 8a64 633d e69a 7fbd
00000030: dbda 2f3e ebb9 f7be 907b de3c ece8 debe
00000040: 8108 1d3e 67d8 a23e c1d8 59be de9e 89be
00000050: 7e98 6f3d 73cd 453d 1e37 babd 4976 663e
00000060: 070f 0cbf 0d05 a53e f3d7 de3e 8ba1 853e
00000070: 95da ebbc af84 0b3e 638f 59be 7d8a 293e
00000080: f43e ff3e 35fa fe3b be9b 4b3e 50b8 363e
00000090: 7cef fdbe d485 cabd cfc6 603d c79d 20bf
000000a0: b708 bdbe 0282 81bf 745a c4bd a9e8 f2be
000000b0: ca1b b73e 8a08 963d 5267 3e3d e1ce 6cbd
000000c0: 8aa5 a6be 5902 0b3e 5602 05bd fbf6 cdbb
000000d0: 5e95 893d 10f9 d43d 0b5e 0d3e 8622 e1bd
000000e0: 5387 a63e 0b8b abbd aba4 e73d cfec 62bc
000000f0: 89a1 9b3d 528d 27bd 190e 013d 1394 68bf
00000100: feed 77bb 79e7 4a3d 4459 12bf 8145 e6bd
00000110: e35c 7bbe eafc 38bd 40e5 cc3d 1099 1cbe
00000120: fbef dd3d e247 ca3e 7a49 2dbd b28c d13d
00000130: 8be5 5f3e 60c1 4b3e d8da a9bd 3926 ae3d
00000140: 6c09 e4be 0850 1bbd 4eee 9dbd d165 8bbd
00000150: 2457 813d e615 7dbe 8661 2bbf f2cf 723b
00000160: 5ca2 cbbd b5aa 10bf f6e5 10be 5c19 e4be
00000170: 5810 a03e 0f3d 98be ff1b 89bf cfc2 07bf
00000180: f9a4 c6be ee78 0dbf e4ea 44be 82e3 813d
00000190: 07fb 56be 985f 39be 4173 bbbd 3c30 b63c
000001a0: 4060 a1be 171a 0d3b 0db6 debc 6029 1ebc
000001b0: 7ff0 283e 25d6 05be ff04 15be fe9d c03d
000001c0: b903 f9bc 5d9f 08bf 3570 9ebe a8e1 60be
000001d0: 4259 68be f5ce a9be 4bf5 5bbc aa99 4f3e
000001e0: 5ffd 37bd 31d9 63bc c832 30bf 3783 873d
000001f0: d55a 5fbd 94c5 50be c46d d8bc 2373 263e
00000200: e9f6 b3be f491 25bd 6003 8f3e 1a2a 17be
00000210: 43ac b2bd 2f94 05be 789c 1fbd 04cc a6be
00000220: 207e edbc 2163 83be 9969 45bf e7eb 893e
00000230: c7cf d9bd 3dfd 8bbd 7c87 71bd dca3 94be
00000240: e5c4 473e 7784 b93b b634 4f3d c461 dcbd
00000250: 3d0c 143d 4e72 debd 6fd8 0abe ba07 3dbe
00000260: 4f93 3b3d 3258 0fbe 8f60 71be a5b0 64be
00000270: 716a 27bf 86a8 f3bd 8696 87b9 2e43 faba
00000280: 7de4 ae38 82a9 7abd 97b6 8c3e f3fb a9bd
00000290: 8cb8 ae3e cfcf bcbd 4c4d a0be 82ef 22be
000002a0: a030 393d 0df1 1b3e 4330 a03e f331 d9be
000002b0: f3f4 f8be cbe5 81be c4c5 a1be fc40 34be
000002c0: b844 4a3e 8260 98be 70a2 84be 37cd c3be
000002d0: 0b4e 31be f410 8f3d 9aa8 0f3c e16f 54be
000002e0: a5ef 81be 6355 7a3c dfcc f03d 247a 5d3e
000002f0: c1ab 0b3c 297f 86be 8dd4 febe 93e6 4cbf
00000300: f7e1 c53e a739 9a3c d114 b0be a2cb 723e
00000310: 043e f1be b4cf a5be 194f 4fbe ce5c debd
00000320: 45f4 c7be 0976 8d3d fc98 0a3e e310 b2be
00000330: 5bdc 54bf f9cd a33d 9671 983e d8d7 e53c
00000340: ea16 cbba 3813 dc3e d195 1ebe 9247 183d
00000350: 7653 2cbe cc37 f5bd ab8c c53e 7ecc 7c3e
00000360: 9b28 1b3e eae1 2c3e 5416 bdbe 1e36 5abe
00000370: 1ace d83d 151e 9fbd 0a04 8cbe 7192 e4be
00000380: a2e4 e6be 4d68 4ebe 1a34 33bf 17eb 1cbf
00000390: e888 30bf 2da2 efbe b152 36bf 9182 f83d
000003a0: ded9 a1bf abd0 ff3d 3f97 1ebf d52e 01bf
000003b0: 23e5 8e3e 5446 7cbc 7426 b6bd 92f7 823d
000003c0: aae4 fabe f8f5 b53e c863 97be e25a f63c
000003d0: c742 cabe a904 9bbf 7728 14be 7482 b3be
000003e0: 422a 6f3d a5d6 dc3d 586a 243c 5995 113d
000003f0: 4588 473e 9fc7 a7be d2d1 303e da1f 7bbf

bias f4 [16]
-0.10663771 -0.25669482 -0.21420015 -0.13227437 -0.15128589 -0.08405328 -0.26291767 -0.31864557
-0.3007802 -0.1192012 -0.04712333 0.023929358 -0.42453083 -0.21153027 -0.23365253 0.0026100765
00000000: df64 dabd 816d 83be 4957 5bbe ef72 07be
00000010: b0ea 1abe 2024 acbd 259d 86be 8325 a3be
00000020: ddff 99be c21f f4bd 6504 41bd 8007 c43c
00000030: 1b5c d9be 649b 58be 9c42 6fbe d10d 2b3b

weight f4 [32, 16, 3, 3]
-0.14562434 -0.24245347 -0.31527844 0.11010609 -0.19537234 -0.443752 -0.49483135 0.037047844
-0.045845725 0.002891028 -0.46362492 -0.1915559 0.27400157 -0.19712219 0.048813842 -0.112107694
-0.12979618 -0.07572659 -0.49878278 -0.12733668 -0.35336104 -0.07082385 -0.3550795 -0.23856628
-0.44824246 -0.6371893 -0.12740593 -0.2675476 -0.16988748 0.068142004 0.04263595 -0.051856253
-0.012237072 -0.19261117 -0.46574366 -0.80454373 0.43038276 -0.5510205 -0.292617 0.21056032
0.06640589 -0.35487705 0.021788275 -0.1662849 -0.84210855 -0.13281661 0.48184282 0.2319868
0.04359918 0.22984765 -0.17385313 -0.24518873 -0.09691897 -0.38157496 -0.4932464 0.06868439
-0.24326572 -0.29171965 0.07135486 -0.09765635 -0.09383989 -0.43305483 0.46771243 -0.25208142
-0.04419667 -0.081578664 -0.2557982 -0.21897805 -0.21036628 -0.0017700391 -1.1732442 -0.2289843
-0.27399585 -0.071029976 0.13369058 -0.18319035 -0.04464771 -0.19746241 -0.024514014 -0.19026549
0.003290875 -0.28758776 -0.08407822 0.24753366 -0.079260156 -0.26016924 -0.12784325 0.28377408
0.011943606 0.2500427 0.068162136 -0.035301987 -0.12712869 0.029300688 0.4326976 -0.52819365
-0.02038889 -0.114291914 0.25422668 -0.48595858 -0.4118337 -0.23802471 0.07853888 0.09780755
0.18083721 -0.52752316 -0.046195023 -0.0470501 -0.717199 -0.40790647 -0.23270029 -0.5936078
-0.6602788 -0.6417358 -0.34558433 -0.34444168 -0.46138006 0.21047595 0.15493657 -0.2298777
-0.6122393 0.16722278 0.11718715 -0.0482979 0.030117046 0.4092024 -0.28338513 -0.008347075
-0.012144003 -0.6457643 -0.30463386 0.056856208 -0.12521857 -0.2792146 -0.32476678 -0.07938528
0.33145025 -0.51947856 -0.11055246 0.028518543 -0.06136812 -0.1773504 -0.11017735 0.510274
0.30484167 -0.42189887 0.29837042 0.47339392 0.19492649 0.1543661 -0.5638952 0.053279027
-0.27661103 0.1621321 0.5448734 -0.17249198 0.0710329 0.33290792 0.53513384 -0.3468036
-0.39204594 -0.49689952 -0.5936886 -0.21012211 0.21920633 -0.35464433 0.104051724 -0.008897988
-0.18181038 -0.637096 -0.011590301 -0.14554754 -0.492288 -0.72088623 -0.52941406 -0.41038245
-0.16129671 -0.91177106 0.07117393 -0.660277 -0.47560677 -0.02500813 -0.44118178 0.23090655
-0.020122344 0.17631619 -0.5813441 -0.4067185 -0.53509814 -0.102828145 0.35286593 -0.1310135
0.18447408 -0.016168036 -0.25732756 -0.16194163 -0.12752536 -0.28628358 -0.34947017 -0.848566
0.05014818 -0.186281 0.3135975 0.037592962 -0.38157827 -0.54581517 0.1446355 0.2811764
0.17384662 0.4084278 -0.11017522 0.21556716 0.027994044 -0.49361172 -0.5389163 -0.14277555
-0.30563107 -0.15591179 -0.56351304 -0.2140451 0.100829124 -0.32804012 -0.5522202 -0.19604538
-0.058569692 -0.24606977 -0.26166567 -0.481903 0.13990669 -0.14548779 -0.38255778 -0.5026685
-0.16549599 -0.097480714 0.066605285 -0.19776063 0.10887446 -0.13354553 0.2290285 0.43512383
-0.1081225 -0.50371283 -0.14836593 -0.03291019 -0.19885734 -0.76143867 -0.4052179 -0.65166587
-0.4949291 0.075112276 -0.19310945 0.085745655 -0.44020548 -0.0846073 0.02591612 -0.620396
00000000: 8c1e 15be b945 78be 2d6c a1be 4d7f e13d
00000010: b00f 48be 7633 e3be 895a fdbe 7bbf 173d
00000020: bac8 3bbd 6777 3d3b 3f60 edbe 3b27 44be
00000030: ef49 8c3e 66da 49be 06f1 473d b898 e5bd
00000040: 4ae9 04be 8b16 9bbd 7560 ffbe 8c64 02be
00000050: bdeb b4be 180c 91bd fbcc b5be b84a 74be
00000060: 0980 e5be d71e 23bf b376 02be 00fc 88be
00000070: fcf6 2dbe 098e 8b3d 09a3 2e3d 3967 54bd
00000080: 007e 48bc dd3b 45be f475 eebe 94f6 4dbf
00000090: 215b dc3e ae0f 0dbf e5d1 95be 209d 573e
000000a0: d0ff 873d 72b2 b5be 537d b23c 9746 2abe
000000b0: 6d94 57bf 1401 08be 1ab4 f63e f38d 6d3e
000000c0: 0e95 323d 2f5d 6b3e 8e06 32be c112 7bbe
000000d0: 747d c6bd cb5d c3be cb8a fcbe 67aa 8c3d
000000e0: a61a 79be 475c 95be 7f22 923d 0d00 c8bd
000000f0: 212f c0bd 5db9 ddbe 0178 ef3e d110 81be
00000100: 9107 35bd b712 a7bd fbf7 82be c83b 60be
00000110: 426a 57be a800 e8ba de2c 96bf dc7a 6abe
00000120: 2f49 8cbe 2a78 91bd 2fe6 083e 4096 3bbe
00000130: 84e0 36bd 9633 4abe 9dd1 c8bc f5d4 42be
00000140: b9ab 573b b43e 93be 3431 acbd 7779 7d3e
00000150: 2653 a2bd e734 85be 57e9 02be d64a 913e
00000160: 1daf 433c 9905 803e 9798 8b3d d198 10bd
00000170: 062e 02be ff07 f03c 8a8a dd3e b337 07bf
00000180: 9a06 a7bc e111 eabd 002a 823e 90cf f8be
00000190: dedb d2be c0bc 73be fed8 a03d 534f c83d
000001a0: 642d 393e c20b 07bf fe36 3dbd 9bb7 40bd
000001b0: 5b9a 37bf 1ed9 d0be fc48 6ebe aef6 17bf
000001c0: 0808 29bf cc48 24bf 6ef0 b0be a95a b0be
000001d0: 023a ecbe 0287 573e b1a7 1e3e 0f65 6bbe
000001e0: b7bb 1cbf 733c 2b3e d1ff ef3d 05d4 45bd
000001f0: 06b8 f63c fa82 d13e db17 91be 2cc2 08bc
00000200: a4f7 46bc cf50 25bf f8f8 9bbe 0ee2 683d
00000210: 4c39 00be 37f5 8ebe d547 a6be c094 a2bd
00000220: d9b3 a93e 8cfc 04bf 5469 e2bd b89f e93c
00000230: 235d 7bbd 589b 35be aaa4 e1bd 51a1 023f
00000240: 3514 9c3e 2103 d8be 02c4 983e b060 f23e
00000250: cf9a 473e 2612 1e3e 705b 10bf 1c3b 5a3d
00000260: f69f 8dbe f505 263e d37c 0b3f bda1 30be
00000270: b279 913d e872 aa3e 88fe 083f 3e90 b1be
00000280: 3fba c8be 9d69 febe fafb 17bf 402a 57be
00000290: a077 603e f193 b5be 1219 d53d dec8 11bc
000002a0: 802c 3abe b918 23bf 3fe5 3dbc 6a0a 15be
000002b0: 2c0d fcbe 008c 38bf ae87 07bf a61d d2be
000002c0: f72a 25be d469 69bf a3c3 913d ea07 29bf
000002d0: bb82 f3be dadd ccbc 94e2 e1be c472 6c3e
000002e0: 9dd7 a4bc 3b8c 343e f8d2 14bf 683d d0be
000002f0: 31fc 08bf 9097 d2bd d8aa b43e 6728 06be
00000300: c6e6 3c3e d472 84bc 70c0 83be 07d4 25be
00000310: 0296 02be c393 92be c1ed b2be 9f3b 59bf
00000320: 2e68 4d3d 72c0 3ebe da8f a03e 14fb 193d
00000330: 3a5e c3be 8bba 0bbf 541b 143e 5af6 8f3e
00000340: d904 323e 731d d13e 8ca3 e1bd a3bd 5c3e
00000350: c453 e53c adba fcbe 6bf6 09bf c133 12be
00000360: ad7b 9cbe 57a7 1fbe 6442 10bf a42e 5bbe
00000370: 807f ce3d e0f4 a7be 4e5e 0dbf 1fc0 48be
00000380: c6e6 6fbd b7f9 7bbe 0bf9 85be fdbb f6be
00000390: b343 0f3e c0fa 14be 9dde c3be e2ae 00bf
000003a0: c877 29be f8a3 c7bd 5a68 883d c381 4abe
000003b0: 93f9 de3d 29c0 08be 7286 6a3e 8dc8 de3e
000003c0: 546f ddbd 53f3 00bf 3ded 17be d6cc 06bd
000003d0: 42a1 4bbe a5ed 42bf b878 cfbe 93d3 26bf
000003e0: 5967 fdbe 77d4 993d 7cbe 45be 6b9b af3d
000003f0: 9d62 e1be 9846 adbd 0b4e d43c 46d2 1ebf

bias f4 [32]
-0.2426466 -0.23599578 -0.19515488 0.01593247 -0.089047 -0.092357844 0.020435411 -0.2925275
-0.14348862 -0.26759717 -0.124231845 -0.018017331 -0.115335315 -0.25777894 -0.17311215 -0.048264448
-0.14272864 -0.0794948 -0.12977064 -0.16021071 -0.18471351 -0.14480098 -0.072087325 -0.016570732
-0.114463665 -0.028248666 -0.16944215 -0.29656008 -0.07933219 -0.02291661 -0.23313637 -0.21444918
00000000: 5a78 78be e1a8 71be aed6 47be d084 823c
00000010: 465e b6bd 1c26 bdbd 2a68 a73c 2ac6 95be
00000020: aeee 12be 7f02 89be 446d febd 1599 93bc
00000030: ec34 ecbd 9afb 83be 5044 31be f1b0 45bd
00000040: 7527 12be 2bce a2bd 98e2 04be 470e 24be
00000050: 8a25 3dbe b546 14be 85a2 93bd 58bf 87bc
00000060: ed6b eabd bf69 e7bc 3e82 2dbe b9d6 97be
00000070: ea78 a2bd 9dbb bbbc 4dbb 6ebe 9198 5bbe

weight f4 [5, 2592]
-0.09060358 -0.23884585 -0.3963666 -0.51152414 0.10695489 -0.14974588 -0.3043742 -0.35289967
-0.080622576 -0.2227233 -0.25927377 -0.235157 -0.4285609 -0.24204461 -0.50058717 -0.09760492
-0.4100048 -0.16955838 0.00661355 -0.4359578 -0.45228082 -0.51790726 -0.45337808 -0.40163007
-0.33643568 -0.26284096 -0.27832645 -0.34678227 -0.5468832 -0.70619607 -0.66564894 -0.60925704
-0.54036796 -0.45103216 -0.30386195 -0.08633554 -0.045912404 -0.6332527 -0.551278 -0.4980726
-0.55896187 -0.40239146 -0.38698986 -0.5517802 -0.284839 -0.6029649 -0.36568102 -0.7765549
-0.7212547 -0.460471 -0.8813385 -0.2610889 -0.3811934 0.011501355 -0.20568009 -0.46345177
-0.42746246 -0.71590465 -0.3671087 -0.7422632 -0.39363572 -0.39818925 -0.36595327 -0.15224619
-0.43701237 -0.18959104 -0.3407255 -0.34981295 -0.14522515 -0.32327476 -0.38286245 0.05376896
-0.15794563 -0.45204702 -0.45588836 -0.6548029 -0.20648062 0.123438336 -0.1744197 -0.4675817
0.06760652 -0.06349574 -0.07865538 -0.40509754 -0.3137071 0.02073994 -0.30084482 -0.40393677
-0.3658756 0.16879652 -0.14798963 -0.10075596 -0.522652 -0.42028007 -0.43330783 -0.33816895
-0.12783328 -0.3388359 -0.26951438 0.1278481 -0.39004976 -0.5933671 -0.6853853 -0.41704616
-0.5164574 -0.31656438 -0.11739067 0.0362261 -0.0007937023 -0.055341873 -0.52410257 -0.50423396
-0.24100754 -0.54933137 -0.14931378 0.19088832 -0.03648106 0.15436229 -0.41464812 -0.6374751
-0.74921197 -0.57404864 -0.5775887 -0.22903265 -0.27802312 0.050988514 -0.40658468 -0.1417803
-0.3047988 -0.44480217 -0.5736625 -0.43596238 0.05421922 0.23089738 -0.25705308 -0.22628708
-0.62414896 -0.41877908 -0.5535313 -0.55986357 -0.50607747 -0.31365734 -0.29066622 -0.08185263
-0.10546791 -0.21525742 -0.30724233 -0.4428464 -0.46895468 -0.45023558 -0.14003351 -0.07482737
0.13348357 -0.2518745 -0.24642272 -0.029146282 -0.042119253 -0.45180073 -0.509231 -0.55354667
-0.036241326 -0.4066729 0.083171554 0.093250714 -0.5022177 -0.5072584 -0.3765336 -0.40078962
-0.2861005 -0.17584613 -0.27447262 -0.39461905 -0.06743566 -0.12897797 -0.42327538 -0.37300274
-0.3190504 -0.16860108 -0.26976094 0.056517545 -0.10242518 -0.28958616 -0.21348257 -0.2591016
-0.3605834 -0.3884376 -0.46293092 -0.31560278 -0.42081267 -0.12271637 -0.24527347 -0.17655104
-0.7112619 -0.6170178 -0.5584812 -0.38272685 -0.5550148 -0.17915933 -0.440982 -0.23094702
-0.20903958 -0.5837362 -0.85100114 -0.6144584 -0.7096833 -0.1706798 -0.37066543 -0.09478436
-0.15556143 -0.2365 -0.2834722 -0.6409685 -0.48009923 -0.28617287 0.027465606 -0.18189083
-0.11362652 0.054207116 -0.22572346 -0.5595559 -0.6696501 -0.84960073 -0.5045444 -0.47627985
-0.44810915 0.20113261 0.12421986 0.115321875 -0.33795375 -0.49092075 -0.075106435 -0.21315584
-0.16407979 -0.27523232 0.037540756 0.31369933 0.4545408 0.017367562 -0.47009447 -0.4330811
0.0492023 -0.09320062 -0.06330958 -0.18073896 -0.01783641 -0.22543134 -0.09998052 -0.09022336
0.13431771 -0.19117093 -0.38173002 -0.3462333 -0.2802448 -0.23644376 -0.14957315 -0.09367151
00000000: 5f8e b9bd 0294 74be 90f0 cabe 3ff3 02bf
00000010: 2a0b db3d fc56 19be efd6 9bbe 44af b4be
00000020: 731d a5bd 9411 64be 88bf 84be ffcc 70be
00000030: 566c dbbe 8bda 77be 7b26 00bf 17e5 c7bd
00000040: 26ec d1be b6a0 2dbe 7ab6 d83b dc35 dfbe
00000050: 5a91 e7be 9295 04bf 2c21 e8be 75a2 cdbe
00000060: 4c41 acbe 1793 86be ce80 8ebe 728d b1be
00000070: 8a00 0cbf 44c9 34bf f867 2abf 45f8 1bbf
00000080: 8e55 0abf b0ed e6be cb93 9bbe b0d0 b0bd
00000090: a50e 3cbd d91c 22bf 8e20 0dbf 5f03 ffbe
000000a0: 2018 0fbf 4106 cebe 8923 c6be 7841 0dbf
000000b0: 6bd6 91be e85b 1abf 8b3a bbbe 4dcc 46bf
000000c0: 26a4 38bf dbc2 ebbe 669f 61bf 72ad 85be
000000d0: c82b c3be 2e70 3c3c cd9d 52be 8d49 edbe
000000e0: 5cdc dabe 8745 37bf acf5 bbbe f604 3ebf
000000f0: 9f8a c9be 76df cbbe 3a5e bbbe 6de6 1bbe
00000100: 16c0 dfbe 2724 42be 9373 aebe af1a b3be
00000110: e7b5 14be 4584 a5be 8c06 c4be d73c 5c3d
00000120: 80bc 21be b572 e7be 336a e9be 2aa1 27bf
00000130: a86f 53be 3dcd fc3d 149b 32be de66 efbe
00000140: 4a75 8a3d 0e0a 82bd 1216 a1bd f268 cfbe
00000150: 389e a0be cfe6 a93c 5508 9abe cdd0 cebe
00000160: 0c54 bbbe ffd8 2c3e 988a 17be 2459 cebd
00000170: 85cc 05bf f32e d7be 86da ddbe 7b24 adbe
00000180: bae6 02be e67b adbe cafd 89be 9dea 023e
00000190: 9ab4 c7be e8e6 17bf 6975 2fbf 1387 d5be
000001a0: 8d36 04bf ba14 a2be 856a f0bd d261 143d
000001b0: 7610 50ba 29ae 62bd 962b 06bf 7a15 01bf
000001c0: aeca 76be fba0 0cbf b6e5 18be 3a78 433e
000001d0: 2a6d 15bd 2611 1e3e c24c d4be 9131 23bf
000001e0: 5bcc 3fbf daf4 12bf dadc 13bf 8987 6abe
000001f0: 0c59 8ebe 55d9 503d de2b d0be db2e 11be
00000200: 970e 9cbe 1cbd e3be 8cdb 12bf 7636 dfbe
00000210: f914 5e3d 5d70 6c3e 769c 83be cdb7 67be
00000220: 3ac8 1fbf 366a d6be 3ab4 0dbf 3853 0fbf
00000230: 4b8e 01bf b297 a0be 34d2 94be 5aa2 a7bd
00000240: 8fff d7bd 716c 5cbe de4e 9dbe c3bc e2be
00000250: d41a f0be 4785 e6be f264 0fbe 183f 99bd
00000260: ebaf 083e b2f5 80be 3d56 7cbe 2fc4 eebc
00000270: 3d85 2cbd 6d52 e7be f65c 02bf 3cb5 0dbf
00000280: c971 14bd 6e37 d0be d955 aa3d 3bfa be3d
00000290: 5791 00bf b0db 01bf 03c9 c0be 4c34 cdbe
000002a0: c47b 92be 0211 34be ad87 8cbe 820b cabe
000002b0: b51b 8abd cd12 04be 8db7 d8be 37fa bebe
000002c0: 935a a3be c3a5 2cbe 1b1e 8abe f17e 673d
000002d0: 4bc4 d1bd a344 94be 2d9b 5abe f7a8 84be
000002e0: 639e b8be 4be1 c6be 4805 edbe b096 a1be
000002f0: c274 d7be b852 fbbd f828 7bbe ccc9 34be
00000300: 4315 36bf e1f4 1dbf a0f8 0ebf c6f4 c3be
00000310: 7315 0ebf 8b75 37be 65c8 e1be 607d 6cbe
00000320: 790e 56be bc6f 15bf 36db 59bf 254d 1dbf
00000330: cead 35bf afc6 2ebe dcc7 bdbe 4d1e c2bd
00000340: 7f4b 1fbe 0e2d 72be 4523 91be 8316 24bf
00000350: 91cf f5be 4085 92be 8dff e03c 9741 3abe
00000360: 05b5 e8bd 4808 5e3d 0d24 67be 0e3f 0fbf
00000370: 306e 2bbf 6f7f 59bf d229 01bf f4da f3be
00000380: 906e e5be b5f5 4d3e fb66 fe3d e02d ec3d
00000390: 4608 adbe f759 fbbe 67d1 99bd 8645 5abe
000003a0: 8804 28be 40eb 8cbe 56c4 193d 339d a03e
000003b0: 92b9 e83e 6b46 8e3c 39b0 f0be cebc ddbe
000003c0: 5a88 493d f7df bebd 74a8 81bd a213 39be
000003d0: aa1d 92bc 79d7 66be 96c2 ccbd 06c7 b8bd
000003e0: 958a 093e 50c2 43be 1e72 c3be 7e45 b1be
000003f0: 3f7c 8fbe 501e 72be b429 19be d9d6 bfbd

bias f4 [5]
0.3278312 0.3406682 0.35313255 0.3595511 0.3334445
00000000: 7ed9 a73e 106c ae3e cacd b43e 1517 b83e
00000010: 3db9 aa3e
