archived_data/b4_r0_m20_s200--2019-01-21--162345.649052/episode_17000.model (torch_old, 88994 bytes, 8 tensors)

weight f4 [6, 6, 3, 3]
-0.11788601 0.055752814 0.12028152 0.0724816 -0.12478323 0.030756071 0.049181834 -0.0826555
0.015897378 -0.065372065 -0.021873083 -0.13791966 -0.12689616 -0.15921782 -0.21644223 0.01643358
0.13907383 -0.0004932888 -0.0020724575 -0.028621279 -0.025326047 -0.002823173 0.044596124 0.04743438
0.0078070057 0.05333939 0.0068603456 -0.08856422 0.07345851 0.11868355 -0.06656523 -0.05665686
-0.1326573 -0.12518477 0.07506277 -0.0050338805 0.24217805 -0.17932887 0.39392206 -0.25210223
0.41195667 -0.7784346 -0.093737066 0.16715811 -0.36880335 -0.24461575 -0.08686258 -0.06537205
-0.37258235 -0.22894175 -0.33678433 0.040969655 0.035101913 0.038689148 0.015289038 -0.0955668
0.05717948 0.09993616 0.0986428 -0.10062311 0.027364999 0.03747651 0.039273933 -0.041231226
-0.12229574 -0.3410616 -0.024492122 -0.12537052 -0.2001298 0.009338735 -0.0016635879 -0.016789569
0.018525636 -0.021600254 0.014905849 -0.03980435 0.007822216 -0.0026877138 -0.008406517 0.03497305
0.02349744 0.06966998 0.014186636 0.0325775 0.06590089 -0.11670354 0.07039657 0.008646131
-0.03650683 0.03898424 0.44234625 -0.19971992 -0.8279976 -0.04618237 0.34645364 -0.41329432
0.35724336 -0.062384702 0.1312187 0.058147553 -0.74807835 -0.35626242 0.16689347 -0.24521752
-0.12964422 -0.025239002 0.1423126 -0.038875073 0.08672528 -0.02679345 0.08033781 -0.027902603
0.000523895 0.03462766 -0.0420513 0.103942975 0.059083864 -0.025483135 -0.11433325 -0.15235268
-0.17720002 -0.16233131 -0.16032873 -0.2019014 -0.10280772 -0.2598547 -0.035308246 -0.041030817
0.032196503 -0.0027706062 0.013766296 0.04960793 0.010749196 -0.0045268596 -0.006201378 -0.12911287
0.12246859 0.052837968 -0.061767302 -0.07287089 0.05350721 0.03160253 -0.119609386 0.12820128
0.37676454 -0.053927273 0.02371037 0.4040347 0.48383212 0.42600787 0.117564484 -0.045879323
0.25788558 0.1371157 -0.020601958 -0.22021455 -0.1151634 -0.0529329 -0.16406393 0.095934436
-0.14685231 0.021834183 -0.09942071 0.06713343 -0.066117644 0.025936127 0.0817332 -0.13152887
-0.008453801 -0.12193024 0.020975098 0.0027054711 -0.10333418 -0.0052242978 -0.06744338 -0.05046807
-0.06385488 -0.043241385 -0.15065902 0.008627436 0.09342171 0.05382979 0.0032276143 0.089695945
0.07737817 0.002177333 0.055820953 0.013756135 0.05216239 0.02795577 0.13030905 0.09604229
-0.1360379 0.12883696 -0.1051663 0.03469619 0.013033122 0.08012338 -0.07000553 0.1893871
-0.020297777 0.1760728 -0.66315293 0.43610564 0.45506027 -0.63398135 -0.77554315 0.039680086
0.037360623 0.07807122 -0.28496137 -0.35222095 -0.10215509 -0.16578352 -0.21206701 0.10041622
-0.022180617 -0.037355796 -0.04189472 -0.073811114 -0.010133207 0.04178068 -0.032838993 0.03418319
-0.107825056 -0.05018225 -0.1440919 -0.1560635 0.031203851 -0.14792824 -0.2908768 -0.08470632
-0.13079442 -0.07704182 -0.0112697985 -0.0071320673 0.008114517 -0.012357285 -0.012015792 -0.03298424
0.0026475566 -0.00975285 0.003577244 0.07564744 0.056607306 0.13428533 -0.0763569 0.111329585
0.12950963 0.10745691 -0.015292868 0.0826073 0.29347375 0.28432193 0.5045378 0.13910101
00000000: 386e f1bd 105d 643d 2856 f63d 3c71 943d
00000010: 5a8e ffbd 28f4 fb3c e472 493d 4947 a9bd
00000020: 383b 823c cae1 85bd 2e2f b3bc d03a 0dbe
00000030: 11f1 01be ff09 23be 08a3 5dbe b79f 863c
00000040: 5f69 0e3e 0d50 01ba 11d2 07bb 2c77 eabc
00000050: 9278 cfbc fc04 39bb 6daa 363d 8d4a 423d
00000060: e9d1 ff3b 677a 5a3d c0cc e03b 2861 b5bd
00000070: 6a71 963d 5c10 f33d 5a53 88bd 0611 68bd
00000080: 51d7 07be 7030 00be 82ba 993d 40f3 a4bb
00000090: 86fd 773e fda1 37be 27b0 c93e 8b13 81be
000000a0: fceb d23e 7d47 47bf 38f9 bfbd 7f2b 2b3e
000000b0: cbd3 bcbe 8d7c 7abe 02e5 b1bd c8e1 85bd
000000c0: 1dc3 bebe b56f 6abe ff6e acbe cccf 273d
000000d0: 06c7 0f3d 8378 1e3d e07e 7a3c 87b8 c3bd
000000e0: 0835 6a3d 54ab cc3d 3c05 ca3d 7d13 cebd
000000f0: 902c e03c f880 193d b4dd 203d 13e2 28bd
00000100: 3076 fabd a09f aebe b4a3 c8bc 2161 00be
00000110: d4ee 4cbe 7e01 193c bf0c daba 478a 89bc
00000120: 13c3 973c 04f3 b0bc a937 743c e309 23bd
00000130: c028 003c 5b24 30bb 7dbb 09bc e73f 0f3d
00000140: b47d c03c 22af 8e3d 106f 683c fc6f 053d
00000150: 0cf7 863d 4402 efbd 142c 903d 80a8 0d3c
00000160: 3088 15bd f0ad 1f3d 357b e23e 6183 4cbe
00000170: a7f7 53bf ba29 3dbd 5f62 b13e 509b d3be
00000180: 9ae8 b63e 1a87 7fbd 325e 063e 212c 6e3d
00000190: 1082 3fbf 0768 b6be 1fe6 2a3e 4d1a 7bbe
000001a0: 74c1 04be 06c2 cebc 65ba 113e 783b 1fbd
000001b0: 069d b13d f07d dbbc 2688 a43d 0094 e4bc
000001c0: 0056 093a bcd5 0d3d fc3d 2cbd 0ee0 d43d
000001d0: ec01 723d 02c2 d0bc 8d27 eabd 5702 1cbe
000001e0: ec73 35be 2e3a 26be 372d 24be 3ebf 4ebe
000001f0: db8c d2bd ad0b 85be 619f 10bd ee0f 28bd
00000200: 7be0 033d 0f93 35bb 088c 613c af31 4b3d
00000210: 651d 303c 0d56 94bb ee34 cbbb 2a36 04be
00000220: d0d0 fa3d a06c 583d b6ff 7cbd 553d 95bd
00000230: 602a 5b3d a871 013d c4f5 f4bd 3247 033e
00000240: 48e7 c03e d8e2 5cbd 403c c23c a3dd ce3e
00000250: d8b8 f73e b41d da3e a6c5 f03d f5eb 3bbd
00000260: 9409 843e 0f68 0c3e 70c5 a8bc ec7f 61be
00000270: cada ebbd 2bd0 58bd 6000 28be 4679 c43d
00000280: 7460 16be 9add b23c 169d cbbd 407d 893d
00000290: b068 87bd 0078 d43c bc63 a73d 81af 06be
000002a0: d081 0abc 90b6 f9bd f8d3 ab3c 464e 313b
000002b0: dfa0 d3bd 9630 abbb c11f 8abd 9bb7 4ebd
000002c0: 59c6 82bd e11d 31bd 5c46 1abe 175a 0d3c
000002d0: e253 bf3d a07c 5c3d 6286 533b 82b2 b73d
000002e0: 7278 9e3d 96b1 0e3b 83a4 643d 6961 613c
000002f0: 3ba8 553d 8003 e53c bc6f 053e d2b1 c43d
00000300: 854d 0bbe d6ed 033e 6e61 d7bd 981d 0e3d
00000310: e088 553c ba17 a43d 0f5f 8fbd b1ee 413e
00000320: 8647 a6bc 6e4c 343e 64c4 29bf 3d49 df3e
00000330: a9fd e83e 9a4c 22bf ff89 46bf 9687 223d
00000340: 7407 193d cee3 9f3d 75e6 91be 4e56 b4be
00000350: b036 d1bd 28c3 29be 1828 59be 05a7 cd3d
00000360: 20b4 b5bc 6402 19bd cc99 2bbd 482a 97bd
00000370: c005 26bc 3822 2b3d 2e82 06bd ac03 0c3d
00000380: 62d3 dcbd e78b 4dbd d48c 13be 1ccf 1fbe
00000390: 389f ff3c 807a 17be ceed 94be 827a adbd
000003a0: f9ee 05be 1ac8 9dbd f6a4 38bc 1eb4 e9bb
000003b0: c0f2 043c 3676 4abc e2dd 44bc 7c1a 07bd
000003c0: a182 2d3b 6bca 1fbc 3270 6a3b 0ced 9a3d
000003d0: 10dd 673d 1882 093e 0261 9cbd c400 e43d
000003e0: 2c9e 043e 5e12 dc3d f08e 7abc 042e a93d
000003f0: 3142 963e a592 913e 6429 013f 7f70 0e3e

bias f4 [6]
-0.2665167 -0.25714618 -0.226184 -0.10166412 -0.2704122 -0.30165246
00000000: e074 88be aaa8 83be c79c 67be 4735 d0bd
00000010: 7873 8abe 3172 9abe

weight f4 [16, 6, 3, 3]
0.05399301 -0.36889493 -0.18067329 -0.22986344 -0.033212375 0.09233227 -0.27102047 -0.22524604
0.24316595 0.06384937 0.07443169 -0.10423296 0.3012408 -0.28763008 -0.09631102 -0.50820565
0.13467744 0.38435712 -0.07592865 -0.10528528 0.006910653 0.22186922 0.16154473 0.24107693
-0.37136924 0.18994781 0.20450452 0.20971616 -0.27535325 0.10693763 0.08088734 -0.06901538
0.08868116 -0.28100786 0.072023556 0.0073670465 -0.4583681 0.041651603 0.30503285 -0.39189422
-0.07684789 -0.468156 0.17645635 -0.14085859 0.30078644 -0.021144234 -0.2870247 -0.13817987
-0.005747112 -0.2755217 -0.2352858 0.20210703 0.107633315 0.08866603 0.1309661 -0.057377923
0.39169875 -0.042828206 0.10865913 0.0091072535 0.13836128 -0.059615634 0.038394433 -0.8867315
-0.022632044 -0.0695944 -0.55230814 -0.1290345 -0.20504098 -0.04051603 0.12644088 -0.15292764
0.096051514 0.27989483 -0.20238288 0.10549563 0.1986408 0.18069047 -0.09051304 -0.02220576
-0.44538438 0.07156653 -0.16589688 -0.06681264 0.16319306 -0.25740397 -0.6277127 0.06428985
-0.17400514 -0.5346553 -0.14900063 -0.44614533 0.37182137 -0.29686734 -1.0910921 -0.5189965
-0.3879774 -0.59240437 -0.17316645 0.034725707 -0.14783546 -0.17753255 -0.00071689533 0.2000308
-0.22146164 0.08071092 -0.013166187 -0.07728568 0.21019958 -0.13835844 -0.07977752 0.14156845
-0.01169031 -0.4904651 -0.3009427 -0.18680331 -0.22690299 -0.39196268 -0.04606538 0.24300341
0.017667936 -0.026460083 -0.69322497 0.15902422 -0.030354744 -0.2038787 -0.05354385 0.12374467
-0.31089285 -0.02448722 0.19603014 -0.12062744 -0.052114315 -0.083380304 -0.03896758 -0.3408
-0.011376252 -0.25825393 -0.7624392 0.27593485 -0.07102907 -0.07639021 -0.05467924 -0.19614956
0.21126936 -0.0896134 0.017427862 -0.08746166 -0.074230246 -0.13465439 -0.11787866 -0.11811768
0.032993846 -0.17482525 -0.22987914 -0.20210125 -0.65559834 -0.042925045 -0.01956248 0.054617062
0.105415285 -0.0195745 0.35678956 0.15231165 0.023397084 0.081505276 -0.121455885 -0.1834959
0.109600835 0.283872 0.16700673 -0.20322737 -0.17083506 -0.73593545 -0.5544232 0.500975
-0.03160661 -0.61292946 -0.011157084 0.09793608 -0.114832014 0.19167699 -0.07325428 -0.13985719
0.031685654 0.056708474 0.0462028 0.08864823 0.0043021627 -0.009472914 0.039564226 -0.1798816
0.33186552 0.07376704 -0.25507113 0.34085792 -0.033732865 0.07167438 -0.029033814 -0.042410318
-0.4433245 0.25125164 -0.33655816 -0.3309494 -0.75765806 -0.3943526 0.24021205 -0.22880043
-0.4163939 0.073937684 -0.548664 -0.28213882 0.16814406 -0.1296162 0.016476909 -0.05713416
0.24558488 0.17753267 -0.2179148 -0.39913028 -0.23309828 0.019183476 -0.35583445 -0.5353021
-0.26206797 -0.052912008 -0.7962537 -0.57146955 -0.8630697 -0.275787 -0.40676352 -0.15405461
-1.1423594 0.0016996386 -0.36167058 -0.13373223 0.0065571144 -0.07888475 0.33038062 0.2726403
-0.61221373 0.34593233 -0.26774922 -0.18043995 -0.7149069 -1.2011023 0.03361188 -0.6213587
-0.05982726 0.092461534 0.07535488 -0.07339689 -0.0049356394 -0.2349018 0.3087805 -0.5603629
00000000: c627 5d3d ccdf bcbe 6b02 39be 5261 6bbe
00000010: b309 08bd b418 bd3d 32c3 8abe e6a6 66be
00000020: 7f00 793e 75c3 823d a46f 983d 1778 d5bd
00000030: 3c3c 9a3e 4044 93be b63e c5bd c419 02bf
00000040: e2e8 093e 75ca c43e 7b80 9bbd cf9f d7bd
00000050: c272 e23b af31 633e fb6b 253e dfdc 763e
00000060: 1c24 bebe ae81 423e a269 513e d5bf 563e
00000070: 1afb 8cbe 1e02 db3d 43a8 a53d f057 8dbd
00000080: 789e b53d 43e0 8fbe 1681 933d 4467 f13b
00000090: 39af eabe df9a 2a3d 442d 9c3e 5ca6 c8be
000000a0: 6d62 9dbd 25b2 efbe f9b0 343e 3c3d 10be
000000b0: ae00 9a3e ac36 adbc e7f4 92be 067f 0dbe
000000c0: 4552 bcbb 2e11 8dbe c3ee 70be 25f5 4e3e
000000d0: db6e dc3d 8996 b53d fa1b 063e 1d05 6bbd
000000e0: bd8c c83e a16c 2fbd ae88 de3d 9736 153c
000000f0: 94ae 0d3e 862f 74bd 7b43 1d3d d600 63bf
00000100: d666 b9bc 8287 8ebd 1164 0dbf 9f21 04be
00000110: 43f6 51be 23f4 25bd b879 013e 1099 1cbe
00000120: a8b6 c43d 604e 8f3e 753d 4fbe 180e d83d
00000130: 7e68 4b3e ec06 393e e75e b9bd dbe8 b5bc
00000140: 6c09 e4be 7991 923d dfe0 29be 11d5 88bd
00000150: 151c 273e 74ca 83be c8b1 20bf 66aa 833d
00000160: 672e 32be 2bdf 08bf 9f93 18be 296d e4be
00000170: 5f5f be3e fffe 97be e8a8 8bbf f4dc 04bf
00000180: f9a4 c6be d0a7 17bf 8c52 31be 8b3c 0e3d
00000190: 2e62 17be 18cb 35be 08ee 3bba e0d4 4c3e
000001a0: d7c6 62be c44b a53d feb6 57bc f447 9ebd
000001b0: 8f3e 573e d6ad 0dbe 6562 a3bd 52f7 103e
000001c0: b788 3fbc 3e1e fbbe 2915 9abe 5e49 3fbe
000001d0: 4259 68be 55af c8be 0daf 3cbd e3d5 783e
000001e0: 59bc 903c d1c2 d8bc 3177 31bf 3fd7 223e
000001f0: 83aa f8bc 94c5 50be cc50 5bbd d86d fd3d
00000200: 592d 9fbe 6c99 c8bc 20bc 483e 850b f7bd
00000210: d275 55bd 4bc3 aabd 789c 1fbd 567d aebe
00000220: 7663 3abc dc39 84be 372f 43bf 5547 8d3e
00000230: b077 91bd 7872 9cbd 57f7 5fbd 6edb 48be
00000240: ff56 583e 3b87 b7bd e0c4 8e3c 191f b3bd
00000250: 0706 98bd d7e2 09be 5e6a f1bd afe7 f1bd
00000260: 8e24 073d 6405 33be 7065 6bbe a1f3 4ebe
00000270: 4bd5 27bf 2cd2 2fbd 7e41 a0bc 24b6 5f3d
00000280: f8e3 d73d b45a a0bc 1fad b63e 96f7 1b3e
00000290: 3eab bf3c 3dec a63d ddbd f8bd 59e6 3bbe
000002a0: 6776 e03d ac57 913e d003 2b3e d61a 50be
000002b0: 63ef 2ebe 4466 3cbf aeee 0dbf e63f 003f
000002c0: ef75 01bd f2e8 1cbf 34cc 36bc b692 c83d
000002d0: 0c2d ebbd f946 443e 5706 96bd b936 0fbe
000002e0: d1c8 013d 2547 683d 263f 3d3d 348d b53d
000002f0: 28f9 8c3b 4834 1bbc 190e 223d e232 38be
00000300: 47ea a93e 2d13 973d af98 82be ee84 ae3e
00000310: 792b 0abd 04ca 923d 52d8 edbc 71b6 2dbd
00000320: 6efb e2be 0ea4 803e 5a51 acbe 3372 a9be
00000330: e1f5 41bf 96e8 c9be 26fa 753e a94a 6abe
00000340: 9531 d5be a46c 973d 3e75 0cbf 8074 90be
00000350: f52d 2c3e 1cba 04be 95fa 863c 8205 6abd
00000360: 9a7a 7b3e 20cb 353e 0f25 5fbe ce5a ccbe
00000370: 51b1 6ebe aa26 9d3c ef2f b6be 8f09 09bf
00000380: c62d 86be 43ba 58bd 48d7 4bbf d44b 12bf
00000390: 23f2 5cbf f433 8dbe 4f43 d0be 7ec0 1dbe
000003a0: d538 92bf 68c6 de3a e32c b9be 1af1 08be
000003b0: 10dd d63b 548e a1bd a627 a93e 8297 8b3e
000003c0: 0aba 1cbf 0b1e b13e 6d16 89be 40c5 38be
000003d0: 2304 37bf b8bd 99bf 9cac 093d 5d11 1fbf
000003e0: 6e0d 75bd 795c bd3d a953 9a3d 1c51 96bd
000003f0: 25bb a1bb 198a 70be 7a18 9e3e f173 0fbf

bias f4 [16]
-0.07313083 -0.08423894 -0.14282173 -0.06845909 0.021698099 -0.076384805 -0.08637765 -5.229644e-05
-0.10103801 -0.08527266 -0.0031649093 -0.05423245 -0.2513883 -0.007934877 -0.16329738 -0.13093466
00000000: 9ec5 95bd 7785 acbd dc3f 12be 4834 8cbd
00000010: 36c0 b13c a36f 9cbd c4e6 b0bd e058 5bb8
00000020: 04ed cebd 6fa3 aebd 5e6a 4fbb d822 5ebd
00000030: f8b5 80be 4901 02bc 6e37 27be bc13 06be

weight f4 [32, 16, 3, 3]
0.0832412 0.061600994 -0.18303517 0.0966453 -0.36866978 -0.20884822 -0.34313428 0.21542436
-0.027629066 0.025329022 -0.43618247 -0.2249833 0.1916699 -0.18372425 0.04062883 -0.088546224
-0.1099682 -0.085223936 -0.48656335 -0.105277285 -0.3405151 -0.054351266 -0.29511362 -0.20796467
-0.41884226 -0.62974185 -0.1620693 -0.10676386 -0.06861848 0.04483892 0.15168981 0.05206147
0.16067046 0.012300578 -0.38070366 -0.80091965 0.44452283 -0.4657594 -0.27257398 0.14821258
-0.07932438 -0.2830533 0.16284686 0.026855525 -0.70668715 -0.11229324 0.38780552 0.15288614
0.056481887 0.28403306 -0.13337937 -0.23456769 -0.075288735 -0.2559041 -0.3609537 0.008230348
-0.31036517 -0.4376086 0.20615448 -0.053954568 0.028870517 -0.078871265 0.4622322 -0.13280603
0.01921773 0.027350072 -0.24263875 -0.17737728 -0.09999279 -0.09891622 -1.1690431 -0.22003925
-0.032485534 -0.026374983 0.13733767 -0.19557104 -0.17063905 -0.2030261 0.020626491 -0.15818785
0.0065095406 -0.2667431 -0.04653835 0.33083308 0.07312124 -0.24847715 -0.09151922 0.2901445
0.02999628 0.2615454 0.15856327 -0.017275568 -0.10590433 0.0078122127 0.37592867 -0.55248445
0.025675613 -0.07957626 0.4202731 -0.40339646 -0.239331 -0.11095163 0.11441886 0.045178812
0.17879622 -0.5117358 0.04633679 0.027417146 -0.6918879 -0.32236704 -0.23862633 -0.5083835
-0.6467253 -0.63690346 -0.28145707 -0.36082155 -0.46690115 0.032128025 0.19354206 -0.24971034
-0.655435 0.33216026 0.1806852 -0.09557396 0.078969374 0.43614423 -0.28338513 -0.015505488
0.02822617 -0.6457643 -0.30463386 0.056856208 -0.12521857 -0.2792146 -0.32476678 -0.1794543
0.3004401 -0.38037983 -0.043921176 0.04071497 -0.064724416 -0.12219585 -0.08954681 0.58481574
0.39367285 -0.2646847 0.38065958 0.675088 0.33373344 0.36395591 -0.3740596 0.08933329
-0.047522794 0.1621321 0.5619528 -0.17340827 0.13733198 0.4246225 0.59127486 -0.30935436
-0.3315769 -0.48117104 -0.573259 -0.250775 0.28048292 -0.377596 0.18955243 0.031274892
-0.09450429 -0.61010784 0.020273807 -0.021316094 -0.37276474 -0.4771764 -0.33585373 -0.2399773
0.00017748211 -0.99555 0.047061846 -0.5082328 -0.43382877 0.0053244196 -0.43924898 0.317527
0.11748288 0.33651805 -0.3178421 -0.29636052 -0.4362712 0.11512778 0.39351487 -0.19086906
0.14223734 -0.035830516 -0.20912056 -0.05253867 -0.14093481 -0.13457656 -0.18268609 -0.6741261
0.07134468 -0.105239905 0.35435092 0.022466384 -0.37897438 -0.4114578 0.17722455 0.37034693
0.099176675 0.3465054 -0.053005528 0.36548272 0.032825913 -0.3621284 -0.6969478 -0.1863436
-0.27085143 -0.097420014 -0.5517714 -0.010163601 0.13636184 -0.34189942 -0.45143113 -0.22751826
-0.12474651 -0.090725996 -0.3540821 -0.42553446 0.039894298 0.009729048 -0.33876374 -0.38369638
-0.07505837 -0.0155467605 0.1939401 -0.14447236 0.076475725 0.08585042 0.2584985 0.53403795
-0.088219814 -0.45978704 -0.22503844 -0.04246896 -0.17109533 -0.7612696 -0.25836942 -0.75266933
-0.6700869 0.11799462 -0.1796043 0.13051516 -0.360818 -0.07715658 -0.0073375306 -0.5934596
00000000: 5d7a aa3d 5351 7c3d 926d 3bbe f9ed c53d
00000010: 49c2 bcbe 4fdc 55be 4caf afbe 3498 5c3e
00000020: 5a56 e2bc cf7e cf3c 4f53 dfbe 0662 66be
00000030: 1d45 443e 3622 3cbe 6b6a 263d b957 b5bd
00000040: 0237 e1bd e389 aebd d51e f9be 9e9b d7bd
00000050: ff57 aebe 6f9f 5ebd 2219 97be b1f4 54be
00000060: 7e72 d6be c336 21bf 7ff5 25be 03a7 dabd
00000070: d887 8cbd 04a9 373d 9354 1b3e 683e 553d
00000080: cc86 243e 5d88 493c 97eb c2be 1209 4dbf
00000090: 7f98 e33e 0478 eebe d18e 8bbe 0ac5 173e
000000a0: d274 a2bd 5dec 90be 54c1 263e 1e00 dc3c
000000b0: 73e9 34bf 00fa e5bd 728e c63e 2f8e 1c3e
000000c0: 8d59 673d c86c 913e 9a94 08be 8332 70be
000000d0: fb30 9abd dd05 83be ecce b8be 95d8 063c
000000e0: 2fe8 9ebe 3c0e e0be 291a 533e 77ff 5cbd
000000f0: dd81 ec3c 4287 a1bd b3a9 ec3e 4efe 07be
00000100: 806e 9d3c 420d e03c 4b76 78be 64a2 35be
00000110: 05c9 ccbd 9694 cabd 34a3 95bf f851 61be
00000120: 8d0f 05bd 5910 d8bc 3fa2 0c3e c643 48be
00000130: 01bc 2ebe 13e6 4fbe e3f8 a83c fffb 21be
00000140: fc4d d53b 8d92 88be ff9e 3ebd f462 a93e
00000150: 97c0 953d cb70 7ebe 6e6e bbbd d28d 943e
00000160: c2ba f53c 47e9 853e 695e 223e 7e85 8dbc
00000170: 5fe4 d8bd 97fd ff3b b979 c03e 9f6f 0dbf
00000180: aa55 d23c e1f8 a2bd 092e d73e fb89 cebe
00000190: 3013 75be 9c3a e3bd 6f54 ea3d 6b0d 393d
000001a0: 5b16 373e 1e01 03bf a5cb 3d3d ec99 e03c
000001b0: 911f 31bf 4b0d a5be 765a 74be 6c25 02bf
000001c0: ca8f 25bf 1b0c 23bf 241b 90be 9abd b8be
000001d0: ab0d efbe ad98 033d e42f 463e 11b4 7fbe
000001e0: 97ca 27bf e910 aa3e 8b05 393e 48bc c3bd
000001f0: b2ba a13d 4c4e df3e db17 91be bb0a 7ebc
00000200: 923a e73c cf50 25bf f8f8 9bbe 0ee2 683d
00000210: 4c39 00be 37f5 8ebe d547 a6be dec2 37be
00000220: 49d3 993e 25c1 c2be b1e6 33bd bec4 263d
00000230: 3c8e 84bd d141 fabd 5164 b7bd 7cb6 153f
00000240: 7d8f c93e c184 87be d0e5 c23e 91d2 2c3f
00000250: 1cdf aa3e 6e58 ba3e bd84 bfbe 5ff4 b63d
00000260: 43a7 42bd f505 263e 24dc 0f3f f091 31be
00000270: c1a0 0c3e 1f68 d93e ca5d 173f b263 9ebe
00000280: 73c4 a9be 0d5c f6be 1ac1 12bf 9565 80be
00000290: 759b 8f3e 4354 c1be 081a 423e 1a1a 003d
000002a0: 778b c1bd 0730 1cbf 4115 a63c 179f aebc
000002b0: 05db bebe 7750 f4be 05f5 abbe 9cbc 75be
000002c0: 7e1a 3a39 5ddc 7ebf ecc3 403d 8b1b 02bf
000002d0: ce1e debe 7878 ae3b 3ee5 e0be e692 a23e
000002e0: dd9a f03d 184c ac3e 33bc a2be 91bc 97be
000002f0: f05e dfbe 1dc8 eb3d c87a c93e 2e73 43be
00000300: aaa6 113e 05c3 12bd b323 56be ca32 57bd
00000310: 3751 10be 70ce 09be 1012 3bbe 8793 2cbf
00000320: 291d 923d 0588 d7bd 7c6d b53e 6c0b b83c
00000330: ee08 c2be 99aa d2be 5a7a 353e 1d9e bd3e
00000340: 241d cb3d 2869 b13e 531c 59bd 8d20 bb3e
00000350: 7774 063d e568 b9be 2c6b 32bf dbd0 3ebe
00000360: 0aad 8abe 2584 c7bd e440 0dbf 3b85 26bc
00000370: 70a2 0b3e 710d afbe fb21 e7be 8cfa 68be
00000380: 197b ffbd 8dce b9bd 404a b5be a7df d9be
00000390: 3468 233d 9666 1f3c 7172 adbe da73 c4be
000003a0: 34b8 99bd d7b7 7ebc 3c98 463e 90f0 13be
000003b0: 4e9f 9c3d 58d2 af3d ea59 843e b6b6 083f
000003c0: 97ac b4bd 3569 ebbe 7a70 66be eff3 2dbd
000003d0: 9d33 2fbe 91e2 42bf ff48 84be f0ae 40bf
000003e0: d18a 2bbf 2aa7 f13d 31ea 37be c4a5 053e
000003f0: 23bd b8be 4504 9ebd ab6f f0bb f8ec 17bf

bias f4 [32]
-0.12231236 -0.029246211 -0.0448065 -0.10339566 0.014568164 -0.086740844 -0.047430754 -0.23539335
-0.053816434 -0.1777057 -0.10307286 -0.11673145 -0.044270866 -0.0713587 -0.054287195 -0.08596982
-0.17849642 -0.054041408 0.018908992 -0.17602664 -0.20798244 -0.047250144 -0.13080277 -0.050825026
-0.06224966 -0.052947506 -0.10822914 -0.24814244 -0.045426764 0.0017412615 -0.012217858 -0.14476334
00000000: e77e fabd c095 efbc 0587 37bd 1bc1 d3bd
00000010: 4faf 6e3c 2fa5 b1bd c046 42bd f40a 71be
00000020: 9f6e 5cbd 7cf8 35be dd17 d3bd e610 efbd
00000030: 5e55 35bd 8324 92bd 405c 5ebd f210 b0bd
00000040: c4c7 36be 865a 5dbd 08e7 9a3c 5440 34be
00000050: 59f9 54be 5e89 41bd 29f1 05be e72d 50bd
00000060: 80f9 7ebd 7cdf 58bd 3da7 ddbd 0d19 7ebe
00000070: 6a11 3abd 0a3b e43a 692d 48bc d73c 14be

weight f4 [5, 2592]
-0.20988157 -0.23339014 -0.37497798 -0.55687505 0.06134454 -0.085428976 -0.17562737 -0.37412623
-0.10429518 -0.10237056 -0.21500462 -0.23879106 -0.37992126 -0.3566984 -0.6163872 -0.045013268
-0.46234336 -0.20951888 0.046687208 -0.38061455 -0.51869863 -0.431011 -0.43832207 -0.32135165
-0.35750014 -0.280117 -0.30376565 -0.28164685 -0.5850688 -0.6535504 -0.7906061 -0.34186503
-0.4744034 -0.49522832 -0.3094738 0.033440094 -0.01918876 -0.7097213 -0.5936539 -0.5811179
-0.6090988 -0.4253511 -0.4218808 -0.50858724 -0.15136613 -0.49488205 -0.44784173 -0.713871
-0.7258632 -0.3810165 -0.827798 -0.23023044 -0.3439886 -0.031219905 -0.3146548 -0.42909104
-0.569356 -0.65760595 -0.48569226 -0.80875003 -0.42456168 -0.4284793 -0.3729381 -0.18158858
-0.38404572 -0.2201842 -0.29510728 -0.35948426 -0.3303308 -0.25801116 -0.44101354 0.10735502
-0.13075125 -0.50135195 -0.4323248 -0.65641075 -0.14734694 0.09975425 -0.20155786 -0.500008
0.08998778 -0.172498 0.004234014 -0.30019057 -0.35215235 0.046639744 -0.34970525 -0.27268338
-0.2474996 0.10624612 -0.13913096 -0.08323058 -0.6280719 -0.5240576 -0.49267414 -0.258283
-0.18425946 -0.29905337 -0.19110437 0.059237614 -0.32596362 -0.53357553 -0.60399073 -0.3660933
-0.48512462 -0.22681388 -0.09743684 -0.0030443955 -0.092470214 -0.24555525 -0.4749546 -0.32334748
-0.19230928 -0.45500466 -0.21616201 0.12961656 -0.124443516 0.134114 -0.3120526 -0.3680885
-0.6441973 -0.39551198 -0.4883015 -0.23736542 -0.26290074 0.19933385 -0.36529997 -0.1836533
-0.34161228 -0.38685724 -0.50306696 -0.6942888 -0.26036853 0.14180627 -0.2228792 -0.15618986
-0.5305066 -0.43673372 -0.21971287 -0.44952956 -0.5562327 -0.40643224 -0.38408187 -0.07289805
-0.1339834 -0.15584342 -0.33923617 -0.3329506 -0.37838522 -0.31852293 -0.08673831 0.014537574
0.08540377 -0.27514532 -0.22108762 -0.21799181 -0.1712679 -0.3361536 -0.46111146 -0.5096906
-0.022505367 -0.1551726 -0.20031068 -0.07324215 -0.47633383 -0.4973595 -0.5593623 -0.31027555
-0.7533144 -0.31677574 -0.31885993 -0.5189723 -0.22355704 -0.39452276 -0.27287063 -0.632008
-0.55117923 -0.25254953 -0.41824946 -0.05818725 -0.16182826 -0.500786 -0.6776609 -0.5016625
-0.84522474 -0.8639503 -0.75524294 -0.57914394 -0.47765845 -0.085664935 -0.29672295 -0.6585884
-0.63487595 -0.6596024 -0.9312058 -0.6073897 -0.19030607 -0.25136644 -0.37781557 -0.19987226
-0.626781 -0.61995643 -0.7998093 -0.8016781 -0.77708966 -0.2648594 -0.55638546 -0.32530254
-0.31788075 -0.6612098 -0.49787673 -0.8172185 -0.7989009 -0.6275418 -0.24319287 -0.37898034
-0.13732566 -0.37800378 -0.43135753 -0.74689907 -0.9069492 -0.90743035 -0.85982686 -0.42277515
-0.42113447 -0.08528842 -0.2781616 -0.26514766 -0.59141225 -0.57215846 -0.668027 -0.51792103
-0.43517593 -0.25783628 -0.050408956 -0.068273306 0.12990335 -0.02780378 -0.33559445 -0.45852116
-0.15678495 -0.069406375 -0.20972225 -0.31554237 -0.10942232 -0.21467398 0.108358264 -0.05448968
-0.15856227 -0.309593 -0.5415807 -0.23877758 -0.23176129 -0.40053454 -0.25337455 -0.15711373
00000000: 32eb 56be d3fd 6ebe 1dfd bfbe 5d8f 0ebf
00000010: 6a44 7b3d 63f5 aebd a9d7 33be 798d bfbe
00000020: b698 d5bd a8a7 d1bd 2c2a 5cbe a585 74be
00000030: 0a85 c2be 2ca1 b6be 8dcb 1dbf d55f 38bd
00000040: 45b8 ecbe 1e8c 56be 163b 3f3d e9df c2be
00000050: 6fc9 04bf 79ad dcbe c06b e0be 3488 a4be
00000060: 420a b7be 7f6b 8fbe 2c87 9bbe 0434 90be
00000070: 12c7 15bf 144f 27bf 2965 4abf ef08 afbe
00000080: 01e5 f2be 918e fdbe 5a73 9ebe 7bf8 083d
00000090: bf31 9dbc 4cb0 35bf b4f9 17bf 25c4 14bf
000000a0: e6ed 1bbf 9fc7 d9be c300 d8be c632 02bf
000000b0: b9ff 1abe 2e61 fdbe 834b e5be 40c0 36bf
000000c0: 2cd2 39bf 9814 c3be 92ea 53bf 87c1 6bbe
000000d0: 461f b0be e3c0 ffbc 6f1a a1be d2b1 dbbe
000000e0: 51c1 11bf dd58 28bf a8ac f8be 3e0a 4fbf
000000f0: 2660 d9be a461 dbbe bef1 bebe 5bf2 39be
00000100: a4a1 c4be f877 61be 4d18 97be 520e b8be
00000110: 1e21 a9be 0a1a 84be 87cc e1be f3dc db3d
00000120: a8e3 05be 9a58 00bf ad59 ddbe 890a 28bf
00000130: 1ee2 16be f54b cc3d 2f65 4ebe 8600 00bf
00000140: 834b b83d 51a3 30be 7cbd 8a3b 94b2 99be
00000150: 504d b4be 5109 3f3d 910c b3be 289d 8bbe
00000160: 8970 7dbe 9197 d93d 5978 0ebe cb74 aabd
00000170: 52c9 20bf a428 06bf c93f fcbe ab3d 84be
00000180: 83ae 3cbe 861d 99be ddb0 43be 24a3 723d
00000190: b4e4 a6be 6898 08bf 239f 1abf 9570 bbbe
000001a0: 4162 f8be e641 68be f78c c7bd 7b84 47bb
000001b0: 0661 bdbd d672 7bbe 402d f3be cd8d a5be
000001c0: b9ec 44be 5ff6 e8be 9359 5dbe 34ba 043e
000001d0: 3edc febd 2e55 093e 5cc5 9fbe 1976 bcbe
000001e0: 1dea 24bf 8c80 cabe a702 fabe ec0f 73be
000001f0: ed9a 86be 2c1e 4c3e 9908 bbbe 9c0f 3cbe
00000200: cee7 aebe 2712 c6be ffc8 00bf e9bc 31bf
00000210: 064f 85be aa35 113e 723a 64be 3cf0 1fbe
00000220: 48cf 07bf 909b dfbe 69fc 60be bd28 e6be
00000230: 4465 0ebf e317 d0be 61a6 c4be 934b 95bd
00000240: f232 09be 6b95 1fbe 5db0 adbe 8078 aabe
00000250: b5bb c1be 7015 a3be dba3 b1bd 012f 6e3c
00000260: 2ce8 ae3d d9df 8cbe cb64 62be 3f39 5fbe
00000270: da60 2fbe 531c acbe cd16 ecbe 157b 02bf
00000280: 2d5d b8bc 91e5 1ebe 3e1e 4dbe fbff 95bd
00000290: 07e2 f3be e8a5 febe 5e32 0fbf 70dc 9ebe
000002a0: 36d9 40bf 6e30 a2be 9c41 a3be 5edb 04bf
000002b0: 23ec 64be e3fe c9be b3b5 8bbe 47cb 21bf
000002c0: 151a 0dbf 2c4e 81be cb24 d6be c155 6ebd
000002d0: 4fb6 25be 8333 00bf 2f7b 2dbf f46c 00bf
000002e0: a660 58bf d92b 5dbf 9a57 41bf c742 14bf
000002f0: a68f f4be 1971 afbd 12ec 97be 4099 28bf
00000300: 3b87 22bf b4db 28bf 8163 6ebf e47d 1bbf
00000310: 98df 42be 1ab3 80be 0b71 c1be 50ab 4cbe
00000320: b874 20bf 77b5 1ebf 4dc0 4cbf c73a 4dbf
00000330: 59ef 46bf a79b 87be 476f 0ebf 0e8e a6be
00000340: 44c1 a2be 0c45 29bf b3e9 febe 3b35 51bf
00000350: c584 4cbf 94a6 20bf 8d07 79be b609 c2be
00000360: 199f 0cbe b689 c1be e5da dcbe c734 3fbf
00000370: d32d 68bf 5b4d 68bf 9d1d 5cbf fc75 d8be
00000380: f09e d7be b2ab aebd 326b 8ebe 6fc1 87be
00000390: cb66 17bf fa78 12bf d103 2bbf 7996 04bf
000003a0: 61cf debe 1e03 84be 9f79 4ebd e0d2 8bbd
000003b0: 6205 053e c1c4 e3bc 09d3 abbe 49c3 eabe
000003c0: 3c8c 20be ee24 8ebd 6ec1 56be c58e a1be
000003d0: cf18 e0bd 7fd3 5bbe f0ea dd3d 9230 5fbd
000003e0: 265e 22be f982 9ebe 08a5 0abf 1c82 74be
000003f0: d552 6dbe dd12 cdbe 4fba 81be 6ce2 20be

bias f4 [5]
0.053766448 0.07066743 0.07234382 0.08065127 0.0680143
00000000: 353a 5c3d 16ba 903d ff28 943d 7e2c a53d
00000010: 154b 8b3d
