archived_data/b4_r0_m20_s200--2019-01-21--162345.649052/episode_90750.model (torch_old, 88994 bytes, 8 tensors)

weight f4 [6, 6, 3, 3]
-0.11788601 0.055752814 0.12028152 0.0724816 -0.12478323 0.030756071 0.049181834 -0.0826555
0.015897378 -0.13224891 -0.18345183 -0.2688733 -0.044739883 -0.121202536 -0.19126092 0.016365277
-0.052884877 -0.18106179 -0.0442731 -0.14345838 -0.5228884 -0.007107888 -0.29446685 -0.14812578
-0.1518977 -0.17082644 -0.18893489 -0.08856422 0.07345851 0.11868355 -0.06656523 -0.05665686
-0.1326573 -0.12518477 0.07506277 -0.0050338805 0.0048001176 -0.14362638 -0.15776432 -0.16960679
-0.053982798 -1.0329138 0.058337208 0.01135732 -0.05324153 -0.20569558 -0.3519515 -0.20257208
0.011867317 -0.10279428 -0.23700865 0.15700068 0.15891013 0.023536682 0.015289038 -0.0955668
0.05717948 0.09993616 0.0986428 -0.10062311 0.027364999 0.03747651 0.039273933 -0.21422987
-0.55322486 -0.35044095 -0.18453893 -0.54246366 0.05884965 -0.094829835 -0.41510725 0.09448673
0.077942185 -0.06470741 -0.074313216 0.027833005 -0.07631484 0.08526834 0.0064344574 0.036216497
0.21222018 0.06966998 0.014186636 0.0325775 0.06590089 -0.11670354 0.07039657 0.008646131
-0.03650683 0.03898424 0.028730143 -0.31021267 -0.99629146 -0.08233851 0.06868984 -0.14385198
0.010037224 -0.024119405 0.111867584 -0.020714201 -0.7523513 -0.35626242 -0.23813161 -0.48025665
-0.15994217 -0.11220737 0.031886265 0.18600915 0.08672528 -0.02679345 0.08033781 -0.027902603
0.000523895 0.03462766 -0.0420513 0.103942975 0.059083864 -0.025483135 -0.11433325 -0.17710795
-0.17720002 -0.16233131 -0.11411124 -0.2019014 -0.123423465 -0.2598547 -0.10249819 -0.06389362
-0.08681089 -0.08284436 -0.08613453 -0.09118158 -0.038304105 -0.053759508 0.036322393 -0.12911287
0.12246859 0.052837968 -0.061767302 -0.07287089 0.05350721 0.03160253 -0.119609386 0.12820128
0.3907116 -0.045028053 0.010475742 0.34958413 0.38483098 0.32572606 0.10069317 -0.051439114
0.39143363 0.0808168 -0.21772262 -0.19252339 -0.21257183 -0.14960381 -0.08714213 0.030332373
-0.17172687 -0.0721876 -0.09942071 0.06713343 -0.066117644 0.025936127 0.0817332 -0.13152887
-0.008453801 -0.12193024 0.020975098 -0.00620226 0.06354658 0.1492975 -0.005554225 -0.043265104
-0.12492219 0.089410566 0.018399669 0.12142655 0.012664722 0.11189207 0.20053554 0.078724965
0.028208066 -0.037548915 0.23903847 0.31743035 0.209714 0.02795577 0.13030905 0.09604229
-0.1360379 0.12883696 -0.1051663 0.03469619 0.013033122 0.08012338 -0.020711157 0.039900254
-0.07317437 -0.04962086 -0.7293036 0.04431933 -0.035898723 -0.87270844 -1.4152765 0.04195663
0.08495332 0.14504707 -0.1772506 0.020462057 -0.057750452 -0.15607561 0.013220483 0.100090496
-0.022180617 -0.037355796 -0.04189472 -0.073811114 -0.010133207 0.04178068 -0.032838993 0.03418319
-0.107825056 -0.05018225 -0.1440919 -0.22750822 0.031203851 -0.14792824 -0.3103208 -0.08470632
-0.13079442 -0.044248234 -0.03345076 -0.13485952 -0.041058645 -0.06183359 -0.11971632 -0.042430155
-0.038183875 -0.06355953 5.176826e-05 0.07564744 0.056607306 0.13428533 -0.0763569 0.111329585
0.12950963 0.10745691 -0.015292868 0.0826073 0.29082265 0.48384172 0.47740826 0.050591305
00000000: 386e f1bd 105d 643d 2856 f63d 3c71 943d
00000010: 5a8e ffbd 28f4 fb3c e472 493d 4947 a9bd
00000020: 383b 823c 426c 07be ccda 3bbe c3a9 89be
00000030: 2b41 37bd 0939 f8bd e7d9 43be 7910 863c
00000040: d09d 58bd 4368 39be b657 35bd c1e6 12be
00000050: 04dc 05bf 49e9 e8bb 5cc4 96be 49ae 17be
00000060: 128b 1bbe 20ed 2ebe 2678 41be 2861 b5bd
00000070: 6a71 963d 5c10 f33d 5a53 88bd 0611 68bd
00000080: 51d7 07be 7030 00be 82ba 993d 40f3 a4bb
00000090: 4e4a 9d3b cb12 13be f88c 21be 67ad 2dbe
000000a0: 111d 5dbd 8536 84bf fff2 6e3d 0d14 3a3c
000000b0: ca13 5abd dda1 52be fd32 b4be 0e6f 4fbe
000000c0: 236f 423c cf85 d2bd 65b2 72be c9c4 203e
000000d0: 56b9 223e 00d0 c03c e07e 7a3c 87b8 c3bd
000000e0: 0835 6a3d 54ab cc3d 3c05 ca3d 7d13 cebd
000000f0: 902c e03c f880 193d b4dd 203d 135f 5bbe
00000100: 25a0 0dbf ff6c b3be c6f7 3cbe e6de 0abf
00000110: 550c 713d 2536 c2bd f088 d4be 4282 c13d
00000120: 27a0 9f3d 5285 84bd 8731 98bd 0b02 e43c
00000130: f44a 9cbd 2ba1 ae3d 24d8 d23b c057 143d
00000140: 3f50 593e 22af 8e3d 106f 683c fc6f 053d
00000150: 0cf7 863d 4402 efbd 142c 903d 80a8 0d3c
00000160: 3088 15bd f0ad 1f3d 7a5b eb3c 32d4 9ebe
00000170: f50c 7fbf 18a1 a8bd 42ad 8c3d ef4d 13be
00000180: 2b73 243c 0f96 c5bc d51a e53d d4b0 a9bc
00000190: 189a 40bf 0768 b6be c6d8 73be 33e4 f5be
000001a0: e1c7 23be facc e5bd 2c9b 023d 2f79 3e3e
000001b0: 069d b13d f07d dbbc 2688 a43d 0094 e4bc
000001c0: 0056 093a bcd5 0d3d fc3d 2cbd 0ee0 d43d
000001d0: ec01 723d 02c2 d0bc 8d27 eabd c95b 35be
000001e0: ec73 35be 2e3a 26be 27b3 e9bd 3ebf 4ebe
000001f0: 71c5 fcbd ad0b 85be 92ea d1bd a9da 82bd
00000200: e8c9 b1bd 4eaa a9bd 4d67 b0bd 69bd babd
00000210: c4e4 1cbd ee32 5cbd cac6 143d 2a36 04be
00000220: d0d0 fa3d a06c 583d b6ff 7cbd 553d 95bd
00000230: 602a 5b3d a871 013d c4f5 f4bd 3247 033e
00000240: 5a0b c83e 566f 38bd 72a2 2b3c b1fc b23e
00000250: 9108 c53e 91c5 a63e 3938 ce3d d2b1 52bd
00000260: fd69 c83e 4783 a53d aef2 5ebe da24 45be
00000270: 6eac 59be be31 19be 9377 b2bd 997b f83c
00000280: 2bd9 2fbe 18d7 93bd 169d cbbd 407d 893d
00000290: b068 87bd 0078 d43c bc63 a73d 81af 06be
000002a0: d081 0abc 90b6 f9bd f8d3 ab3c 543c cbbb
000002b0: b624 823d 72e1 183e 3700 b6bb c036 31bd
000002c0: 35d7 ffbd e31c b73d e7ba 963c 7cae f83d
000002d0: b27f 4f3c ab27 e53d 3059 4d3e 8e3a a13d
000002e0: 9a14 e73c e4cc 19bd 80c6 743e 3b86 a23e
000002f0: 44bf 563e 8003 e53c bc6f 053e d2b1 c43d
00000300: 854d 0bbe d6ed 033e 6e61 d7bd 981d 0e3d
00000310: e088 553c ba17 a43d 72aa a9bc 736e 233d
00000320: 72dc 95bd 3e3f 4bbd a4b3 3abf 3088 353d
00000330: 8a0a 13bd d269 5fbf c827 b5bf b7da 2b3d
00000340: 02fc ad3d 3887 143e 2e81 35be 0ba0 a73c
00000350: bd8b 6cbd 49d2 1fbe ba9a 583c 3ffc cc3d
00000360: 20b4 b5bc 6402 19bd cc99 2bbd 482a 97bd
00000370: c005 26bc 3822 2b3d 2e82 06bd ac03 0c3d
00000380: 62d3 dcbd e78b 4dbd d48c 13be eaf7 68be
00000390: 389f ff3c 807a 17be 5ee2 9ebe 827a adbd
000003a0: f9ee 05be a33d 35bd aa03 09bd 9d18 0abe
000003b0: 1c2d 28bd 3845 7dbd d42d f5bd 3ecb 2dbd
000003c0: b266 1cbd 802b 82bd bf21 5938 0ced 9a3d
000003d0: 10dd 673d 1882 093e 0261 9cbd c400 e43d
000003e0: 2c9e 043e 5e12 dc3d f08e 7abc 042e a93d
000003f0: b5e6 943e 1aba f73e db6e f43e d438 4f3d

bias f4 [6]
-0.423233 -0.4220678 -0.5034455 -0.7553052 -0.5196083 -0.4552822
00000000: ffb1 d8be 4519 d8be cee1 00bf ae5b 41bf
00000010: 0d05 05bf c01a e9be

weight f4 [16, 6, 3, 3]
-0.57641256 -0.3150229 0.041291457 0.2764047 -0.22372206 0.7066306 -0.17390895 0.9088656
0.76623905 -0.08850864 0.0014237713 -0.100022785 0.11630868 -0.45175114 -0.009174188 0.25098935
0.11065889 -0.046513863 -0.21274091 -0.2687902 0.058495037 0.048291635 -0.09092544 0.2250606
-0.5471043 0.32230416 0.4352413 0.2695434 0.17167449 0.163846 -0.36256775 0.25620267
0.34488642 0.29639152 0.20007083 0.4818628 -0.49596775 -0.09888807 0.0548771 -0.6274075
-0.3692071 -1.01178 -0.09587565 -0.4744313 0.3576339 0.027352333 0.23002134 0.026542287
-0.051627185 0.077153936 -0.27725998 0.07387097 -0.10546922 0.20711046 0.13805406 -0.10992913
0.3220748 -0.0837613 0.11310705 -0.013850405 0.0759917 -0.040906258 0.031507585 -0.90850943
-0.0037831063 0.049537156 -0.5716746 -0.112437256 -0.24547152 -0.045163073 0.100046635 -0.15292764
0.10836788 0.39507967 -0.0423064 0.102319136 0.21864907 0.19897985 -0.08293694 0.08503384
-0.44538438 -0.03791812 -0.07711469 -0.06806529 0.06315449 -0.24715385 -0.66945684 0.0037050215
-0.09943077 -0.5651048 -0.14150223 -0.44550598 0.3126247 -0.29734084 -1.0711669 -0.5303163
-0.3879774 -0.5526265 -0.19230229 0.06342222 -0.20994197 -0.18102872 -0.09152842 0.022239797
-0.31836376 0.0021530443 -0.027186418 -0.009653419 0.16497992 -0.13069971 -0.14552687 0.094051346
-0.030397283 -0.5336817 -0.30944982 -0.21961081 -0.22690299 -0.33165708 -0.013425182 0.20273462
-0.044919368 -0.013906763 -0.68827486 0.06616824 -0.054529984 -0.2038787 -0.026419528 0.16254859
-0.35149315 -0.040422395 0.27932262 -0.14762154 -0.087242626 -0.13044809 -0.03896758 -0.32577527
-0.028990805 -0.25661567 -0.77114254 0.26937792 -0.106353335 -0.06835411 -0.0589671 -0.29031265
0.19508703 0.005661543 0.05058738 -0.10760835 0.036144484 -0.10861646 -0.13559125 -0.18459979
0.04579478 -0.13998488 -0.2357199 -0.2233301 -0.6539679 -0.11897378 -0.00025861355 -0.0019093507
8.339526e-05 -0.06119681 0.44207528 -0.11865967 0.23960185 -0.35044098 -0.62734425 -0.17766292
0.15927316 0.12212759 0.38372767 -0.44690248 0.25939262 0.5223229 -0.41362724 -0.17743066
0.044784013 0.22234604 -0.26831234 -0.38242504 -0.17314927 0.069856554 0.008768225 -0.20745803
-0.25378147 0.015279147 0.11757826 0.21628624 0.008524836 0.15271665 -0.082344025 -0.65845263
0.4716049 0.14673617 -0.4064557 0.39236784 -1.3622694 -0.4092598 -0.20245017 -0.10857545
-0.3905355 0.06907279 0.13534921 -0.3477851 -0.83148736 0.079982705 0.2977416 0.10445811
-0.16497605 0.21127273 0.07881962 -0.0015585846 0.041038588 -0.018778764 0.38773564 -0.20770958
0.15152209 0.16883054 -0.36931098 -0.21309707 0.10586186 -0.077694096 -0.27346832 -0.44642976
-0.45096308 -0.20156975 -0.70001376 -0.6129622 -0.689589 -0.46803418 -0.7121993 0.121342786
-1.2644613 0.12490972 -0.61949533 -0.50462085 0.27909192 -0.015397627 -0.08894053 0.063948765
-0.49002582 0.35539222 -0.29568315 0.030072633 -0.39504072 -1.2110797 -0.14468561 -0.35060465
0.05838991 0.10935947 0.011346856 0.0393256 0.19485576 -0.32769486 0.1726754 -0.98095477
00000000: c68f 13bf ae4a a1be 3b21 293d eb84 8d3e
00000010: 6517 65be bee5 343f 3015 32be 6aab 683f
00000020: 3e28 443f 0544 b5bd d69d ba3a bfd8 ccbd
00000030: 3f33 ee3d ed4b e7be 554f 16bc ad81 803e
00000040: 21a1 e23d 5285 3ebd c1d8 59be de9e 89be
00000050: 7e98 6f3d 73cd 453d 1e37 babd 4976 663e
00000060: 070f 0cbf 0d05 a53e f3d7 de3e 9801 8a3e
00000070: 70cb 2f3e 3fc7 273e 7ba2 b9be ff2c 833e
00000080: f494 b03e a1c0 973e 5edf 4c3e b9b6 f63e
00000090: 7cef fdbe d485 cabd cfc6 603d c79d 20bf
000000a0: b708 bdbe 0282 81bf 745a c4bd a9e8 f2be
000000b0: ca1b b73e 0012 e03c b78a 6b3e 366f d93c
000000c0: 0777 53bd e202 9e3d 05f5 8dbe aa49 973d
000000d0: 3f00 d8bd c414 543e 0b5e 0d3e 8622 e1bd
000000e0: fde6 a43e 0b8b abbd aba4 e73d cfec 62bc
000000f0: 89a1 9b3d 528d 27bd 190e 013d 1394 68bf
00000100: feed 77bb 79e7 4a3d 4459 12bf 8145 e6bd
00000110: e35c 7bbe eafc 38bd 40e5 cc3d 1099 1cbe
00000120: fbef dd3d e247 ca3e 7a49 2dbd b28c d13d
00000130: 8be5 5f3e 60c1 4b3e d8da a9bd 3926 ae3d
00000140: 6c09 e4be 0850 1bbd 4eee 9dbd d165 8bbd
00000150: 2457 813d e615 7dbe 8661 2bbf f2cf 723b
00000160: 5ca2 cbbd b5aa 10bf f6e5 10be 5c19 e4be
00000170: 5810 a03e 0f3d 98be ff1b 89bf cfc2 07bf
00000180: f9a4 c6be ee78 0dbf e4ea 44be 82e3 813d
00000190: 07fb 56be 985f 39be 4173 bbbd 3c30 b63c
000001a0: 9300 a3be 171a 0d3b 0db6 debc 6029 1ebc
000001b0: 7ff0 283e 25d6 05be ff04 15be fe9d c03d
000001c0: b903 f9bc 5d9f 08bf 3570 9ebe a8e1 60be
000001d0: 4259 68be f5ce a9be 4bf5 5bbc aa99 4f3e
000001e0: 5ffd 37bd 31d9 63bc c832 30bf 3783 873d
000001f0: d55a 5fbd 94c5 50be c46d d8bc 2373 263e
00000200: e9f6 b3be f491 25bd 6003 8f3e 1a2a 17be
00000210: 43ac b2bd 2f94 05be 789c 1fbd 04cc a6be
00000220: 207e edbc 2163 83be 9969 45bf e7eb 893e
00000230: c7cf d9bd 3dfd 8bbd 7c87 71bd dca3 94be
00000240: e5c4 473e 7784 b93b b634 4f3d c461 dcbd
00000250: 3d0c 143d 4e72 debd 6fd8 0abe ba07 3dbe
00000260: 4f93 3b3d 3258 0fbe 8f60 71be a5b0 64be
00000270: 716a 27bf 86a8 f3bd 8696 87b9 2e43 faba
00000280: 7de4 ae38 82a9 7abd b157 e23e d703 f3bd
00000290: 305a 753e 006d b3be a299 20bf 45ed 35be
000002a0: 8118 233e 081e fa3d f477 c43e 67d0 e4be
000002b0: 1ccf 843e f4b6 053f f3c6 d3be 62b0 35be
000002c0: 716f 373d aeae 633e 3c60 89be 37cd c3be
000002d0: 0b4e 31be f410 8f3d 9aa8 0f3c e16f 54be
000002e0: a5ef 81be 6355 7a3c dfcc f03d 247a 5d3e
000002f0: c1ab 0b3c c161 1c3e fca3 a8bd 5a90 28bf
00000300: 3376 f13e 0242 163e f61a d0be 70e4 c83e
00000310: d85e aebf 808a d1be 194f 4fbe ce5c debd
00000320: 45f4 c7be 0976 8d3d fc98 0a3e e310 b2be
00000330: 5bdc 54bf f9cd a33d 9671 983e 22ee d53d
00000340: 7bef 28be e157 583e 2e6c a13d 6c49 ccba
00000350: 1418 283d ecd5 99bc 4985 c63e d2b1 54be
00000360: 9b28 1b3e eae1 2c3e 5416 bdbe 1e36 5abe
00000370: 1ace d83d 151e 9fbd 0a04 8cbe 7192 e4be
00000380: a2e4 e6be 4d68 4ebe 1a34 33bf 17eb 1cbf
00000390: e888 30bf 2da2 efbe b152 36bf 9182 f83d
000003a0: ded9 a1bf abd0 ff3d 3f97 1ebf d52e 01bf
000003b0: 23e5 8e3e 5446 7cbc 7426 b6bd 92f7 823d
000003c0: aae4 fabe f8f5 b53e c863 97be e25a f63c
000003d0: c742 cabe a904 9bbf 7728 14be 7482 b3be
000003e0: 422a 6f3d dcf7 df3d 2ae8 393c e113 213d
000003f0: 4588 473e 9fc7 a7be d2d1 303e da1f 7bbf

bias f4 [16]
-0.08478182 -0.2598712 -0.21420015 -0.34867734 -0.14945842 -0.23383595 -0.34619224 -0.22557975
-0.24606745 -0.2581004 -0.25143594 -0.003319467 -0.32056698 -0.011035145 -0.24753745 -0.2639982
00000000: 17a2 adbd d70d 85be 4957 5bbe d685 b2be
00000010: a10b 19be b172 6fbe 1c40 b1be 61fe 66be
00000020: 1bf9 7bbe bc25 84be 36bc 80be 6a8b 59bb
00000030: 5b21 a4be c1cc 34bc 757a 7dbe c62a 87be

weight f4 [32, 16, 3, 3]
-0.17272347 -0.22211595 -0.33823916 0.10795521 -0.19961715 -0.4549761 -0.504117 0.016637754
-0.047982432 0.002891028 -0.46362492 -0.1915559 0.27400157 -0.19712219 0.048813842 -0.112107694
-0.12979618 -0.07572659 -0.49878278 -0.12733668 -0.35336104 -0.07082385 -0.3550795 -0.23856628
-0.44824246 -0.6371893 -0.12740593 -0.30533558 -0.28718615 0.068142004 0.08066556 -0.0606742
-0.012237072 -0.19261117 -0.46574366 -0.80454373 0.43038276 -0.5510205 -0.292617 0.21056032
0.06640589 -0.35487705 0.021788275 -0.1662849 -0.84210855 -0.14510939 0.39400777 0.15026815
0.03836362 0.21831268 -0.23763688 -0.2541563 -0.10604484 -0.39817512 -0.5152714 0.06183411
-0.24326572 -0.29907125 0.05652186 -0.092828676 -0.10326263 -0.43305483 0.47529557 -0.25208142
-0.054548107 -0.081578664 -0.2643293 -0.22739816 -0.16817991 -0.0017700391 -1.1732442 -0.19145036
-0.26882386 -0.043536708 0.08847119 -0.20582025 -0.047824267 -0.22319123 -0.008706772 -0.198018
0.001226378 -0.2990106 -0.08407822 0.24753366 -0.08243313 -0.26016924 -0.14298111 0.27565202
0.011943606 0.29819337 0.0043882043 -0.11130722 -0.2014356 0.009937182 0.4129785 -0.5523875
-0.027836373 -0.13177268 0.2629789 -0.65420055 -0.4665311 -0.35112768 0.07808048 0.05203267
0.07460978 -0.5456755 -0.13461676 -0.10153951 -0.7174247 -0.40269026 -0.23270029 -0.60321736
-0.6602788 -0.6568283 -0.35288462 -0.35413203 -0.46138006 0.21939157 0.1418477 -0.23287329
-0.61279577 0.15674542 0.13235532 -0.059770364 0.05771911 0.41479728 -0.28338513 -0.008347075
-0.012144003 -0.6457643 -0.30463386 0.056856208 -0.12521857 -0.2792146 -0.32476678 -0.14640653
0.25257486 -0.55029273 -0.16409837 -0.026198696 -0.10697447 -0.23680177 -0.17629245 0.47363895
0.25631395 -0.4626504 0.27493146 0.421688 0.13531123 0.16591595 -0.5638952 0.053279027
-0.27661103 0.1621321 0.5448734 -0.17249198 0.0710329 0.33290792 0.53513384 -0.3468036
-0.39204594 -0.49689952 -0.5936886 -0.21012211 0.21920633 -0.35464433 0.104051724 -0.008897988
-0.18181038 -0.637096 -0.011590301 -0.16832976 -0.49276716 -0.74634975 -0.52941406 -0.41506565
-0.19833718 -0.91177106 0.06799752 -0.660277 -0.47560677 -0.02500813 -0.44118178 0.23090655
-0.020122344 0.17631619 -0.5813441 -0.4067185 -0.53509814 -0.1477012 0.32148558 -0.103899
0.13814165 -0.08210168 -0.21554925 -0.16194163 -0.13238291 -0.28945985 -0.3948913 -0.8847959
-0.003192273 -0.22335176 0.28645027 0.03631819 -0.38641796 -0.54581517 0.14681473 0.2572403
0.13474958 0.35030368 -0.13592304 0.18729201 -0.002220837 -0.49361172 -0.54209185 -0.13205177
-0.31631154 -0.1957205 -0.53530735 -0.2188878 0.06443443 -0.2986571 -0.5522202 -0.19604538
-0.0680142 -0.26613918 -0.26166567 -0.5058945 0.14292203 -0.15796907 -0.38718697 -0.5071526
-0.16549599 -0.087271385 0.020782933 -0.21544039 0.109215766 -0.13354553 0.19569175 0.38192222
-0.112968884 -0.5117354 -0.15154195 -0.09513633 -0.21468179 -0.8191057 -0.3915924 -0.680923
-0.5188348 0.0783996 -0.22358833 0.050567664 -0.53222233 -0.13176185 0.028199064 -0.6345643
00000000: 6cde 30be 5d72 63be af2d adbe 9f17 dd3d
00000010: 7068 4cbe a1f2 e8be d00d 01bf e64b 883c
00000020: 3a89 44bd 6777 3d3b 3f60 edbe 3b27 44be
00000030: ef49 8c3e 66da 49be 06f1 473d b898 e5bd
00000040: 4ae9 04be 8b16 9bbd 7560 ffbe 8c64 02be
00000050: bdeb b4be 180c 91bd fbcc b5be b84a 74be
00000060: 0980 e5be d71e 23bf b376 02be f254 9cbe
00000070: 100a 93be 098e 8b3d fc33 a53d 8385 78bd
00000080: 007e 48bc dd3b 45be f475 eebe 94f6 4dbf
00000090: 215b dc3e ae0f 0dbf e5d1 95be 209d 573e
000000a0: d0ff 873d 72b2 b5be 537d b23c 9746 2abe
000000b0: 6d94 57bf 8e97 14be 63bb c93e e5df 193e
000000c0: 2c23 1d3d 5c8d 5f3e 1557 73be c620 82be
000000d0: 092e d9bd 9cdd cbbe d4e8 03bf c445 7d3d
000000e0: a61a 79be de1f 99be 7783 673d f61c bebd
000000f0: 5c7b d3bd 5db9 ddbe f159 f33e d110 81be
00000100: d66d 5fbd b712 a7bd 2c56 87be 10db 68be
00000110: 5b37 2cbe a800 e8ba de2c 96bf 900b 44be
00000120: 48a3 89be 8c53 32bd 6230 b53d 8bc2 52be
00000130: 61e3 43bd 3e8c 64be d9a6 0ebc 3bc5 4abe
00000140: 6bbe a03a eb17 99be 3431 acbd 7779 7d3e
00000150: b3d2 a8bd e734 85be a469 12be 4322 8d3e
00000160: 1daf 433c cdac 983e edca 8f3b 0af5 e3bd
00000170: 2245 4ebe 90cf 223c eb71 d33e 4469 0dbf
00000180: 1b09 e4bc 6bef 06be 2ca5 863e b079 27bf
00000190: 2add eebe 02c7 b3be a9e8 9f3d 3520 553d
000001a0: 03cd 983d 64b1 0bbf fad8 09be f2f3 cfbd
000001b0: 25a9 37bf 6b2d cebe fc48 6ebe 746c 1abf
000001c0: 0808 29bf e625 28bf 4bad b4be cb50 b5be
000001d0: 023a ecbe 2fa8 603e 8640 113e 5676 6ebe
000001e0: 2fe0 1cbf df81 203e 2788 073e c5d1 74bd
000001f0: e06a 6c3d 4f60 d43e db17 91be 2cc2 08bc
00000200: a4f7 46bc cf50 25bf f8f8 9bbe 0ee2 683d
00000210: 4c39 00be 37f5 8ebe d547 a6be 98eb 15be
00000220: 7e51 813e fcdf 0cbf 6709 28be a69e d6bc
00000230: 6e15 dbbd 2a7c 72be 0286 34be ce80 f23e
00000240: 953b 833e 83e0 ecbe d1c3 8c3e 7de7 d73e
00000250: 078f 0a3e dfe5 293e 705b 10bf 1c3b 5a3d
00000260: f69f 8dbe f505 263e d37c 0b3f bda1 30be
00000270: b279 913d e872 aa3e 88fe 083f 3e90 b1be
00000280: 3fba c8be 9d69 febe fafb 17bf 402a 57be
00000290: a077 603e f193 b5be 1219 d53d dec8 11bc
000002a0: 802c 3abe b918 23bf 3fe5 3dbc a35e 2cbe
000002b0: fa4b fcbe c710 3fbf ae87 07bf 7c83 d4be
000002c0: e718 4bbe d469 69bf 4942 8b3d ea07 29bf
000002d0: bb82 f3be dadd ccbc 94e2 e1be c472 6c3e
000002e0: 9dd7 a4bc 3b8c 343e f8d2 14bf 683d d0be
000002f0: 31fc 08bf fc3e 17be c299 a43e 00c9 d4bd
00000300: 0175 0d3e ed24 a8bd f1b8 5cbe 07d4 25be
00000310: 638f 07be 1534 94be 312f cabe fc81 62bf
00000320: 7435 51bb 53b6 64be 9ca9 923e 62c2 143d
00000330: 93d8 c5be 8bba 0bbf 9a56 163e 00b5 833e
00000340: cbfb 093e 015b b33e 692f 0bbe 7ac9 3f3e
00000350: 768b 11bb adba fcbe 88c6 0abf 9438 07be
00000360: 96f3 a1be f46a 48be e709 09bf 2024 60be
00000370: 33f6 833d 95e9 98be 4e5e 0dbf 1fc0 48be
00000380: 074b 8bbd 6543 88be 0bf9 85be 4d82 01bf
00000390: 275a 123e a5c2 21be 5f3d c6be c1d4 01bf
000003a0: c877 29be 57bb b2bd f840 aa3c 689c 5cbe
000003b0: 84ac df3d 29c0 08be 6b63 483e 4f8b c33e
000003c0: 3b5c e7bd 1701 03bf d02d 1bbe d6d6 c2bd
000003d0: 8bd5 5bbe e9b0 51bf cd7e c8be f850 2ebf
000003e0: 5cd2 04bf f88f a03d 57f4 64be 0a20 4f3d
000003f0: b93f 08bf 94ec 06be b901 e73c ce72 22bf

bias f4 [32]
-0.30483562 -0.30209506 -0.19515488 -0.15077181 -0.0059298235 -0.023081157 0.018764894 -0.14342754
-0.14348862 -0.096722096 -0.31341732 -0.17083806 0.014933138 -0.32431978 -0.11078654 -0.121678255
-0.10947635 -0.06429958 -0.20993985 0.021412026 -0.09186569 -0.22112256 -0.18880045 -0.041095167
-0.0013908461 0.0058213975 -0.21003695 -0.40570778 -0.16957656 -0.09042265 -0.37550813 -0.3332331
00000000: 6a13 9cbe 34ac 9abe aed6 47be ed63 1abe
00000010: f74e c2bb b214 bdbc d6b8 993c abde 12be
00000020: aeee 12be 3c16 c6bd 3c78 a0be 2cf0 2ebe
00000030: 1faa 743c 3e0d a6be 0ee4 e2bd 7332 f9bd
00000040: 2335 e0bd 80af 83bd 79fa 56be 4668 af3c
00000050: 1424 bcbd f46d 62be e854 41be 6853 28bd
00000060: 0d4d b6ba 6cc1 be3b ed13 57be eeb8 cfbe
00000070: 7aa5 2dbe 832f b9bd 9a42 c0be 879d aabe

weight f4 [5, 2592]
-0.09060358 -0.22601667 -0.3558747 -0.52039284 0.09268929 -0.110894084 -0.3043742 -0.35289967
-0.080622576 -0.2227233 -0.25927377 -0.25650454 -0.40889245 -0.25072867 -0.50058717 -0.09760492
-0.4100048 -0.16955838 0.011052691 -0.42668653 -0.44124943 -0.5053061 -0.45337808 -0.39871106
-0.3481879 -0.29357144 -0.26231468 -0.325762 -0.5468832 -0.6985701 -0.6590224 -0.6003951
-0.5566026 -0.46410838 -0.35487 -0.10612693 -0.045912404 -0.6248292 -0.551278 -0.4980726
-0.53173167 -0.47030753 -0.39278403 -0.6444867 -0.31013143 -0.6029649 -0.36568102 -0.7765549
-0.7212547 -0.44825247 -0.8813385 -0.3099814 -0.35089436 -0.13776948 -0.20568009 -0.46345177
-0.42746246 -0.71590465 -0.34597585 -0.77792245 -0.50921196 -0.39818925 -0.3907009 -0.15224619
-0.43701237 -0.18959104 -0.3407255 -0.34981295 -0.13933901 -0.37497267 -0.32430065 0.096824005
-0.15794563 -0.44887066 -0.45588836 -0.6548029 -0.20514952 0.16708903 -0.15764698 -0.45995477
0.055170923 -0.06349574 -0.07865538 -0.40509754 -0.3137071 0.02073994 -0.30084482 -0.40393677
-0.3658756 0.16879652 -0.14798963 -0.10075596 -0.522652 -0.42028007 -0.43330783 -0.331933
-0.12783328 -0.3388359 -0.26951438 0.1278481 -0.39004976 -0.5933671 -0.6853853 -0.41704616
-0.48366722 -0.31656438 -0.11739067 0.0362261 -0.0007937023 -0.032408424 -0.50624144 -0.49588862
-0.24116583 -0.56630254 -0.14931378 0.19088832 -0.03648106 0.15436229 -0.40667918 -0.65335864
-0.76813954 -0.5941734 -0.5775887 -0.22903265 -0.27802312 0.050988514 -0.40658468 -0.14046574
-0.31174147 -0.4742298 -0.58387524 -0.43596238 0.05421922 0.23089738 -0.25968495 -0.22628708
-0.62414896 -0.41413683 -0.5820675 -0.5827878 -0.50607747 -0.31365734 -0.29066622 -0.08185263
-0.10546791 -0.21525742 -0.27683514 -0.4428464 -0.46494693 -0.45023558 -0.14003351 -0.07482737
0.13348357 -0.23167446 -0.25122374 -0.059784796 -0.027965667 -0.45494685 -0.4998139 -0.55354667
-0.030300278 -0.4066729 0.083171554 0.093250714 -0.5022177 -0.5072584 -0.3765336 -0.40078962
-0.2861005 -0.17584613 -0.27447262 -0.39461905 -0.06743566 -0.12897797 -0.42327538 -0.37300274
-0.3190504 -0.16860108 -0.26976094 0.056517545 -0.10242518 -0.28958616 -0.21348257 -0.2591016
-0.3605834 -0.3884376 -0.46293092 -0.31560278 -0.42081267 -0.12271637 -0.24527347 -0.17655104
-0.7112619 -0.6170178 -0.5584812 -0.38272685 -0.5550148 -0.17915933 -0.440982 -0.23094702
-0.20903958 -0.5837362 -0.85100114 -0.6144584 -0.7096833 -0.1706798 -0.37066543 -0.09478436
-0.15556143 -0.2365 -0.2834722 -0.6409685 -0.48009923 -0.28617287 0.027465606 -0.18189083
-0.11362652 0.054207116 -0.22572346 -0.5595559 -0.6696501 -0.84960073 -0.5045444 -0.47627985
-0.44810915 0.20113261 0.12421986 0.115321875 -0.33795375 -0.49092075 -0.075106435 -0.21315584
-0.16407979 -0.27523232 0.037540756 0.31369933 0.4545408 0.017367562 -0.47009447 -0.4330811
0.0492023 -0.09320062 -0.06330958 -0.6413812 -0.19527613 -0.15793465 -0.15254118 -0.17618284
-0.09233496 -0.058440868 -0.39237273 -0.37757257 -0.70920944 -0.2864891 0.10033951 0.16038048
00000000: 5f8e b9bd ea70 67be 3535 b6be 7738 05bf
00000010: e2d3 bd3d 701c e3bd efd6 9bbe 44af b4be
00000020: 731d a5bd 9411 64be 88bf 84be 9054 83be
00000030: 5a5a d1be 825f 80be 7b26 00bf 17e5 c7bd
00000040: 26ec d1be b6a0 2dbe 5916 353c a876 dabe
00000050: 72eb e1be be5b 01bf 2c21 e8be db23 ccbe
00000060: af45 b2be ff4e 96be 1c4e 86be 47ca a6be
00000070: 8a00 0cbf 7dd5 32bf b1b5 28bf 7eb3 19bf
00000080: 827d 0ebf 9d9f edbe 85b1 b5be 1359 d9bd
00000090: a50e 3cbd cef4 1fbf 8e20 0dbf 5f03 ffbe
000000a0: 911f 08bf 26cc f0be fd1a c9be 15fd 24bf
000000b0: 8cc9 9ebe e85b 1abf 8b3a bbbe 4dcc 46bf
000000c0: 26a4 38bf 5981 e5be 669f 61bf e2b5 9ebe
000000d0: 6da8 b3be 7113 0dbe cd9d 52be 8d49 edbe
000000e0: 5cdc dabe 8745 37bf bf23 b1be ed25 47bf
000000f0: b75b 02bf 76df cbbe f309 c8be 6de6 1bbe
00000100: 16c0 dfbe 2724 42be 9373 aebe af1a b3be
00000110: e3ae 0ebe 6bfc bfbe bc0a a6be aa4b c63d
00000120: 80bc 21be 60d2 e5be 336a e9be 2aa1 27bf
00000130: b712 52be 6319 2b3e 366e 21be 317f ebbe
00000140: e8fa 613d 0e0a 82bd 1216 a1bd f268 cfbe
00000150: 389e a0be cfe6 a93c 5508 9abe cdd0 cebe
00000160: 0c54 bbbe ffd8 2c3e 988a 17be 2459 cebd
00000170: 85cc 05bf f32e d7be 86da ddbe 1ff3 a9be
00000180: bae6 02be e67b adbe cafd 89be 9dea 023e
00000190: 9ab4 c7be e8e6 17bf 6975 2fbf 1387 d5be
000001a0: 3ba3 f7be ba14 a2be 856a f0bd d261 143d
000001b0: 7610 50ba b2be 04bd 0a99 01bf 1de5 fdbe
000001c0: 2df4 76be 34f9 10bf b6e5 18be 3a78 433e
000001d0: 2a6d 15bd 2611 1e3e 4138 d0be 8342 27bf
000001e0: cba4 44bf bf1b 18bf dadc 13bf 8987 6abe
000001f0: 0c59 8ebe 55d9 503d de2b d0be 40d6 0fbe
00000200: 949c 9fbe 40ce f2be d978 15bf 7636 dfbe
00000210: f914 5e3d 5d70 6c3e 6df5 84be cdb7 67be
00000220: 3ac8 1fbf be09 d4be 6002 15bf 9531 15bf
00000230: 4b8e 01bf b297 a0be 34d2 94be 5aa2 a7bd
00000240: 8fff d7bd 716c 5cbe 56bd 8dbe c3bc e2be
00000250: 860d eebe 4785 e6be f264 0fbe 183f 99bd
00000260: ebaf 083e 123c 6dbe 66a0 80be e7e0 74bd
00000270: 4118 e5bc cbee e8be 9ce7 ffbe 3cb5 0dbf
00000280: 4a38 f8bc 6e37 d0be d955 aa3d 3bfa be3d
00000290: 5791 00bf b0db 01bf 03c9 c0be 4c34 cdbe
000002a0: c47b 92be 0211 34be ad87 8cbe 820b cabe
000002b0: b51b 8abd cd12 04be 8db7 d8be 37fa bebe
000002c0: 935a a3be c3a5 2cbe 1b1e 8abe f17e 673d
000002d0: 4bc4 d1bd a344 94be 2d9b 5abe f7a8 84be
000002e0: 639e b8be 4be1 c6be 4805 edbe b096 a1be
000002f0: c274 d7be b852 fbbd f828 7bbe ccc9 34be
00000300: 4315 36bf e1f4 1dbf a0f8 0ebf c6f4 c3be
00000310: 7315 0ebf 8b75 37be 65c8 e1be 607d 6cbe
00000320: 790e 56be bc6f 15bf 36db 59bf 254d 1dbf
00000330: cead 35bf afc6 2ebe dcc7 bdbe 4d1e c2bd
00000340: 7f4b 1fbe 0e2d 72be 4523 91be 8316 24bf
00000350: 91cf f5be 4085 92be 8dff e03c 9741 3abe
00000360: 05b5 e8bd 4808 5e3d 0d24 67be 0e3f 0fbf
00000370: 306e 2bbf 6f7f 59bf d229 01bf f4da f3be
00000380: 906e e5be b5f5 4d3e fb66 fe3d e02d ec3d
00000390: 4608 adbe f759 fbbe 67d1 99bd 8645 5abe
000003a0: 8804 28be 40eb 8cbe 56c4 193d 339d a03e
000003b0: 92b9 e83e 6b46 8e3c 39b0 f0be cebc ddbe
000003c0: 5a88 493d f7df bebd 74a8 81bd 8f31 24bf
000003d0: 77f6 47be 9fb9 21be c133 1cbe 4669 34be
000003e0: 1d1a bdbd b15f 6fbd 14e5 c8be 3151 c1be
000003f0: c08e 35bf b3ae 92be cd7e cd3d c83a 243e

bias f4 [5]
0.11261698 0.14724869 0.123387456 0.11744226 0.13686945
00000000: bba3 e63d 5cc8 163e 90b2 fc3d 9185 f03d
00000010: 8127 0c3e
