data/b1_r0_m20_s200--2019-01-09--142908.030333/episode_31750.model (torch_old, 70087 bytes, 8 tensors)

weight f4 [6, 6, 3, 3]
-0.10893864 0.111130685 -0.019459657 -0.05215598 -0.035153046 -0.082702294 0.093843475 -0.050029747
-0.07157904 -0.006082918 0.026534978 0.027753321 -0.024725312 -0.016566958 -0.056810282 -0.0012807358
0.014725736 0.027906083 0.1834094 0.14093578 0.11762283 0.023586936 0.21105614 0.29776752
0.04618982 0.17476027 0.15310486 -0.058003508 0.019846454 -0.08715847 -0.11711771 0.08253047
0.070317924 -0.009317562 0.048331082 0.07402749 0.012557756 -0.5721728 -0.03191049 0.049851347
0.17467503 -0.5704583 -0.07259736 0.22433458 -0.43957376 -0.027011706 0.05179286 0.06339918
-0.080734655 0.03970191 -0.10674486 0.04385119 0.0904711 -0.0871619 0.12963182 0.12622347
-0.10459774 -0.021841504 -0.061946668 -0.061329685 0.07966223 -0.12645246 0.009572953 0.0064012976
-0.03363059 0.06465302 -0.006232676 -0.00808812 -0.039473977 0.0011058286 0.03237581 0.02012975
0.074591085 0.05115482 0.111968115 0.12903126 0.096979566 0.11245152 0.121327735 0.10734774
0.11469121 0.008055925 -0.11589643 -0.015436731 0.027916193 0.08474693 -0.070617914 0.13003919
-0.020318873 0.13024032 -0.2835034 -0.25448686 -0.40328473 -0.7158779 -0.28159982 -0.24560583
-0.64239216 0.042614136 -0.81629765 -0.02336189 -0.092835195 0.039803505 0.012811172 0.018550716
-0.031865343 0.0052175503 0.011748553 0.06723428 -0.07634759 -0.035029314 -0.008151412 0.039948344
-0.10673274 -0.081076466 0.0782702 -0.078057274 -0.01267603 0.014376521 -0.05807598 -0.0061492645
-0.007855589 0.069393955 -0.018493239 0.06407244 0.13275298 0.03814262 0.026021281 -0.026620192
-0.04572778 0.019033281 0.079348594 0.078043856 0.08277942 0.09270023 -0.033008575 -0.059493452
-0.056252293 0.11884421 0.103820324 0.052473933 -0.08118126 -0.030208997 -0.00068606436 0.028611898
0.12246715 -0.44848672 0.19953014 0.100481525 -0.03573027 0.07235279 0.10676528 0.117164366
0.13892931 0.06772567 -0.028966153 0.0133026615 0.05125376 -0.027683547 -0.040092226 -0.0099167265
0.16314432 0.059533328 0.12181482 -0.1202403 -0.079783574 -0.10037255 -0.06263542 -0.09002997
-0.11740795 -0.030941322 0.1095372 -0.043989643 -0.37281877 -0.16217373 -0.07674593 -0.15413067
-0.015014315 0.029487835 -0.066675104 -0.10585986 0.044107433 -0.11870353 0.12719153 -0.0031844592
0.07761466 -0.06426688 -0.014691106 0.05452023 -0.010147182 -0.12962346 -0.11956976 0.022398561
-0.057467796 0.084925085 0.032780692 0.1229803 -0.1297999 -0.12601228 0.057517473 -0.010354208
0.029259453 0.06522474 0.03584145 0.013291702 -0.12190764 0.00070216384 0.02276759 -0.034740437
0.099642314 0.01590616 -0.13843651 0.1708229 -0.02116676 0.053525 0.124686606 -0.11681204
-0.025058635 -0.007902816 0.10348238 0.06649828 -0.031147331 -0.09715737 -0.1321411 -0.03656012
0.05346413 -0.09793519 -0.012337058 -0.03971242 -0.05240548 0.033197347 0.017866945 -0.0973704
0.0015045962 0.0102569545 -0.10072299 -0.035735406 -0.06095413 -0.03449181 -0.041983034 -0.09176296
-0.1457316 -0.06213368 -0.057039935 0.045441315 0.038286015 0.11110546 -0.029645383 0.10968536
-0.08618319 0.08186337 -0.042044275 0.049570605 0.07653697 0.07976609 0.045812402 0.07922096
00000000: 391b dfbd 7c98 e33d dc69 9fbc 82a1 55bd
00000010: a4fc 0fbd d25f a9bd 0231 c03d feeb 4cbd
00000020: 0898 92bd 3753 c7bb e25f d93c ef5a e33c
00000030: bd8c cabc 6eb7 87bc e6b1 68bd 5dde a7ba
00000040: 3744 713c 4c9b e43c accf 3b3e 7851 103e
00000050: 3de4 f03d 6439 c13c 1a1f 583e fc74 983e
00000060: 8931 3d3d 5bf4 323e 85c7 1c3e 1695 6dbd
00000070: 0895 a23c 2480 b2bd 69db efbd bc05 a93d
00000080: d802 903d b0a8 18bc d0f6 453d ba9b 973d
00000090: 0cbf 4d3c eb79 12bf 93b4 02bd ed30 4c3d
000000a0: 03de 323e 8e09 12bf edad 94bd f7b7 653e
000000b0: d00f e1be a747 ddbc c024 543d 6ed7 813d
000000c0: 3658 a5bd 789e 223d 0d9d dabd 4e9d 333d
000000d0: e948 b93d f081 b2bd 34be 043e ba40 013e
000000e0: 5737 d6bd f4ec b2bc cabb 7dbd d634 7bbd
000000f0: f425 a33d c17c 01be e0d7 1c3c fac1 d13b
00000100: 3bc0 09bd cd68 843d 7a3b ccbb 0984 04bc
00000110: 77af 21bd 73f1 903a 7f9c 043d 25e7 a43c
00000120: 36c3 983d b787 513d 8a4f e53d c520 043e
00000130: 399d c63d fc4c e63d ad7a f83d 22d9 db3d
00000140: 3ae3 ea3d 00fd 033c 1c5b edbd 58ea 7cbc
00000150: 80b0 e43c cc8f ad3d 20a0 90bd fe28 053e
00000160: c473 a6bc b85d 053e 5c27 91be 1a4c 82be
00000170: 567b cebe c643 37bf da2d 90be 1880 7bbe
00000180: d073 24bf 298c 2e3d e2f8 50bf 6f61 bfbc
00000190: 6120 bebd 0009 233d f3e5 513c acf7 973c
000001a0: 3c85 02bd fcf7 aa3b 017d 403c 20b2 893d
000001b0: 205c 9cbd e67a 0fbd 808d 05bc e0a0 233d
000001c0: b296 dabd 6b0b a6bd 204c a03d 7edc 9fbd
000001d0: 20af 4fbc 808b 6b3c 14e1 6dbd c57f c9bb
000001e0: bab4 00bc 6b1e 8e3d 227f 97bc 6938 833d
000001f0: 66f0 073e 703b 1c3d 952a d53c 9712 dabc
00000200: 0d4d 3bbd afeb 9b3c 8481 a23d 75d5 9f3d
00000210: 4288 a93d 9ed9 bd3d 0034 07bd 68af 73bd
00000220: ce68 66bd 9864 f33d c09f d43d e8ee 563d
00000230: 5c42 a6bd dc78 f7bc 00d9 33ba 8063 ea3c
00000240: 0fd0 fa3d 0da0 e5be a151 4c3e 42c9 cd3d
00000250: e759 12bd b32d 943d c1a7 da3d dff3 ef3d
00000260: 7c43 0e3e c2b3 8a3d 6d4a edbc 68f3 593c
00000270: 76ef 513d 9bc8 e2bc bf37 24bd c479 22bc
00000280: 4e0f 273e 38d9 733d 0c7a f93d 8c40 f6bd
00000290: 9265 a3bd 2090 cdbd 0047 80bd a261 b8bd
000002a0: 9473 f0bd a878 fdbc 0a55 e03d 7c2e 34bd
000002b0: 1ae2 bebe df10 26be f82c 9dbd 6ed4 1dbe
000002c0: 9afe 75bc 7990 f13c f58c 88bd 0ecd d8bd
000002d0: ffa9 343d d61a f3bd 7f3e 023e 5cb2 50bb
000002e0: 6ff4 9e3d 5b9e 83bd f7b2 70bc 9b50 5f3d
000002f0: 5e40 26bc 03bc 04be fee0 f4bd 307d b73c
00000300: 5a63 6bbd 34ed ad3d 0c45 063d 18dd fb3d
00000310: 44ea 04be 5d09 01be 7197 6b3d b2a4 29bc
00000320: 85b1 ef3c 8c94 853d 7cce 123d 70c5 593c
00000330: b6aa f9bd 6b11 383a 1983 ba3c fd4b 0ebd
00000340: 4511 cc3d a34d 823c 4dc2 0dbe 33ec 2e3e
00000350: ea65 adbc 083d 5b3d b15b ff3d 273b efbd
00000360: c447 cdbc d07a 01bc 92ee d33d 4030 883d
00000370: b028 ffbc 71fa c6bd ff4f 07be 10c0 15bd
00000380: 34fd 5a3d 3f92 c8bd 5f21 4abc 7ea9 22bd
00000390: 21a7 56bd f1f9 073d b35d 923c 226a c7bd
000003a0: df35 c53a c90c 283c db47 cebd 4a5f 12bd
000003b0: 0aab 79bd 4947 0dbd 67f6 2bbd 38ee bbbd
000003c0: aa3a 15be e37f 7ebd b5a2 69bd ac20 3a3d
000003d0: ccd1 1c3d 428b e33d e0da f2bc b8a2 e03d
000003e0: d080 b0bd fca7 a73d 9e36 2cbd 8c0a 4b3d
000003f0: 6abf 9c3d 675c a33d c9a5 3b3d 993e a23d

bias f4 [6]
-0.16672336 -0.093571 -0.12921968 -0.065519206 -0.113088265 0.031035734
00000000: 87b9 2abe 27a2 bfbd 2a52 04be ef2e 86bd
00000010: d29a e7bd a73e fe3c

weight f4 [6, 6, 3, 3]
0.047851585 0.030818457 0.121736474 -0.11768359 -0.07077624 0.046973705 -0.03000328 -0.11819235
0.051756848 0.21513872 0.10049257 0.03017832 -0.15641835 0.087657444 0.08926007 -0.16736855
0.062143866 0.09522898 -0.08407093 0.043538462 0.07900235 -0.07219323 0.021829953 0.0013630497
0.14438611 0.08789022 -0.06128076 -0.033931874 -0.076448165 -0.031603582 -0.16677597 0.029634519
-0.020056551 0.015813073 -0.05247648 0.122700855 0.006105958 0.020907864 0.029858952 0.007671722
0.07131759 0.12804997 0.04870189 0.22831328 0.04823358 -0.019748416 -0.13984084 -0.036606643
-0.035152685 0.08681624 0.11459977 -0.0652899 -0.085771754 0.067369156 -0.097113416 -0.03375146
0.36605838 0.2666412 -0.065651335 0.07506261 0.031486634 0.19347347 0.26869854 -0.031011224
0.22980897 -0.02390592 -0.09754925 0.23874567 0.052715924 0.02950027 0.07893482 0.09769266
-0.06655793 0.043975893 0.20142327 0.25390172 -0.15003479 -0.022480745 0.18612748 0.033096056
-0.05664982 -0.089197665 -0.14277484 0.013753674 -0.1044416 -0.06926407 -0.10412893 -0.1480805
-0.07680395 0.0037686278 -0.100961566 0.08974862 -0.07403457 -0.108454466 0.028092567 0.15850411
0.027063332 -0.0006541199 0.109789886 0.10364471 -0.021914627 -0.19484942 0.17505191 0.12855239
0.031806774 0.12292418 0.0063623954 0.117932275 0.0747199 0.063479535 -0.062111508 0.06573172
0.0063396976 0.13547748 0.02614005 0.05438437 -0.16297147 -0.12850149 0.051442254 -0.09068971
0.23856974 0.1239249 -0.14316484 0.21256757 0.37855697 -0.1177726 0.2254401 -0.024907706
0.03394696 0.062198333 -0.10250923 0.16036132 0.09670168 -0.09737069 -0.109212585 0.06311404
0.06946519 0.10601796 -0.08372641 0.05421371 0.010369932 -0.0423315 -0.023406591 0.024546655
-0.010878034 -0.020761518 -0.0009828216 0.1147752 0.06167406 -0.008750189 -0.2372201 0.05923529
-0.036511403 0.024775784 0.059007853 -0.148337 0.05740204 -0.08881485 0.16895507 0.033483498
-0.034237538 0.090250164 0.086334676 -0.2324207 0.14300698 0.050197516 -0.031979993 -0.09872666
-0.087189004 0.015561594 0.07712756 0.066538885 0.0786388 0.10311557 0.21366578 -0.037044633
0.038146872 0.029166512 0.0020178868 -0.1422167 0.03431226 -0.0736797 -0.06558954 -0.08686049
0.12761045 0.038738832 -0.118356675 0.026083956 0.1661852 0.058861915 -0.023373194 -0.10031271
-0.08591032 -0.2629205 0.051698904 0.033946153 -0.050819416 -0.03664093 -0.008774549 -0.039251015
0.124548286 -0.18677193 -0.19591741 0.09857365 -0.20839788 0.09156656 -0.1504872 -0.06124192
-0.12038131 0.06628718 0.06711984 -0.0096699875 -0.20527856 -0.05234515 -0.07782243 0.04337095
0.08024568 -0.10408984 -0.004340951 -0.19557345 -0.14249079 0.05170248 0.069133565 0.08994068
0.040140554 -0.072203994 -0.06244883 0.06748548 0.025985342 -0.031142566 -0.03085101 -0.06523321
0.115104 0.032134637 -0.006310788 -0.22106066 0.12064582 0.14460273 -0.026377289 0.01701784
0.037638836 0.058888003 0.10689697 -0.097280845 0.023142831 0.06351368 0.05174759 -0.11512826
-0.001867805 -0.07315769 -0.22138341 -0.06428234 -0.05432225 0.17548604 0.12866153 0.11154665
00000000: 0600 443d fd76 fc3c f950 f93d 1804 f1bd
00000010: 22f3 90bd 8067 403d 70c9 f5bc d50e f2bd
00000020: fdfe 533d 534d 5c3e 0ccf cd3d 8638 f73c
00000030: 222c 20be bf85 b33d fccd b63d a962 2bbe
00000040: 918a 7e3d 6907 c33d 612d acbd 6355 323d
00000050: fccb a13d 0bda 93bd bbd4 b23c 5ca8 b23a
00000060: f4d9 133e caff b33d 8901 7bbd 26fc 0abd
00000070: db90 9cbd c272 01bd 52c7 2abe 17c4 f23c
00000080: a34d a4bc 6b8a 813c 94f1 56bd 964a fb3d
00000090: 7d14 c83b f846 ab3c c39a f43c 1263 fb3b
000000a0: f50e 923d 881f 033e a27b 473d f5ca 693e
000000b0: 9390 453d 6ec7 a1bc 7032 0fbe d9f0 15bd
000000c0: 43fc 0fbd b6cc b13d 49b3 ea3d b6b6 85bd
000000d0: 1aa9 afbd d7f8 893d 66e3 c6bd f93e 0abd
000000e0: 016c bb3e 3285 883e 3574 86bd 6dba 993d
000000f0: 21f8 003d e91d 463e db92 893e 400b febc
00000100: 0b53 6b3e 59d6 c3bc e7c7 c7bd bf79 743e
00000110: a7ec 573d 8daa f13c 94a8 a13d 1713 c83d
00000120: 864f 88bd 1120 343d e741 4e3e 68ff 813e
00000130: b8a2 19be 8a29 b8bc 3498 3e3e bb8f 073d
00000140: a409 68bd 44ad b6bd 9133 12be 1757 613c
00000150: 7ae5 d5bd 52da 8dbd 8c41 d5bd 6aa2 17be
00000160: 644b 9dbd 15fb 763b f0c4 cebd 20ce b73d
00000170: 709f 97bd 601d debd 6222 e63c e74e 223e
00000180: ecb3 dd3c 3e79 2bba 85d9 e03d ad43 d43d
00000190: 4e86 b3bc 9b86 47be cf40 333e 3da3 033e
000001a0: d247 023d acbf fb3d a47b d03b 7a86 f13d
000001b0: bf06 993d 8f01 823d a368 7ebd 5a9e 863d
000001c0: 3dbd cf3b 9cba 0a3e a823 d63c 25c2 5e3d
000001d0: fee1 26be e595 03be 1db5 523d 87bb b9bd
000001e0: a04b 743e 57cc fd3d ce99 12be 50ab 593e
000001f0: 38d2 c13e c332 f1bd c5d9 663e 3f0b ccbc
00000200: f80b 0b3d aec3 7e3d 5cf0 d1bd c235 243e
00000210: 880b c63d 496a c7bd d9aa dfbd ef41 813d
00000220: c443 8e3d f21f d93d c178 abbd 320f 5e3d
00000230: a6e6 293c cc63 2dbd 2ebf bfbc 1116 c93c
00000240: c839 32bc 0f14 aabc 05d2 80ba 430f eb3d
00000250: f09d 7c3d f45c 0fbc d3e9 72be b4a0 723d
00000260: fb8c 15bd 96f6 ca3c 38b2 713d a8e5 17be
00000270: 671e 6b3d 8fe4 b5bd 8f02 2d3e fe25 093d
00000280: a93c 0cbd 14d5 b83d 3cd0 b03d b1ff 6dbe
00000290: 6c70 123e e99b 4d3d 74fd 02bd 3431 cabd
000002a0: 2690 b2bd 0ef6 7e3c 0ef5 9d3d 8a45 883d
000002b0: 610d a13d 422e d33d 34cb 5a3e 1dbc 17bd
000002c0: e53f 1c3d 9cee ee3c 863e 043b 41a1 11be
000002d0: 038b 0c3d 62e5 96bd cf53 86bd eae3 b1bd
000002e0: 50ac 023e 9cac 1e3d fc64 f2bd 05ae d53c
000002f0: 742c 2a3e 3119 713d 2479 bfbc c070 cdbd
00000300: c0f1 afbd 849d 86be 3bc2 533d 1f0b 0b3d
00000310: 0528 50bd cd14 16bd 20c3 0fbc acc5 20bd
00000320: 2c13 ff3d 2441 3fbe 939e 48be fbe0 c93d
00000330: 4166 55be 4087 bb3d 5119 1abe cfd8 7abd
00000340: 7a8a f6bd 93c1 873d 2076 893d de6e 1ebc
00000350: 8b34 52be de67 56bd 5e61 9fbd bda5 313d
00000360: d957 a43d 0e2d d5bd 893e 8ebb 6844 48be
00000370: 1be9 11be fbc5 533d e695 8d3d d232 b83d
00000380: 6c6a 243d b0df 93bd 58ca 7fbd d435 8a3d
00000390: 36df d43c b21e ffbc 42bb fcbc fd98 85bd
000003a0: a5bb eb3d 9c9f 033d baca cebb ba5d 62be
000003b0: 2815 f73d bd12 143e 2f15 d8bc ff68 8b3c
000003c0: 2e2b 1a3d 8c34 713d ccec da3d 2e3b c7bd
000003d0: 0996 bd3c 7613 823d 48f5 533d 5dc8 ebbd
000003e0: 23d1 f4ba b3d3 95bd 55b2 62be 76a6 83bd
000003f0: 0281 5ebd 9db2 333e d9bf 033e 9272 e43d

bias f4 [6]
-0.050988737 -0.104680255 -0.12426102 -0.0028726566 -0.17551874 0.08194116
00000000: 91d9 50bd 9a62 d6bd 907c febd 2e43 3cbb
00000010: 2fbb 33be c4d0 a73d

weight f4 [6, 6, 3, 3]
-0.066432655 0.054581136 -0.052704263 0.015829585 0.08231964 -0.24167964 0.1010088 -0.066318594
0.122503266 -0.013408312 -0.12597676 0.2336985 -0.06983131 0.035528373 0.053930055 0.051824354
0.10489163 0.13322523 0.06293838 0.07376663 0.18327314 0.0653039 0.31502137 0.18973777
0.24730545 0.053929605 0.039954722 -0.046062768 -0.16264752 0.040232934 -0.23123878 0.09064241
-0.0264649 0.08058375 0.06715284 -0.14438915 -0.12947887 -0.23090103 -0.099457264 0.050704874
-0.32885605 -0.014162943 -0.062313084 0.0027602084 -0.01256313 -0.10732732 0.03192884 0.22357641
-0.0052249543 0.0062892744 -0.17572297 0.09538565 -0.080887295 0.0039539956 -0.028038045 -0.065093465
0.08755968 -0.0405905 0.06603443 -0.13609286 -0.0036921236 0.0027628026 0.10932538 0.27358568
0.11327989 -0.08161084 0.18616335 0.057195168 0.013145398 -0.30377555 0.1846631 -0.18575826
-0.08352315 -0.3197087 0.102850646 -0.13502997 -0.1356634 0.02376549 -0.046928268 0.01911825
-0.046151202 -0.080614224 0.16807249 -0.19315416 -0.17219044 -0.13203244 -0.25870106 0.024961205
-0.09569837 -0.018361654 0.08201617 -0.06891254 0.18272562 0.2729711 -0.2182339 -0.15323788
0.14824687 0.0159609 0.11614698 0.090699345 -0.044323094 -0.15702282 -0.08488959 -0.04241941
-0.034556754 0.23502332 0.18195072 -0.27799958 -0.2850665 0.10749252 0.015919147 -0.2470385
0.17476925 0.06048864 0.38027507 0.17635478 0.35862118 0.09290063 -0.02975502 0.20021574
-0.041995138 0.011248179 0.029532783 0.039392866 -0.056687497 0.0039274488 0.1330556 -0.013963613
-0.25570512 0.12089782 -0.11526815 -0.05216245 0.22673424 0.18040606 0.19638638 0.07567108
0.13026969 0.07334939 0.31256467 0.1218183 0.1722008 0.15596917 0.12985586 -0.055829544
0.11086629 0.17888965 0.38146582 0.14615873 0.2362352 0.21340053 0.07023596 0.11216754
0.46759853 0.18087086 0.14120822 0.19595195 0.23116559 0.0746157 0.19001949 0.28750637
0.17930293 0.25975597 0.17322855 0.009004388 -0.026838915 -0.022591094 -0.06921203 -0.08221563
0.056382153 -0.17298763 0.047904328 -0.05496756 -0.08937837 0.09419789 -0.07122261 -0.13703057
0.041629624 -0.066698454 0.2688122 0.024902467 0.07388013 -0.124425076 0.12722285 0.24646632
0.047919057 0.12654535 0.25177744 0.3330405 -0.035500303 -0.28268948 0.2107013 0.08260396
0.13224147 -0.04298129 0.12095928 0.16341355 0.04045569 0.2966033 0.06095485 -0.072312176
0.0649106 0.07432654 0.014489794 0.09137554 -0.053920478 -0.05263501 0.054160483 -0.4078025
0.031425513 0.05858459 0.08623878 -0.18971564 -0.042359333 0.06403689 0.08026362 0.081325166
-0.048590746 0.08536899 0.071173154 -0.03803746 0.11684391 -0.2180504 -0.085226074 -0.18589868
0.051169377 0.08755878 0.21232802 0.3015601 0.25897783 0.27956012 0.1563829 0.2335512
0.37265122 0.3263583 -0.41164392 -0.28491375 -0.050755937 -0.24760067 -0.47235367 -0.34368944
-0.69648623 -0.13677463 -0.2834954 -0.31041327 -0.121629834 0.07329886 -0.3367239 -0.31716672
-0.43741736 -0.22739467 -0.4780124 -0.61638033 -0.16242082 -0.46607536 -0.4047404 0.14005223
00000000: d80d 88bd 7890 5f3d 6de0 57bd 0cad 813c
00000010: 3397 a83d de7a 77be b4dd ce3d 0bd2 87bd
00000020: fee2 fa3d 89ae 5bbc 0d00 01be a94e 6f3e
00000030: b803 8fbd 3386 113d c3e5 5c3d c645 543d
00000040: 6cd1 d63d 326c 083e d6e5 803d f512 973d
00000050: f4ab 3b3e 0dbe 853d 7b4a a13e 9e4a 423e
00000060: a43d 7d3e 4ae5 5c3d 90a7 233d 50ac 3cbd
00000070: 128d 26be 4acb 243d dcc9 6cbe baa2 b93d
00000080: ebcc d8bc 1809 a53d 6e87 893d c0da 13be
00000090: 1c96 04be 5271 6cbe 40b0 cbbd eaaf 4f3d
000000a0: d25f a8be b00b 68bc 013c 7fbd 9de4 343b
000000b0: 96d5 4dbc 6dce dbbd d1c7 023d 37f1 643e
000000c0: 1836 abbb 4216 ce3b b9f0 33be 8d59 c33d
000000d0: 3da8 a5bd 8590 813b 0bb0 e5bc b94f 85bd
000000e0: 7d52 b33d 3942 26bd 0f3d 873d ed5b 0bbe
000000f0: 8ef7 71bb 2310 353b fce5 df3d 6c13 8c3e
00000100: 49ff e73d 9623 a7bd 9ba1 3e3e 7b45 6a3d
00000110: cc5f 573c 7888 9bbe 5318 3d3e 6a37 3ebe
00000120: 2f0e abbd dcb0 a3be 5ca3 d23d 4c45 0abe
00000130: 59eb 0abe d8af c23c db37 40bd e09d 9c3c
00000140: 0b09 3dbd 1219 a5bd 321b 2c3e 34ca 45be
00000150: b152 30be 8333 07be 7774 84be 717b cc3c
00000160: 82fd c3bd 2e6b 96bc 18f8 a73d 0522 8dbd
00000170: 6d1c 3b3e dec2 8b3e b578 5fbe 64ea 1cbe
00000180: 07ce 173e 6fc0 823c 78de ed3d 94c0 b93d
00000190: 228c 35bd 97ca 20be 98da adbd fabf 2dbd
000001a0: 628b 0dbd f4a9 703e 4a51 3a3e f655 8ebe
000001b0: 3cf4 91be 0a25 dc3d df68 823c a9f7 7cbe
000001c0: b6f6 323e f0c2 773d 6ab3 c23e 5996 343e
000001d0: 329d b73e af42 be3d cdc0 f3bc 5b05 4d3e
000001e0: 1803 2cbd 484a 383c bcee f13c 6a5a 213d
000001f0: 2631 68bd d4b1 803b ba3f 083e a3c7 64bc
00000200: c8eb 82be 4799 f73d b511 ecbd 4ba8 55bd
00000210: 052d 683e 5ebc 383e 8319 493e 70f9 9a3d
00000220: 6b65 053e 3438 963d 7a08 a03e df7b f93d
00000230: 6855 303e 62b6 1f3e eff8 043e 85ad 64bd
00000240: de0d e33d d92e 373e 7d4f c33e a2aa 153e
00000250: a4e7 713e ab85 5a3e dfd7 8f3d 18b8 e53d
00000260: 1369 ef3e 3636 393e e398 103e a1a7 483e
00000270: acb6 6c3e 1ed0 983d 7894 423e 0934 933e
00000280: 309b 373e bcfe 843e d362 313e 2487 133c
00000290: 49dd dbbc f510 b9bc 09bf 8dbd ab60 a8bd
000002a0: f9f0 663d ab23 31be 5437 443d aa25 61bd
000002b0: 020c b7bd d3ea c03d 29dd 91bd be51 0cbe
000002c0: d383 2a3d 3399 88bd c1a1 893e 4200 cc3c
000002d0: 774e 973d 93d2 febd b546 023e ab61 7c3e
000002e0: c646 443d 1b95 013e f9e8 803e 4984 aa3e
000002f0: c468 11bd adbc 90be 15c2 573e 442c a93d
00000300: 4f6a 073e 260d 30bd 80b9 f73d e255 273e
00000310: deb4 253d 63dc 973e cbab 793d 6818 94bd
00000320: d9ef 843d 8338 983d 9a66 6d3c 1923 bb3d
00000330: b8db 5cbd cf97 57bd 62d7 5d3d 7dcb d0be
00000340: 0ab8 003d 65f6 6f3d f59d b03d d144 42be
00000350: fb80 2dbd c625 833d 4161 a43d cf8d a63d
00000360: 1707 47bd f0d5 ae3d 3bc3 913d 2bcd 1bbd
00000370: dc4b ef3d 9b48 5fbe 028b aebd 395c 3ebe
00000380: fb96 513d 0552 b33d 846c 593e 1666 9a3e
00000390: be98 843e 8122 8f3e d722 203e 0c28 6f3e
000003a0: 24cc be3e 6f18 a73e fec2 d2be 37e0 91be
000003b0: 75e5 4fbd 088b 7dbe 57d8 f1be 10f8 afbe
000003c0: ec4c 32bf a60e 0cbe 4f26 91be 7dee 9ebe
000003d0: 1019 f9bd b61d 963d 1367 acbe ad63 a2be
000003e0: 2bf5 dfbe 26da 68be 0bbe f4be 1acb 1dbf
000003f0: a551 26be 6ea1 eebe 223a cfbe da69 0f3e

bias f4 [6]
-0.003025993 -0.02303564 -0.16590929 -0.03312334 0.0032963736 0.05014367
00000000: bd4f 46bb 3db5 bcbc 20e4 29be 57ac 07bd
00000010: f907 583b 7363 4d3d

weight f4 [5, 2646]
0.19699489 0.097137995 0.24683328 -0.03659284 -0.047846235 -0.018946731 0.067686886 0.1482532
0.20672938 0.035275985 -0.092689246 -0.013360614 -0.11874159 0.1142176 -0.06910981 0.029373156
-0.14016432 -0.14609584 -0.12091079 0.0020599698 -0.06280618 -0.09974083 0.29597357 0.05320284
0.28531975 0.13726003 -0.13276587 -0.11311809 0.106360346 -0.1307655 0.040661026 -0.18664373
0.02399846 -0.033114467 -0.019498125 0.01784908 -0.04933877 -0.0121589545 -0.057816356 0.025641365
-0.0716236 -0.06926286 -0.059843127 -0.06160069 0.06773995 -0.0012039965 0.100868866 0.009884152
0.026867826 -0.09714679 -0.038737778 -0.045874484 0.0765899 0.09348145 -0.011305441 0.03499956
0.05872526 -0.048322383 -0.026227722 -0.06586546 -0.06836363 -0.06650276 -0.011376126 -0.061759505
0.03935131 0.02111577 0.09650092 -0.049057283 0.10123455 0.15864038 -0.118916124 -0.22780962
-0.06318814 0.13560951 -0.13578613 0.029451637 0.04535369 -0.10488279 0.004146909 -0.12714331
-0.05134129 -0.0020627782 -0.0021528378 0.03712508 -0.14834376 0.11625323 0.061835513 0.030303454
-0.09238592 -0.10929324 0.047953326 -0.0028598593 0.18237282 0.116152026 -0.14196627 0.07690718
0.053535707 0.1073208 -0.1039658 -0.07421765 -0.1712246 -0.076546684 0.013611377 -0.03279576
-0.05738362 -0.05659892 0.12129938 -0.07990593 0.09377033 -0.013573843 -0.09543942 0.1759737
0.09284642 -0.098660596 0.12111135 0.07217195 0.09287064 -0.03985945 0.04698621 -0.08462443
-0.07128001 -0.034713298 -0.12802233 0.078958645 0.0151222935 -0.061241835 -0.050466057 0.00740069
-0.00045603848 0.033794288 0.04629303 -0.01917749 -0.07314336 0.20868833 0.19665441 0.09658004
0.17445096 0.14169526 0.07440628 0.13358226 0.054756332 -0.030567314 -0.074918345 0.00207796
-0.030443838 -0.028472695 -0.033778626 0.04960056 0.12462912 -0.11141839 0.0534126 0.08597212
0.12447818 0.003829646 0.061882254 0.14767995 0.13301003 0.03170753 0.2031856 0.26940957
0.14687176 0.09806581 -0.079770826 -0.037735943 -0.036122788 -0.0750067 -0.038114276 -0.026564835
0.08283151 0.044474278 0.18960622 -0.10883094 0.10402186 0.23256464 0.15564461 0.03843383
0.29423332 0.14209221 0.079650484 0.16354308 0.069097236 0.08837415 -0.014553671 0.031584803
-0.04878648 -0.024382474 -0.011687817 -0.073001795 0.14062576 -0.029268457 0.14904508 0.16654891
0.29784006 0.16308449 0.07085379 0.16330174 0.06513246 0.1790196 0.1690863 0.16709922
0.1335904 0.07753079 0.08914785 0.07396636 0.011830522 0.02196798 -0.012950267 0.052476887
-0.068842694 0.08023438 0.1715141 0.36294323 0.08818113 0.17232607 0.22535008 0.14719656
0.23713055 0.11071402 0.24493153 0.14840448 0.243984 0.15349004 0.18129693 0.10803686
0.096656166 0.020580692 0.0055739568 0.01909932 -0.014717461 0.0058596428 -0.09320085 -0.00027879587
0.034430034 0.0073245033 0.06726073 0.07768391 0.08697771 0.20506653 0.19294584 0.2523071
0.07217711 0.24230632 0.22401758 0.22533946 0.12399415 0.09752739 -0.0055823117 -0.008835172
0.05353371 0.09844604 -0.039263118 -0.10969966 0.025736948 0.14327352 0.1297718 0.18603526
00000000: 07b9 493e 49f0 c63d ddc1 7c3e 60e2 15bd
00000010: 6afa 43bd 2d36 9bbc 6c9f 8a3d b0cf 173e
00000020: deb0 533e 8d7d 103d dcd3 bdbd 7ae6 5abc
00000030: ca2e f3bd ebea e93d 7289 8dbd f99f f03c
00000040: 3c87 0fbe 269a 15be 14a0 f7bd 8f00 073b
00000050: 87a0 80bd ec44 ccbd d989 973e 39eb 593d
00000060: 6e15 923e e58d 0c3e c7f3 07be 75aa e7bd
00000070: 74d3 d93d 64e7 05be 2d8c 263d 891f 3fbe
00000080: 6b98 c43c 09a3 07bd 88ba 9fbc 3c38 923c
00000090: 7317 4abd 5a36 47bc d8d0 6cbd d70d d23c
000000a0: 65af 92bd b0d9 8dbd 111e 75bd 0151 7cbd
000000b0: 3ebb 8a3d 6bcf 9dba 5694 ce3d 23f1 213c
000000c0: ea19 dc3c e5f4 c6bd 81ab 1ebd e2e6 3bbd
000000d0: 2adb 9c3d 3473 bf3d 753a 39bc b35b 0f3d
000000e0: e689 703d b1ed 45bd 85db d6bc 78e4 86bd
000000f0: 3b02 8cbd 9932 88bd ee62 3abc 89f7 7cbd
00000100: d72e 213d fbfa ac3c 46a2 c53d 4af0 48bd
00000110: 0f54 cf3d a072 223e 4c8a f3bd ed46 69be
00000120: c968 81bd 38dd 0a3e 850b 0bbe 8f44 f13c
00000130: cac4 393d cacc d6bd cbe2 873b db31 02be
00000140: 3f4b 52bd ad2f 07bb a016 0dbb 7810 183d
00000150: 6de7 17be 2c16 ee3d 3c47 7d3d f33e f83c
00000160: d434 bdbd 22d5 dfbd b56a 443d 7a6c 3bbb
00000170: f1bf 3a3e 1de1 ed3d 9b5f 11be 8381 9d3d
00000180: 4248 5b3d 02cb db3d 05ec d4bd 6cff 97bd
00000190: 8055 2fbe 82c4 9cbd 4102 5f3c d954 06bd
000001a0: 160b 6bbd 45d4 67bd cf6b f83d b8a5 a3bd
000001b0: a90a c03d d364 5ebc be75 c3bd 7332 343e
000001c0: 4426 be3d 910e cabd 3a09 f83d e3ce 933d
000001d0: f632 be3d aa43 23bd 9d74 403d 934f adbd
000001e0: 41fb 91bd 882f 0ebd 4918 03be 12b5 a13d
000001f0: 7fc3 773c b8d8 7abd 7fb5 4ebd 7d81 f23b
00000200: 7318 efb9 e16b 0a3d c39d 3d3d 1d1a 9dbc
00000210: 30cc 95bd 65b2 553e c65f 493e c2cb c53d
00000220: 46a3 323e 9018 113e 5262 983d cac9 083e
00000230: 2d48 603d 4e68 fabc ca6e 99bd 622e 083b
00000240: 5b65 f9bc 923f e9bc 755b 0abd f529 4b3d
00000250: 8d3d ff3d 532f e4bd 2cc7 5a3d 2712 b03d
00000260: 6bee fe3d ccfa 7a3b 3f78 7d3d 6a39 173e
00000270: c833 083e c1df 013d e30f 503e 0df0 893e
00000280: 8d65 163e bad6 c83d e35e a3bd 0191 1abd
00000290: 7df5 13bd 1d9d 99bd b71d 1cbd 7f9e d9bc
000002a0: 91a3 a93d a92a 363d 2228 423e c2e2 debd
000002b0: 6a09 d53d 6d25 6e3e 4d61 1f3e cb6c 1d3d
000002c0: c0a5 963e 9f80 113e cb1f a33d d677 273e
000002d0: da82 8d3d 82fd b43d 8572 6ebc 115f 013d
000002e0: 55d4 47bd c1bd c7bc 427e 3fbc f781 95bd
000002f0: 3300 103e 67c4 efbc 469f 183e cc8b 2a3e
00000300: 7e7e 983e 9fff 263e cb1b 913d 9238 273e
00000310: 2b64 853d ea50 373e f624 2d3e 0f1c 2b3e
00000320: eccb 083e 76c8 9e3d 2693 b63d ad7b 973d
00000330: ced4 413c 31f6 b33c 5b2d 54bc 01f2 563d
00000340: 66fd 8cbd ec51 a43d 64a1 2f3e b2d3 b93e
00000350: 4f98 b43d 3f76 303e 2cc2 663e b2ba 163e
00000360: 5ad2 723e 08be e23d 55cf 7a3e 58f7 173e
00000370: f1d6 793e 7e2c 1d3e e7a5 393e 6e42 dd3d
00000380: abf3 c53d d798 a83c bda5 b63b 2d76 9c3c
00000390: 8121 71bc 3f02 c03b 16e0 bebd 592b 92b9
000003a0: 8206 0d3d 6302 f03b febf 893d be18 9f3d
000003b0: 5f21 b23d f6fc 513e 9893 453e 652e 813e
000003c0: 98d1 933d 261f 783e dd64 653e 63bf 663e
000003d0: a5f0 fd3d 71bc c73d d3eb b6bb 66c1 10bc
000003e0: 2a46 5b3d 149e c93d 5dd2 20bd 37aa e0bd
000003f0: 4bd6 d23c 4bb6 123e e6e2 043e 0780 3e3e

bias f4 [5]
-0.09139199 -0.06884092 -0.06459695 -0.05604741 -0.05548727
00000000: b92b bbbd 78fc 8cbd 684b 84bd f891 65bd
00000010: 9f46 63bd
