archived_data/b4_r0_m20_s200--2019-01-09--215705.861725/episode_3500.model (torch_old, 70087 bytes, 8 tensors)

weight f4 [6, 6, 3, 3]
000000 69 c2 95 bd 5e 01 e7 3d 18 15 9f 3c f8 c6 c9 3c
       -0.073124714 0.11279558 0.019419238 0.024631009
000010 2f 9b 81 bd 40 23 cf 3c 0b ac a1 bd f0 b8 9a 3d
       -0.06328427 0.025285363 -0.07894143 0.07554805
000020 c8 dd 4b bd e5 0d d2 3c 61 cf cf bc d2 42 34 3d
       -0.049772054 0.025641391 -0.02536744 0.044009037
000030 d3 a4 f2 3d 02 f8 3e 3d 07 8c 6b bd 71 19 9c 3d
       0.11847844 0.046623237 -0.057506587 0.0762204
000040 c0 5a 25 3d 9c f2 b5 3b 5c c7 a7 be 14 f6 14 bf
       0.04036975 0.005552603 -0.32769287 -0.58187985
000050 83 f0 31 bf ca 77 c0 be f4 28 3e bf cb e4 1e bf
       -0.69507617 -0.37591392 -0.7428124 -0.6206786
000060 27 d5 06 be a4 56 1d bf ce 68 3b bf 5a 21 da bd
       -0.13167249 -0.6146033 -0.73206794 -0.106508926
000070 80 96 0b 3d 96 86 45 bd 90 29 64 3c 94 2b 48 3d
       0.034079075 -0.048224054 0.013925925 0.048869684
000080 92 f1 9f 3d de ba 64 bd 8c a3 e3 3d db 21 f7 bd
       0.07809748 -0.055842273 0.111151785 -0.12067004
000090 30 42 ac bd 08 1e 24 bf 4e 7a aa bc 93 36 b0 3e
       -0.08411062 -0.64108324 -0.020810273 0.34416637
0000a0 e2 c8 ab be a0 a5 cb be ea 41 46 3e 58 61 05 bf
       -0.335517 -0.397748 0.19361082 -0.5210166
0000b0 74 6b 79 be 5f ba 1d 3e 78 28 da bd e0 f8 cc 3d
       -0.24357396 0.15403126 -0.1065225 0.10008407
0000c0 be 10 b0 3d bc 9a 52 bc 6d ba 33 3d 71 71 17 3e
       0.08596943 -0.012854274 0.04387896 0.14789368
0000d0 8f 0c 95 3d 19 9f 43 bd 74 8b 95 3d 74 cd cb 3d
       0.07277786 -0.04775915 0.07301989 0.099512964
0000e0 10 ed ea 3d d8 7b 49 3d 84 11 e0 bd a9 3d 86 bd
       0.11470997 0.049190372 -0.10940841 -0.065547295
0000f0 f8 f7 09 3d 3c 52 f8 3d 1c f9 94 bd c1 9e 1d 3d
       0.033683747 0.1212506 -0.07274076 0.038481478
000100 bc 1d 29 be 82 2f df bd 53 44 8a 3d e7 fe cf bd
       -0.16515249 -0.10897733 0.06751313 -0.10156041
000110 e3 b9 c5 bd e6 17 a2 bc 83 03 65 bd 60 d6 4b bd
       -0.09654596 -0.019786786 -0.055911552 -0.04976499
000120 c7 49 96 3d b2 ed 17 3e 93 0c e9 3d 8c c2 77 3e
       0.07338291 0.14836767 0.113793515 0.24195307
000130 f9 2b 68 3e 1a 57 d3 3d df 0d 08 3e ef 5f 17 3e
       0.22673024 0.10319348 0.13286541 0.1478269
000140 93 c5 d4 3d 2e 0f d9 3d 6a 7e b0 3d 00 ee 06 ba
       0.10389247 0.105985984 0.086178616 -0.0005147159
000150 88 25 89 3d fc 9d 04 3d e4 74 89 bc b6 06 a2 bd
       0.06696612 0.03237723 -0.01677937 -0.07911436
000160 88 b4 28 3d 00 f6 01 3a 0b fd 3e 3e 84 2c a0 3e
       0.041187793 0.00049576163 0.18651216 0.31283963
000170 a4 1e eb 3e f0 7e b5 bc 3f 26 17 3f 5b 34 d2 3e
       0.45921814 -0.022155255 0.59042734 0.4105557
000180 ed 8f 02 bd a8 69 66 3e dc d5 2b 3e 98 a0 8c bc
       -0.03187554 0.22501242 0.167808 -0.01716642
000190 98 aa 5f be c4 69 20 3e 3f de e7 3c fb 8b 2b be
       -0.2184242 0.15665346 0.028304217 -0.16752617
0001a0 8a 16 4d 3e be 7e 88 3d 1f 96 d5 bd 18 89 76 bd
       0.20028129 0.06664799 -0.10429024 -0.060189337
0001b0 c5 ea a1 bd 08 0a d1 bd 28 5d ea 3d 35 e3 a7 bd
       -0.07906107 -0.102069914 0.114435494 -0.08197633
0001c0 52 69 ed bd 3c 67 06 be 7c 42 91 3d 18 07 9d bc
       -0.11592354 -0.13125318 0.07092759 -0.019168422
0001d0 98 aa 0a be fc ba 2d 3d 06 d1 af bc e0 25 56 be
       -0.13541639 0.04241465 -0.021461975 -0.20912886
0001e0 59 0d 8d bd ad 84 ee ba 4b f2 cb bd 6c 48 b2 bd
       -0.068873115 -0.00181975 -0.09958323 -0.087052196
0001f0 98 99 22 3d 76 4a 03 3e d4 7b 34 3a e7 9f a1 3c
       0.03969726 0.12821373 0.0006884907 0.019729568
000200 56 df b5 3c 3f c2 81 3d 0d b6 e4 3c 72 44 41 bd
       0.022201221 0.063358776 0.02791884 -0.047184415
000210 9d 3f 88 bd 8e e9 f4 3d 7f 74 1c 3c 18 55 6a 3d
       -0.06652758 0.119586095 0.009549259 0.057210058
000220 80 8b 6a 3d a8 61 95 bd 46 2b a4 bd 6c 69 17 3d
       0.057261944 -0.07294017 -0.08016066 0.036965773
000230 3c 2d 08 be eb 49 c0 bd 74 de ee 3d 74 ac 2a bd
       -0.13298506 -0.09389099 0.11663523 -0.04166837
000240 dc 68 20 3e 37 63 1d 3d e1 ca 23 bf 93 8a e7 be
       0.15665 0.038424697 -0.63981444 -0.4522291
000250 bf 9d 01 bf c4 d4 27 bf d9 55 29 bf f8 2d 56 3e
       -0.50631326 -0.6555903 -0.6614662 0.20915973
000260 63 99 d6 bd 06 f0 48 3d ec 43 f8 bd 7c 30 5d 3b
       -0.10478475 0.04905703 -0.1212233 0.0033750823
000270 3e bf ab bd d4 b8 a1 3c 61 a0 fe bd 53 f7 20 bd
       -0.08386086 0.019741453 -0.124329336 -0.039298367
000280 27 6e 39 3e 21 7f 8a 3d 94 be 61 bd 34 9f 9c bd
       0.18108426 0.06762529 -0.05511339 -0.07647553
000290 2c 3f 08 3e 44 ec b7 bc c4 d3 40 3d a8 e9 93 3d
       0.13305348 -0.022451527 0.047076955 0.07222301
0002a0 b4 21 54 3d 5c 80 04 3e fa 52 a5 bd 5a cc f4 bd
       0.051789954 0.1293959 -0.08072467 -0.119530395
0002b0 09 0d 00 3d 1b e1 eb 3d 33 19 84 bc f0 89 d5 ba
       0.03126243 0.11517545 -0.016125297 -0.0016291719
0002c0 e8 4d 89 3d 48 2a 1d 3d 57 5c b2 bc ff 4d 7a bc
       0.067043126 0.0383704 -0.021772547 -0.015277385
0002d0 c7 d4 91 3d e0 3b 00 3e 19 db 45 3d 33 3f be 3d
       0.07120662 0.1252284 0.04830465 0.09289398
0002e0 a3 c4 0f 3e c4 67 f2 3d 36 c9 27 3e 36 cf d6 3d
       0.14039855 0.11836198 0.1638535 0.10488741
0002f0 8d 51 d3 3d 9a 43 04 3e 40 28 4a 3c a8 ee 9e 3d
       0.10318289 0.12916413 0.012338698 0.07760364
000300 b4 68 99 3d b3 6d f3 bd 8c 79 b4 3d fe 80 aa bd
       0.07490674 -0.11886158 0.08812246 -0.083253846
000310 50 8a ed bd 1b 61 88 bd a6 42 9f 3c 80 bc a2 be
       -0.11598647 -0.066591464 0.01944096 -0.3178444
000320 b3 e8 dc be 48 fb 27 be b9 8e 00 3e 44 6a 9d 3e
       -0.43146285 -0.1640445 0.12554444 0.30745137
000330 e9 dd b5 be 84 19 39 bf 99 fd 55 bf a9 3d 28 3d
       -0.35520867 -0.7230456 -0.83590084 0.04107443
000340 90 46 4b 3c 66 88 2c 3d 8b fb a3 bd 09 69 f3 ba
       0.01240696 0.042122267 -0.080069624 -0.0018570732
000350 ba 60 62 3c b8 5c 12 be 0a 13 d4 bb 76 95 66 bd
       0.013817007 -0.14293182 -0.006471996 -0.05629488
000360 40 fc b5 3c d1 96 8b bd 30 48 27 3d 50 d6 47 3c
       0.022215009 -0.06815875 0.040840328 0.012197092
000370 8c 44 bf bd e0 4f 8c 3d 08 d0 32 bd 58 b8 e6 bd
       -0.09339246 0.068511724 -0.043655425 -0.112656295
000380 b8 79 03 3e bf 55 b6 3b 45 62 84 bd cf 7e a4 39
       0.12839401 0.005564421 -0.06464056 0.00031374997
000390 bd b7 cf 3d 21 a9 fa 3c 8b 78 96 bd 47 29 1f 3d
       0.10142467 0.030598225 -0.073472105 0.038857725
0003a0 a6 5e d0 3d 9c f9 9c 3d b3 4c 34 3e a8 b7 5e 3e
       0.10174303 0.07664797 0.17607383 0.21749747
0003b0 4c 26 2b 3e 49 a0 1a 3e 07 f7 7a 3e 5e 28 5b 3e
       0.16713828 0.15100206 0.24508296 0.21402118
0003c0 28 e3 5b 3e 5a af bb 3e fc c1 4e 3e 10 2d 0a bd
       0.21473372 0.3665722 0.20191187 -0.03373438
0003d0 e8 6b 93 3c 58 55 50 3d c0 16 a7 3b 08 67 a6 3d
       0.01799579 0.05086264 0.0050991476 0.081251204
0003e0 3b 23 94 bd 38 3d 4e bd b0 81 b4 3d 00 8e 8f bb
       -0.07233282 -0.05035135 0.088137984 -0.0043809414
0003f0 d1 da a2 bd 9e 97 9c 3e f0 d5 87 3d 65 44 11 3d
       -0.07951892 0.30584425 0.06632602 0.035465617

bias f4 [6]
000000 5f 67 96 3d 87 85 82 3d bf ce bc 3d bf 0f c5 bc
       0.07343935 0.063731246 0.09219121 -0.02405536
000010 1c d8 97 bd 54 be 9b bc
       -0.074142665 -0.019011654

weight f4 [6, 6, 3, 3]
000000 5e 8f 8a be a4 93 3e be d0 8b f5 bd fe 29 a7 be
       -0.27062505 -0.18611008 -0.11989558 -0.32649225
000010 af aa 58 be 74 72 27 3c 16 ee 6e be 48 8f 1f be
       -0.2115886 0.010220159 -0.2333301 -0.15582001
000020 35 75 18 be 76 56 3e bc f2 92 38 3e 67 66 0d 3e
       -0.14888461 -0.011617294 0.18024805 0.13808595
000030 02 09 e0 3d 48 3a cc 3d c5 06 c4 3c a0 ce 93 3c
       0.10939218 0.09972054 0.02392901 0.018042862
000040 94 3d 2d 3e cb 0f 0b 3e ff 47 5b bd 9d 39 44 3d
       0.16918021 0.13580243 -0.053535458 0.047906507
000050 4c 7b 0c 3e 4a 0f d0 bb 4c 17 4f bd 1d 63 c6 bd
       0.13718909 -0.006349479 -0.050559327 -0.09686873
000060 b1 5a 20 3d ba 10 94 3d bc 32 4f bb fe 5a 56 3e
       0.03914899 0.07229753 -0.0031615933 0.20933148
000070 e6 f9 9b 3d a1 13 c0 3d 28 60 d6 3d fa bc 2d bd
       0.07616024 0.09378744 0.10467559 -0.04241655
000080 19 83 28 3e ee bf 4b bd ba c5 18 3e e3 a3 e4 3c
       0.1645626 -0.049743585 0.14919177 0.027910179
000090 da 1a cb 3d c1 5c 44 3b b1 e6 84 3d 6c 40 92 3c
       0.09917231 0.0029962512 0.064893134 0.017852984
0000a0 c0 58 d5 bc 83 28 40 3e 8f 62 00 3e 2c 64 11 3e
       -0.026043296 0.18765454 0.12537597 0.14198369
0000b0 19 d3 0c 3e 5b 32 2b bc b2 2c ea bd 5c fb 01 3d
       0.13752402 -0.010449017 -0.11434306 0.031733856
0000c0 5f 9f c9 bd 14 fd 21 bd df 13 04 3e 3a 70 d6 bd
       -0.09844851 -0.039547995 0.12898205 -0.10470624
0000d0 9e 06 6c 3c 42 83 83 bd 3b 36 29 be b1 e9 83 bd
       0.014405875 -0.0642152 -0.16524594 -0.064410575
0000e0 c6 64 07 bc 36 80 d2 bd a2 d6 98 be 89 f7 c7 3c
       -0.008263772 -0.102783605 -0.29851252 0.024410026
0000f0 c0 69 19 be e7 4b 66 3c 71 06 e5 bd c8 af d5 3d
       -0.14981747 0.0140561825 -0.11182869 0.10433918
000100 c8 08 e7 bc a7 bb 9d be 34 5d 07 3d c1 35 e3 bb
       -0.02820243 -0.3080723 0.03304787 -0.006933898
000110 7e fc cd bd 38 72 b6 bc 0d a0 82 bd a4 df a6 3d
       -0.10057925 -0.02227126 -0.063781835 0.08148125
000120 f7 39 31 be af a8 2a bc 77 27 a4 3e d2 e5 9b 3d
       -0.17307268 -0.010416194 0.3206136 0.07612194
000130 b2 ad 88 3e fe 93 1a 3e 13 ca 61 bd 2c 77 1e bd
       0.2669502 0.15095517 -0.055124354 -0.03868787
000140 6a 43 e1 bd 1a bb 46 3d 9b 6a 14 bd 43 db 90 3e
       -0.10999186 0.048518278 -0.03623448 0.28292283
000150 eb 6b 5b 3d c3 dc 59 be 18 b4 e5 3c 28 88 3f 3e
       0.053569715 -0.2127562 0.028039977 0.18704283
000160 e8 59 b3 3e 6a 12 90 3e 77 df 0b 3e a6 08 40 bd
       0.3502953 0.2813905 0.13659464 -0.046883248
000170 cd f4 8d 3d 37 8e a4 3d 01 8d 67 3d 47 02 6d 3d
       0.06931458 0.08034938 0.056530956 0.0578635
000180 25 70 1e be e9 47 c2 bd 14 7a 36 be c4 93 24 be
       -0.15472467 -0.09486372 -0.17820007 -0.16071993
000190 51 75 bd bd c6 55 6b 3e 3a 2c 19 be a1 ae 6d 3e
       -0.09250892 0.22981939 -0.14958277 0.23211147
0001a0 48 5b 29 3e 18 1f 7e 3e bc 15 5d bd 3e 11 35 bc
       0.16538727 0.24816549 -0.053975806 -0.011051474
0001b0 a1 3b 4e be 43 30 eb 3c f6 e4 65 bd 0d 9d b4 bd
       -0.20139934 0.028709536 -0.056126557 -0.088190176
0001c0 91 27 81 be 67 58 06 3c d8 c4 8d bd 5e 0f b3 bd
       -0.252255 0.008199788 -0.069223106 -0.087431654
0001d0 fd 1f ad bd 79 dd c1 3d 2f 09 a1 3b 70 e3 a7 bc
       -0.08453367 0.09466071 0.004914425 -0.020494193
0001e0 4a a0 8d 3d 92 30 c2 3c d2 c1 7b 3c 4d c6 b3 3c
       0.06915338 0.0237048 0.015366035 0.021945143
0001f0 ff fd 5b be 82 e0 36 be 14 f7 5a 3c d0 26 05 be
       -0.2148361 -0.1785908 0.013364572 -0.13003087
000200 60 b9 85 3d 64 76 04 be 67 13 0e 3e c2 4f 06 3e
       0.06529498 -0.12935787 0.13874589 0.13116363
000210 d6 db a8 3d 7f 64 d9 3d 2a 55 4c 3e 62 92 50 3d
       0.082450554 0.10614871 0.19954363 0.05092085
000220 a0 d8 d5 3d 33 85 49 3e 7b b5 2d 3b f9 f4 14 3e
       0.104417086 0.19679718 0.0026505876 0.14546575
000230 d0 ae 33 3e c7 26 79 3c ce 2b 28 3e 45 28 0f 3e
       0.17547154 0.015206999 0.1642296 0.13980205
000240 d2 2c 39 bd f7 9d b3 bd ac 87 26 be ca 62 b4 3d
       -0.04520876 -0.08770364 -0.16262692 0.08807905
000250 4b 1b d2 bd 9a 26 cf bd 03 20 cd 3c 40 b8 39 3d
       -0.10259112 -0.101147845 0.025039678 0.04534173
000260 2e 94 fc 3d 1d 9f af 3d 72 b8 74 be c3 89 3b be
       0.123329505 0.0857527 -0.23898485 -0.1831427
000270 b3 a0 04 bd 1e d4 c3 3d 96 04 45 be c6 bc c2 bd
       -0.032379817 0.095619425 -0.1924003 -0.09508662
000280 72 34 2a be cb 18 73 bd d7 e3 6a bd dc c3 f4 3d
       -0.16621569 -0.059349816 -0.05734619 0.1195142
000290 c1 d6 fb 3d 4a 22 0c be 8a 4e a4 3d a0 ca db bd
       0.122968204 -0.13684955 0.08022793 -0.10732007
0002a0 b6 6f 3f bd 43 10 6c 3d 94 27 12 be df 12 3e be
       -0.046737395 0.057632696 -0.1427291 -0.18561886
0002b0 f0 bc 87 bd c1 ec 22 bd ec 2c 80 bd c0 05 14 be
       -0.06627834 -0.039776567 -0.06258568 -0.14455318
0002c0 25 31 b3 bd 22 34 1e be 9c 11 57 bd c1 bf 31 3e
       -0.08749608 -0.15449575 -0.052507028 0.17358305
0002d0 6b a8 5d bd f7 65 4d 3e bf 65 a8 3e 98 2c 68 3b
       -0.054115694 0.20058428 0.32890126 0.003542697
0002e0 62 1c 88 3e fe b8 b6 3e 40 46 0b bd 4c 8d 86 bc
       0.26584154 0.35688013 -0.034002542 -0.016424797
0002f0 69 02 6a 3e 64 ba b3 bd f0 22 77 3e 52 fe 28 3e
       0.22852482 -0.087757856 0.24134421 0.16503266
000300 4b ef b7 bd 59 55 73 bd 9b 91 fa bd c2 d7 3a 3e
       -0.089811884 -0.059407566 -0.12234803 0.18246368
000310 ba 7c 89 3e f5 61 0d bd 09 40 91 bd fd be 86 bd
       0.2685297 -0.034517247 -0.07092292 -0.06579397
000320 65 98 59 be d8 9b bd 3b 86 39 8e bd df 1c 83 3d
       -0.2124954 0.0057864003 -0.069445655 0.06401991
000330 df 36 60 be 7a 82 bd bd 37 b3 7c be a1 6f 90 3d
       -0.21895932 -0.09253402 -0.2467774 0.070525415
000340 fc 21 0a 3e 97 29 e9 3d 6a c8 16 3e 2b fa 5e 3e
       0.13489527 0.11384886 0.1472489 0.21775119
000350 26 31 19 3e b4 60 96 bd 0c bf a8 bd 0c 35 a2 bd
       0.14960155 -0.073426634 -0.08239564 -0.07920274
000360 d0 4e e1 3d 7b ae c0 bd 80 b7 97 3d 7a c9 d8 3d
       0.110013604 -0.094082795 0.07408047 0.105853036
000370 9c 19 91 bd 92 ec 1f be c5 23 ee bd 13 af 64 bd
       -0.07084963 -0.15617588 -0.11627916 -0.055831026
000380 1e 01 9d 3d bf 26 3e bc 89 b1 05 3e fc e4 8c 3e
       0.07666229 -0.0116059175 0.13056006 0.2751845
000390 71 c0 1d 3c b8 af fc 3c 64 a8 48 3d 0d 08 06 be
       0.009628401 0.030845508 0.048988715 -0.13089009
0003a0 9e 19 30 be 57 8a a8 bd 14 19 ad be 41 f3 0b be
       -0.17197272 -0.08229511 -0.33808196 -0.13667013
0003b0 49 c5 2b be 71 8e a1 be 64 75 bb 3d ff 83 cb 3d
       -0.16774477 -0.31553987 0.0915325 0.09937286
0003c0 fe c5 61 be b9 7d 8b 3e 70 14 a3 3e 9e 78 c4 3d
       -0.22048184 0.27244356 0.3185153 0.095933184
0003d0 43 b2 85 be 4d c1 8c bd ac 1a 80 be 4a 46 ee bd
       -0.26112565 -0.06872807 -0.2502035 -0.116345
0003e0 c1 b5 96 3d 76 33 87 bc 91 e9 2b be 2d dd 8b be
       0.073588856 -0.01650403 -0.16788317 -0.2731718
0003f0 72 4c fc 3d fe 19 70 be c1 0c 3d bc 42 27 09 3e
       0.12319268 -0.23447415 -0.011538685 0.13393882

bias f4 [6]
000000 d4 72 78 3d 67 4b 30 be 79 c5 d2 3d cb 19 3f 3d
       0.060656384 -0.17216264 0.10291571 0.046655457
000010 fd 3f f4 3c 76 7c 83 bd
       0.029815668 -0.064202234

weight f4 [6, 6, 3, 3]
000000 0a cd b4 b9 ed 22 94 bd 4e 86 67 be 32 a5 0b be
       -0.0003448504 -0.07233224 -0.22609827 -0.13637236
000010 02 88 4d be e1 a9 5b be 0e 13 08 be 82 f1 a2 bc
       -0.20071414 -0.21451522 -0.13288519 -0.01989055
000020 6d 47 a1 be d1 f5 9f be 28 a2 3e 3d 03 77 13 bd
       -0.31499806 -0.3124223 0.046541363 -0.03600217
000030 74 f3 a5 be 68 90 2b be c4 ed 82 3d d1 d0 5e 3b
       -0.32412302 -0.16754305 0.063930064 0.0033998976
000040 d8 db 79 3e 02 1e 86 3e 7c 0a 7c be 53 ee c2 3d
       0.2440027 0.2619477 -0.24613374 0.09518113
000050 ae e1 16 3e 6d c9 a6 bd d8 4d ad 3b e9 dc 40 be
       0.14734527 -0.08143888 0.0052888207 -0.1883427
000060 9d b7 06 be 06 fb de bc da 12 14 be 8a fb 9d be
       -0.1315598 -0.027219307 -0.14460316 -0.30855972
000070 cd b6 ed 3b fb ee 75 3e ff cf 64 be b7 3f bf bd
       0.0072544576 0.24016945 -0.22344969 -0.093383245
000080 a3 cc 10 3e a4 45 a2 bc 47 69 3d 3e 17 ea 55 3d
       0.14140563 -0.019808598 0.18497191 0.0522252
000090 e5 54 b4 3e 11 56 0a 3e 36 5b 05 3e de a8 aa 3d
       0.3522102 0.13509394 0.13023075 0.0833299
0000a0 65 57 25 bc 4d 48 a6 3c 5f b3 72 3d 07 4c 02 3e
       -0.010091637 0.020298148 0.059253093 0.12724315
0000b0 6b c6 9b 3e 79 ca 9a bd 20 0b 63 3e f2 79 8d be
       0.30424818 -0.0755815 0.22172213 -0.276321
0000c0 36 50 86 bc c2 26 49 3e 9a ca a1 be ef 3f 2f 3e
       -0.01639567 0.19643691 -0.31599885 0.17114232
0000d0 ce 1b 41 3d be cb 4c be 8f b9 f2 bc 21 18 15 bd
       0.047145657 -0.19999596 -0.029629497 -0.036399964
0000e0 ac f2 9e 3d be ff 3d 3e 66 28 b1 3d b0 35 cf 3d
       0.0776113 0.18554589 0.086502835 0.10117662
0000f0 eb 36 8f 3d 00 cc da 3c e3 1a cc 3d 9e 24 58 3e
       0.06992897 0.026708603 0.09966066 0.21107718
000100 b3 c0 f2 bc 73 08 13 bc 56 1f 1f 3d 16 5b ad bd
       -0.029632902 -0.008974182 0.038848244 -0.08464639
000110 4d 1b 6a 3d 88 69 e5 3c e7 7e 34 3e 80 d8 01 be
       0.057154942 0.028004423 0.17626534 -0.12680244
000120 60 3e 1b 3e 88 eb 2d bd 7a da e7 bb ea 9f 1e bd
       0.15160513 -0.04246095 -0.007075605 -0.038726725
000130 f0 3a 6b 3d 90 46 b0 3c 72 22 39 3e b0 f3 1e 3d
       0.057429254 0.021518022 0.18079546 0.038806617
000140 05 b2 d6 bc 2d 05 b7 bd 89 23 39 be 18 b6 ea bd
       -0.026207933 -0.08936534 -0.18079962 -0.11460513
000150 95 5f 51 bd 64 14 67 be a7 6a a6 bd 74 d3 00 be
       -0.051116545 -0.22566372 -0.08125811 -0.12580663
000160 85 e3 d8 bd a7 34 4a be 03 ed d2 bc 14 86 5c bd
       -0.10590271 -0.19746648 -0.025747782 -0.053838804
000170 19 e0 c1 bd 34 e2 a6 3d 9b 73 bb 3d 35 9c 7b 3c
       -0.09466571 0.081486136 0.09152909 0.015357067
000180 78 bd 7c 3d c7 1c 54 be c0 e8 d8 bd c2 4a a8 3d
       0.06170413 -0.20714103 -0.105912685 0.08217384
000190 bc 6b b6 3e a5 3f 9f 3e df 55 b8 3d 29 8f 78 3e
       0.3562907 0.31103244 0.090007536 0.24273361
0001a0 3a 2f 48 3e 96 88 36 3e 54 5a 7f 3e c1 80 6b 3e
       0.19549266 0.17825541 0.24936801 0.22998334
0001b0 88 85 1b be 3b 9e 8b 3d 08 1a 8e 3d 2f 53 12 3e
       -0.15187657 0.068172894 0.06938559 0.14289545
0001c0 06 da fe bd 88 23 2d 3d ce 09 f0 3d 07 19 69 3c
       -0.124439284 0.042270213 0.1172062 0.014227158
0001d0 e6 55 0d be af 58 ad bd 97 cd da bd f0 ed 64 be
       -0.13802299 -0.08464181 -0.106837444 -0.22356391
0001e0 99 c8 f3 bd e6 6d 89 be 08 ce 8c be 85 a7 ea bd
       -0.11903495 -0.26841658 -0.2750094 -0.11457733
0001f0 ee 13 47 be 14 5c 82 be 66 b1 5b bc bf 88 d0 bc
       -0.19441196 -0.25460875 -0.013408994 -0.02545583
000200 25 e1 b3 3d 64 96 e2 bd 1e 7d dd 3d 20 b8 0c bd
       0.08783177 -0.11063841 0.1081488 -0.034355283
000210 0f 70 91 3c 67 4b ff 3d 16 8b 6c bc 30 cf e0 bd
       0.017753629 0.12465554 -0.014437458 -0.10977018
000220 d4 76 09 3e e3 33 62 3e 80 ed 3e 3e 3b 05 82 3e
       0.13424236 0.22090106 0.18645287 0.25394616
000230 ca 64 1b 3d 38 bd 59 bd 04 b9 88 3d b3 fd 68 3e
       0.037937917 -0.05315897 0.06675914 0.22753029
000240 39 d6 01 be 8e 7f 88 3e 96 45 3d 3d 01 6f 93 3c
       -0.12679376 0.26659817 0.04620894 0.017997267
000250 f3 35 86 3e 5f 53 d9 3d a5 7b 83 3e 62 0b a0 be
       0.26213035 0.10611605 0.2568027 -0.31258684
000260 0c 73 b8 bc 3e 68 94 3e 8f 03 d8 bc 37 a0 d2 3c
       -0.022515796 0.2898578 -0.026368884 0.025711162
000270 0b 20 f5 3d 5a 30 41 bd c3 98 e8 bd 4b b9 48 3e
       0.11969002 -0.047165252 -0.11357262 0.19601934
000280 e8 d9 af 3d a2 70 01 be 84 a3 9c 3c eb f5 aa bd
       0.08586484 -0.12640622 0.01912094 -0.083476864
000290 7f 7a c8 bd 36 67 b3 3d ac 5b de 3d 0a 18 85 be
       -0.09788989 0.0875992 0.10857329 -0.25994903
0002a0 2f c0 55 3e 48 17 14 bd b7 bc 99 be 53 e4 18 be
       0.20874093 -0.036155015 -0.3002679 -0.14930849
0002b0 55 e2 ce be 24 d7 3d be 32 d0 0b be d5 e1 fe bd
       -0.40407053 -0.18539101 -0.13653639 -0.12445418
0002c0 ec 85 a5 bc 64 28 05 3d 45 a6 58 be 7c 77 ab bd
       -0.02020546 0.032509223 -0.21157177 -0.08372399
0002d0 e3 1b 25 be e9 45 7c bb f3 3c 05 be 53 88 f5 bd
       -0.16123919 -0.0038493818 -0.13011532 -0.119888924
0002e0 9c a3 26 be 88 86 74 be a8 d3 db bc 26 52 ac be
       -0.1627335 -0.23879445 -0.026834324 -0.33656424
0002f0 5d d0 da be d7 74 2f bd 0e be ab 3e e3 f2 cf 3d
       -0.42737094 -0.042836037 0.33543438 0.10153749
000300 91 1c c3 bd 47 bb 01 3e e5 c5 8a 3d 1d f9 52 3d
       -0.09526933 0.12669097 0.06776027 0.051507104
000310 67 1d 20 3e 12 13 c8 bd 8a 90 74 3d 95 ee ab 3e
       0.15636216 -0.097692624 0.059708156 0.3358046
000320 b9 b0 f6 bd f7 86 69 bc bc 42 32 3e ed 45 16 3e
       -0.12045426 -0.0142533695 0.1740827 0.14675112
000330 ae 44 92 3e f2 3d a7 3e 3e 75 28 3d e6 a5 21 bc
       0.28568023 0.32664448 0.041127436 -0.009866213
000340 0b 5b b2 bd 44 31 26 3e a1 0a 87 3a 65 da 36 3e
       -0.08708771 0.16229731 0.001030285 0.17856748
000350 1b 6a 2f 3e 14 3e 19 3c 10 8b 16 3e 4c cd 3b 3e
       0.1713032 0.0093531795 0.14701486 0.18340033
000360 7b 42 73 3d 2a 28 b4 bd ce 2f 8a bd 28 63 73 3d
       0.059389573 -0.08796723 -0.06747399 0.059420735
000370 de 43 8a 3d cb 5c 0f be 44 fd af bc ec bc 45 be
       0.06751226 -0.14000241 -0.021483071 -0.19310349
000380 6c 27 ea bd db 59 4c 3e 4e dc 5c 3e d5 05 bd 3e
       -0.114333004 0.19956152 0.21568415 0.36918512
000390 78 b5 52 3e 51 b5 dd 3e 84 f2 00 3f 01 3a 56 3d
       0.20577037 0.43302396 0.5037005 0.05230141
0003a0 38 04 a6 3e ea 51 09 3e cd b7 9d 3c 6b 65 42 be
       0.32425094 0.13410154 0.019252682 -0.18984
0003b0 31 01 6c 3d 76 ad 86 3d 24 08 b1 3d cb 0a b7 bd
       0.057618324 0.06576054 0.08644131 -0.089376055
0003c0 4f 85 ed 3d 88 17 87 3e 81 82 0c be 58 12 4d bc
       0.11597692 0.2638514 -0.13721658 -0.0125165805
0003d0 58 3f d2 bd ac 50 1c 3e 0d 2c 37 3e 78 de 41 3d
       -0.10265988 0.15265149 0.17887898 0.047331303
0003e0 a7 7b 0d 3e 77 6f 5e be 13 a9 60 be 43 0e 7f 3c
       0.13816701 -0.21722208 -0.21939497 0.015567365
0003f0 7a 2d b7 bc 7f b8 04 be a6 c1 48 be 9b 93 95 3d
       -0.022360552 -0.12961005 -0.19605121 0.07303544

bias f4 [6]
000000 89 77 92 bb 08 79 bf 3c b4 76 8c bd 17 c4 69 bb
       -0.004469816 0.023373142 -0.06858578 -0.0035669857
000010 58 e8 a5 bb 61 d0 9d bb
       -0.005063098 -0.0048161005

weight f4 [5, 2646]
000000 fc 71 b2 bd bf 48 5c bd 2d c5 3c bd 10 73 b5 bd
       -0.08713147 -0.053780314 -0.04608648 -0.08859837
000010 6a 0f 34 be c2 8f 28 3d 47 a3 18 be 5e 1c 4e be
       -0.17584005 0.041152723 -0.14906035 -0.20128009
000020 73 60 0e be 23 b0 15 bc ac 94 34 be d8 c2 12 3e
       -0.1390398 -0.009136233 -0.17634839 0.1433214
000030 df 82 37 3d 37 91 97 bd 97 bf 1e be 41 1a cd bd
       0.044802543 -0.074007444 -0.15502773 -0.10014773
000040 df 8f 4b bd 69 3b b7 3d 4e ff d3 bd c8 ac b2 3c
       -0.049697753 0.089468785 -0.1035143 0.021810904
000050 30 0e 57 3d 40 fb 84 3c 73 c1 27 3e a2 3f 43 bd
       0.052503765 0.016233087 0.16382389 -0.047668107
000060 af e4 b7 bd 98 6b d6 bd 3b d7 b5 3d 2d b8 0a 3e
       -0.08979165 -0.10469741 0.088789426 0.1354682
000070 9f 7a a7 bd 77 4a 15 3d af 02 2a 3e 60 a1 f3 bd
       -0.08177685 0.03644797 0.16602586 -0.11896014
000080 67 51 a8 3d 8a d5 97 3d 92 b4 be 3d be 39 e1 bb
       0.08218651 0.07413776 0.09311785 -0.0068733385
000090 5b 45 15 be c7 43 a4 3c d2 a6 05 3c c9 e3 2d bd
       -0.14577238 0.02005185 0.008157449 -0.04245356
0000a0 4d b9 f9 bc a0 99 b6 3d 6d 58 ae 3c 11 92 28 bd
       -0.030483866 0.089160204 0.0212824 -0.041154925
0000b0 a6 ec 98 3d 95 f5 7c bc ac 11 7d bd 96 4f 0f 3d
       0.07467012 -0.015439411 -0.06178443 0.03498801
0000c0 a4 47 4e bc cd f7 a2 bd c9 93 ff 3d ce c6 0c bb
       -0.012590323 -0.079574205 0.1247936 -0.0021480802
0000d0 ab 37 08 3c 26 7e 8a bd e9 10 99 bd d9 54 4e 3d
       0.0083140535 -0.06762342 -0.074739285 0.050373886
0000e0 39 61 0f be 06 ae da 3a ce 00 3f bc 86 95 70 3c
       -0.14001931 0.0016683943 -0.011657907 0.014684087
0000f0 df ba b3 bd 15 bd 1d 3d 88 dc c5 bd a1 16 97 3c
       -0.08775877 0.0385104 -0.096612036 0.018443407
000100 db ec ec bc f2 c0 69 3d b9 a1 7a bd 15 c0 10 bd
       -0.028921535 0.057068773 -0.061189387 -0.035339434
000110 bc 32 6c 3d c9 77 b6 bd 83 44 02 3c ca dc ee 3d
       0.05766557 -0.08909566 0.007950905 0.11663206
000120 48 3c 7e 3c 76 e2 fc bc c8 48 a7 3c 3e 70 ea bc
       0.015517302 -0.030869704 0.020420447 -0.028617974
000130 56 20 68 3d 97 48 88 3c 21 43 9d 3c 74 48 7e bc
       0.056671463 0.016636176 0.019197049 -0.015520204
000140 78 28 d2 3d 48 f6 ae bd 21 62 c4 bc 33 c4 d0 3d
       0.10261625 -0.08543068 -0.023972573 0.10193672
000150 36 0d be bb 80 50 17 bd 8c 38 c5 3d 96 37 b6 3d
       -0.0057999147 -0.036942005 0.09629926 0.08897321
000160 cc 28 72 3c 47 82 28 3d d4 50 a0 3c f8 18 cd 3d
       0.014780235 0.041139867 0.019569792 0.10014528
000170 c2 7a 14 3c 5c 7c b4 bc 79 b6 e4 bc 21 17 e1 3d
       0.009062471 -0.022031955 -0.027919041 0.109907396
000180 e2 e4 2a 3b 8f fb 9e 3d 98 c1 19 3d 34 b6 6a 3d
       0.0026076366 0.07762825 0.03753814 0.05730267
000190 09 d4 b2 bc a1 94 e6 3c 82 4f bd 3c 98 3e ef 3c
       -0.021829622 0.028147044 0.023109201 0.029204652
0001a0 b7 c1 90 bc bb ae 06 3d c4 9f 04 bc 8a ce 30 3b
       -0.017670495 0.03288148 -0.008094732 0.0026978576
0001b0 80 e6 48 bd d7 84 53 3c 62 f3 c6 3d a4 46 2c bc
       -0.049047947 0.012910089 0.0971439 -0.010514889
0001c0 c7 61 98 3d 35 18 94 3b 13 df c0 bc 6d 24 c8 3c
       0.074405245 0.0045194873 -0.02354387 0.024431432
0001d0 63 f4 60 3e 6f 87 df 3d 64 bd 29 3e ab 57 cf 3d
       0.21968226 0.10914504 0.16576153 0.10124143
0001e0 32 6a 9a 3d 5f d7 8e bd 58 9f 96 3c 2f 0d 48 3d
       0.075397864 -0.069746725 0.018386528 0.048840698
0001f0 af 3b 28 bb e5 2b 14 be 5a 95 3b 3d 99 ee 82 bd
       -0.002567034 -0.1446987 0.04579673 -0.06393165
000200 cd 68 65 bd d3 b3 08 bd e6 15 20 3d 33 64 20 3e
       -0.05600815 -0.03337462 0.039083384 0.15663223
000210 59 dc 88 3b d8 c7 23 3d 51 ed ea 3c 9f af d6 3d
       0.004176658 0.039985508 0.028677614 0.10482716
000220 65 58 aa 3d f8 fc a5 bc 77 a0 19 3e fb 64 41 3e
       0.08317641 -0.020262226 0.15002619 0.18886177
000230 1e 1d b0 3d 5f e2 22 3b 3b 5a 06 bd 12 cd 0b 3d
       0.08599304 0.0024854166 -0.032800894 0.034131117
000240 be cf 24 bd 9e 2c 80 bd ad cd 93 bd ea d7 2d bd
       -0.04023718 -0.0625851 -0.07216964 -0.04244224
000250 fb 65 30 3d ca 59 cf 3b 8f fc 48 3d d1 cf f8 3d
       0.043066006 0.0063278424 0.049068984 0.12149013
000260 b4 71 b4 3c 58 e6 02 3e 5b b6 01 3e 78 0a 71 3d
       0.022026874 0.12783182 0.1266722 0.058847874
000270 34 e7 ed 3c 1c 17 3d bd c4 7c a8 bc a8 ab f7 3d
       0.02904091 -0.046164617 -0.020567305 0.12093288
000280 04 26 4a 3d df 19 3e 3d 24 4c 8e 3a 8f 9e c6 bd
       0.04935266 0.04641139 0.0010856432 -0.096982114
000290 43 1a 32 bd 29 b9 64 3d 9d 64 10 be cc 26 84 39
       -0.043482076 0.055840645 -0.14100881 0.00025205908
0002a0 37 64 c1 bd f8 0a a3 bc ff 4c a1 bd 2c 9b e0 3d
       -0.094429426 -0.019902691 -0.07876014 0.10967097
0002b0 ce 22 0b 3e 4c d9 1f 3e ca cd 47 3d 01 3d c4 3d
       0.13587496 0.15610236 0.04878024 0.09581948
0002c0 40 f3 be 3c 03 42 8e 3d 81 9b fb 3c 93 df cb 3c
       0.02330935 0.069461845 0.030713798 0.024886882
0002d0 e4 27 b8 bd ef f4 a0 3b 98 a2 03 bd d4 31 52 bc
       -0.089919835 0.004912011 -0.032137483 -0.012829263
0002e0 a6 66 e8 bd aa a4 c4 3c 0d 59 3c 3b dd ca 85 bd
       -0.11347704 0.0240043 0.0028739602 -0.06532834
0002f0 ba b8 8d 3c f0 c0 aa bc ca fe 5a 3c c2 5a 96 bd
       0.017299999 -0.020843953 0.0133664105 -0.073415294
000300 76 bb ad 3d db 65 af 3d 78 df 47 bd 06 2b 3e bd
       0.08483021 0.08564349 -0.0487971 -0.04642775
000310 70 35 09 3e 5c 14 27 3e 04 c7 ed 3d b7 c5 b3 3d
       0.13399291 0.1631636 0.11610225 0.087779455
000320 e2 5a 69 3e 34 17 2d 3e b3 8a 20 3e ad 24 e8 3c
       0.22788575 0.16903383 0.1567791 0.0283378
000330 d8 d1 1a 3d 4f fb 4f bc 8c d6 ba bd 0a e0 26 bd
       0.03779778 -0.012694194 -0.09122953 -0.040741004
000340 fe d1 47 be 0f fb 19 be fa 3d 0d 3d f7 13 ef bd
       -0.195137 -0.15037178 0.034482934 -0.1167373
000350 52 17 0f 3d 1d 4b 2c 3e 17 6c a7 3d 32 23 b3 3c
       0.03493435 0.16825528 0.081749134 0.021867368
000360 38 31 22 bd 8b 99 47 3e 0e a8 7c 3e 62 8f 13 3e
       -0.03959772 0.19492166 0.24673483 0.14410165
000370 83 6d 0e 3e bd 3c 07 3e 34 49 b8 3d 64 8d e1 3c
       0.13908963 0.13206764 0.089983374 0.02753324
000380 41 30 03 bd 43 8f bd bc f3 a9 5e 3d 45 35 37 3d
       -0.03202844 -0.023139602 0.054361295 0.044728536
000390 7a ca 1c 3d 4c 60 0e be fc 9c 13 be e5 27 8e 3d
       0.038279034 -0.13903922 -0.14415354 0.06941203
0003a0 10 36 94 bd 53 e9 b0 3c 7d c3 37 bc 66 cd 52 3d
       -0.07236874 0.021595633 -0.011216042 0.051465414
0003b0 89 1b 3c 3d 30 87 4a bd 75 b3 06 3d d7 02 8a 3d
       0.045924697 -0.04944533 0.032885987 0.06738823
0003c0 78 a8 8a 3e dc ac 9b 3d 56 6a 3d 3c e4 e2 94 3d
       0.27081656 0.0760133 0.011560997 0.072698385
0003d0 17 5a d2 3d 98 19 21 3d 6d 99 66 3e ff ea 91 3d
       0.102710895 0.03933105 0.22519465 0.071249
0003e0 db 84 b5 bd bc c3 c3 bd f4 31 14 bd e3 20 8b bd
       -0.08863231 -0.09558818 -0.03618045 -0.06793382
0003f0 2c 38 a7 3d 37 9a f0 bc 21 20 64 3d c7 22 07 3d
       0.08165011 -0.02937041 0.055694703 0.03299215

bias f4 [5]
000000 53 27 5e bc 59 80 14 3c 74 2f fa bc 36 a3 11 bd
       -0.01355918 0.009063804 -0.030540206 -0.03555604
000010 ee 88 68 bc
       -0.014192803
