archived_data/b4_r4_m20_s150--2019-01-28--151558.748174_roomba/episode_11000.model (torch_old, 375720 bytes, 8 tensors)

weight f4 [6, 6, 3, 3]
-0.022114657 0.037060082 -0.03959746 -0.04176554 -0.050183468 0.04504028 -0.04768692 -0.10422823
0.0960055 0.04150338 -0.03646325 -0.007798721 0.010523045 0.0733787 -0.054052718 -0.00514602
0.008413692 -0.01183184 -0.16256185 -0.008698606 -0.101828545 -0.033624977 -0.06509161 0.0586703
-0.018640922 -0.008351938 -0.20402658 0.069829 0.06083344 -0.013141967 -0.048772223 0.117554426
-0.0771948 0.10960439 -0.12243082 0.11322415 0.3761425 0.24705309 0.4100171 0.56629646
-0.7284663 0.57418543 0.46441725 0.5794557 0.29512212 -0.08478964 0.05168829 0.0067695775
-0.035273355 0.056584664 0.059258435 0.050337527 0.040065713 -0.07438505 0.09714739 -0.05391217
-0.005649999 0.12826532 -0.10942398 -0.11510634 0.04487574 0.06298287 -0.117825896 0.016652577
0.043106273 -0.107198395 -0.03229264 0.04910105 -0.031388465 0.034450542 -0.06368527 -0.031882048
0.014551917 0.072644524 0.2729848 0.052789554 0.18825269 0.34716555 0.100114845 0.118202366
-0.0024425648 -0.11468748 -0.10395908 0.1087926 -0.11832858 -0.038277477 0.0673929 -0.0971304
-0.09635962 -0.029541887 -0.7637968 -0.39621365 -0.6855046 -0.29585657 0.090050325 0.19499213
0.4082532 0.24775994 -0.37327757 0.1007999 -0.029513951 -0.029402921 -0.11137739 0.07520086
-0.0882762 -0.14329143 -0.038919456 -0.10400401 -0.10855388 0.03192921 0.025142118 -0.0961283
0.095315054 0.123123586 -0.07528265 -0.057596527 -0.0512186 0.03162334 -0.0716458 -0.0045138025
-0.093378134 0.048679918 0.014918918 0.023826826 -0.017079705 0.005774148 0.47825325 0.66956156
0.39049983 0.76369774 0.72068787 0.6363471 0.5586501 0.5666194 0.48638758 -0.074216306
-0.08020846 -0.03657897 0.11531505 0.06343673 -0.09244859 0.078712195 0.015670866 0.002776593
0.35898635 0.2610732 0.23338786 0.46225697 0.4760414 0.2734636 0.2830114 0.33315128
0.23928933 0.009113711 -0.0035877498 -0.006699415 -0.03734924 0.042681165 -0.050802838 0.0155795645
-0.0935439 0.040412765 -0.006486222 0.063346 0.07259545 -0.0025988072 -0.06814712 -0.07012536
0.030707568 -0.10208579 0.10922629 -0.025789673 -0.049413476 -0.110047914 -0.018321302 0.023972107
0.048387073 0.0075402926 -0.04658138 -0.08990528 -0.036229957 0.25757816 0.1588965 0.31277776
0.12773435 0.15831268 0.16058534 0.067390084 0.14777799 0.06359796 -0.011182748 0.13246128
-0.060547985 0.033914 0.12215498 -0.13197781 0.13223028 -0.12434403 -0.5864715 0.26563728
-0.2909632 0.09271954 -0.6515884 -0.6850399 -0.11612386 -0.23975618 -0.13847561 0.056229744
-0.09662841 -0.14765283 -0.101818234 -0.04691559 0.033810437 -0.073514484 -0.11792085 0.027496949
0.030515492 -0.06968169 -0.0033544898 0.007216826 0.011182874 -0.10862415 0.09008598 0.08357403
-0.07453859 -0.060352456 0.019035235 0.00862715 -0.01499589 -0.06070868 0.03835467 0.00044848712
0.004163761 -0.0021386412 0.01959309 -0.07764867 -0.03831012 0.1730558 -0.1600916 -0.16706644
0.054744817 -0.032730117 -0.18314281 -0.06623185 -0.04828129 -0.115475394 -0.05973302 0.11672637
-0.0880751 -0.01713112 0.12973735 0.06514251 0.00045915373 0.7343408 0.254612 0.38063568
00000000: cc29 b5bc 50cc 173d f230 22bd 5812 2bbd
00000010: 2e8d 4dbd 287c 383d 5c53 43bd 9c75 d5bd
00000020: 889e c43d 73ff 293d 7d5a 15bd 6a8c ffbb
00000030: da68 2c3c 9247 963d 6266 5dbd f29f a8bb
00000040: 95d9 093c 55da 41bc 9d76 26be 9984 0ebc
00000050: 7c8b d0bd 58ba 09bd c04e 85bd 4550 703d
00000060: d9b4 98bc 91d6 08bc 58ec 50be 8202 8f3d
00000070: 7c2c 793d 6851 57bc 62c5 47bd 60c0 f03d
00000080: 4f18 9ebd 4478 e03d 02bd fabd 10e2 e73d
00000090: c095 c03e 7cfb 7c3e c3ed d13e cef8 103f
000000a0: c47c 3abf d1fd 123f 19c8 ed3e 3557 143f
000000b0: 3f1a 973e 31a6 adbd 1ab7 533d 55d3 dd3b
000000c0: cb7a 10bd 52c5 673d f9b8 723d b92e 4e3d
000000d0: f21b 243d 3057 98bd 36f5 c63d 02d3 5cbd
000000e0: a023 b9bb fc57 033e ae19 e0bd dfbc ebbd
000000f0: a0cf 373d 2afd 803d b44e f1bd fc6a 883c
00000100: 3490 303d d58a dbbd 4a45 04bd 2f1e 493d
00000110: 3191 00bd 031c 0d3d 6c6d 82bd c096 02bd
00000120: 2a6b 6e3c a7c6 943d aac4 8b3e dc39 583d
00000130: 50c5 403e afbf b13e 0309 cd3d 1514 f23d
00000140: 7013 20bb 45e1 eabd 80e8 d4bd a8ce de3d
00000150: 4156 f2bd d8c8 1cbd 4a05 8a3d 4eec c6bd
00000160: 3158 c5bd d401 f2bc 3088 43bf 84dc cabe
00000170: 3b7d 2fbf 837a 97be 4e6c b83d 04ac 473e
00000180: 9006 d13e c8b4 7d3e 3d1e bfbe 2e70 ce3d
00000190: 3ec7 f1bc 65de f0bc d419 e4bd e902 9a3d
000001a0: 27ca b4bd fdba 12be 026a 1fbd 0e00 d5bd
000001b0: 7f51 debd 34c8 023d d8f6 cd3c eade c4bd
000001c0: 8a34 c33d 3828 fc3d ca2d 9abd 56ea 6bbd
000001d0: 98ca 51bd 7a87 013d 08bb 92bd 85e8 93bb
000001e0: 093d bfbd 9864 473d 7a6e 743c 7a30 c33c
000001f0: bdea 8bbc 1035 bd3b 9cdd f43e 6368 2b3f
00000200: 98ef c73e b281 433f 007f 383f a5e7 223f
00000210: b103 0f3f f80d 113f cb07 f93e b8fe 97bd
00000220: 5544 a4bd d4d3 15bd 4c2a ec3d 1eeb 813d
00000230: b055 bdbd dc33 a13d 3060 803c 80f7 353b
00000240: 0fcd b73e 63ab 853e 3afd 6e3e f2ac ec3e
00000250: b3bb f33e 6c03 8c3e dfe6 903e ce92 aa3e
00000260: 4308 753e ad51 153c 7420 6bbb c486 dbbb
00000270: 84fb 18bd 72d2 2e3d a316 50bd 6e41 7f3c
00000280: f293 bfbd db87 253d 608a d4bb 8cbb 813d
00000290: ecac 943d c050 2abb b890 8bbd e29d 8fbd
000002a0: 708e fb3c 5b12 d1bd 08b2 df3d dd44 d3bc
000002b0: c965 4abd cd60 e1bd 8e16 96bc 2761 c43c
000002c0: 8631 463d 8f14 f73b 1ecc 3ebd 4220 b8bd
000002d0: dd65 14bd 49e1 833e c4b5 223e 6824 a03e
000002e0: cbcc 023e b81c 223e 7c70 243e d003 8a3d
000002f0: 1d53 173e a63f 823d d837 37bc eea3 073e
00000300: 2a01 78bd 68e9 0a3d 642c fa3d 3125 07be
00000310: 6067 073e 15a8 febd ff22 16bf 9c01 883e
00000320: 21f9 94be bee3 bd3d 7fce 26bf c65e 2fbf
00000330: 59d2 edbd a582 75be 8dcc 0dbe 2951 663d
00000340: 1ee5 c5bd 4e32 17be 1486 d0bd 902a 40bd
00000350: d07c 0a3d c38e 96bd 7d80 f1bd 4841 e13c
00000360: a0fb f93c 46b5 8ebd 00d7 5bbb 207b ec3b
00000370: 6038 373c 5776 debd 007f b83d dc28 ab3d
00000380: b0a7 98bd 2334 77bd c8ef 9b3c e458 0d3c
00000390: 52b1 75bc aaa9 78bd c919 1d3d ec22 eb39
000003a0: 2970 883b 7228 0cbb b081 a03c 4406 9fbd
000003b0: 13eb 1cbd 8a35 313e 0def 23be 7713 2bbe
000003c0: 1a3c 603d 0410 06bd ca89 3bbe 90a4 87bd
000003d0: 9ac2 45bd 5d7e ecbd 9caa 74bd 3c0e ef3d
000003e0: b860 b4bd 9056 8cbc ded9 043e 7069 853d
000003f0: 92ba f039 c2fd 3b3f 815c 823e aee2 c23e

bias f4 [6]
-0.19627504 0.05849653 0.15158543 -0.0060727946 0.010193642 -0.10887988
00000000: 53fc 48be 0f9a 6f3d 3639 1b3e 4bfe c6bb
00000010: 3c03 273c 6afc debd

weight f4 [16, 6, 3, 3]
0.14578268 -0.09220048 -0.52394915 -0.021359986 -0.05693937 -0.110532455 0.19178781 -0.12947701
0.2001917 0.061532516 -0.0007562027 -0.0018829615 -0.06291283 0.10604229 -0.08819244 -0.07069286
0.08413985 -0.38352224 -0.24262992 0.05645557 -0.10060054 -0.24513195 -0.035247028 -0.049802747
-0.13509455 0.07403551 0.04774113 -0.1132644 0.035611108 -0.31387112 0.081459634 -0.10402874
-0.27433628 -0.29718295 0.11861032 -0.08578455 0.12052721 -0.063133255 -0.17355862 -0.07033962
0.020505546 -0.056020133 -0.19695616 0.17981508 0.24760294 -0.16856176 0.15941936 0.11094899
-0.38483348 -0.25717178 0.059792217 0.015158871 -0.0952302 0.17499462 0.05881232 0.14366218
-0.17105684 -0.03090839 -0.069871984 -0.072448954 0.0654215 -0.11298966 -0.17398272 -0.03850431
0.07112852 -0.055725593 0.01500359 -0.11599595 0.08949371 0.0027003647 -0.0441471 -0.00910849
0.022384971 0.13007851 0.064852096 0.05194351 0.017613875 0.17819221 0.03824281 0.12996791
0.023743985 -0.003936976 -0.074411735 0.11740381 -0.036658995 0.23184392 -0.0036315783 -0.17354491
0.10658494 -0.07705778 0.11941538 -0.020468011 0.0038533865 -0.037119914 0.10811112 0.11667955
0.027102897 0.112532236 0.06779262 -0.13593006 -0.17659408 -0.0077374387 -0.09804008 0.045614902
-0.28132504 0.048957445 0.022999289 -0.026238155 -0.33562532 -0.0362336 0.037581127 0.22750708
0.19839033 0.4088942 0.31901523 0.33039218 0.16825919 -0.05789532 0.03419121 0.044034846
0.21225344 -0.034031007 0.054617714 -0.049549438 -0.13306604 0.03332888 -0.13240044 0.09109913
0.022839846 -0.15622504 -0.28641394 -0.2549088 -0.17522165 -0.29428077 -0.3399015 -0.10685806
-0.18324392 0.12905708 0.1478699 0.1749552 0.042964183 -0.084957495 -0.15033096 0.09145704
-0.34693867 0.008402173 0.20712148 0.022812365 0.015172684 0.15552464 0.19166976 0.14442763
0.30289462 0.084063284 -0.059410397 -0.02256245 -0.18704878 -0.072021455 -0.0707509 -0.20644727
-0.14555492 -0.10121235 0.12666653 0.122024275 0.11377347 0.21502206 0.4320939 0.25628272
0.23268765 0.2528343 -0.18080603 -0.08982637 -0.07356866 -0.1692009 -0.117786355 -0.022070603
0.052638233 -0.024936277 0.2006651 0.093388066 0.049379967 0.12983784 0.049908537 -0.1984868
-0.22998542 -0.13158852 -0.004637557 -0.02333049 -0.045506965 -0.0689801 0.021855133 -0.034877878
0.2954497 0.25383118 0.118985616 0.15745722 -0.04902515 -0.17190924 -0.003555353 0.11053337
0.018551279 -0.024119744 -0.0024468105 0.06467001 0.14382534 -0.2591573 -0.13215978 -0.14582928
0.020520581 -0.122801356 0.057123024 0.12265342 0.20171946 0.0045358418 0.27281123 0.041151937
0.014837614 0.1450204 0.20768826 0.36453968 0.29446054 0.11427091 0.096560776 0.113825694
-0.04334336 -0.08620533 0.013583244 -0.01982145 0.27583706 0.13524652 0.045758367 0.09594169
0.10836467 -0.17764731 -0.08501388 -0.17473292 -0.1474857 -0.46109694 -0.07457206 -0.11579938
-0.33770466 0.14983231 -0.042134278 0.28528246 -0.048065916 -0.0047197584 -0.06199954 0.17400527
-0.043968424 0.12409979 0.04714523 -0.10514802 -0.014404072 0.21654624 -0.07599175 0.1954965
00000000: 0e48 153e 9bd3 bcbd 8821 06bf 23fb aebc
00000010: 4239 69bd d75e e2bd 0664 443e 9f95 04be
00000020: 0eff 4c3e 8509 7c3d e73b 46ba b4cd f6ba
00000030: 71d8 80bd b32c d93d 3d9e b4bd 6bc7 90bd
00000040: 8451 ac3d 075d c4be fa73 78be f53d 673d
00000050: a807 cebd df03 7bbe 305f 10bd f7fd 4bbd
00000060: 3a56 0abe ee9f 973d 348c 433d 2af7 e7bd
00000070: f4dc 113d b7b3 a0be 4fd4 a63d 050d d5bd
00000080: ce75 8cbe 5d28 98be f8e9 f23d cfaf afbd
00000090: f8d6 f63d 024c 81bd 5ab9 31be 380e 90bd
000000a0: 3ffb a73c 5e75 65bd e0ae 49be 7221 383e
000000b0: a08b 7d3e 749b 2cbe d43e 233e 3939 e33d
000000c0: e508 c5be 05ac 83be afe8 743d ea5c 783c
000000d0: 0d08 c3bd ca31 333e 30e5 703d 2e1c 133e
000000e0: 8629 2fbe 9833 fdbc 0b19 8fbd 1e60 94bd
000000f0: b5fb 853d 1f67 e7bd 8728 32be b2b6 1dbd
00000100: d4ab 913d 8540 64bd 9ed1 753c 498f edbd
00000110: 7a48 b73d 9af8 303b 97d3 34bd c73b 15bc
00000120: b060 b73c 4d33 053e 2dd1 843d b8c2 543d
00000130: f94a 903c 0578 363e 7ea4 1c3d 4f16 053e
00000140: bf82 c23c c001 81bb 2e65 98bd 6971 f03d
00000150: be27 16bd 7e68 6d3e c6ff 6dbb c2b5 31be
00000160: 3449 da3d 78d0 9dbd 0d90 f43d 88ac a7bc
00000170: 1989 7c3b 0d0b 18bd 5d69 dd3d b0f5 ee3d
00000180: e506 de3c 4d77 e63d dbd6 8a3d 4031 0bbe
00000190: 14d5 34be 578a fdbb 3dc9 c8bd b1d6 3a3d
000001a0: d609 90be 9a87 483d 0169 bc3c 66f1 d6bc
000001b0: 15d7 abbe af69 14bd abee 193d 9ef7 683e
000001c0: d626 4b3e 955a d13e f755 a33e 2a29 a93e
000001d0: 234c 2c3e a523 6dbd 150c 0c3d e25d 343d
000001e0: f758 593e 1964 0bbd d3b6 5f3d 5af4 4abd
000001f0: 7742 08be dd83 083d fb93 07be 2e92 ba3d
00000200: a11a bb3c 75f9 1fbe d9a4 92be 6883 82be
00000210: 4e6d 33be f8ab 96be 9207 aebe 66d8 dabd
00000220: 4ba4 3bbe 8a27 043e 356b 173e 7527 333e
00000230: 36fb 2f3d 32fe adbd 5cf0 19be d44d bb3d
00000240: f2a1 b1be 45a9 093c a717 543e ffe0 ba3c
00000250: d996 783c da41 1f3e 1445 443e d6e4 133e
00000260: 0115 9b3e 5f29 ac3d 5158 73bd e3d4 b8bc
00000270: b789 3fbe fc7f 93bd d9e5 90bd ea66 53be
00000280: 590c 15be 6c48 cfbd dfb4 013e dde7 f93d
00000290: 1102 e93d be2e 5c3e 693b dd3e 7d37 833e
000002a0: ac45 6e3e 7f73 813e 3725 39be e3f6 b7bd
000002b0: 2aab 96bd 0043 2dbe f939 f1bd 69cd b4bc
000002c0: 309b 573d 2a47 ccbc 277b 4d3e 3e42 bf3d
000002d0: a642 4a3d 36f4 043e e56c 4c3d 2040 4bbe
000002e0: 4c81 6bbe 24bf 06be a6f6 97bb 951f bfbc
000002f0: 8365 3abd 7045 8dbd 8909 b33c 1bdc 0ebd
00000300: 2f45 973e 29f6 813e bbae f33d 773c 213e
00000310: 98ce 48bd fa08 30be ed00 69bb 525f e23d
00000320: daf8 973c c596 c5bc ab5a 20bb b671 843d
00000330: f346 133e 44b0 84be e554 07be 4554 15be
00000340: c71a a83c 477f fbbd d5f9 693d b731 fb3d
00000350: 8c8f 4e3e 66a1 943b eaad 8b3e ef8e 283d
00000360: 7719 733c 3a80 143e 3bac 543e f2a4 ba3e
00000370: 88c3 963e de06 ea3d a8c1 c53d 721d e93d
00000380: cf88 31bd 6c8c b0bd 418c 5e3c 9860 a2bc
00000390: 843a 8d3e 107e 0a3e 206d 3b3d 147d c43d
000003a0: 4cee dd3d 2de9 35be c21b aebd 30ed 32be
000003b0: 7e06 17be e614 ecbe 3cb9 98bd 3a28 edbd
000003c0: a0e7 acbe a46d 193e fe94 2cbd 8b10 923e
000003d0: c4e0 44bd 34a8 9abb 3bf3 7dbd 702e 323e
000003e0: 3c18 34bd 0828 fe3d 5b1b 413d d857 d7bd
000003f0: 0fff 6bbc 4cbe 5d3e 90a1 9bbd 3c30 483e

bias f4 [16]
0.032605566 -0.1660514 -0.08694807 -0.24647847 -0.1451946 -0.11763716 -0.006756468 -0.056525413
-0.021712331 0.0032818266 0.034318313 -0.052796077 -0.08174367 0.04148166 -0.05397014 0.19971742
00000000: 6a8d 053d 6109 2abe d411 b2bd da64 7cbe
00000010: e5ad 14be c0eb f0bd 5d65 ddbb 3187 67bd
00000020: 0fde b1bc ea13 573b 5c91 0c3d b340 58bd
00000030: 3a69 a7bd ace8 293d cb0f 5dbd b982 4c3e

weight f4 [32, 16, 3, 3]
-0.21057786 0.03744246 0.011248635 -0.12993707 0.16662143 0.054122373 -0.08294614 -0.0024535006
0.117512085 -0.10177962 -0.07602542 0.058150403 0.18044358 -0.10895296 -0.0779921 0.053499393
-0.17867847 -0.12021705 -0.0759158 0.040748853 0.09646399 -0.23509423 -0.071825825 0.034828
-0.16807254 -0.073335245 0.19608213 0.023606772 -0.010304162 -0.027801001 0.060030617 -0.03435335
0.041608263 0.11751302 -0.0890695 0.15414064 0.19473729 0.17706369 0.05659135 0.015915649
-0.15216957 -0.09619203 0.01565873 0.11749867 0.19446008 -0.15903789 -0.084091075 -0.074300416
-0.07318087 0.13219655 0.1300451 0.029518967 -0.015921518 0.1635145 0.0014009215 0.16093399
0.16062991 0.1139279 -0.011157134 -0.3546365 -0.151642 -0.059201013 -0.20948796 -0.08438753
-0.0797976 0.029405078 -0.011281451 0.15529418 -0.049638264 -0.16926149 -0.13430476 -0.09352673
-0.119341604 0.045448057 0.031084187 -0.02441774 -0.017969316 0.15458257 0.096182995 -0.017090548
0.1587477 0.112037115 0.17678571 -0.10842923 -0.0694312 -0.10205907 -0.015470864 -0.019071627
0.010474674 0.038256414 0.054012775 0.10147329 0.028814342 0.028079454 -0.006051014 -0.09446696
0.04216735 0.04432856 0.14220837 0.11512343 0.20062068 -0.048136678 -0.08814733 0.046644583
0.091963746 -0.070529014 -0.09714477 -0.06643897 -0.09880571 0.009961398 -0.013997474 -0.15549833
-0.19030872 0.020512344 -0.15170355 0.085252635 0.12026839 -0.13294569 -0.069003984 0.13002455
-0.053282768 0.029953001 0.2625177 -0.035689577 -0.030558374 -0.033174627 0.11651938 -0.0692448
-0.08648861 0.09727575 -0.070994794 -0.17028697 0.17101745 2.2510412e-05 0.048308678 0.059245426
0.041851748 -0.1954959 -0.003334848 -0.06259103 0.054574713 0.09986644 -0.13739316 -0.11120676
-0.13492897 -0.1543143 0.09943631 -0.14330208 -0.006308855 -0.06256212 0.059357706 -0.22322081
0.05919104 -0.075756006 0.019773984 0.021040782 -0.06718433 -0.110229656 -0.049188506 -0.07201892
-0.14472547 -0.10792956 0.017274193 -0.07051524 -0.20729548 0.019285649 0.03629178 -0.25373393
0.104211845 0.21755296 -0.113239475 0.17486082 0.14732482 0.19158146 0.2874311 0.095435925
0.22512914 0.16963749 0.19628452 0.16423942 0.053851523 -0.31542903 -0.38212767 -0.022992225
-0.053153295 -0.19929671 0.07283788 -0.11634888 -0.25182465 0.01801204 0.04627156 0.105419055
0.027961103 0.14081703 -0.056724414 0.01117392 0.04857438 0.050090283 -0.07268085 -0.014206901
-0.003681546 -0.03458891 0.057213914 0.17513388 0.05002798 0.062119354 0.0038910827 -0.11734768
0.007226786 0.1661282 0.057721753 0.018168708 -0.08835905 -0.20216736 -0.20135386 -0.2845347
-0.31460637 -0.21458888 -0.19972819 -0.1822467 -0.036429226 -0.51794714 -0.19221614 -0.20906498
-0.5452052 0.035443936 0.07088526 0.02255798 0.060634837 0.049716342 0.013011856 0.093397506
-0.0214916 0.028663956 0.20146163 0.19161141 0.11558212 0.13595177 0.15559094 0.14819553
0.008674049 0.23126358 0.1756971 0.0638465 0.17028756 0.094754525 0.12031468 0.06451697
0.12870659 0.123663194 0.024762344 0.119801655 0.07989071 -0.007337144 0.02362296 0.04117801
00000000: b9a1 57be 445d 193d 324c 383c 390e 05be
00000010: cf9e 2a3e 6caf 5d3d aadf a9bd e9ca 20bb
00000020: 2daa f03d d571 d0bd 37b3 9bbd 1e2f 6e3d
00000030: 34c6 383e bb22 dfbd 52ba 9fbd 2e22 5b3d
00000040: 7df7 36be 5b34 f6bd be79 9bbd 45e8 263d
00000050: ea8e c53d 8bbc 70be 6b19 93bd cea7 0e3d
00000060: 351b 2cbe ca30 96bd c1c9 483e fd62 c13c
00000070: cad2 28bc edbe e3bc aae2 753d 19b6 0cbd
00000080: 6d6d 2a3d abaa f03d 126a b6bd 0bd7 1d3e
00000090: 3669 473e 2f50 353e 55cc 673d 8961 823c
000000a0: 57d2 1bbe 5400 c5bd bd46 803c 25a3 f03d
000000b0: 8b20 473e d4da 22be f137 acbd d12a 98bd
000000c0: dadf 95bd 885e 073e 8b2a 053e c3d1 f13c
000000d0: d86d 82bc 5870 273e 209f b73a e1cb 243e
000000e0: 2b7c 243e 0853 e93d 69cc 36bc ea92 b5be
000000f0: 0a48 1bbe c37c 72bd 0384 56be 5fd3 acbd
00000100: ed6c a3bd ebe2 f03c d6d5 38bc 7005 1f3e
00000110: 7e51 4bbd e252 2dbe 3087 09be f18a bfbd
00000120: 5f69 f4bd be27 3a3d 44a4 fe3c b607 c8bc
00000130: 6334 93bc e54a 1e3e 97fb c43d 7a01 8cbc
00000140: c28e 223e b773 e53d 5007 353e 2510 debd
00000150: f231 8ebd 5804 d1bd 8279 7dbc 1a3c 9cbc
00000160: f89d 2b3c c2b2 1c3d 803c 5d3d 3ad1 cf3d
00000170: 0e0c ec3c e206 e63c 9647 c6bb e577 c1bd
00000180: acb7 2c3d dd91 353d 129f 113e d5c5 eb3d
00000190: 826f 4d3e f72a 45bd 9686 b4bd 640e 3f3d
000001a0: 7d57 bc3d 8471 90bd d6f3 c6bd 2811 88bd
000001b0: a65a cabd 2235 233c a955 65bc f43a 1fbe
000001c0: 4ae0 42be 8109 a83c 2d58 1bbe ef98 ae3d
000001d0: 464f f63d ea22 08be f651 8dbd 2825 053e
000001e0: 083f 5abd ff5f f53c b868 863e 3c2f 12bd
000001f0: 8e55 fabc 1ee2 07bd b6a1 ee3d 38d0 8dbd
00000200: f120 b1bd 8238 c73d b865 91bd b55f 2ebe
00000210: 331f 2f3e bed4 bc37 52df 453d 55ab 723d
00000220: bd6c 2b3d 1430 48be 778d 5abb ba2f 80bd
00000230: bc89 5f3d c786 cc3d cbb0 0cbe 5fc0 e3bd
00000240: d22a 0abe 9104 1ebe 44a5 cb3d c8bd 12be
00000250: 83ba cebb 9220 80bd 1121 733d ff93 64be
00000260: 4e72 723d f725 9bbd 0dfd a13c b85d ac3c
00000270: f097 89bd 16c0 e1bd e379 49bd a87e 93bd
00000280: ea32 14be 2c0a ddbd 9c82 8d3c 4b6a 90bd
00000290: 4445 54be f0fc 9d3c b1a6 143d 6ae9 81be
000002a0: 056d d53d 34c6 5e3e 19ea e7bd b70e 333e
000002b0: 51dc 163e ee2d 443e 2b2a 933e e973 c33d
000002c0: 4188 663e 73b5 2d3e cffe 483e 612e 283e
000002d0: 6a93 5c3d ea7f a1be 3da6 c3be 315a bcbc
000002e0: 45b7 59bd 7014 4cbe 072c 953d 5248 eebd
000002f0: 29ef 80be fc8d 933c 3f87 3d3d f2e5 d73d
00000300: af0e e53c 5732 103e dc57 68bd d112 373c
00000310: eef5 463d 782b 4d3d b3d9 94bd 10c4 68bc
00000320: 1846 71bb 1aad 0dbd 2359 6a3d 4c56 333e
00000330: 24ea 4c3d dd70 7e3d 8901 7f3b fb53 f0bd
00000340: adce ec3b 831d 2a3e a56d 6c3d 8bd6 943c
00000350: 97f5 b4bd f604 4fbe b52f 4ebe 88ae 91be
00000360: 1614 a1be 30bd 5bbe 8c85 4cbe e19e 3abe
00000370: d036 15bd 2f98 04bf 4fd4 44be 2115 56be
00000380: 9192 0bbf a92d 113d 4b2c 913d 83cb b83c
00000390: 3c5c 783d 5da3 4b3d ae2f 553c 3147 bf3d
000003a0: 270f b0bc acd0 ea3c f54b 4e3e c835 443e
000003b0: 52b6 ec3d f136 0b3e 3b53 1f3e 92c0 173e
000003c0: 991d 0e3c 5cd0 6c3e f1e9 333e f4c1 823d
000003d0: dd5f 2e3e a90e c23d 8b67 f63d 7921 843d
000003e0: a9cb 033e 2143 fd3d 66da ca3c 925a f53d
000003f0: be9d a33d 6d6c f0bb f084 c13c 46aa 283d

bias f4 [32]
-0.080098085 -0.09632457 -0.039971475 -0.0036930453 -0.12891111 -0.07374378 -0.09019967 -0.01754231
-0.0024188843 -0.027682934 -0.117487125 -0.01906543 -0.019390007 -0.07708718 -0.019717142 -0.0058221505
-0.014016689 0.000268054 -0.10525561 -0.02390345 -0.018126788 -0.06264035 -0.008429762 -0.08104824
-0.037514236 -0.059026267 -0.020090947 0.0041732383 -0.029558122 -0.006780099 -0.047172025 0.019083207
00000000: 770a a4bd d145 c5bd 21b9 23bd 0507 72bb
00000010: 4601 04be fb06 97bd 9bba b8bd e4b4 8fbc
00000020: 2586 1ebb 52c7 e2bc 179d f0bd 1b2f 9cbc
00000030: cbd7 9ebc e2df 9dbd d885 a1bc bdc7 bebb
00000040: 41a6 65bc 9989 8c39 4190 d7bd 2bd1 c3bc
00000050: a17e 94bc 9549 80bd fc1c 0abc 9ffc a5bd
00000060: 87a8 19bd 87c5 71bd c595 a4bc a9bf 883b
00000070: e023 f2bc 982b debb 7437 41bd 6354 9c3c

weight f4 [5, 16928]
0.14445493 0.035615657 0.04122701 0.123280086 0.049861617 -0.10004329 0.057223137 -0.07659048
0.056173064 -0.008283825 0.028394228 0.043495364 -0.23505618 -0.15952656 -0.18318954 0.118741766
0.13737531 -0.27487826 0.16445407 0.11318499 0.057315987 -0.004652888 -0.070867695 0.005303158
0.00456537 -0.0635582 -0.05377691 0.05886358 0.0011475215 0.0923284 0.0031160726 0.10782512
0.05469162 0.12654637 0.10021267 -0.042542 0.048752155 0.01646527 0.053938918 -0.0005723552
-0.21423194 0.043003608 0.19229808 0.049745977 0.10979991 0.027989335 -0.037752323 0.09773225
-0.021135831 -0.1218607 -0.03735143 0.023313375 0.06856917 0.049252108 0.10582283 -0.017283164
0.066672765 0.19894044 0.10655039 -0.05702547 0.15311769 -0.013215406 -0.17373419 0.06692874
0.040652577 -0.15326573 -0.13873662 -0.008552575 -0.054424807 0.0921037 -0.11693048 -0.079094686
-0.121437095 -0.09255389 0.14381272 -0.02167337 0.036891412 -0.10081524 0.078358494 0.0016233176
-0.100924104 0.20582677 0.11057816 -0.10551036 -0.06450982 -0.030548487 -0.051629536 -0.25757128
0.053738743 -0.17586412 0.055698507 -0.13050362 -0.074938 0.03260061 0.046759363 0.10480485
0.03553467 -0.06413907 -0.016587725 0.0310704 -0.034783833 -0.0055912468 -0.07313067 -0.03996817
-0.06378256 0.0510354 0.06969741 0.21169615 0.11545769 0.0015104937 0.08583991 0.03822227
-0.10128048 -0.10871079 0.016179217 0.2273518 -0.041590314 0.07709926 -0.042005915 0.14954016
-0.024942063 0.015033362 -0.008347319 0.022963194 0.07065578 0.12155811 0.13172245 -0.0018478747
-0.034728255 0.020639472 -0.057926424 0.11495484 0.09386186 0.16750859 0.050036505 0.10580336
-0.07605678 -0.147971 0.08273012 0.13520423 -0.004463118 -0.21615182 -0.020921884 0.08892369
-0.07675979 -0.0455542 0.059455954 -0.16355707 -0.02525419 0.28822872 -0.07106267 -0.17806901
0.11608267 0.0682997 0.108993135 0.045030765 0.028380789 -0.13379748 -0.01628778 -0.15666728
-0.23530236 -0.03837028 0.01104106 0.01703677 -0.034863316 -0.038377818 0.0017721693 -0.04536612
0.030081043 -0.12634754 -0.029198965 -0.05453222 0.008473324 0.046827994 -0.22398172 0.019133976
-0.03304796 -0.030970357 0.068048775 0.095795706 -0.047838945 0.12939173 0.109155685 0.023831569
0.09212846 0.24941398 -0.023363814 0.06578375 -0.019088544 0.16420278 0.011329937 -0.0070978138
-0.106222406 0.09331569 -0.06235994 -0.095607035 -0.012093541 -0.1857017 0.08165184 0.19539852
0.18607406 0.07231057 0.078419 0.028151397 -0.06541957 -0.07302767 -0.05890845 0.36769173
-0.12957479 -0.03688034 -0.10837499 0.060074966 0.004328895 0.07769902 0.05274254 -0.032575738
-0.042320635 0.0062007857 -0.078463174 -0.083653644 0.08095952 0.1651997 -0.07611063 -0.040456414
0.11490642 -0.053558465 -0.051130105 -0.15638074 0.0096228225 -0.029497845 0.010203912 -0.22003815
-0.014803892 -0.08634551 0.03990788 0.15616973 0.0705593 0.111896075 0.073991776 0.038304057
0.061220575 -0.175931 0.14645466 -0.12704542 0.19673489 -0.048361205 0.07388938 -0.021727704
0.06507364 -0.058810707 0.005837519 -0.25914454 0.0015963857 -0.02725138 0.006669402 -0.012701989
00000000: feeb 133e b9e1 113d a7dd 283d 457a fc3d
00000010: b23b 4c3d 7fe3 ccbd cf62 6a3d 78db 9cbd
00000020: ba15 663d e1b8 07bc 039b e83c 3228 323d
00000030: 91b2 70be ee5a 23be 0a96 3bbe e22e f33d
00000040: 1dac 0c3e d8bc 8cbe a666 283e 88cd e73d
00000050: 2bc4 6a3d 4177 98bb 1523 91bd 1dc6 ad3b
00000060: 1999 953b cd2a 82bd 2d45 5cbd f01a 713d
00000070: 6f68 963a ac16 bd3d 0637 4c3b 6bd3 dc3d
00000080: 5204 603d 5f95 013e 4d3c cd3d 8540 2ebd
00000090: 57b0 473d 2de2 863c 0eef 5c3d 1b0a 16ba
000000a0: 9e5f 5bbe 8d24 303d cae9 443e 70c2 4b3d
000000b0: c6de e03d e449 e53c 2ea2 1abd d927 c83d
000000c0: 0d25 adbc 1a92 f9bd d0fd 18bd b1fb be3c
000000d0: fe6d 8c3d 94bc 493d a4b9 d83d 6c95 8dbc
000000e0: bb8b 883d 0bb7 4b3e 1737 da3d 8a93 69bd
000000f0: e2ca 1c3e 6e85 58bc 60e7 31be ef11 893d
00000100: 5183 263d b1f1 1cbe f910 0ebe 1920 0cbc
00000110: 8cec 5ebd dda0 bc3d 3f79 efbd 65fc a1bd
00000120: 03b4 f8bd e58c bdbd a443 133e 5a8c b1bc
00000130: 731b 173d 3878 cebd 6b7a a03d 80c5 d43a
00000140: 4cb1 cebd 41c4 523e cd76 e23d d115 d8bd
00000150: b91d 84bd d240 fabc 7e79 53bd 62e0 83be
00000160: 281d 5c3d b915 34be 1e24 643d bea2 05be
00000170: 1879 99bd 3888 053d bf86 3f3d eda3 d63d
00000180: cd8c 113d 585b 83bd fbe2 87bc 5a87 fe3c
00000190: 7e79 0ebd c736 b7bb 88c5 95bd aab5 23bd
000001a0: 6ea0 82bd 7f0a 513d 84bd 8e3d e0c6 583e
000001b0: 1575 ec3d c2fb c53a d6cc af3d f48e 1c3d
000001c0: 246c cfbd c3a3 debd 478a 843c e9ce 683e
000001d0: 9b5a 2abd 38e6 9d3d 650e 2cbd 0e21 193e
000001e0: 4c53 ccbc 7e4e 763c 32c3 08bc 4f1d bc3c
000001f0: fab3 903d 75f3 f83d 40e2 063e 6334 f2ba
00000200: 373f 0ebd 1c14 a93c 4244 6dbd 716d eb3d
00000210: a63a c03d 5f87 2b3e 14f3 4c3d 6faf d83d
00000220: a8c3 9bbd b685 17be 696e a93d fa72 0a3e
00000230: 593f 92bb e756 5dbe 5f64 abbc a01d b63d
00000240: 3d34 9dbd 0a97 3abd 1688 733d 817b 27be
00000250: e0e1 cebc b792 933e 4e89 91bd b957 36be
00000260: c0bc ed3d b7e0 8b3d cb37 df3d 2e72 383d
00000270: d47e e83c 3502 09be f36d 85bc 636d 20be
00000280: 1af3 70be 282a 1dbd 90e5 343c b290 8b3c
00000290: d6cc 0ebd 0f32 1dbd 2248 e83a d3d1 39bd
000002a0: 856c f63c 4061 01be ab32 efbc 2d5d 5fbd
000002b0: b2d3 0a3c b6ce 3f3d 775b 65be dbbe 9c3c
000002c0: 4c5d 07bd 8cb5 fdbc 285d 8b3d 8a30 c43d
000002d0: c5f2 43bd 447f 043e 048d df3d 6c3a c33c
000002e0: d9ad bc3d 6166 7f3e 7865 bfbc a1b9 863d
000002f0: 945f 9cbc c624 283e 33a1 393c c794 e8bb
00000300: 228b d9bd 4c1c bf3d 236d 7fbd 9fcd c3bd
00000310: fd23 46bc 9628 3ebe 1439 a73d 8d16 483e
00000320: 338a 3e3e 9017 943d 249a a03d c29d e63c
00000330: b2fa 85bd 888f 95bd fd49 71bd 1742 bc3e
00000340: 41af 04be d70f 17bd b5f3 ddbd 2b11 763d
00000350: 67d9 8d3b aa20 9f3d 9008 583d 236e 05bd
00000360: 6758 2dbd f62f cb3b 4db1 a0bd 9a52 abbd
00000370: 1bce a53d 1c2a 293e e4df 9bbd a0b5 25bd
00000380: 0f54 eb3d 1f60 5bbd cd6d 51bd 4622 20be
00000390: 0ba9 1d3c 77a5 f1bc 4f2e 273c ae51 61be
000003a0: 068c 72bc ead5 b0bd 7276 233d f5ea 1f3e
000003b0: 6581 903d c529 e53d 0089 973d b7e4 1c3d
000003c0: 6dc2 7a3d 4227 34be 36f8 153e 3218 02be
000003d0: df74 493e 6616 46bd 5153 973d 4cfe b1bc
000003e0: 5445 853d 7fe3 70bd a948 bf3b 98ae 84be
000003f0: d13d d13a 493e dfbc 008b da3b 011c 50bc

bias f4 [5]
0.018591793 -0.053134765 -0.057370014 -0.052463233 -0.05577528
00000000: d14d 983c d7a3 59bd d2fc 6abd b0e3 56bd
00000010: 9f74 64bd
