archived_data/b4_r4_m20_s150--2019-01-28--151558.748174_roomba/episode_10250.model (torch_old, 375720 bytes, 8 tensors)

weight f4 [6, 6, 3, 3]
-0.022114657 0.037060082 -0.03959746 -0.04176554 -0.050183468 0.04504028 -0.04768692 -0.10422823
0.0960055 -0.013465133 -0.090594985 0.0080097355 -0.03611138 0.032190897 -0.052581023 0.0008788252
0.03090712 0.06302125 -0.18071966 -0.021391671 -0.10080577 -0.036132146 -0.08493864 0.007522129
-0.03822973 -0.016085746 -0.14819792 0.069829 0.06083344 -0.013141967 -0.048772223 0.117554426
-0.0771948 0.10960439 -0.12243082 0.11322415 0.31605738 0.27701297 0.41451403 0.5652619
-0.735703 0.59749943 0.4794551 0.6045325 0.26993743 -0.05136576 0.04850688 0.011273224
-0.014787591 0.04989278 0.054680753 0.0319087 -0.0006966485 -0.08822994 0.09714739 -0.05391217
-0.005649999 0.12826532 -0.10942398 -0.11510634 0.04487574 0.06298287 -0.117825896 -0.010646686
0.04209336 -0.07849929 -0.036537677 0.065994926 -0.012241075 0.020357164 -0.054547727 -0.025585558
0.069724925 0.044250518 0.29833254 0.06927404 0.20750096 0.36948064 0.09121002 0.11102338
-0.006498882 -0.11468748 -0.10395908 0.1087926 -0.11832858 -0.038277477 0.0673929 -0.0971304
-0.09635962 -0.029541887 -0.7603611 -0.35502377 -0.6412621 -0.2995252 0.060898215 0.17597488
0.37686935 0.24804594 -0.3167646 0.046275694 -0.074885584 -0.09897499 -0.11704706 0.0716306
-0.065052964 -0.123682246 0.034113348 -0.030868145 -0.10855388 0.03192921 0.025142118 -0.0961283
0.095315054 0.123123586 -0.07528265 -0.057596527 -0.0512186 0.042748697 -0.06277869 -0.0029896582
-0.08734973 0.054360837 0.00938825 0.03161427 -0.017612252 0.0003290965 0.4559385 0.66803974
0.39298946 0.7600786 0.69321483 0.56601095 0.5782775 0.63712794 0.49199557 -0.074216306
-0.08020846 -0.03657897 0.11531505 0.06343673 -0.09244859 0.078712195 0.015670866 0.002776593
0.3553236 0.25884002 0.27924252 0.40854502 0.4774615 0.29359415 0.29720053 0.29209438
0.22269702 0.031423114 0.022550404 -0.0008695572 -0.033166084 0.044720378 -0.063785374 0.018304363
-0.09489864 0.02902328 -0.006486222 0.063346 0.07259545 -0.0025988072 -0.06814712 -0.07012536
0.030707568 -0.10208579 0.10922629 -0.045755707 -0.058602888 -0.07218418 -0.051229633 0.022153942
0.041267432 -0.020450817 -0.054328214 -0.08371598 -0.017167337 0.30620125 0.1543022 0.32001925
0.091771476 0.12988353 0.08737112 0.04424839 0.15968451 0.06359796 -0.011182748 0.13246128
-0.060547985 0.033914 0.12215498 -0.13197781 0.13223028 -0.12434403 -0.5580492 0.30837616
-0.21234818 0.07840985 -0.6578292 -0.6755724 -0.07821476 -0.22169296 -0.17097253 0.12597418
-0.08374214 -0.17465353 -0.08226733 -0.05219407 0.024300734 -0.044563286 -0.091279715 -0.0063729133
0.030515492 -0.06968169 -0.0033544898 0.007216826 0.011182874 -0.10862415 0.09008598 0.08357403
-0.07453859 -0.046964888 0.015111357 0.0002663062 0.036679503 -0.05018097 0.041639782 -0.027052429
-0.02319509 -0.045314584 -0.006586414 -0.11895061 -0.06270848 0.0757824 -0.20213005 -0.20604353
-0.008998722 -0.07041727 -0.17062822 -0.06623185 -0.04828129 -0.115475394 -0.05973302 0.11672637
-0.0880751 -0.01713112 0.12973735 0.06514251 -0.06641819 0.75447637 0.35843045 0.36032254
00000000: cc29 b5bc 50cc 173d f230 22bd 5812 2bbd
00000010: 2e8d 4dbd 287c 383d 5c53 43bd 9c75 d5bd
00000020: 889e c43d dc9c 5cbc dd89 b9bd 443b 033c
00000030: 87e9 13bd 9ada 033d 335f 57bd f660 663a
00000040: ee30 fd3c 4911 813d 930e 39be 963d afbc
00000050: 4173 cebd 4dff 13bd 4ff4 adbd 317c f63b
00000060: c796 1cbd 41c6 83bc 32c1 17be 8202 8f3d
00000070: 7c2c 793d 6851 57bc 62c5 47bd 60c0 f03d
00000080: 4f18 9ebd 4478 e03d 02bd fabd 10e2 e73d
00000090: 46d2 a13e a5d4 8d3e 2f3b d43e 01b5 103f
000000a0: 0857 3cbf b9f5 183f 247b f53e a4c2 1a3f
000000b0: 3d35 8a3e e764 52bd 26af 463d 54b3 383c
000000c0: a747 72bc 5f5c 4c3d edf8 5f3d b2b2 023d
000000d0: 4a9f 36ba e6b1 b4bd 36f5 c63d 02d3 5cbd
000000e0: a023 b9bb fc57 033e ae19 e0bd dfbc ebbd
000000f0: a0cf 373d 2afd 803d b44e f1bd 706f 2ebc
00000100: 166a 2c3d 3cc4 a0bd 88a8 15bd 5928 873d
00000110: ca8e 48bc 11c4 a63c 706d 5fbd ce98 d1bc
00000120: f1cb 8e3d 0840 353d 0bbf 983e 8cdf 8d3d
00000130: 227b 543e 912c bd3e 52cc ba3d 3a60 e33d
00000140: 93f4 d4bb 45e1 eabd 80e8 d4bd a8ce de3d
00000150: 4156 f2bd d8c8 1cbd 4a05 8a3d 4eec c6bd
00000160: 3158 c5bd d401 f2bc 06a7 42bf adc5 b5be
00000170: c129 24bf 5e5b 99be 6870 793d c232 343e
00000180: 05f5 c03e c1ff 7d3e f82e a2be 958b 3d3d
00000190: 9d5d 99bd 66b3 cabd 5eb6 efbd 10b3 923d
000001a0: 7d3a 85bd 1e4d fdbd 70ba 0b3d 31df fcbc
000001b0: 7f51 debd 34c8 023d d8f6 cd3c eade c4bd
000001c0: 8a34 c33d 3828 fc3d ca2d 9abd 56ea 6bbd
000001d0: 98ca 51bd 4219 2f3d 1d92 80bd 24ee 43bb
000001e0: 6ae4 b2bd 78a9 5e3d 2dd1 193c f77d 013d
000001f0: 9247 90bc 968a ac39 c570 e93e a704 2b3f
00000200: ea35 c93e 8394 423f 8776 313f 18e6 103f
00000210: ff09 143f d11a 233f d8e6 fb3e b8fe 97bd
00000220: 5544 a4bd d4d3 15bd 4c2a ec3d 1eeb 813d
00000230: b055 bdbd dc33 a13d 3060 803c 80f7 353b
00000240: faec b53e ae86 843e e0f8 8e3e d02c d13e
00000250: d575 f43e f951 963e ab2a 983e 658d 953e
00000260: b00a 643e 86b5 003d a0bb b83c fff2 63ba
00000270: 29d9 07bd b72c 373d e8a1 82bd 08f3 953c
00000280: 385a c2bd 3bc2 ed3c 608a d4bb 8cbb 813d
00000290: ecac 943d c050 2abb b890 8bbd e29d 8fbd
000002a0: 708e fb3c 5b12 d1bd 08b2 df3d 566a 3bbd
000002b0: 9509 70bd 4dd5 93bd 2ad6 51bd 2f7c b53c
000002c0: 0a08 293d 7988 a7bc 4387 5ebd 4973 abbd
000002d0: 84a2 8cbc 69c6 9c3e 6501 1e3e 90d9 a33e
000002e0: aff2 bb3d 3000 053e a1ef b23d cd3d 353d
000002f0: 5684 233e a63f 823d d837 37bc eea3 073e
00000300: 2a01 78bd 68e9 0a3d 642c fa3d 3125 07be
00000310: 6067 073e 15a8 febd 50dc 0ebf 7be3 9d3e
00000320: cd71 59be 5895 a03d 7f67 28bf 50f2 2cbf
00000330: 0f2f a0bd 7b03 63be 6c13 2fbe 60ff 003e
00000340: 0081 abbd 60d8 32be c67b a8bd 73c9 55bd
00000350: 5512 c73c fe87 36bd dcf0 babd dfd3 d0bb
00000360: a0fb f93c 46b5 8ebd 00d7 5bbb 207b ec3b
00000370: 6038 373c 5776 debd 007f b83d dc28 ab3d
00000380: b0a7 98bd 415e 40bd a095 773c 039f 8b39
00000390: 3f3d 163d 908a 4dbd 7a8e 2a3d 0e9d ddbc
000003a0: a103 bebc c99b 39bd d8d2 d7bb 619c f3bd
000003b0: 4e6d 80bd ce33 9b3d 2efb 4ebe 13fd 52be
000003c0: 606f 13bc ee36 90bd 2ab9 2ebe 90a4 87bd
000003d0: 9ac2 45bd 5d7e ecbd 9caa 74bd 3c0e ef3d
000003e0: b860 b4bd 9056 8cbc ded9 043e 7069 853d
000003f0: 4306 88bd 5d25 413f 3284 b73e 327c b83e

bias f4 [6]
-0.18672645 0.05355007 0.14006752 -0.013515606 0.021609552 -0.10921595
00000000: 3835 3fbe 5157 5b3d dc6d 0f3e 8f70 5dbc
00000010: 8406 b13c 9dac dfbd

weight f4 [16, 6, 3, 3]
0.17157695 -0.036563564 -0.49678338 -0.064749196 -0.047181852 -0.07636731 0.18447413 -0.08641727
0.20290722 0.00127942 -0.034870505 -0.15259309 -0.16474901 0.027342295 -0.098478295 -0.10002485
0.06187593 -0.3498814 -0.21218328 0.07353676 -0.08201936 -0.22504155 -0.05351186 -0.047246967
-0.11246593 0.05242839 0.05427319 -0.10659317 0.033819515 -0.32554078 0.027895907 -0.115377314
-0.32880503 -0.30428568 0.063053146 -0.13065559 0.17158552 -0.044498675 -0.20220378 -0.09136733
0.03228099 -0.073696755 -0.18975163 0.17172016 0.25008568 -0.24301793 0.094660506 0.1746543
-0.41103005 -0.2748342 0.054519363 0.03186653 -0.08492484 0.15362537 0.12107769 0.13102338
-0.18224852 0.0076231416 -0.054699197 -0.10890033 0.089792036 -0.11014985 -0.14793178 -0.033159975
0.06691186 -0.07291308 0.014125784 -0.10244029 0.059006274 0.01656426 -0.0202365 0.0032308518
0.02370396 0.15090622 0.08681914 0.059804954 0.020164242 0.18944418 0.04748473 0.14539015
0.035212703 0.024269262 -0.04394773 0.13807899 -0.08817843 0.221172 -0.009495636 -0.21712977
0.08612372 -0.06197512 0.12667283 0.007967453 0.043765932 -0.051693648 0.11420596 0.14811869
0.022918163 0.115518644 0.065345444 -0.11152725 -0.16465016 0.007096529 -0.15594651 0.043808755
-0.26788154 0.028385073 -0.040025476 -0.015962014 -0.42228433 -0.00032885047 0.046902735 0.21913001
0.20867766 0.38868496 0.31482467 0.3480665 0.14746833 -0.086410314 0.036180288 0.13168474
0.16896804 -0.03779001 0.046483923 0.0022437556 -0.079153694 0.035824943 -0.17389342 0.0648604
0.046897452 -0.17238587 -0.30384734 -0.25563344 -0.11990052 -0.21587498 -0.34675097 -0.1674113
-0.16870527 0.20958489 0.0880198 0.10406534 0.034183506 -0.14096133 -0.0799875 0.092095084
-0.27809164 0.069126286 0.22905058 0.023191255 0.021129366 0.16999623 0.18932936 0.16571414
0.28739628 -0.017974097 -0.0740136 -0.048264362 -0.2806152 -0.10135001 -0.108055 -0.2436257
-0.1316934 -0.1792599 0.15213068 0.09895007 0.13886264 0.22054842 0.4299369 0.24739055
0.22067344 0.24620928 -0.17624591 -0.10942401 -0.07764663 -0.29729274 -0.13385803 -0.031726852
0.07505158 -0.017055225 0.2043403 0.097509205 0.06477609 0.14243071 0.047370955 -0.21364982
-0.2278444 -0.12442428 -0.000956673 0.00078440364 -0.03954731 -0.061487325 0.0041262205 -0.027137265
0.3049646 0.24728394 0.1144808 0.1609915 -0.026260551 -0.11936628 0.018350994 0.11552097
0.019039024 0.012343836 0.010479525 -0.043216795 0.14862505 -0.2568136 -0.19696787 -0.13118204
0.034571745 -0.12910046 0.0713173 0.12335986 0.22435823 0.0026199976 0.29136363 0.07026171
0.029909175 0.15262263 0.2605787 0.3581223 0.343236 0.12958689 0.074381 0.18485944
-0.053968206 -0.049456723 0.029077038 -0.022950737 0.27048287 0.14692146 0.03898311 0.088789254
0.110081375 -0.12563631 -0.09115915 -0.20483921 -0.16657211 -0.42460006 -0.046334203 -0.0906631
-0.28779554 0.18147409 -0.04373331 0.27137542 -0.028035043 0.029093064 -0.050571 0.14367056
-0.040416874 0.13258617 0.04056752 -0.008636168 -0.019138668 0.20486037 -0.02880403 0.19578217
00000000: deb1 2f3e adc3 15bd 645a febe 3a9b 84bd
00000010: c241 41bd 7766 9cbd c9e6 3c3e 8afb b0bd
00000020: e9c6 4f3e 36b2 a73a 60d4 0ebd 5d41 1cbe
00000030: f7b3 28be f3fc df3c fdae c9bd d4d9 ccbd
00000040: 9d71 7d3d a823 b3be 9346 59be 719a 963d
00000050: c4f9 a7bd 4b71 66be 412f 5bbd 0986 41bd
00000060: 8a54 e6bd 27bf 563d 914d 5e3d 854d dabd
00000070: 5586 0a3d 48ad a6be f585 e43c f14a ecbd
00000080: 2259 a8be 55cb 9bbe 0222 813d 94ca 05be
00000090: 1db4 2f3e 3e44 36bd 820e 4fbe cb1e bbbd
000000a0: 1239 043d 53ee 96bd 404e 42be 69d7 2f3e
000000b0: 3b0b 803e b1d9 78be 5edd c13d 94d8 323e
000000c0: 8872 d2be 11b7 8cbe b24f 5f3d 7b86 023d
000000d0: 13ed adbd f84f 1d3e 94f7 f73d fe2a 063e
000000e0: 5b9f 3abe 8ccb f93b 440c 60bd 2307 dfbd
000000f0: e3e4 b73d 3f96 e1bd 6e7b 17be c1d2 07bd
00000100: 1609 893d 7453 95bd d56f 673c 37cc d1bd
00000110: 90b0 713d c5b1 873c 04c7 a5bc b3bc 533b
00000120: cf2e c23c 2987 1a3e 3cce b13d 0af6 743d
00000130: 7b2f a53c a8fd 413e 597f 423d 28e1 143e
00000140: 323b 103d 55d0 c63c 8902 34bd 9464 0d3e
00000150: e596 b4bd ea7a 623e 9693 1bbc 4457 5ebe
00000160: a261 b03d a0d9 7dbd 86b6 013e ec89 023c
00000170: e843 333d b8bc 53bd d0e4 e93d 6dac 173e
00000180: dfbe bb3c 0a95 ec3d d5d3 853d 6668 e4bd
00000190: 0d9a 28be 008a e83b 71b0 1fbe cf70 333d
000001a0: c527 89be d087 e83c c1f1 23bd c5c2 82bc
000001b0: a735 d8be 9069 acb9 151d 403d 9e63 603e
000001c0: 99af 553e b701 c73e b330 a13e c635 b23e
000001d0: f001 173e e4f7 b0bd c831 143d 5dd8 063e
000001e0: f505 2d3e b3c9 1abd ed65 3e3d f90b 133b
000001f0: 551b a2bd 2dbd 123d 1e11 32be 88d5 843d
00000200: 8b17 403d ec85 30be e191 9bbe 63e2 82be
00000210: 678e f5bd 550e 5dbe 5889 b1be de6d 2bbe
00000220: 13c1 2cbe 6c9d 563e ba43 b43d 3520 d53d
00000230: 0104 0c3d 2b58 10be 7dd0 a3bd 599c bc3d
00000240: 0762 8ebe 1592 8d3d 3c8c 6a3e 96fb bd3c
00000250: 7e17 ad3c 7e13 2e3e 8edf 413e f8b0 293e
00000260: 9b25 933e 6a3e 93bc 7194 97bd dab0 45bd
00000270: ccac 8fbe 9890 cfbd f14b ddbd 0479 79be
00000280: a2da 06be e88f 37be 25c8 1b3e 56a6 ca3d
00000290: 0232 0e3e 72d7 613e b020 dc3e f353 7d3e
000002a0: 38f8 613e 491e 7c3e cf79 34be b219 e0bd
000002b0: 3205 9fbd c136 98be 1412 09be 04f4 01bd
000002c0: a5b4 993d 66b7 8bbc 953e 513e e8b2 c73d
000002d0: 54a9 843d 5bd9 113e 0c08 423d 05c7 5abe
000002e0: 0b50 69be 28d2 febd 3dc9 7aba 70a0 4d3a
000002f0: 5cfc 21bd 22da 7bbd 3f35 873b f84e debc
00000300: 5224 9c3e 0038 7d3e e974 ea3d f5da 243e
00000310: 5e20 d7bc 4f76 f4bd d354 963c 4296 ec3d
00000320: baf7 9b3c cd3d 4a3c 50b2 2b3c 1804 31bd
00000330: 2a31 183e 127d 83be f2b1 49be 9654 06be
00000340: 1a9b 0d3d e932 04be ce0e 923d 18a4 fc3d
00000350: 2abe 653e 44b4 2b3b 9d2d 953e 5fe5 8f3d
00000360: 1604 f53c 1b49 1c3e 926a 853e ce5b b73e
00000370: a1bc af3e 6db2 043e 1155 983d cb4b 3d3e
00000380: c40d 5dbd 2293 4abd f832 ee3c 2f03 bcbc
00000390: bb7c 8a3e 9472 163e c1ac 1f3d 24d7 b53d
000003a0: 5872 e13d cea6 00be a6b1 babd 5fc1 51be
000003b0: e191 2abe 2e65 d9be efc8 3dbd 93ad b9bd
000003c0: f059 93be 58d4 393e b321 33bd b8f1 8a3e
000003d0: bfa9 e5bc 9454 ee3c 8923 4fbd 601e 133e
000003e0: 2a8c 25bd abc4 073e 212a 263d b77e 0dbc
000003f0: b2c8 9cbc ebc6 513e 6ef6 ebbc 1f7b 483e

bias f4 [16]
0.045370404 -0.11802424 -0.09316091 -0.2467037 -0.13469721 -0.12838806 -0.03347081 -0.05684766
-0.030935457 -0.010853463 0.029447198 -0.06286523 -0.07897502 0.03987694 -0.04483189 0.19881122
00000000: 51d6 393d b1b6 f1bd 26cb bebd e59f 7cbe
00000010: 11ee 09be 2978 03be b018 09bd 18d9 68bd
00000020: 5b6c fdbc b9d2 31bc 403b f13c 7cbf 80bd
00000030: a8bd a1bd 0156 233d a5a1 37bd 2b95 4b3e

weight f4 [32, 16, 3, 3]
-0.20328242 0.022537457 0.0050671017 -0.101254225 0.17753603 0.079797015 0.030593682 -0.06780641
0.09348616 -0.10181847 -0.076512076 0.018953139 0.14957795 -0.115442134 -0.074737996 0.029188925
-0.13100076 -0.12839538 -0.06377439 0.052532095 0.11007928 -0.173792 -0.050934833 0.054069247
-0.154778 -0.062384944 0.22990501 0.053074304 -0.028439386 0.00014031882 0.06038225 -0.041930825
0.060755115 0.124027446 -0.05818915 0.17879793 0.14813541 0.13155724 0.061459042 0.029336972
-0.16280784 -0.076365955 -0.012769069 0.06507778 0.2027991 -0.15621981 -0.1094919 -0.12718709
-0.091006406 0.12763235 0.10516049 0.019718213 0.01184395 0.14671318 0.032542944 0.16422002
0.2234069 0.14381137 0.015219281 -0.32454306 -0.18684258 -0.023943521 -0.26133183 -0.101856
-0.09302328 0.03888237 -0.06313095 0.09075568 -0.069772065 -0.1908666 -0.12346821 -0.017010301
-0.14829503 -0.006010181 0.037031434 -0.02495437 -0.027664756 0.19102529 0.0897403 -0.02869658
0.18360995 0.13313994 0.15804723 -0.09610821 -0.06261289 -0.11623491 0.02465071 -0.029197348
-0.046715718 0.054055728 0.07544954 0.13106774 0.052864756 0.018699184 0.009246599 -0.11284011
0.042369854 0.06415122 0.1163215 0.12368723 0.17926925 -0.05679056 -0.08400656 0.062540494
0.12194795 -0.044913843 -0.08201361 -0.072971605 -0.09343361 -0.0058680004 -0.027225997 -0.18997361
-0.14626934 0.021805659 -0.11807624 0.08819205 0.12123545 -0.17569883 -0.101399764 0.16578516
-0.04232102 0.009350951 0.27697444 -0.01980483 -0.062040824 -0.014828569 0.10141375 -0.092731774
-0.07197632 0.08673287 -0.07280676 -0.14718501 0.17647925 -0.016353365 0.015800186 0.067132354
0.022587003 -0.18914285 0.058429606 -0.09437047 0.06102823 0.12745026 -0.13872893 -0.06759029
-0.07241843 -0.14407818 0.102154806 -0.117622055 -0.033911943 -0.10282891 0.022613278 -0.21225189
-0.04800656 -0.11896426 0.025915237 0.05704914 -0.057178378 -0.10108913 -0.043184772 -0.05325929
-0.17338721 -0.12886837 0.01218939 -0.11874521 -0.1760183 -0.027468938 0.036493614 -0.19642001
0.030403342 0.17022996 -0.083893195 0.19012095 0.18240076 0.22366685 0.30242854 0.122985125
0.24848177 0.15504111 0.17845418 0.15000914 0.0874691 -0.32667384 -0.35109627 0.077535115
0.014577401 -0.17102067 0.08297151 -0.08988841 -0.22121355 0.039829195 0.061382327 0.10969122
0.036360133 0.15677015 -0.028478542 -0.0037917697 0.03443546 0.010969264 0.028183857 0.044949424
0.027263146 -0.04852111 0.045871854 0.1568231 0.03915608 0.010713547 0.013977307 -0.152505
-0.0012248995 0.16828324 0.06814695 0.033694018 -0.06662654 -0.11763133 -0.11794856 -0.26441756
-0.31269082 -0.2500196 -0.26099244 -0.22278641 -0.12572809 -0.5054128 -0.1977783 -0.23861039
-0.56039584 0.00922608 0.11037885 0.035760347 0.057016253 0.052004315 0.010809979 0.064758524
-0.04320952 0.0154795 0.1920511 0.18782435 0.11666114 0.120859586 0.12717906 0.1347062
-0.028850446 0.17581017 0.14348266 0.051606953 0.13202934 0.0764123 0.13592418 0.07340813
0.13163893 0.13356422 0.039594192 0.13594636 0.06532345 -0.01883107 0.04736889 0.049277116
00000000: 4429 50be 79a0 b83c ee09 a63b 605e cfbd
00000010: 01cc 353e 9e6c a33d 9a9f fa3c 16de 8abd
00000020: ac75 bf3d 3486 d0bd 5db2 9cbd 9d43 9b3c
00000030: f62a 193e ed6c ecbd 3c10 99bd 9d1d ef3c
00000040: 1025 06be 147a 03be 269c 82bd e52b 573d
00000050: 3f71 e13d 88f6 31be 0ba1 50bd b777 5d3d
00000060: 207e 1ebe 5b87 7fbd 386c 6b3e 7164 593d
00000070: b7f9 e8bc 8c22 1339 6153 773d a8bf 2bbd
00000080: 5bda 783d 1a02 fe3d bf57 6ebd ce16 373e
00000090: cfb0 173e f1b6 063e 7abc 7b3d 1754 f03c
000000a0: 19b7 26be c165 9cbd 5b35 51bc 8047 853d
000000b0: 91aa 4f3e 16f8 1fbe 4a3d e0bd 553d 02be
000000c0: 9161 babd 0eb2 023e 625e d73d 1788 a13c
000000d0: 200d 423c fb3b 163e c04b 053d 4b29 283e
000000e0: c7c4 643e 4a43 133e 4b5a 793c 822a a6be
000000f0: a953 3fbe 3425 c4bc 49cd 85be e199 d0bd
00000100: fd82 bebd 1f43 1f3d cd4a 81bd 1dde b93d
00000110: a8e4 8ebd 8972 43be e7dc fcbd 3059 8bbc
00000120: a7da 17be 0df1 c4bb 46ae 173d 1b6d ccbc
00000130: 33a1 e2bc 229c 433e c3c9 b73d 1715 ebbc
00000140: 3f04 3c3e d655 083e 22d7 213e 62d4 c4bd
00000150: 303b 80bd 920c eebd 49f0 c93c 472f efbc
00000160: fb58 3fbd 8a69 5d3d 4a85 9a3d 9f36 063e
00000170: b788 583d 082f 993c 0c7f 173c b718 e7bd
00000180: 038c 2d3d b761 833d f739 ee3d bb4f fd3d
00000190: 5c92 373e 389d 68bd a20b acbd 3b15 803d
000001a0: d9bf f93d 94f7 37bd c0f6 a7bd 2372 95bd
000001b0: 1f5a bfbd 5b48 c0bb 0e09 dfbc 7188 42be
000001c0: a1c7 15be c8a1 b23c f5d1 f1bd 099e b43d
000001d0: 4b4a f83d 65ea 33be aeaa cfbd 96c3 293e
000001e0: ce58 2dbd bb34 193c 98cf 8d3e bd3d a2bc
000001f0: 851e 7ebd 87f3 72bc 03b2 cf3d 28ea bdbd
00000200: 5268 93bd 01a1 b13d b61b 95bd abb7 16be
00000210: fab6 343e 7ef7 85bc 646f 813c b07c 893d
00000220: 6108 b93c aaae 41be e253 6f3d 4e45 c1bd
00000230: bdf8 793d 5282 023e f50e 0ebe c76c 8abd
00000240: 1d50 94bd 3b89 13be 8a36 d13d d5e3 f0bd
00000250: 40e7 0abd f797 d2bd 7b3f b93c 8f58 59be
00000260: 87a2 44bd 89a3 f3bd 314c d43c 5cac 693d
00000270: e033 6abd d107 cfbd 84e2 30bd 6a26 5abd
00000280: 6b8c 31be 12f6 03be 02b6 473c b030 f3bd
00000290: 243e 34be 8a06 e1bc 547a 153d 5422 49be
000002a0: 6e10 f93c c350 2e3e 32d0 abbd 11af 423e
000002b0: 44c7 3a3e ec08 653e ead7 9a3e a0df fb3d
000002c0: 0172 7e3e 19c3 1e3e b1bc 363e ff9b 193e
000002d0: 0023 b33d cb41 a7be e4c2 b3be bbca 9e3d
000002e0: 0dd6 6e3c 0b20 2fbe f8ec a93d 6a17 b8bd
000002f0: ce85 62be f023 233d 096c 7b3d caa5 e03d
00000300: 5dee 143d 5b88 203e d54b e9bc 577f 78bb
00000310: 320c 0d3d 6eb8 333c d5e1 e63c e31c 383d
00000320: f656 df3c 12be 46bd 20e4 3b3d 3c96 203e
00000330: 2062 203d df87 2f3c 1301 653c 452a 1cbe
00000340: cf8c a0ba 7152 2c3e a190 8b3d bd02 0a3d
00000350: 7f73 88bd b2e8 f0bd 048f f1bd bd61 87be
00000360: 0319 a0be 9202 80be cda0 85be 1f22 64be
00000370: ddbe 00be bc62 01bf 6586 4abe 4856 74be
00000380: 1a76 0fbf fc28 173c 4e0e e23d 7179 123d
00000390: e089 693d 7a02 553d 571c 313c 1ea0 843d
000003a0: 77fc 30bd bb9d 7d3c 0ba9 443e 0755 403e
000003b0: 09ec ee3d 3b85 f73d 3a3b 023e 6cf0 093e
000003c0: c557 ecbc 9507 343e 1eed 123e d061 533d
000003d0: b332 073e 0d7e 9c3d b52f 0b3e 0057 963d
000003e0: 5bcc 063e 0fc5 083e 852d 223d 8635 0b3e
000003f0: 4dc8 853d 9e43 9abc e205 423d cdd6 493d

bias f4 [32]
-0.07656056 -0.09885943 -0.05728503 -0.0065968926 -0.1437944 -0.08059895 -0.08203097 -0.007193746
-0.0062943874 -0.020598825 -0.117572516 -0.015276827 -0.015761813 -0.057597686 -0.021826249 -0.0058676735
-0.04182074 -0.0027321533 -0.11803592 -0.008263327 -0.02206902 -0.066974394 -0.01130218 -0.036865678
-0.038649287 -0.044030003 -0.034542713 -0.01214585 -0.02232378 -0.00037614538 -0.019186027 0.009105469
00000000: c8cb 9cbd d076 cabd b5a3 6abd bf2a d8bb
00000010: d73e 13be 1011 a5bd daff a7bd 84b9 ebbb
00000020: 2641 cebb debe a8bc dcc9 f0bd a84b 7abc
00000030: eb1e 81bc 8deb 6bbd f6cc b2bc 9d45 c0bb
00000040: 394c 2bbd ed0d 33bb d1bc f1bd e862 07bc
00000050: 17ca b4bc df29 89bd c72c 39bc 7700 17bd
00000060: b74e 1ebd ce58 34bd a97c 0dbd 63ff 46bc
00000070: 5ce0 b6bc 6135 c5b9 042c 9dbc 1b2f 153c

weight f4 [5, 16928]
0.09801515 0.07470446 0.07527115 0.14857031 -0.0067313868 -0.09050678 0.08479281 -0.058258645
0.03687124 0.04021045 0.0359976 0.12202416 -0.15807036 -0.104144536 -0.16787486 0.15940294
0.13253157 -0.2756746 0.16279927 0.12591578 0.03091085 -0.02142093 -0.059110027 -0.000733127
-0.017445983 -0.06815193 -0.11363288 -0.028090348 -0.033933446 0.08401778 -0.0050464165 0.028443303
0.08305218 0.08992339 0.14160252 -0.065077215 0.05484687 0.010823162 0.06641937 -0.005216015
-0.16851284 0.05518224 0.1414377 -5.8034624e-05 0.08720003 0.04347127 -0.03773281 0.08542324
-0.0515311 -0.1021888 -0.04246182 0.0062959217 0.07636402 0.052186083 0.121867426 -0.009245035
0.048372503 0.20821425 0.11784491 -0.052534524 0.11370676 0.056520697 -0.11092088 0.004251246
0.020881047 -0.09693815 -0.11736487 0.035562146 -0.074471906 0.07636655 -0.0932449 -0.017167633
-0.129347 -0.10062563 0.1400137 -0.039242975 0.029608244 -0.0950749 0.10434767 0.020366484
-0.08965071 0.22211795 0.09392161 -0.06012774 0.0074283183 0.043137737 -0.06035188 -0.2795804
0.05928157 -0.15475427 0.044414278 -0.18099059 -0.06291281 0.05444658 0.070001125 0.07291279
0.043595076 -0.065916486 -0.04784005 0.09743946 0.011137825 0.00037334644 0.025789214 0.013135372
-0.013155302 0.027514068 0.109096475 0.20707309 0.07411125 -0.03657832 0.014337342 -0.07667604
-0.17185366 -0.06567837 -0.0024908686 0.17832066 -0.08868932 0.0672697 -0.013243194 0.15464036
-0.05747478 -0.04318527 -0.009832417 0.055253852 0.02253643 0.082317375 0.13369575 0.022145782
-0.085008904 0.05885333 -0.09260157 0.13901484 0.12468052 0.031202754 0.15612258 0.15165158
-0.085332796 -0.1557145 0.0917311 0.09713868 -0.03711439 -0.14405699 0.029106688 0.08335459
-0.07495668 -0.052440144 0.026521752 -0.1646688 -0.044460297 0.25648138 -0.07412307 -0.20458998
0.11973215 0.071072534 0.110029384 0.040695623 0.002737485 -0.105775684 -0.044945188 -0.09494043
-0.27852386 -0.017089888 -0.058733437 0.042227972 -0.00028792978 -0.05611878 -0.016909828 -0.10855315
-0.004807895 -0.07534271 -0.022187985 -0.10227349 -0.018537952 0.01940011 -0.23729666 0.008673208
0.0014132231 -0.011661078 0.035874423 0.062449414 -0.05685501 0.07203821 0.04083019 -0.012655199
0.06978165 0.26125234 -0.0011246359 0.03266619 0.024555333 0.13320936 0.04035527 0.072599106
-0.1874714 0.031728204 -0.13081089 -0.07728789 0.023641486 -0.22228698 0.048881754 0.18626627
0.2558582 0.06210495 0.051212754 -0.024840917 -0.05891541 -0.080104895 -0.09379932 0.36342922
-0.12690863 -0.018064234 -0.112246916 0.060181424 0.0050133453 0.04395978 -0.039565757 0.007893952
-0.035216372 0.0122322785 -0.0040190206 -0.050557222 0.08884461 0.14067104 -0.020795997 0.026135625
0.044386383 -0.10518969 -0.04185522 -0.13160552 0.010581761 -0.051793598 -0.012820145 -0.18980451
-0.027259212 -0.09069733 0.01982729 0.11163215 0.0319129 0.07496018 0.043899123 0.036665197
0.07741828 -0.08064928 0.12943532 -0.10563158 0.18076137 -0.04339221 0.038072452 0.015481206
0.0873832 -0.029908376 0.11240198 -0.2362863 -0.0620741 -0.012271746 0.0038278503 -0.07017989
00000000: 2bbc c83d a7fe 983d c327 9a3d d122 183e
00000010: f792 dcbb 9e5b b9bd daa7 ad3d 9ea0 6ebd
00000020: 4c06 173d b6b3 243d 3872 133d cee7 f93d
00000030: 32dd 21be bb49 d5bd 63e7 2bbe 863a 233e
00000040: 5bb6 073e 3925 8dbe dab4 263e 11f0 003e
00000050: c038 fd3c f27a afbc 5b1d 72bd 522f 40ba
00000060: e1ea 8ebc 3d93 8bbd 5bb8 e8bd bb1d e6bc
00000070: ccfd 0abd 8411 ac3d 695c a5bb ee01 e93c
00000080: 4317 aa3d c129 b83d 4000 113e 3447 85bd
00000090: 1da7 603d a253 313c e106 883d 1beb aabb
000000a0: a18e 2cbe c606 623d 0bd5 103e 346a 73b8
000000b0: ee95 b23d ee0e 323d b88d 1abd 61f2 ae3d
000000c0: 4612 53bd 5d48 d1bd 72ec 2dbd 054e ce3b
000000d0: bd64 9c3d 13c1 553d a195 f93d 7d78 17bc
000000e0: 3f22 463d 1e36 553e ac58 f13d 712e 57bd
000000f0: 17df e83d 3f82 673d 7d2a e3bd 094e 8b3b
00000100: bb0e ab3c 8287 c6bd fe5c f0bd 9da9 113d
00000110: ba84 98bd 1166 9c3d 2ff7 bebd 23a3 8cbc
00000120: 8a73 04be cf14 cebd c05f 0f3e 3ebd 20bd
00000130: fd8c f23c a1b6 c2bd 3bb4 d53d 9dd7 a63c
00000140: cb9a b7bd e372 633e f959 c03d 8148 76bd
00000150: 4069 f33b 32b1 303d 8833 77bd 2a25 8fbe
00000160: 3bd1 723d e777 1ebe bfeb 353d 9955 39be
00000170: 6ed8 80bd 6103 5f3d c05c 8f3d 4d53 953d
00000180: c090 323d 39ff 86bd eef3 43bd 578e c73d
00000190: 6d7b 363c b6bd c339 e743 d33c be35 573c
000001a0: 5689 57bc 2f65 e13c f96d df3d f80a 543e
000001b0: a4c7 973d 26d3 15bd 2ce7 6a3c 5408 9dbd
000001c0: 68fa 2fbe 6282 86bd d73d 23bb b199 363e
000001d0: bfa2 b5bd b2c4 893d fbf9 58bc 0b5a 1e3e
000001e0: ad6a 6bbd 0ae3 30bd 2518 21bc dd51 623d
000001f0: 529e b83c 0396 a83d 8ae7 083e 126b b53c
00000200: 2619 aebd 3010 713d e4a5 bdbd e859 0e3e
00000210: 8058 ff3d eb9c ff3c 99de 1f3e 8d4a 1b3e
00000220: f6c2 aebd 9f73 1fbe 84dd bb3d a5f0 c63d
00000230: 4205 18bd ad83 13be 2671 ee3c d0b5 aa3d
00000240: e382 99bd 7acb 56bd 2544 d93c f09e 28be
00000250: 001c 36bd 8751 833e d6cd 97bd 0980 51be
00000260: 2136 f53d 7a8e 913d 1657 e13d 74b0 263d
00000270: 6167 333b eca0 d8bd 7218 38bd 2170 c2bd
00000280: ae9a 8ebe 1800 8cbc 7992 70bd 3df7 2c3d
00000290: 48f5 96b9 cedc 65bd 7b86 8abc 1d51 debd
000002a0: 8c8b 9dbb 474d 9abd 94c3 b5bc c374 d1bd
000002b0: e7dc 97bc fbec 9e3c e5fd 72be 121a 0e3c
000002c0: e63b b93a 1b0e 3fbc 0ff1 123d f5ca 7f3d
000002d0: cde0 68bd c588 933d 8f3d 273d c057 4fbc
000002e0: afe9 8e3d dec2 853e 8568 93ba fccc 053d
000002f0: 4428 c93c 0968 083e 914b 253d d7ae 943d
00000300: 81f8 3fbe 6ff5 013d 4af3 05be 1d49 9ebd
00000310: caab c13c 339f 63be 3c38 483d 96bc 3e3e
00000320: d9ff 823e c361 7e3d 77c4 513d 2e7f cbbc
00000330: 4951 71bd 090e a4bd dc19 c0bd 6513 ba3e
00000340: 56f4 01be 72fb 93bc b6e1 e5bd cc80 763d
00000350: fd46 a43b 2c0f 343d b40f 22bd a255 013c
00000360: 0b3f 10bd e569 483c fdb1 83bb 1715 4fbd
00000370: 2af4 b53d 120c 103e 5e5c aabc 611a d63c
00000380: 7fce 353d b16d d7bd 6170 2bbd 99c3 06be
00000390: 1f5f 2d3c 8625 54bd 960b 52bc 1d5c 42be
000003a0: b64e dfbc 86bf b9bd d76c a23c 669f e43d
000003b0: 1ab7 023d b984 993d 91cf 333d 3f2e 163d
000003c0: 7a8d 9e3d 732b a5bd b18a 043e 5f55 d8bd
000003d0: 8219 393e 08bc 31bd dcf1 1b3d e2a4 7d3c
000003e0: f7f5 b23d 6902 f5bc 0233 e63d 09f5 71be
000003f0: 6941 7ebd 6f0f 49bc acdc 7a3b 79ba 8fbd

bias f4 [5]
0.025987051 -0.060572952 -0.058679905 -0.058583356 -0.059377324
00000000: cce2 d43c 581b 78bd 575a 70bd 1af5 6fbd
00000010: a335 73bd
